ch-04/logs/lightning_logs/version_0/checkpoints/epoch=99-step=3500.ckpt (torch, 48200 bytes, 27 tensors)

fc1.weight f4 [30, 30]
0.0984791 -0.15832303 -0.01310392 0.25141114 -0.06703291 0.01570739 -0.45766008 -0.040543403
0.19731538 -0.34726942 0.348252 0.05925825 -0.16667876 0.13346697 -0.49304917 -0.06296822
0.07660827 -0.75853205 -0.99909365 -0.21014515 -0.6164998 0.42470336 0.38250783 0.114671215
0.091744244 0.044967007 0.35962176 0.45579877 0.39465785 0.2647648 0.0389067 -0.34552035
0.10417864 0.22562496 -0.37563568 -0.16082245 -0.21285728 -0.19643444 0.06242646 -0.2347239
0.14799018 -0.0946323 -0.25127786 -0.5275351 -0.030019451 -0.11356034 0.035104487 -0.5664113
0.25918934 -0.35958698 -0.33059436 -0.22616833 -0.25352612 0.26652336 0.2628836 0.3157493
0.49569684 0.64477706 1.2911043 0.52499706 0.01149555 -0.12461422 0.056297112 -0.062875316
0.0559437 -0.038037777 0.15142554 -0.10821207 -0.108886875 -0.10889345 0.16421503 0.06084305
0.17568214 -0.15067413 -0.18109097 -0.14283943 -0.12281566 0.07394987 0.06537541 0.15170534
-0.09428594 -0.12446298 0.09686987 -0.0737973 0.11080862 -0.04332497 0.104440816 -0.1418543
-0.09213602 0.05566257 0.033177607 -0.046548884 0.10340662 0.118701704 -0.13781393 -0.10287816
0.16175912 -0.06702248 -0.07013315 -0.18207793 -0.109962404 0.0456077 -0.02951248 -0.13794194
-0.0011313553 -0.13013335 -0.16031562 -0.10595495 -0.16519868 -0.121671386 0.18250278 0.029076086
0.05626201 -0.17570253 -0.12532593 -0.06618479 0.028549328 -0.16065091 -0.07866629 -0.109301426
0.00050596026 -0.06793644 -0.012651618 -0.12371769 -0.12531804 -0.1065141 -0.062494673 -0.14410232
0.15308295 -0.03623441 0.15708624 0.056886844 -0.15460327 0.12634777 -0.05023434 -0.06998544
-0.15154944 -0.18150806 0.052236415 -0.039882213 0.07108035 -0.14983197 0.1355484 -0.13401926
-0.031525694 0.038134214 0.09425425 0.14739403 0.16631764 -0.1447671 0.045947943 -0.078529894
-0.020007357 -0.13665497 0.16629927 -0.1340004 0.097577 0.0641638 0.059328564 -0.09870803
0.16595109 0.04012075 0.023486353 -0.16089438 0.076642536 -0.027389888 -0.08364166 0.15682146
0.040704694 -0.10101399 -0.0924079 -0.008718961 0.10194235 -0.046653878 -0.104172245 -0.06252123
-0.13639657 0.06511188 0.14131977 -0.1718827 0.04355228 0.919408 0.08417099 0.18987778
0.33935878 -0.02812521 0.5721835 -0.48925903 0.28437316 0.18816927 -0.15947384 -1.1414628
0.5183305 -0.78561306 1.0702335 -0.10129863 -0.011840404 0.32150495 2.2608004 0.2863332
0.12296434 -0.43894535 -1.2456254 -0.04355997 0.21249568 0.24330853 -0.29151422 -0.20912817
1.2688739 0.046849623 0.061824117 -0.32114705 -0.12798461 0.00830696 -0.30238494 0.1623662
0.0060173157 0.35950997 -0.030555306 -0.14322269 -0.048883326 0.014624522 -0.18120944 0.3024387
-0.46597984 0.040052656 0.06333766 -0.05876528 -0.8098658 -0.11846383 0.23126936 -0.12162415
0.5594258 0.045902226 0.068171956 0.062661596 -0.20511448 -0.20889549 -0.7424502 -0.24566905
-0.040597443 0.69747955 -0.13399214 -0.3000518 0.31115097 0.12324419 -0.09944832 -0.06599662
-0.088138394 0.15995161 -0.3246916 -0.48800698 0.22591917 -0.06331747 0.37516826 -0.22948726
00000000: 69af c93d 6f1f 22be d3b1 56bc f6b8 803e
00000010: 8d48 89bd c9ac 803c 6c52 eabe d710 26bd
00000020: 0b0d 4a3e 4ccd b1be 164e b23e c7b8 723d
00000030: d6ad 2abe 91ab 083e f170 fcbe 7bf5 80bd
00000040: cce4 9c3d 282f 42bf 9ac4 7fbf 4a30 57be
00000050: eed2 1dbf b872 d93e 11d8 c33e bed8 ea3d
00000060: 68e4 bb3d 532f 383d 5820 b83e 755e e93e
00000070: 9810 ca3e 408f 873e a25c 1f3d 0be8 b0be
00000080: 9c5b d53d 3b0a 673e 5253 c0be a4ae 24be
00000090: 42f7 59be 1c26 49be e3b2 7f3d 765b 70be
000000a0: bd8a 173e 94ce c1bd 7ea7 80be 8a0c 07bf
000000b0: 5aeb f5bc 5392 e8bd b9c9 0f3d 5500 11bf
000000c0: 77b4 843e c91b b8be aa43 a9be ac98 67be
000000d0: 2dce 81be c075 883e ae98 863e e4a9 a13e
000000e0: facb fd3e 1c10 253f e842 a53f 3566 063f
000000f0: d557 3c3c bd35 ffbd cd97 663d c6c4 80bd
00000100: 3925 653d 80cd 1bbd 4c0f 1b3e 4a9e ddbd
00000110: 1500 dfbd 8703 dfbd fc27 283e 9036 793d
00000120: 05e6 333e 524a 1abe e96f 39be 8044 12be
00000130: c786 fbbd 0873 973d 8be3 853d a558 1b3e
00000140: fd18 c1bd 72e6 febd b663 c63d 0a23 97bd
00000150: a1ef e23d 8675 31bd 11e5 d53d 4142 11be
00000160: cfb1 bcbd 6ffe 633d 3ee5 073d 0baa 3ebd
00000170: dac6 d33d e119 f33d 181f 0dbe c9b1 d2bd
00000180: 2fa4 253e 1543 89bd f8a1 8fbd a372 3abe
00000190: f833 e1bd 24cf 3a3d 28c4 f1bc a740 0dbe
000001a0: fc49 94ba ad41 05be c729 24be e9fe d8bd
000001b0: d829 29be d92e f9bd 02e2 3a3e f930 ee3c
000001c0: fe72 663d 5deb 33be 7155 00be e48b 87bd
000001d0: 48e0 e93c ac81 24be cb1b a1bd 6dd9 dfbd
000001e0: 6ba2 043a 4322 8bbd bb48 4fbc b35f fdbd
000001f0: 5f53 00be 1124 dabd 6afa 7fbd 8f8f 13be
00000200: c7c1 1c3e 886a 14bd 37db 203e 2e02 693d
00000210: 5250 1ebe 4f61 013e 86c2 4dbd 8754 8fbd
00000220: c72f 1bbe 40dd 39be daf5 553d 885b 23bd
00000230: 9392 913d 8d6d 19be 33cd 0a3e 583c 09be
00000240: 1621 01bd 9f32 1c3d 5f08 c13d 76ee 163e
00000250: 2c4f 2a3e d43d 14be e933 3c3d 48d4 a0bd
00000260: 78e6 a3bc 48ef 0bbe 5b4a 2a3e 6737 09be
00000270: 73d6 c73d 4f68 833d 8202 733d 7027 cabd
00000280: 15ef 293e a855 243d 7466 c03c 7fc1 24be
00000290: c3f6 9c3d c260 e0bc 524c abbd ce95 203e
000002a0: f7b9 263d 6ce0 cebd 5a40 bdbd f9d9 0ebc
000002b0: 27c7 d03d 2318 3fbd 4258 d5bd 210b 80bd
000002c0: 8bab 0bbe 6159 853d 21b6 103e 0502 30be
000002d0: e063 323d 535e 6b3f d761 ac3d 526f 423e
000002e0: 6fc0 ad3e d766 e6bc 9e7a 123f 2980 fabe
000002f0: 5c99 913e 72af 403e 1c4d 23be 741b 92bf
00000300: 4fb1 043f f01d 49bf 69fd 883f a875 cfbd
00000310: 41fe 41bc 4c9c a43e f4b0 1040 449a 923e
00000320: bad4 fb3d 72bd e0be a770 9fbf f06b 32bd
00000330: 7898 593e df25 793e 5a41 95be b225 56be
00000340: 766a a23f 64e5 3f3d 493b 7d3d 636d a4be
00000350: 660e 03be ea19 083c 33d2 9abe 5343 263e
00000360: e72c c53b b111 b83e 1f4f fabc f8a8 12be
00000370: e239 48bd b19b 6f3c f88e 39be 3fd9 9a3e
00000380: e994 eebe 410e 243d 2db7 813d ddb3 70bd
00000390: 5d53 4fbf 2a9d f2bd e0d1 6c3e 1516 f9bd
000003a0: 8736 0f3f f903 3c3d bd9d 8b3d b954 803d
000003b0: 8809 52be b3e8 55be 3711 3ebf ab90 7bbe
000003c0: 8149 26bd 058e 323f 3c35 09be 64a0 99be
000003d0: 2e4f 9f3e 7367 fc3d 90ab cbbd 3c29 87bd
000003e0: e781 b4bd 5bca 233e fa3d a6be 0ddc f9be
000003f0: 5b57 673e 97ac 81bd 0e16 c03e b5fe 6abe

fc1.bias f4 [30]
-0.006258879 -0.033394385 0.16486004 -0.0048245294 0.036819898 0.06331028 0.17743726 -0.04198813
0.09704647 -0.117366165 -0.10785025 0.14442082 0.12773027 0.080576785 0.23905957 -0.074090034
0.082013 0.3325138 0.09986655 0.0034041612 0.06607183 0.19077866 -0.25005966 0.2876132
0.08896062 -0.033775937 -0.057545874 0.12522401 -0.21548662 -0.5189926
00000000: 4817 cdbb 8dc8 08bd 12d1 283e 1617 9ebb
00000010: 76d0 163d d2a8 813d 1db2 353e bffb 2bbd
00000020: 4dc0 c63d ac5d f0bd 98e0 dcbd 0de3 133e
00000030: b9cb 023e 7105 a53d 08cc 743e 84bc 97bd
00000040: 6ff6 a73d 403f aa3e d586 cc3d 5918 5f3b
00000050: ab50 873d 7b5b 433e d207 80be 0a42 933e
00000060: fc30 b63d a358 0abd 39b5 6bbd b93a 003e
00000070: 86a8 5cbe b3dc 04bf

fc2.weight f4 [30, 30]
0.13497972 -0.04552256 -0.13061544 -0.1021765 -0.050617896 -0.08663122 -0.31839514 0.023163356
0.013464143 0.026565801 -0.15041414 -0.067724854 -0.07884335 -0.059413098 -0.22371298 0.039331786
-0.17612845 -0.21079253 -0.15895163 -0.1624104 -0.19758159 -0.11750849 0.07803029 -0.03194077
0.07942711 -0.21961689 -0.13092391 -0.07731131 0.088239476 -0.026566897 -0.15394372 -0.01466609
-0.14180005 -0.045421794 -0.050203346 0.15804747 0.042848766 -0.04857529 -0.00084165623 -0.01140432
0.050138958 0.044445902 0.033135638 -0.07658301 0.15877232 -0.026358228 -0.10213419 0.08851722
0.11412278 0.1599938 -0.043738138 -0.06411374 0.06258821 0.12948222 -0.18138711 -0.042146552
-0.12450929 0.015117067 0.046917107 -0.047803137 0.0012654868 0.09684507 -0.030685192 -0.14790206
0.14608417 -0.091892235 -0.10807639 0.0030275523 -0.032566026 -0.20955242 0.059234098 -0.07792878
-0.10415343 0.051628843 -0.059030037 -0.084378414 -0.079324484 -0.078492135 -0.102191135 0.078183785
-0.01944553 -0.12740377 -0.18886095 -0.0109801 0.06497317 0.061965417 -0.12824813 0.055818867
0.06638414 0.09422794 -0.16391957 -0.07870896 -0.15693448 -0.11553503 0.101690695 -0.027261805
0.14287405 -0.12957549 0.04475817 -0.15537158 0.08839496 -0.073498614 -0.051958214 -0.15840708
-0.051009294 0.17335057 0.09355455 -0.09665794 0.021793399 -0.06855935 -0.047229648 0.14079985
0.06173835 0.046523657 -0.018409511 -0.044221327 0.03010458 0.049167097 0.036999293 -0.08521823
0.13041186 0.0033532758 -0.11181118 -0.08539225 0.17972982 8.792874e-06 0.007653289 -0.11656747
-0.0511983 -0.16531236 -0.16603433 0.103384376 0.14370795 0.17423062 -0.21745823 0.09874767
-0.13196734 0.04479924 0.15082635 0.06809501 0.15742156 0.088404395 -0.016147684 0.041671213
-0.10864857 0.03736582 -0.0586797 -0.018366173 -0.25343332 -0.0665131 -0.11199568 -0.07805982
-0.11658941 -0.15879522 0.011888596 0.118486844 0.16977003 0.05757213 -0.08645995 -0.20887735
0.039532594 0.10648849 -0.14172535 0.072677135 0.11735019 0.011059715 -0.115185946 0.14371535
0.11901781 0.06783265 -0.03396891 0.07497579 -0.13341041 0.19491322 -0.114807926 0.040175106
0.03655894 0.009769513 -0.0628077 0.0237879 -0.106375545 -0.22534846 -0.07014556 0.14305392
-0.048066244 0.057386428 -0.17624988 0.10613514 0.08360119 0.0536305 -0.10330779 -0.14006345
-0.00050482573 -0.10710856 0.11682248 -0.17544937 0.0471109 0.124673784 0.06647101 0.16235685
-0.18059611 0.14951849 -0.037078056 -0.1993088 0.12974568 -0.0702427 -0.012916688 0.14181797
-0.15762816 -0.15779322 0.06677137 -0.005670613 0.042054463 -0.15312594 0.0054601785 -0.08120164
-0.040042136 -0.12924792 0.11277956 0.05720214 -0.13456136 0.17923388 0.056674417 0.03387905
-0.12851524 0.027533012 0.19626448 0.10261133 -0.0932727 0.17543542 0.12896621 0.11287733
0.0064675035 0.17330292 -0.16546571 0.12094369 -0.123999804 0.030101772 -0.1027942 -0.0332285
-0.011336665 -0.03209415 -0.028842323 0.014399723 0.1800946 0.10607771 0.057682324 0.068762794
0.18851393 0.07720647 0.012115411 0.08730615 -0.14149667 -0.1470739 -0.017536787 -0.071432196
00000000: 2038 0a3e dd75 3abd 0ec0 05be ea41 d1bd
00000010: b654 4fbd b66b b1bd b004 a3be 14c1 bd3c
00000020: b598 5c3c 86a0 d93c 2a06 1abe 54b3 8abd
00000030: 9f78 a1bd 265b 73bd 0415 65be 5e1a 213d
00000040: 045b 34be ffd9 57be 37c4 22be e94e 26be
00000050: d452 4abe 4ba8 f0bd 58ce 9f3d 53d4 02bd
00000060: aeaa a23d 40e3 60be eb10 06be 6455 9ebd
00000070: e6b6 b43d d2a2 d9bc 6ca3 1dbe 0a4a 70bc
00000080: 0834 11be 340c 3abd 06a2 4dbd 32d7 213e
00000090: 3082 2f3d e2f6 46bd 98a2 5cba 2fd9 3abc
000000a0: 825e 4d3d e80c 363d 3cb9 073d 8ed7 9cbd
000000b0: 3695 223e 36ed d7bc bb2b d1bd 8448 b53d
000000c0: 34b9 e93d 6ad5 233e c326 33bd 114e 83bd
000000d0: 3f2e 803d fd96 043e 8bbd 39be dda1 2cbd
000000e0: bafe febd 93ad 773c 272c 403d 39cd 43bd
000000f0: b1de a53a b556 c63d 835f fbbc a373 17be
00000100: 1797 153e ff31 bcbd 2857 ddbd e669 463b
00000110: f463 05bd e994 56be 749f 723d 2099 9fbd
00000120: 654e d5bd c478 533d 7bc9 71bd 97ce acbd
00000130: e074 a2bd 7cc0 a0bd 9649 d1bd d21e a03d
00000140: 3b4c 9fbc 2276 02be c464 41be e1e5 33bc
00000150: a710 853d 73cf 7d3d 7a53 03be 53a2 643d
00000160: 68f4 873d 94fa c03d 88da 27be 2a32 a1bd
00000170: 6fb3 20be a19d ecbd 3643 d03d 2654 dfbc
00000180: 934d 123e 70af 04be 5854 373d ba19 1fbe
00000190: 6b08 b53d 7186 96bd 23d2 54bd 7735 22be
000001a0: 1fef 50bd d082 313e 8799 bf3d 99f4 c5bd
000001b0: 1288 b23c d868 8cbd e073 41bd d62d 103e
000001c0: 5ae1 7c3d 978f 3e3d 8bcf 96bc 6c21 35bd
000001d0: e19d f63c 7063 493d 928c 173d e586 aebd
000001e0: b08a 053e a2c2 5b3b 43fd e4bd 22e2 aebd
000001f0: 180b 383e 1b85 1337 71c8 fa3b edba eebd
00000200: 4fb5 51bd a547 29be e704 2abe 30bb d33d
00000210: 2d28 133e 8369 323e 5fad 5ebe 383c ca3d
00000220: 7222 07be 687f 373d 3972 1a3e 6675 8b3d
00000230: 1e33 213e 5d0d b53d 2648 84bc 6faf 2a3d
00000240: 2483 debd e70c 193d 205a 70bd a874 96bc
00000250: 03c2 81be 0538 88bd fe5d e5bd d4dd 9fbd
00000260: 6ec6 eebd 379b 22be 63c8 423c 3ba9 f23d
00000270: 32d8 2d3e c1d0 6b3d ea11 b1bd f2e3 55be
00000280: eeec 213d a316 da3d 7320 11be c0d7 943d
00000290: 4c55 f03d cf33 353c 9ce6 ebbd 1e2a 133e
000002a0: 9cbf f33d d8eb 8a3d fc22 0bbd e88c 993d
000002b0: bd9c 08be 5597 473e 6b20 ebbd a78e 243d
000002c0: d4be 153d 4f10 203c 53a1 80bd d8de c23c
000002d0: 6cdb d9bd bfc1 66be 7aa8 8fbd ba7c 123e
000002e0: 1ce1 44bd 080e 6b3d d97a 34be 615d d93d
000002f0: 1a37 ab3d a8ab 5b3d 0993 d3bd cb6c 0fbe
00000300: 4856 04ba bc5b dbbd a040 ef3d 00a9 33be
00000310: 5cf7 403d f854 ff3d f421 883d e040 263e
00000320: 30ee 38be 601b 193e 29df 17bd 9b17 4cbe
00000330: 0ddc 043e 68db 8fbd 84a0 53bc bb38 113e
00000340: 4769 21be 8c94 21be 6ebf 883d 8dd0 b9bb
00000350: 4d41 2c3d 0ccd 1cbe 4ceb b23b 0c4d a6bd
00000360: 3903 24bd 9159 04be f8f8 e63d cb4c 6a3d
00000370: 74ca 09be 1689 373e 6f23 683d c2c4 0a3d
00000380: 8099 03be e98c e13c 8ef9 483e e425 d23d
00000390: c205 bfbd 58a5 333e b80f 043e 3b2c e73d
000003a0: 5aed d33b 5276 313e d86f 29be 53b1 f73d
000003b0: 9cf3 fdbd fe97 f63c c485 d2bd 9c1a 08bd
000003c0: 6bbd 39bc 2875 03bd bc46 ecbc d1ec 6b3c
000003d0: b86a 383e 453f d93d 4d44 6c3d 82d3 8c3d
000003e0: cc09 413e 6d1e 9e3d b87f 463c 91cd b23d
000003f0: 81e4 10be 8a9a 16be 4fa9 8fbc 0b4b 92bd

fc2.bias f4 [30]
-0.2542719 -0.10122639 -0.25787464 -0.052329656 0.14136578 0.021586195 -0.114710644 0.22473225
0.18129642 -0.09427541 -0.32197466 0.13115704 -0.12734914 -0.28184962 -0.07199683 -0.0974949
0.11663809 0.106838815 -0.055881236 0.07325553 0.067528 -0.25434637 0.39120567 0.22363995
0.066464886 -0.045865074 -0.07604255 -0.32045984 -0.19257475 -0.22351381
00000000: ed2f 82be c84f cfbd 2508 84be 9f57 56bd
00000010: 31c2 103e 88d5 b03c 6aed eabd 3620 663e
00000020: c5a5 393e 7713 c1bd ddd9 a4be 084e 063e
00000030: d067 02be 984e 90be 1373 93bd 68ab c7bd
00000040: f3df ee3d 4fce da3d b9e3 64bd ff06 963d
00000050: 1f4c 8a3d b039 82be 1c4c c83e df01 653e
00000060: be1e 883d 04dd 3bbd 32bc 9bbd 5013 a4be
00000070: 5132 45be cee0 64be

fc3.weight f4 [30, 30]
0.05957398 -0.1344602 0.123134404 0.14662817 -0.10511953 0.12835294 0.03294605 0.049652904
0.1412214 0.15871125 0.12369621 0.12563558 0.073830366 0.0914746 -0.1680648 0.036606535
-0.12765996 0.019992717 0.018782504 0.0065786787 -0.123165645 -0.06932667 0.17138553 0.0880752
0.13387263 -0.058537196 -0.05090145 -0.042768355 0.11881422 -0.055773977 0.04095118 0.056603357
-0.19194955 -0.070452385 -0.100399114 -0.11881502 0.074418776 -0.048718065 0.096548885 -0.13948718
0.0013672666 -0.23331153 -0.12375221 0.053743172 0.083943635 0.091665305 -0.14791848 -0.03366643
-0.11863751 -0.09147637 -0.18047056 -0.14212544 0.09552044 -0.17453 -0.18427013 -0.00467546
0.00149044 -0.074205466 0.096544005 -0.14588517 -0.10250379 -0.16694528 -0.0810435 -0.06959329
0.087694764 -0.046372615 0.055664152 -0.10281645 0.12212085 0.09925193 -0.16612197 -0.105801225
-0.17874412 -0.05433499 -0.1716896 -0.11023518 0.14325768 -0.23512754 0.08614856 -0.019285541
0.15344232 -0.13043226 0.09153227 -0.02416939 0.03314769 0.12003578 -0.19673908 -0.1849995
0.1300114 -0.11576131 -0.15282932 0.013068254 -0.06188839 -0.02748945 -0.13354608 0.017329039
-0.14543082 -0.007030681 0.072650425 0.028573347 0.010136734 -0.014625046 -0.061527316 -0.15434805
-0.12285277 -0.12504248 -0.14927457 0.12109118 -0.06130192 0.029705204 0.14379826 -0.06280547
-0.099257104 -0.06853049 -0.030334981 0.039846644 -0.18293473 -0.046102993 0.036733482 0.11533791
-0.023052113 0.053814854 0.119544536 0.073769234 0.07293898 -0.10607851 -0.13531703 -0.067743436
-0.040013663 0.017325034 -0.04454343 0.017144153 0.15767547 -0.23956992 -0.23875727 -0.042576373
-0.12565765 0.09728016 -0.11126326 -0.0005514308 -0.039242797 -0.0862836 0.08659002 0.11143853
-0.13436392 -0.075639 -0.020897714 -0.0062275203 -0.10291588 -0.18927988 0.011436841 -0.04712545
-0.15349926 -0.15686052 -0.096925735 -0.17377822 0.101804756 -0.11292114 -0.051796775 -0.005001112
0.01587953 -0.04509712 0.07245734 -0.13345005 0.035115212 0.035902724 -0.15075728 -0.075136125
0.050463904 0.0014926625 0.02437556 0.088962175 -0.11083591 -0.11134245 -0.113234654 -0.16302033
-0.07661101 -0.1687377 0.016604355 0.09866602 0.030659795 -0.15453325 -0.1763419 -0.054268345
0.026754957 -0.0032106913 -0.0054475144 0.09045977 0.13869861 0.094800524 -0.0052885013 0.06351882
0.087419845 -0.24391548 -0.10017443 -0.03481126 0.08744887 0.052718688 -0.084495574 -0.22659536
-0.024099842 -0.032518808 -0.027555026 -0.039943226 0.05505282 -0.06348949 0.10470392 -0.08986613
0.13934982 -0.064788215 -0.09690652 0.10523597 -0.17576444 0.12267173 -0.032307457 0.009156016
0.05809787 0.0035574767 0.07949788 0.101081155 -0.16203025 0.091837026 -0.040968042 -0.09848387
0.013675591 0.12921053 -0.10543214 -0.13291016 0.103863165 -0.09449018 0.033416472 -0.043721516
0.052841745 0.18112697 -0.10686477 -0.11682986 0.079432376 0.000803038 -0.029263588 -0.16988437
0.13824485 0.023633694 -0.060872078 -0.08207177 -0.020574396 0.05230505 0.04579758 0.09702607
0.027140047 -0.039550994 0.019075489 -0.045774944 0.0024909496 -0.02960481 0.110686764 0.026651906
00000000: d803 743d efaf 09be e42d fc3d b225 163e
00000010: e848 d7bd f46e 033e 70f2 063d d860 4b3d
00000020: 589c 103e 3485 223e 7054 fd3d 9da6 003e
00000030: 6034 973d 0957 bb3d 2e19 2cbe bcf0 153d
00000040: 4bb9 02be c4c7 a33c c4dd 993c f591 d73b
00000050: 453e fcbd 24fb 8dbd b07f 2f3e c560 b43d
00000060: e815 093e b3c4 6fbd 0a7e 50bd df2d 2fbd
00000070: df54 f33d 4173 64bd 6dbc 273d ecd8 673d
00000080: 6c8e 44be 5749 90bd 0d9e cdbd 4a55 f3bd
00000090: df68 983d 988c 47bd 6cbb c53d bad5 0ebe
000000a0: db35 b33a 38e9 6ebe cc71 fdbd cd21 5c3d
000000b0: a4ea ab3d 05bb bb3d f177 17be cfe5 09bd
000000c0: 39f8 f2bd f757 bbbd 46cd 38be 5589 11be
000000d0: 38a0 c33d feb7 32be 4fb1 3cbe 9a34 99bb
000000e0: de5a c33a 09f9 97bd ddb8 c53d ec62 15be
000000f0: 82ed d1bd b4f3 2abe 22fa a5bd ed86 8ebd
00000100: 5099 b33d 36f1 3dbd 1800 643d 6e91 d2bd
00000110: 7f1a fa3d 9944 cb3d e11b 2abe 50ae d8bd
00000120: b308 37be 5e8e 5ebd 66cf 2fbe fbc2 e1bd
00000130: 24b2 123e 46c5 70be a86e b03d b6fc 9dbc
00000140: fc1f 1d3e 0990 05be 4575 bb3d e2fe c5bc
00000150: dfc5 073d 52d5 f53d f875 49be 8270 3dbe
00000160: b521 053e 4414 edbd 4a7f 1cbe 3b1c 563c
00000170: ae7e 7dbd 8e31 e1bc 4ec0 08be a1f5 8d3c
00000180: d1eb 14be a061 e6bb bfc9 943d a712 ea3c
00000190: 8b14 263c e49d 6fbc 1104 7cbd 6a0d 1ebe
000001a0: 3c9a fbbd 230b 00be 6fdb 18be a7fe f73d
000001b0: b917 7bbd 5458 f33c da3f 133e 27a0 80bd
000001c0: 4f47 cbbd b759 8cbd 1181 f8bc 3c36 233d
000001d0: 3e53 3bbe 7ed6 3cbd d975 163d 4836 ec3d
000001e0: c9d7 bcbc f76c 5c3d c4d3 f43d 5314 973d
000001f0: 0861 953d b13f d9bd 8c90 0abe 12bd 8abd
00000200: 5ee5 23bd 3bed 8d3c 2c73 36bd e571 8c3c
00000210: ae75 213e d151 75be c97c 74be 9064 2ebd
00000220: 66ac 00be d23a c73d fedd e3bd e58d 10ba
00000230: 0ebd 20bd 75b5 b0bd 1c56 b13d e239 e43d
00000240: b296 09be 9fe8 9abd af31 abbc 3a10 ccbb
00000250: 90c5 d2bd 96d2 41be 9761 3b3c 9e06 41bd
00000260: e92e 1dbe 0ba0 20be 0081 c6bd ebf2 31be
00000270: 037f d03d 3343 e7bd db28 54bd 5ee0 a3bb
00000280: ca15 823c c2b7 38bd 8464 943d 21a7 08be
00000290: f8d4 0f3d bc0e 133d 1e60 1abe f8e0 99bd
000002a0: 3db3 4e3d 71a5 c33a 41af c73c cd31 b63d
000002b0: f0fd e2bd 8307 e4bd 92e7 e7bd cdee 26be
000002c0: 3ce6 9cbd 93c9 2cbe db05 883c 6911 ca3d
000002d0: 402a fb3c f73d 1ebe f992 34be 7c48 5ebd
000002e0: 362d db3c 766a 52bb 1081 b2bb f942 b93d
000002f0: 0207 0e3e c726 c23d 2a4b adbb 2816 823d
00000300: 2d09 b33d fbc4 79be 4028 cdbd 4096 0ebd
00000310: 6518 b33d 8def 573d 040c adbd 9d08 68be
00000320: 086d c5bc 7132 05bd 14bb e1bc 829b 23bd
00000330: 117f 613d c706 82bd 026f d63d bc0b b8bd
00000340: b8b1 0e3e afaf 84bd ed76 c6bd f585 d73d
00000350: 98fb 33be 513b fb3d d354 04bd 1d03 163c
00000360: 08f8 6d3d 8e24 693b c9cf a23d a303 cf3d
00000370: 42eb 25be 0d15 bc3d 1bce 27bd e9b1 c9bd
00000380: 960f 603c c44f 043e ceec d7bd 9a19 08be
00000390: 36b6 d43d 1184 c1bd b6df 083d 5515 33bd
000003a0: 9670 583d 5979 393e ebdb dabd 7e44 efbd
000003b0: 71ad a23d f882 523a 31ba efbc 2bf6 2dbe
000003c0: 0f90 0d3e 739b c13c 0055 79bd 3f15 a8bd
000003d0: a38b a8bc d23d 563d 3e96 3b3d 9bb5 c63d
000003e0: ce54 de3c 3900 22bd 3344 9c3c 827e 3bbd
000003f0: 333f 233b c985 f2bc beaf e23d 1955 da3c

fc3.bias f4 [30]
0.26728767 0.060129408 -0.19209056 0.13447292 0.30886823 -0.23862068 -0.12327369 0.14444077
0.1494762 -0.2970135 0.19402018 0.057672504 -0.27591178 0.060530793 0.0059869722 -0.18107897
-0.31309047 0.0051934384 -0.23936953 0.18157755 -0.05288647 -0.3033522 0.09451 -0.4534374
-0.12062743 0.062892936 -0.24503142 0.42438754 -0.29861453 -0.30284682
00000000: eed9 883e 414a 763d 63b3 44be 45b3 093e
00000010: fa23 9e3e fb58 74be eb76 fcbd 48e8 133e
00000020: 4a10 193e 2712 98be 3aad 463e 013a 6c3d
00000030: 4f44 8dbe 23ef 773d 5d2e c43b c46c 39be
00000040: 654d a0be b82d aa3b 491d 75be 77ef 393e
00000050: 7c9f 58bd fb50 9bbe 758e c13d f228 e8be
00000060: 840b f7bd 03ce 803d 84e9 7abe 5349 d93e
00000070: 01e4 98be bd0e 9bbe

fc4.weight f4 [10, 30]
-0.1526929 -0.10522641 -0.079057336 -0.1754357 0.09026768 0.041270915 0.123655684 0.08338833
0.13746126 0.10362052 0.072212555 0.17350064 0.17487286 -0.1299216 -0.03501543 -0.100203864
0.0077597494 -0.062916346 0.23444353 -0.0021791188 -0.03949279 -0.13950317 -0.18178332 0.0063386294
-0.101770535 -0.0635908 0.097561814 0.0020853977 -0.07635406 0.12609199 0.057065375 -0.106322646
4.7071724e-05 -0.010999271 -0.09941966 0.055843398 0.04387707 -0.028455285 0.12856331 -0.095904954
0.091423795 -0.07661625 -0.114733584 0.09865021 -0.10364999 -0.04123239 0.10550581 -0.14095606
-0.114114456 0.029465942 0.13095011 -0.03541707 0.062195476 0.040262748 0.020086218 -0.08240899
0.1129845 0.2239844 -0.005017987 0.1310722 -0.20354432 0.043710325 -0.054740533 -0.045595475
0.02458566 0.049305737 0.01629518 -0.15373844 -0.16017006 -0.022631524 -0.056901664 -0.19082396
0.12897015 0.019644123 -0.15972973 0.019245084 0.047923505 -0.09394315 0.1139772 -0.12940168
0.046648387 0.12825531 0.10770402 0.008798271 -0.081766665 -0.010116722 0.06359261 0.016683783
-0.09364446 -0.013666432 -0.055928033 -0.09930439 -0.08430881 -0.054967556 -0.17212264 0.1534487
0.040452804 -0.13571951 -0.056672126 0.010656847 -0.06239508 -0.062373627 -0.1004947 -0.030480873
0.03832819 0.049940627 0.09746613 0.103638224 0.12106745 0.014491623 -0.046528287 0.0026829813
-0.04327962 0.08798807 -0.006026406 -0.08950458 -0.119081706 -0.047083937 0.121027276 0.15237987
-0.11416768 0.062107626 -0.019215856 -0.12738779 -0.11511982 0.062689744 -0.19831753 0.10479603
0.041088518 0.060316104 0.08173954 0.074693576 0.13690194 0.036762193 -0.044888154 -0.09528701
-0.047394864 0.09515603 0.11155341 0.10667794 -0.06926788 -0.046702348 -0.15774058 0.04597814
-0.14156394 -0.07182197 0.112165526 0.032618713 -0.10805314 -0.14230584 -0.16667198 0.14180402
-0.1702234 0.09827123 0.10776839 0.022384033 -0.018335573 0.12040656 0.03645697 0.14612396
0.11033844 -0.14046423 0.11992256 0.041229684 -0.11558914 0.09475919 -0.12544821 -0.120178044
0.00066316914 -0.052794192 -0.07620454 -0.13793494 0.07153433 0.11122969 -0.090736866 -0.12561479
-0.029188905 -0.1367486 -0.19677404 -0.09358574 0.11896533 -0.14348568 0.02721105 -0.010473162
-0.21715409 -0.057849135 -0.037057586 -0.011876803 0.17423034 0.054626733 0.103587486 0.045549344
-0.025054408 0.10952571 -0.09933583 0.13478982 0.0740644 -0.08546669 -0.046691753 -0.101979
-0.12854305 0.020863319 0.08059516 -0.018656496 0.079888105 -0.16227478 -0.046722017 0.025478777
-0.13692963 0.0283513 0.07692563 0.10945347 0.036707826 -0.24656776 -0.042048514 -0.07681109
-0.029203605 0.10253322 -0.08663252 -0.15054801 -0.16920719 0.016647846 0.09238725 0.14548439
0.14534841 -0.18143524 0.012366682 0.15005003 0.04226978 0.029158633 -0.14524758 -0.12931617
0.106694505 -0.15722044 -0.0026412474 -0.038383123 0.039808307 -0.039989498 -0.13968973 -0.11121183
0.11977106 0.005551385 0.12913364 -0.05294656 0.07869746 -0.065445185 -0.14262983 0.03929295
-0.04348884 -0.092548445 -0.04015278 -0.040092986 -0.10093204 0.042222004 -0.19239011 0.19181594
00000000: 875b 1cbe f280 d7bd d0e8 a1bd 6ba5 33be
00000010: 43de b83d b10b 293d 313f fd3d 80c7 aa3d
00000020: a5c2 0c3e ff36 d43d 2de4 933d 27aa 313e
00000030: df11 333e 2b0a 05be 576c 0fbd af37 cdbd
00000040: 7f45 fe3b 49da 80bd f711 703e 8ccf 0ebb
00000050: 31c3 21bd ebd9 0ebe 6825 3abe 47b4 cf3b
00000060: 126d d0bd e53b 82bd 7dce c73d 2bab 083b
00000070: 845f 9cbd 421e 013e 62bd 693d b0bf d9bd
00000080: e16e 4538 4936 34bc 899c cbbd 0cbc 643d
00000090: 71b8 333d 0f1b e9bc 1aa6 033e d169 c4bd
000000a0: 663c bb3d fbe8 9cbd 71f9 eabd 1f09 ca3d
000000b0: 7246 d4bd 4be3 28bd 6e13 d83d c956 10be
000000c0: d7b4 e9bd 8f62 f13c c917 063e 7d11 11bd
000000d0: afc0 7e3d 8dea 243d da8b a43c 0bc6 a8bd
000000e0: 6b64 e73d 2b5c 653e ed6d a4bb ca37 063e
000000f0: ec6d 50be 9909 333d 9c37 60bd 52c2 3abd
00000100: de67 c93c d0f4 493d 787d 853c 9c6d 1dbe
00000110: 9f03 24be bf65 b9bc b811 69bd 5b67 43be
00000120: c010 043e b6ec a03c 3190 23be dea7 9d3c
00000130: 704b 443d 4465 c0bd e16c e93d e081 04be
00000140: 6112 3f3d 5c55 033e ed93 dc3d a026 103c
00000150: 4875 a7bd 9cc0 25bc d83c 823d 6eac 883c
00000160: abc8 bfbd 2ce9 5fbc cb14 65bd 1a60 cbbd
00000170: 19aa acbd a925 61bd eb40 30be a821 1d3e
00000180: d7b1 253d 0efa 0abe 0821 68bd 0e9a 2e3c
00000190: fc91 7fbd 7d7b 7fbd 2ad0 cdbd 06b3 f9bc
000001a0: 05fe 1c3d 8b8e 4c3d 539c c73d 4740 d43d
000001b0: 36f2 f73d 466e 6d3c 7294 3ebd f5d4 2f3b
000001c0: f945 31bd 1733 b43d 2879 c5bb 2d4e b7bd
000001d0: 1ce1 f3bd 16db 40bd 26dd f73d 7809 1c3e
000001e0: bfd0 e9bd 9164 7e3d 926a 9dbc f271 02be
000001f0: f1c3 ebbd 7b63 803d c013 4bbe 4d9f d63d
00000200: 6f4c 283d 050e 773d 0f67 a73d f2f8 983d
00000210: 0630 0c3e f493 163d a4dc 37bd d625 c3bd
00000220: 1e21 42bd 2ae1 c23d 1d76 e43d f779 da3d
00000230: 51dc 8dbd f64a 3fbd bf86 21be 9353 3c3d
00000240: 23f6 10be 6617 93bd 0ab7 e53d 339b 053d
00000250: f74a ddbd 9fb8 11be 0fac 2abe 1335 113e
00000260: 0b4f 2ebe 6d42 c93d acb5 dc3d b85e b73c
00000270: 7c34 96bc b797 f63d e753 153d 85a1 153e
00000280: 1ff9 e13d dbd5 0fbe f699 f53d 75e0 283d
00000290: 00ba ecbd 1b11 c23d 7f75 00be e81f f6bd
000002a0: 87d8 2d3a b93e 58bd 2011 9cbd d13e 0dbe
000002b0: 9780 923d 64cc e33d 40d4 b9bd 2aa1 00be
000002c0: 921d efbc d307 0cbe 227f 49be e1a9 bfbd
000002d0: 18a4 f33d e9ed 12be b5e9 de3c a097 2bbc
000002e0: a45d 5ebe 37f3 6cbd b2c9 17bd ec96 42bc
000002f0: 7069 323e 48c0 5f3d ad25 d43d f391 3a3d
00000300: e73e cdbc 044f e03d 9570 cbbd 5806 0a3e
00000310: 13af 973d 2909 afbd da3f 3fbd 5eda d0bd
00000320: caa0 03be 8de9 aa3c 130f a53d 82d5 98bc
00000330: 609c a33d 5c2b 26be 965f 3fbd deb8 d03c
00000340: 4837 0cbe fc40 e83c 2f8b 9d3d 2429 e03d
00000350: f25a 163d 427c 7cbe 103b 2cbd 224f 9dbd
00000360: 663c efbc f0fc d13d 646c b1bd 4229 1abe
00000370: a644 2dbe 1061 883c 8735 bd3d dcf9 143e
00000380: 37d6 143e 29ca 39be a09d 4a3c b7a6 193e
00000390: 1423 2d3d 16de ee3c c8bb 14be 756b 04be
000003a0: a682 da3d 65fe 20be c718 2dbb 9f37 1dbd
000003b0: 090e 233d 07cc 23bd d30a 0fbe 07c3 e3bd
000003c0: 884a f53d 65e8 b53b 9c3b 043e 7ede 58bd
000003d0: 222c a13d 2008 86bd 8e0d 12be a5f1 203d
000003e0: 5b21 32bd 0a8a bdbd 3e77 24bd 8b38 24bd
000003f0: 75b5 cebd fbf0 2c3d ea01 45be 666b 443e

fc4.bias f4 [10]
0.34398937 0.30272472 -0.163002 -0.2734745 0.047827475 0.004153545 -0.5004944 0.03394052
-0.37774116 -0.01813007
00000000: 601f b03e bcfe 9a3e ffe9 26be da04 8cbe
00000010: bee6 433d 761a 883b 6720 00bf 3705 0b3d
00000020: 4a67 c1be 8385 94bc

fc5.weight f4 [1, 10]
0.008943414 0.05941163 -0.27181295 -0.06671855 0.103737466 0.15929608 -0.0485936 0.19516432
-0.014458166 -0.13244048
00000000: 6687 123c 9c59 733d 112b 8bbe bca3 88bd
00000010: 4f74 d43d 831e 233e 150a 47bd 28d9 473e
00000020: f2e1 6cbc 7a9e 07be

exp_avg f4 [30, 30]
0.00053662685 4.6990567e-06 0.0663345 1.2510703e-05 0.0001358286 7.495344e-06 4.127019e-05 1.9798264e-05
1.2474392e-06 0.0009698387 3.1984855e-05 8.196087e-06 0.0001026954 3.690986e-05 2.395245e-05 0.055437803
0.17292617 0.000109062035 1.62099e-05 0.00025188093 4.4068993e-06 -2.3168099e-05 -5.605822e-06 0.00019285064
8.5201955e-06 3.913883e-06 1.1522047e-05 -4.640074e-06 -1.5476042e-05 1.543385e-05 0.000313749 7.719791e-06
0.029814042 2.0694545e-06 0.00013599625 1.23344025e-05 4.353303e-05 1.6200342e-05 2.8123784e-06 0.00043015025
6.3009243e-06 -6.3598144e-08 7.4408e-05 1.6031745e-05 2.5211968e-05 0.019240133 0.12041695 9.2675094e-05
1.5140034e-05 0.000124452 -1.042885e-06 -1.8234621e-05 -1.4741644e-05 7.3493225e-05 -7.769831e-06 -6.4382493e-06
-3.8607217e-05 -4.077128e-05 -3.0078607e-05 -1.6342778e-05 0.0 0.0 0.0 0.0
0.0 0.0 0.0 0.0 0.0 0.0 0.0 0.0
0.0 0.0 0.0 0.0 0.0 0.0 0.0 0.0
0.0 0.0 0.0 0.0 0.0 0.0 0.0 0.0
0.0 0.0 6e-45 0.0 6e-45 6e-45 6e-45 6e-45
6e-45 6e-45 6e-45 6e-45 6e-45 0.0 6e-45 6e-45
6e-45 6e-45 6e-45 6e-45 6e-45 6e-45 0.0 6e-45
0.0 6e-45 6e-45 6e-45 0.0 0.0 0.0 0.0
0.0 0.0 0.0 0.0 0.0 0.0 0.0 0.0
0.0 0.0 0.0 0.0 0.0 0.0 0.0 0.0
0.0 0.0 0.0 0.0 0.0 0.0 0.0 0.0
0.0 0.0 0.0 0.0 0.0 0.0 0.0 0.0
0.0 0.0 0.0 0.0 0.0 0.0 0.0 0.0
0.0 0.0 0.0 0.0 0.0 0.0 0.0 0.0
0.0 0.0 0.0 0.0 0.0 0.0 0.0 0.0
0.0 0.0 0.0 0.0 3.27728e-05 -1.0961925e-05 0.0048910505 -4.3117197e-06
-4.0391227e-05 1.1522002e-05 4.3694477e-06 1.1304666e-05 6.2236386e-06 0.00021373267 -6.633625e-06 2.9088621e-06
-1.6949149e-05 2.8474862e-05 -1.9690744e-05 -0.006453811 0.015282011 3.0320016e-05 -2.0927722e-05 -7.866855e-05
-1.1309562e-06 8.30182e-06 2.5671712e-05 -1.16401325e-05 -1.8933988e-05 -4.898694e-06 -3.5214223e-05 -2.9969564e-05
-0.000114780865 -3.9865747e-05 -0.00048624634 -1.7512988e-06 -0.064979084 -1.7469089e-05 -0.000120093915 -1.35729615e-05
-3.7098976e-05 -3.415953e-05 -6.4143337e-06 -0.0006153662 -2.416152e-05 -1.02787035e-05 -5.869498e-05 -4.7005207e-05
-1.4786601e-06 -0.067045994 -0.13597016 -4.5078134e-05 -1.7807644e-06 -0.00021016874 -3.6307777e-06 1.0551263e-06
-1.6655735e-05 -0.0001533996 -2.1091324e-05 -1.5975862e-05 -7.7510245e-05 -4.7495196e-05 -1.2375133e-05 -5.8275262e-05
-0.00011172504 -5.459028e-06 -0.0037493883 -4.635609e-06 -6.0781436e-05 -9.853773e-06 -3.918317e-06 -6.2952813e-06
-7.81785e-07 -0.00020769988 -2.0797982e-06 3.5231753e-07 -2.138141e-05 -7.341979e-06 -7.658237e-06 -0.0066603688
00000000: 6bac 0c3a 97ac 9d36 62da 873d 0fe5 5137
00000010: 366d 0e39 8480 fb36 8719 2d38 7314 a637
00000020: af6d a735 c63c 7e3a 7a27 0638 ed81 0937
00000030: 2c5e d738 a9cf 1a38 7fed c837 c012 633d
00000040: 8f13 313e 3cb8 e438 7ffa 8737 e30e 8439
00000050: fade 9336 1d59 c2b7 a519 bcb6 f337 4a39
00000060: f6f1 0e37 0054 8336 d14e 4137 efb1 9bb6
00000070: 8cd2 81b7 f177 8137 ae7e a439 4084 0137
00000080: 943c f43c f5e0 0a36 379a 0e39 dbef 4e37
00000090: 3c97 3638 f8e5 8737 4bbc 3c36 ca85 e139
000000a0: 876c d336 7393 88b3 7e0b 9c38 e97b 8637
000000b0: 4a7e d337 7c9d 9d3c 299d f63d 905a c238
000000c0: f301 7e37 547f 0239 41f9 8bb5 8df6 98b7
000000d0: e152 77b7 6020 9a38 2c5b 02b7 2408 d8b6
000000e0: 2fee 21b8 d401 2bb8 5151 fcb7 d917 89b7
000000f0: 0000 0000 0000 0000 0000 0000 0000 0000
00000100: 0000 0000 0000 0000 0000 0000 0000 0000
00000110: 0000 0000 0000 0000 0000 0000 0000 0000
00000120: 0000 0000 0000 0000 0000 0000 0000 0000
00000130: 0000 0000 0000 0000 0000 0000 0000 0000
00000140: 0000 0000 0000 0000 0000 0000 0000 0000
00000150: 0000 0000 0000 0000 0000 0000 0000 0000
00000160: 0000 0000 0000 0000 0400 0000 0000 0000
00000170: 0400 0000 0400 0000 0400 0000 0400 0000
00000180: 0400 0000 0400 0000 0400 0000 0400 0000
00000190: 0400 0000 0000 0000 0400 0000 0400 0000
000001a0: 0400 0000 0400 0000 0400 0000 0400 0000
000001b0: 0400 0000 0400 0000 0000 0000 0400 0000
000001c0: 0000 0000 0400 0000 0400 0000 0400 0000
000001d0: 0000 0000 0000 0000 0000 0000 0000 0000
000001e0: 0000 0000 0000 0000 0000 0000 0000 0000
000001f0: 0000 0000 0000 0000 0000 0000 0000 0000
00000200: 0000 0000 0000 0000 0000 0000 0000 0000
00000210: 0000 0000 0000 0000 0000 0000 0000 0000
00000220: 0000 0000 0000 0000 0000 0000 0000 0000
00000230: 0000 0000 0000 0000 0000 0000 0000 0000
00000240: 0000 0000 0000 0000 0000 0000 0000 0000
00000250: 0000 0000 0000 0000 0000 0000 0000 0000
00000260: 0000 0000 0000 0000 0000 0000 0000 0000
00000270: 0000 0000 0000 0000 0000 0000 0000 0000
00000280: 0000 0000 0000 0000 0000 0000 0000 0000
00000290: 0000 0000 0000 0000 0000 0000 0000 0000
000002a0: 0000 0000 0000 0000 0000 0000 0000 0000
000002b0: 0000 0000 0000 0000 0000 0000 0000 0000
000002c0: 0000 0000 0000 0000 0000 0000 0000 0000
000002d0: 8775 0938 1ce9 37b7 1b45 a03b 64ad 90b6
000002e0: c069 29b8 9f4e 4137 459d 9236 2ca9 3d37
000002f0: a6d4 d036 6d1d 6039 6896 deb6 df35 4336
00000300: 052e 8eb7 4ddd ee37 8d2d a5b7 7e7a d3bb
00000310: 6661 7a3c bd57 fe37 f18d afb7 dbfa a4b8
00000320: 5ccb 97b5 0c48 0b37 9559 d737 fd49 43b7
00000330: 6ed4 9eb7 765f a4b6 fcb2 13b8 2667 fbb7
00000340: 82b6 f0b8 8535 27b8 e1ee feb9 2b0e ebb5
00000350: c113 85bd 958a 92b7 eeda fbb8 6db7 63b7
00000360: b99a 1bb8 8446 0fb8 b53a d7b6 8750 21ba
00000370: 78ae cab7 b272 2cb7 412f 76b8 7527 45b8
00000380: 6076 c6b5 694f 89bd c33b 0bbe 4712 3db8
00000390: 9902 efb5 be60 5cb9 49a8 73b6 dd9d 8d35
000003a0: ebb7 8bb7 e4d9 20b9 46ed b0b7 e703 86b7
000003b0: ff8c a2b8 9435 47b8 cb9e 4fb7 966c 74b8
000003c0: ed4d eab8 b22c b7b6 4cb8 75bb 948b 9bb6
000003d0: 92ef 7eb8 a251 25b7 167a 83b6 0e3c d3b6
000003e0: dbdb 51b5 03ca 59b9 a992 0bb6 2726 bd34
000003f0: 3a5c b3b7 1f5b f6b6 e17b 00b7 393f dabb

exp_avg_sq f4 [30, 30]
1.3711493e-06 1.0273369e-09 0.02204183 2.8770906e-09 1.7222686e-07 4.3138018e-09 8.103736e-09 3.998871e-09
6.035778e-10 4.8711877e-06 3.3072522e-09 1.0619157e-09 2.880049e-08 3.941598e-09 2.1658215e-09 0.03112554
0.16692986 1.5344867e-08 5.3409105e-10 2.577193e-07 2.025229e-10 3.5822532e-09 1.3519694e-09 1.1871085e-07
8.433141e-09 3.489811e-09 5.6635137e-08 2.382515e-08 1.3966278e-08 2.3486406e-08 8.281144e-07 8.48906e-10
0.014500597 1.9493345e-09 1.1072036e-07 2.7410516e-09 5.1273625e-09 2.394184e-09 4.0828294e-10 3.1936404e-06
2.148531e-09 3.3637634e-10 2.0143665e-08 2.6571636e-09 1.5258139e-09 0.011983248 0.12248103 9.099526e-09
3.574369e-10 1.672277e-07 1.247297e-10 2.1388216e-09 8.461318e-10 5.7454734e-08 5.9273293e-09 2.3669289e-09
3.1275402e-08 1.4850283e-08 9.715428e-09 1.4897859e-08 0.0 0.0 0.0 0.0
0.0 0.0 0.0 0.0 0.0 0.0 0.0 0.0
0.0 0.0 0.0 0.0 0.0 0.0 0.0 0.0
0.0 0.0 0.0 0.0 0.0 0.0 0.0 0.0
0.0 0.0 2.0234588e-11 0.0 5.554648e-07 5.605166e-14 1.2611623e-13 1.4012915e-14
2.2420664e-13 1.2611623e-13 1.4012915e-14 1.186049e-10 1.4012915e-14 0.0 5.605166e-14 5.605166e-14
5.605166e-14 6.1209725e-08 8.044546e-08 5.044649e-13 1.4012915e-14 3.1529076e-12 0.0 1.4012915e-14
0.0 6.8663315e-13 1.2611623e-13 5.605166e-14 0.0 0.0 0.0 0.0
0.0 0.0 0.0 0.0 0.0 0.0 0.0 0.0
0.0 0.0 0.0 0.0 0.0 0.0 0.0 0.0
0.0 0.0 0.0 0.0 0.0 0.0 0.0 0.0
0.0 0.0 0.0 0.0 0.0 0.0 0.0 0.0
0.0 0.0 0.0 0.0 0.0 0.0 0.0 0.0
0.0 0.0 0.0 0.0 0.0 0.0 0.0 0.0
0.0 0.0 0.0 0.0 0.0 0.0 0.0 0.0
0.0 0.0 0.0 0.0 2.3027142e-06 2.2491302e-09 0.054067206 6.129391e-09
2.8533685e-07 8.06816e-09 1.4531044e-08 6.704145e-09 1.1883422e-09 9.517187e-06 6.95981e-09 4.237534e-10
5.074843e-08 7.550272e-09 4.2788764e-09 0.022008898 0.16002873 1.6583122e-08 1.3927453e-09 4.702179e-07
3.267812e-10 7.154082e-09 2.5572187e-09 1.3674277e-07 1.8447757e-08 7.686819e-09 9.2476036e-08 4.2037584e-08
3.7772104e-08 4.5357282e-08 8.384098e-07 4.9806775e-10 0.012273156 1.731595e-09 9.9712764e-08 2.7220508e-09
4.362194e-09 2.4636153e-09 3.141213e-10 2.8294785e-06 2.1845437e-09 7.2205947e-10 1.5211661e-08 2.256206e-09
1.1245316e-09 0.021506624 0.115670845 8.066985e-09 2.6116548e-10 1.4134396e-07 8.146898e-11 2.4377695e-09
7.1419215e-10 8.467687e-08 5.2418105e-09 2.012755e-09 4.70399e-08 1.7565261e-08 1.2418915e-08 1.7608071e-08
1.623207e-07 1.331536e-10 0.0014670548 4.1071038e-10 2.5324104e-08 5.440012e-10 9.271936e-10 5.778214e-10
7.885908e-11 6.8465374e-07 5.1683796e-10 3.7868382e-11 4.0968122e-09 5.387429e-10 2.902011e-10 0.0015500173
00000000: 5508 b835 3432 8d30 1191 b43c 50b6 4531
00000010: 5ced 3834 9a38 9431 9c38 0b32 7166 8931
00000020: 03e9 2530 2f73 a336 cc45 6331 d6f2 9130
00000030: f364 f732 aa6e 8731 89d5 1431 fdfa fe3c
00000040: a9ef 2a3e b8cf 8332 51cf 1230 ac5c 8a34
00000050: 21ad 5e2f aa2b 7631 32d0 b930 fbed fe33
00000060: 59e1 1032 68d1 6f31 fe3e 7333 0fa8 cc32
00000070: 57f0 6f32 27bf c932 974b 5e35 7358 6930
00000080: e993 6d3c 0ef5 0531 29c5 ed33 175d 3c31
00000090: c22c b031 ee86 2431 b774 e02f 5352 5636
000000a0: 5ba5 1331 c3ec b82f 6308 ad32 5199 3631
000000b0: ceb4 d130 6355 443c 56d7 fa3d 2354 1c32
000000c0: c680 c42f 338f 3334 4a24 092f 8cfa 1231
000000d0: 3b95 6830 26c4 7633 57a9 cb31 74a7 2231
000000e0: ab53 0633 3c20 7f32 e7e8 2632 7af1 7f32
000000f0: 0000 0000 0000 0000 0000 0000 0000 0000
00000100: 0000 0000 0000 0000 0000 0000 0000 0000
00000110: 0000 0000 0000 0000 0000 0000 0000 0000
00000120: 0000 0000 0000 0000 0000 0000 0000 0000
00000130: 0000 0000 0000 0000 0000 0000 0000 0000
00000140: 0000 0000 0000 0000 0000 0000 0000 0000
00000150: 0000 0000 0000 0000 0000 0000 0000 0000
00000160: 0000 0000 0000 0000 3efc b12d 0000 0000
00000170: 401b 1535 2a6f 7c29 87fe 0d2a 2a6f 7c28
00000180: 2a6f 7c2a 87fe 0d2a 2a6f 7c28 5068 022f
00000190: 2a6f 7c28 0000 0000 2a6f 7c29 2a6f 7c29
000001a0: 2a6f 7c29 6772 8333 5cc1 ac33 87fe 0d2b
000001b0: 2a6f 7c28 bcdd 5d2c 0000 0000 2a6f 7c28
000001c0: 0000 0000 2245 412b 87fe 0d2a 2a6f 7c29
000001d0: 0000 0000 0000 0000 0000 0000 0000 0000
000001e0: 0000 0000 0000 0000 0000 0000 0000 0000
000001f0: 0000 0000 0000 0000 0000 0000 0000 0000
00000200: 0000 0000 0000 0000 0000 0000 0000 0000
00000210: 0000 0000 0000 0000 0000 0000 0000 0000
00000220: 0000 0000 0000 0000 0000 0000 0000 0000
00000230: 0000 0000 0000 0000 0000 0000 0000 0000
00000240: 0000 0000 0000 0000 0000 0000 0000 0000
00000250: 0000 0000 0000 0000 0000 0000 0000 0000
00000260: 0000 0000 0000 0000 0000 0000 0000 0000
00000270: 0000 0000 0000 0000 0000 0000 0000 0000
00000280: 0000 0000 0000 0000 0000 0000 0000 0000
00000290: 0000 0000 0000 0000 0000 0000 0000 0000
000002a0: 0000 0000 0000 0000 0000 0000 0000 0000
000002b0: 0000 0000 0000 0000 0000 0000 0000 0000
000002c0: 0000 0000 0000 0000 0000 0000 0000 0000
000002d0: 5488 1a36 1e8f 1a31 9375 5d3d b29a d231
000002e0: 6630 9934 259c 0a32 35a4 7932 485a e631
000002f0: 1353 a330 02ac 1f37 2323 ef31 fdf5 e82f
00000300: 7df6 5933 73b6 0132 6505 9331 014c b43c
00000310: 92de 233e ac72 8e32 de6a bf30 4272 fc34
00000320: 5ea6 b32f f9cf f531 11bb 2f31 91d3 1234
00000330: 0c77 9e32 fd0e 0432 3d97 c633 d08c 3433
00000340: de3a 2233 dcce 4233 150f 6135 67e8 0830
00000350: 5915 493c 15fd ed30 ac21 d633 d30e 3b31
00000360: 44e2 9531 614c 2931 a5b0 ac2f 12e2 3d36
00000370: e61e 1631 6b7a 4630 ccaa 8232 990b 1b31
00000380: f08d 9a30 a92e b03c d6e4 ec3d fa96 0a32
00000390: c693 8f2f 55c4 1734 f526 b32e b285 2731
000003a0: ce50 4430 9ad7 b533 741b b431 c350 0a31
000003b0: eb08 4a33 6be2 9632 f75a 5532 8f40 9732
000003c0: 604a 2e34 6867 122f 314a c03a 59ca e12f
000003d0: 4b88 d932 ae88 1530 73dd 7e30 91d4 1e30
000003e0: b769 ad2e 0cc9 3735 3d11 0e30 028c 262e
000003f0: f1c3 8c31 a916 1430 2d8a 9f2f f329 cb3a

exp_avg f4 [30]
1.340225e-05 9.392222e-06 0.0 6e-45 0.0 0.0 -3.5041778e-06 -1.1423144e-05
-3.7023087e-06 6e-45 -9.732393e-07 -4.986507e-06 6e-45 6e-45 1.7858844e-06 0.0
-6.3913967e-07 -5.9424096e-06 -5.780239e-06 -1.9142392e-06 2.2850363e-06 -8.504367e-06 -1.9388767e-06 -1.2526374e-05
9.4343795e-06 -1.2389805e-05 0.0 2.7610488e-06 -8.013018e-06 -7.181344e-06
00000000: 3ada 6037 4993 1d37 0000 0000 0400 0000
00000010: 0000 0000 0000 0000 5129 6bb6 08a6 3fb7
00000020: 2e75 78b6 0400 0000 3fa0 82b5 c551 a7b6
00000030: 0400 0000 0400 0000 85b2 ef35 0000 0000
00000040: 5891 2bb5 e964 c7b6 e0f3 c1b6 6176 00b6
00000050: a058 1936 faad 0eb7 a61d 02b6 5e28 52b7
00000060: 5a48 1e37 cfdd 4fb7 0000 0000 754a 3936
00000070: a66f 06b7 46f7 f0b6

exp_avg_sq f4 [30]
1.0185295e-09 6.685379e-10 0.0 1.4012915e-14 0.0 0.0 1.957536e-09 5.973151e-10
1.389212e-10 1.7581276e-12 6.3275785e-10 2.8973518e-10 8.329583e-12 2.2789051e-13 1.3202629e-10 0.0
7.203132e-10 9.129642e-10 1.6759452e-10 6.9876355e-10 6.8047024e-10 8.203957e-10 2.2400186e-10 1.0202001e-09
1.5505979e-09 9.861597e-10 0.0 5.8071165e-10 8.842978e-10 1.1448901e-09
00000000: 52fc 8b30 2cc4 3730 0000 0000 2a6f 7c28
00000010: 0000 0000 0000 0000 5685 0631 5030 2430
00000020: d7be 182f 396f f72b 60ee 2d30 9a48 9f2f
00000030: 1b89 122d 7c4a 802a 192a 112f 0000 0000
00000040: 89ff 4530 25f4 7a30 aa45 382f 1d13 4030
00000050: d60b 3b30 3782 6130 eb4a 762f 1a37 8c30
00000060: d01c d530 6989 8730 0000 0000 f39f 1f30
00000070: ed12 7330 3d5a 9d30

exp_avg f4 [30, 30]
0.02658381 0.016819583 0.0 0.0 0.0 0.0 0.00028651085 0.016186642
2.4166685e-14 -6e-45 0.0027304913 1.1678286e-05 -6e-45 0.0 -0.00010044915 0.0
-0.0010812795 0.0013220467 6.2954523e-06 1.083075e-05 -0.0034404248 0.00012548939 0.0025389972 0.0021298248
0.0139162885 0.013711425 0.0 0.01213589 0.011617221 0.016425421 3.8127488e-05 -0.0012363915
0.0 6e-45 0.0 0.0 0.00038591787 -0.0017056717 3.115062e-05 -6e-45
-0.00038762562 4.6419224e-05 6e-45 6e-45 6.7450896e-06 0.0 0.00010771728 -0.00154052
1.2951943e-05 7.591686e-06 -0.00022450293 0.0001307266 0.00014146332 -0.0016004698 5.2128405e-07 3.056157e-05
0.0 -0.0019395556 -0.00015656889 -0.0002824984 0.022798583 0.005282069 0.0 -6e-45
0.0 0.0 -0.0014681439 0.020364648 0.002639335 -6e-45 0.0052460646 0.0019926266
6e-45 -6e-45 0.0006599977 0.0 0.0013258713 0.0053312113 0.002835448 -0.0003551397
0.0010093075 0.00219123 0.0048696278 0.00511029 0.0030182793 0.006541074 0.0 0.012042784
0.007912201 0.00685051 -4.8473168e-05 4.119661e-05 0.0 0.0 0.0 0.0
4.2849093e-05 5.812111e-05 1.1027784e-05 6e-45 0.0002451294 1.08497425e-05 6e-45 0.0
-1.6805262e-19 0.0 0.00010951748 -1.4741858e-05 1.6039792e-05 7.934875e-21 -4.8876213e-05 8.271224e-06
-0.00022952005 1.7199895e-05 -0.00015336082 0.0005306221 0.0 0.0006724711 0.0003015576 -0.00017568283
0.005550544 0.0052938955 0.0 0.0 0.0 0.0 0.00018434825 0.00053494563
-0.000618988 6e-45 -0.0007533842 -0.0006941316 -6e-45 0.0 6e-45 0.0
-0.00085615827 -0.0014954243 -0.0007394329 2.4203461e-29 -0.0013039062 -0.00015828157 -6.792093e-05 -0.00095786195
0.000146982 -7.739476e-05 0.0 0.003913316 0.0006709318 0.0027389654 -0.017056415 -0.007995199
0.0 -6e-45 0.0 0.0 -0.00045560676 -0.013019853 -0.0019406558 6e-45
-0.0075423005 -0.0024617852 -6e-45 -6e-45 -7.7278495e-09 0.0 -0.0030670392 -0.0052529895
-0.0026084816 -4.630343e-07 -0.0072086863 -0.0021765365 -0.00025670725 -0.0058186846 7.6975266e-05 -0.0046773534
0.0 -0.008680414 -0.007150362 -0.0019843483 -0.00026216896 -0.00013407317 0.0 0.0
0.0 0.0 -4.409483e-05 -0.00038257506 -3.60313e-06 6e-45 -1.192581e-05 -2.5759703e-06
6e-45 0.0 0.00037483146 0.0 8.549266e-08 -0.0003829904 -2.5597708e-06 -0.00094329315
-4.134178e-06 -0.00015408908 -0.00031597543 -0.00032242568 -0.0018050426 -0.00018665704 0.0 -0.0007313956
0.0006638122 0.000444262 -0.0018424821 0.003284772 0.0 0.0 0.0 0.0
0.0005780001 -0.008533707 -0.0016685496 -6e-45 -0.0068169213 -0.0009850421 -6e-45 0.0
-1.0186418e-09 0.0 -0.0021980896 -0.0005733931 -0.0021307552 -6.1524173e-07 -0.0034374 -0.0029087423
7.4687494e-05 -0.003173984 6.6996963e-06 0.00038849382 0.0 -0.0021167058 -0.003200512 0.0013055372
-0.009855632 -0.005452249 0.0 0.0 0.0 0.0 2.9092456e-05 -0.008814932
-0.0029658289 -6e-45 -0.0060541932 -0.0051993337 -6e-45 0.0 9.3957155e-08 0.0
00000000: 4ac6 d93c 39c9 893c 0000 0000 0000 0000
00000010: 0000 0000 0000 0000 d636 9639 d999 843c
00000020: 95ac d928 0400 0080 0bf2 323b dbed 4337
00000030: 0400 0080 0000 0000 3aa8 d2b8 0000 0000
00000040: b8b9 8dba 8748 ad3a 863d d336 b8b5 3537
00000050: c078 61bb cd95 0339 4e65 263b 8894 0b3b
00000060: 2501 643c e2a5 603c 0000 0000 9dd5 463c
00000070: 2856 3e3c 9b8e 863c 14eb 1f38 6a0e a2ba
00000080: 0000 0000 0400 0000 0000 0000 0000 0000
00000090: 0555 ca39 d890 dfba b9a7 0238 0400 0080
000000a0: 3b3a cbb9 43b2 4238 0400 0000 0400 0000
000000b0: e153 e236 0000 0000 46e6 e138 46eb c9ba
000000c0: 2c4c 5937 16bc fe36 8c68 6bb9 a813 0939
000000d0: c555 1439 dbc6 d1ba 5eee 0b35 3c2f 0038
000000e0: 0000 0000 b038 feba a42c 24b9 4b1c 94b9
000000f0: 18c4 ba3c 3515 ad3b 0000 0000 0400 0080
00000100: 0000 0000 0000 0000 bc6e c0ba c3d3 a63c
00000110: b2f8 2c3b 0400 0080 2ee7 ab3b ba96 023b
00000120: 0400 0000 0400 0080 b203 2d3a 0000 0000
00000130: dcc8 ad3a 71b1 ae3b ecd2 393b 0b32 bab9
00000140: bd4a 843a bd9a 0f3b 6691 9f3b 3874 a73b
00000150: 53ce 453b 8156 d63b 0000 0000 194f 453c
00000160: 2da2 013c 3e7a e03b ab4f 4bb8 86ca 2c38
00000170: 0000 0000 0000 0000 0000 0000 0000 0000
00000180: ddb8 3338 11c7 7338 f903 3937 0400 0000
00000190: b684 8039 4a07 3637 0400 0000 0000 0000
000001a0: ca66 46a0 0000 0000 c0ac e538 cc53 77b7
000001b0: 318d 8637 b3e2 151e 6f00 4db8 a3c4 0a37
000001c0: 52ab 70b9 7e48 9037 7bcf 20b9 7219 0b3a
000001d0: 0000 0000 c648 303a 601a 9e39 8037 38b9
000001e0: 56e1 b53b 6a78 ad3b 0000 0000 0000 0000
000001f0: 0000 0000 0000 0000 9b4d 4139 983b 0c3a
00000200: 9543 22ba 0400 0000 c27e 45ba 62f6 35ba
00000210: 0400 0080 0000 0000 0400 0000 0000 0000
00000220: cf6f 60ba 1d02 c4ba 80d6 41ba c773 f50f
00000230: d5e7 aaba 63f8 25b9 c670 8eb8 0719 7bba
00000240: 2e1f 1a39 ff4e a2b8 0000 0000 463b 803b
00000250: 79e1 2f3a 3780 333b e5b9 8bbc 4cfe 02bc
00000260: 0000 0000 0400 0080 0000 0000 0000 0000
00000270: 81de eeb9 3951 55bc 9a5d feba 0400 0000
00000280: 6725 f7bb e755 21bb 0400 0080 0400 0080
00000290: 71c3 04b2 0000 0000 6100 49bb 4521 acbb
000002a0: 0ff3 2abb f396 f8b4 d836 ecbb 39a4 0ebb
000002b0: aa96 86b9 aaaa bebb c86d a138 7c44 99bb
000002c0: 0000 0000 4c38 0ebc 954d eabb d70b 02bb
000002d0: b973 89b9 fe95 0cb9 0000 0000 0000 0000
000002e0: 0000 0000 0000 0000 77f2 38b8 5b94 c8b9
000002f0: 4dcd 71b6 0400 0000 f714 48b7 d5de 2cb6
00000300: 0400 0000 0000 0000 0785 c439 0000 0000
00000310: 1698 b733 1acc c8b9 87c8 2bb6 5547 77ba
00000320: 52b8 8ab6 f992 21b9 81a9 a5b9 3e0b a9b9
00000330: 2e97 ecba 5eb9 43b9 0000 0000 21bb 3fba
00000340: af03 2e3a d6eb e839 717f f1ba 5445 573b
00000350: 0000 0000 0000 0000 0000 0000 0000 0000
00000360: ee84 173a f6d0 0bbc 3cb3 daba 0400 0080
00000370: 7b60 dfbb 871c 81ba 0400 0080 0000 0000
00000380: 4600 8cb0 0000 0000 d30d 10bb c24f 16ba
00000390: 24a4 0bbb 1727 25b5 0146 61bb 99a0 3ebb
000003a0: 8ba1 9c38 9d02 50bb f4cd e036 c2ae cb39
000003b0: 0000 0000 6eb8 0abb aebf 51bb 8f1e ab3a
000003c0: 8479 21bc c8a8 b2bb 0000 0000 0000 0000
000003d0: 0000 0000 0000 0000 930b f437 816c 10bc
000003e0: 5a5e 42bb 0400 0080 4162 c6bb 2c5f aabb
000003f0: 0400 0080 0000 0000 7ec5 c933 0000 0000
