ch-04/lightning_logs/version_2/checkpoints/epoch=99-step=3500.ckpt (torch, 47816 bytes, 27 tensors)

fc1.weight f4 [30, 30]
00000000: a36d b83e e644 473f 470e 84bc 650a 6c3f
00000010: 0b76 853f 3112 1e3f bfe7 b83d 2ff8 c23f
00000020: ab10 8b3f 51ab 383e 0c66 b23f 32bf 8a3f
00000030: 0d09 313f 2a8c 0cbd e0da 24bf 8c3b 44bd
00000040: 9c44 173d 42a0 48bf 8173 84c0 94a5 dbbd
00000050: 3e50 01c0 eb94 9e3e 4d03 1e40 0ea5 babd
00000060: 95da aa3e cbc6 0d3f 6d72 823e 8752 bfbe
00000070: 4f57 f7be bdb1 e63e af84 7cbe 6295 e9bf
00000080: 66aa 733d b955 d43e 2813 4dbd b7e0 d6bf
00000090: f67d d8bf d2de 18bf e279 68bf 313a 94be
000000a0: 3ab6 543f 3e34 a33f a4ab e7bf 4453 e6be
000000b0: 71ed 64c0 6ad4 b2bd 015b b23c 2041 56c0
000000c0: e636 d2c0 1236 02c0 3d71 89c0 f4cb 7c3f
000000d0: 6983 1540 c42e 373f da8a b73f d05d 963f
000000e0: 8a8a 0540 f985 bb3f 8ec6 1e3f eb01 fa3f
000000f0: d557 3c3c bd35 ffbd cd97 663d c6c4 80bd
00000100: 3925 653d 80cd 1bbd 4c0f 1b3e 4a9e ddbd
00000110: 1500 dfbd 8703 dfbd fc27 283e 9036 793d
00000120: 05e6 333e 524a 1abe e96f 39be 8044 12be
00000130: c786 fbbd 0873 973d 8be3 853d a558 1b3e
00000140: fd18 c1bd 72e6 febd b663 c63d 0a23 97bd
00000150: a1ef e23d 8675 31bd 11e5 d53d 4142 11be
00000160: cfb1 bcbd 6ffe 633d cc1c fe3c 0baa 3ebd
00000170: 8e5b cf3d 6fac ee3d 7555 0fbe 5521 d7bd
00000180: 046e 233e d0af 8dbd 8411 94bd 4aa8 3cbe
00000190: 84a3 e5bd 24cf 3a3d f6bc 01bd 5c77 0fbe
000001a0: 4fd3 57bb 4b77 07be 655f 26be e86a ddbd
000001b0: a461 2bbe 6c9a fdbd 02e2 3a3e 9c72 dc3c
000001c0: fe72 663d 5021 36be ce8b 02be 56f9 8bbd
000001d0: 48e0 e93c ac81 24be cb1b a1bd 6dd9 dfbd
000001e0: 6ba2 043a 4322 8bbd bb48 4fbc b35f fdbd
000001f0: 5f53 00be 1124 dabd 6afa 7fbd 8f8f 13be
00000200: c7c1 1c3e 886a 14bd 37db 203e 2e02 693d
00000210: 5250 1ebe 4f61 013e 86c2 4dbd 8754 8fbd
00000220: c72f 1bbe 40dd 39be daf5 553d 885b 23bd
00000230: 9392 913d 8d6d 19be 33cd 0a3e 583c 09be
00000240: 1621 01bd 9f32 1c3d 5f08 c13d 76ee 163e
00000250: 2c4f 2a3e d43d 14be e933 3c3d 48d4 a0bd
00000260: 78e6 a3bc 48ef 0bbe 5b4a 2a3e 6737 09be
00000270: 73d6 c73d 4f68 833d 8202 733d 7027 cabd
00000280: 15ef 293e a855 243d 7466 c03c 7fc1 24be
00000290: c3f6 9c3d c260 e0bc 524c abbd ce95 203e
000002a0: f7b9 263d 6ce0 cebd 5a40 bdbd f9d9 0ebc
000002b0: 27c7 d03d 2318 3fbd 4258 d5bd 210b 80bd
000002c0: 8bab 0bbe 6159 853d 21b6 103e 0502 30be
000002d0: ac27 343f c676 643f 3085 a63d 87d3 303f
000002e0: f8e0 573f 57a2 c8be 813f 4f3f 02ff c7be
000002f0: cbcc 8f3f 5927 393f aeb7 e5be 99e4 cb3e
00000300: 091c e5be 3395 1ebf e55e c73f dc6b dabd
00000310: cb62 15bd c343 f63f 75a0 a640 ce24 333f
00000320: 8cfe 413f 18b3 dbbc d5af 92bf 7106 fbbe
00000330: 3719 da3e 6b5a fb3e 12dc 1ec0 c0c9 1cc0
00000340: 177b 14bf 022d 1dc0 9c71 0440 b574 2ac0
00000350: ab24 0fbe 1016 0f40 85b7 86bf 237d bb3f
00000360: 527b 63bf a8b1 3f40 9ed1 8fbe 7e56 393f
00000370: 5edf 1c40 018f 8fbe 8d16 69bf 85ce 2940
00000380: 01d5 d6bf 1d04 37ba 601b 6c3b 373b a6bf
00000390: e75d 34c0 f792 6b3f 7623 d03f 48c1 873f
000003a0: 3300 5c40 73b8 803f 6136 0540 f6b8 6940
000003b0: fdd0 393f bef6 a03e f73a a3be 4e12 d23f
000003c0: 95fb b7bf fa5e ac40 e215 71be d621 11c0
000003d0: 3837 ab3f aaec db3f 59be e93c 4dca f1bf
000003e0: dd71 f3be 2268 253f db2e 81bf b90b 15c0
000003f0: 2616 6d3f c941 d9bf b279 3340 a135 31be
0.36021146 0.77839506 -0.01612009 0.9220336 1.0426649 0.6174651 0.09028577 1.523199
1.0864462 0.18034102 1.3937392 1.0839598 0.69154435 -0.03431336 -0.64396477 -0.04790835
0.036930665 -0.78369534 -4.1390996 -0.10724941 -2.0205226 0.3097299 2.4689515 -0.09113513
0.3336989 0.5538146 0.25477925 -0.3736765 -0.483088 0.4505748 -0.2465999 -1.8248713
0.059488676 0.4147165 -0.050067097 -1.6787328 -1.691344 -0.59714997 -0.9081098 -0.28950647
0.83090556 1.2750318 -1.8099256 -0.44985402 -3.5769923 -0.08731921 0.02177191 -3.347725
-6.5692015 -2.0345502 -4.295073 0.9874871 2.3361456 0.71555734 1.4339249 1.1747379
2.0865808 1.465026 0.6202172 1.9531835 0.01149555 -0.12461422 0.056297112 -0.062875316
0.0559437 -0.038037777 0.15142554 -0.10821207 -0.108886875 -0.10889345 0.16421503 0.06084305
0.17568214 -0.15067413 -0.18109097 -0.14283943 -0.12281566 0.07394987 0.06537541 0.15170534
-0.09428594 -0.12446298 0.09686987 -0.0737973 0.11080862 -0.04332497 0.104440816 -0.1418543
-0.09213602 0.05566257 0.03101959 -0.046548884 0.101248845 0.11653983 -0.13997443 -0.105044045
0.15959936 -0.06918299 -0.07229903 -0.18423572 -0.11212829 0.0456077 -0.031674348 -0.14010376
-0.0032932346 -0.132291 -0.16247328 -0.108114064 -0.16736466 -0.12382969 0.18250278 0.026910119
0.05626201 -0.17786145 -0.12748644 -0.068346664 0.028549328 -0.16065091 -0.07866629 -0.109301426
0.00050596026 -0.06793644 -0.012651618 -0.12371769 -0.12531804 -0.1065141 -0.062494673 -0.14410232
0.15308295 -0.03623441 0.15708624 0.056886844 -0.15460327 0.12634777 -0.05023434 -0.06998544
-0.15154944 -0.18150806 0.052236415 -0.039882213 0.07108035 -0.14983197 0.1355484 -0.13401926
-0.031525694 0.038134214 0.09425425 0.14739403 0.16631764 -0.1447671 0.045947943 -0.078529894
-0.020007357 -0.13665497 0.16629927 -0.1340004 0.097577 0.0641638 0.059328564 -0.09870803
0.16595109 0.04012075 0.023486353 -0.16089438 0.076642536 -0.027389888 -0.08364166 0.15682146
0.040704694 -0.10101399 -0.0924079 -0.008718961 0.10194235 -0.046653878 -0.104172245 -0.06252123
-0.13639657 0.06511188 0.14131977 -0.1718827 0.70373034 0.89243734 0.08130872 0.69072765
0.8432765 -0.39186355 0.80956274 -0.39061743 1.1234373 0.72325665 -0.448667 0.39822844
-0.44747952 -0.6194641 1.5575835 -0.10665104 -0.03647117 1.9239429 5.207087 0.69978034
0.7577903 -0.026818797 -1.145991 -0.49028352 0.42597362 0.4909242 -2.482182 -2.4498138
-0.5800032 -2.455872 2.0694342 -2.6633732 -0.13978831 2.2357216 -1.0524756 1.4647564
-0.88860047 2.9952183 -0.28089613 0.723976 2.4511333 -0.2803879 -0.91050035 2.65323
-1.6783754 -0.0006981509 0.003602706 -1.2986821 -2.8182313 0.92021126 1.6260822 1.060586
3.4375122 1.005629 2.081444 3.6519141 0.72584516 0.3143825 -0.31880924 1.6411836
-1.4373652 5.386594 -0.23543504 -2.2676902 1.3376226 1.7181599 0.028533148 -1.8889862
-0.47547808 0.6461202 -1.0092424 -2.3288405 0.9261192 -1.6973201 2.8043027 -0.17305614

fc1.bias f4 [30]
00000000: 85c2 8c3e 7605 63bf 12d1 283e 7e10 e5bb
00000010: 76d0 163d d2a8 813d 0c64 2f3f 6b5c 963f
00000020: a0fc 2d3f 54e0 f9bd 408c 973e a4ae 7e3e
00000030: f86d 043e 5f42 9c3d 7d2f debe 84bc 97bd
00000040: 64a2 e5bd 8553 223f 5a84 463f 3457 bdbe
00000050: 5ddd 6f3f 1cd7 203e 10ec 27bf 2b85 893f
00000060: 2776 fd3e c046 edbe 39b5 6bbd 91ba 273e
00000070: 9bdc 273e 0354 3bbf
0.27492157 -0.8868021 0.16486004 -0.0069904914 0.036819898 0.06331028 0.68512034 1.1746954
0.679636 -0.1220099 0.2959919 0.24871308 0.12932575 0.07629847 -0.43395606 -0.074090034
-0.11212614 0.6340869 0.775457 -0.36980593 0.9369715 0.15707058 -0.6559458 1.0743765
0.49504206 -0.4634304 -0.057545874 0.16379763 0.16392748 -0.73175067

fc2.weight f4 [30, 30]
00000000: 2de2 f33d 582e c6bd 0ec0 05be ea41 d1bd
00000010: b654 4fbd b66b b1bd 6adc 67bc 33e5 a0bc
00000020: 6a66 0ebd 8151 afbc dfee 30be eada f3be
00000030: c61a b7bd 265b 73bd 9769 a2bd 5e1a 213d
00000040: ea5d 0cbe 7384 8bbe c739 76be 8727 8d3f
00000050: fdfe c8be 6a16 47be 8981 00bd 2aaf a7be
00000060: 851b bf3d b043 2fbe eb10 06be f125 9bbd
00000070: 07d2 b13d 1d8a 203e 7907 10be cdbb 19be
00000080: 0834 11be 01d9 23bd 06a2 4dbd 32d7 213e
00000090: a7f6 663e 9fe8 fcbd 7ec5 083d 43f4 4abd
000000a0: 951b afbb 2a9c 803d bf8a f23c 04be 91bd
000000b0: 3e94 323e 36ed d7bc 27fc 98bd d8f8 f63d
000000c0: ff6f e03d ae68 653f 2d6b 4dbe 9a4a 12be
000000d0: ce30 2a3e f6af 89bd f6e6 b4be b056 b5bb
000000e0: bafe febd 234e 293d efb9 4dbd cce5 13bd
000000f0: 2e42 f53b 2371 e73c 835f fbbc a59f 1cbe
00000100: 1797 153e ff31 bcbd f532 383d dc0f 803e
00000110: ce3d bcbe c7cc 1dbe 1d36 f83a d456 e9be
00000120: 80c3 d6bd f736 2e3d 554c f7be 97ce acbd
00000130: 09f6 aabd d84d 8bbe e4d5 f7be 078e d3bc
00000140: ec0b a03e 1584 debd 834c b7be 4a68 a6be
00000150: 70dd e8be ff13 35bb 7a53 03be f1e6 0cb9
00000160: 88c7 923b 9898 b93e 8b82 a1bd a7bf ca3c
00000170: 6fb3 20be a19d ecbd 3643 d03d 2654 dfbc
00000180: 6339 cb3d aa9c 2bbe bce3 adbd 2b4b d9bd
00000190: 949c 343d 7fd4 8abd d112 17bd 7735 22be
000001a0: 617a 23bd d082 313e 8a6a 9e3d b8f7 92bc
000001b0: 682a 8fbd 8054 a3bc 5bad 52be 3370 523d
000001c0: 92c7 1dbc 87b0 dbbd fc88 6cbf a887 8cbd
000001d0: e19d f63c 9689 52bc 7fce 51bd 3c9c ca3e
000001e0: 2434 e63d 5d62 4abc 43fd e4bd 22e2 aebd
000001f0: 180b 383e 1b85 1337 a55b 79bd 28fd 013c
00000200: 8ab1 213e cd02 2fbe 5c68 f6bd 9530 b43c
00000210: a765 1a3e 8369 323e 19b6 5dbe 383c ca3d
00000220: 015e d7bd eee2 23bd 710b 513e d26b e03d
00000230: 95dd 1a3c 0fb3 74bd 9d25 b43c 287a fc3c
00000240: c845 b8be 990c 17be 205a 70bd 9a71 0d3c
00000250: 5728 0cbf 43f4 2abd 079b a8bd 96b6 b8bd
00000260: 6ec6 eebd 976d 22be 63c8 423c 3ba9 f23d
00000270: c6c5 893e feb5 d33c 97ef f93c e325 85bd
00000280: ba27 34bd 9eb6 943d f91f 10be 5a89 913d
00000290: 0891 3fbe cf33 353c 4ac5 ecbd 1896 df3c
000002a0: c5a0 583e bff1 c43d d16d 55bd 4494 283e
000002b0: 0dc6 21bf 36de 6c3e 83ab 42be fec1 adbc
000002c0: d4be 153d 12d8 523d ee8e 393d 8dd9 08bf
000002d0: 82ba 23bd eead 1d3e 7aa8 8fbd ba7c 123e
000002e0: 1ce1 44bd 080e 6b3d ca2e 0ebf 252a bf3d
000002f0: ce92 a03d 7131 37bb 901a 4abe dcc3 01bd
00000300: afb7 06ba bc5b dbbd 6a10 173e 00a9 33be
00000310: 9db2 9f3d be5e 0f3c e13d 703d 3462 d1bd
00000320: 5ece 40be 90f7 533e 0105 743c b5d0 c7bd
00000330: cfb5 863d 4fe6 99be 84a0 53bc 7c3e c23d
00000340: ae0f d1be 6468 a4be 9995 90bd dcc9 9fbd
00000350: 4d41 2c3d 0ccd 1cbe 4ceb b23b 0c4d a6bd
00000360: 38c5 fc3c 3d24 24be 3281 60be 3fd5 c63c
00000370: 6109 a3bd 2eb3 ed3d fd50 773d c2c4 0a3d
00000380: ba12 dabd e98c e13c cf25 263e eb3b 183c
00000390: 5a13 8fbe f432 153e 785f 4dbd f62d e53c
000003a0: 4f4f 573d 99a8 513e c7af 96be 4d18 bcbd
000003b0: 9cf3 fdbd a554 cfbc d6cf 81be 404a 07bf
000003c0: ac71 353d 8175 c9bd bc46 ecbc d1ec 6b3c
000003d0: b86a 383e 453f d93d 4172 aa3e 0e85 283d
000003e0: fc9c 8b3e 6a0e 993e 33be 91bc 7e4f de3c
000003f0: 363d 0fbe 8a9a 16be 759d 31be 0b4b 92bd
0.11908374 -0.09676808 -0.13061544 -0.1021765 -0.050617896 -0.08663122 -0.014151672 -0.01964054
-0.03476564 -0.021401169 -0.17278622 -0.47627956 -0.089406535 -0.059413098 -0.07930296 0.039331786
-0.137077 -0.27249488 -0.24045478 1.1027688 -0.3925704 -0.19442144 -0.031373534 -0.32750827
0.09331421 -0.17115664 -0.13092391 -0.07575596 0.08682638 0.15677686 -0.1406535 -0.15013047
-0.14180005 -0.040001873 -0.050203346 0.15804747 0.22555028 -0.123490565 0.03339147 -0.049549352
-0.005343864 0.06279786 0.029607175 -0.07116321 0.17439362 -0.026358228 -0.07469969 0.12059182
0.109588616 0.89612854 -0.20060416 -0.1428627 0.1662018 -0.06723015 -0.3533246 -0.0055340156
-0.12450929 0.041334283 -0.05022615 -0.036107823 0.007484696 0.02825219 -0.030685192 -0.15295275
0.14608417 -0.091892235 0.04497047 0.250121 -0.36765903 -0.15410148 0.0018937025 -0.45574057
-0.104865074 0.042532887 -0.48300424 -0.084378414 -0.08347709 -0.27207828 -0.48405373 -0.02582456
0.31259096 -0.108650364 -0.3580056 -0.3250144 -0.45481443 -0.0027630327 -0.12824813 -0.00013437473
0.0044793524 0.36249232 -0.07886227 0.02474959 -0.15693448 -0.11553503 0.101690695 -0.027261805
0.09923055 -0.16758981 -0.084907025 -0.1061004 0.044094637 -0.06778812 -0.03688318 -0.15840708
-0.03991163 0.17335057 0.077351645 -0.017940387 -0.0699051 -0.019937754 -0.20573942 0.051376533
-0.009630101 -0.10727029 -0.9239652 -0.06861812 0.03010458 -0.012850186 -0.05122232 0.39572322
0.11240414 -0.012352553 -0.11181118 -0.08539225 0.17972982 8.792874e-06 -0.060878415 0.007933892
0.15790382 -0.17090912 -0.12031624 0.021995822 0.1507784 0.17423062 -0.21651496 0.09874767
-0.10515977 -0.04001134 0.20414521 0.10958065 0.009452243 -0.059741076 0.021990592 0.030819967
-0.3599074 -0.147509 -0.0586797 0.008633042 -0.54749054 -0.041736852 -0.08232694 -0.090192005
-0.11658941 -0.15862118 0.011888596 0.118486844 0.26908702 0.025843617 0.030509753 -0.06501367
-0.0439832 0.07261394 -0.14074697 0.07106276 -0.18707669 0.011059715 -0.115610674 0.02729325
0.21155079 0.09616422 -0.052106682 0.16462809 -0.63192827 0.23131642 -0.19010739 -0.021210667
0.03655894 0.051475592 0.045302324 -0.53456956 -0.03997279 0.1539838 -0.07014556 0.14305392
-0.048066244 0.057386428 -0.55540144 0.0933421 0.07840501 -0.0027953053 -0.19736695 -0.031680927
-0.00051390653 -0.10710856 0.14752355 -0.17544937 0.0779774 0.008750616 0.058652762 -0.10223809
-0.18828723 0.20699906 0.014893771 -0.097566046 0.06577646 -0.30058524 -0.012916688 0.09484574
-0.40832275 -0.32110894 -0.070597835 -0.078021735 0.042054463 -0.15312594 0.0054601785 -0.08120164
0.03085576 -0.16029449 -0.21924284 0.024271606 -0.07960773 0.116064414 0.06037997 0.03387905
-0.10648103 0.027533012 0.1622536 0.009291629 -0.27944452 0.14570218 -0.050139874 0.027976017
0.05256587 0.20474471 -0.29430982 -0.091843225 -0.123999804 -0.025308916 -0.2535388 -0.5284767
0.04429786 -0.09836865 -0.028842323 0.014399723 0.1800946 0.10607771 0.33290294 0.041142516
0.27268207 0.2989381 -0.01779089 0.027137514 -0.13988194 -0.1470739 -0.17345221 -0.071432196

fc2.bias f4 [30]
00000000: cfc1 cabe 79b1 ec3e 75d4 e6bd eba8 acbe
00000010: e531 463f 36ab 853e f1dc 4cbe 1941 0b3f
00000020: b4ec 273f 253b 73bd 5aea c6bd 0543 1cbf
00000030: 3ba5 443e 2754 97bf 8940 d6bd cca1 963d
00000040: 39f5 70be 5950 ac3e c55a 91bf 39bc 0d3f
00000050: 80f0 c73e 0bf3 90bf a37a 7c3e 1625 083e
00000060: ad20 67bf a7ed a1bf 33f5 14bf 886c 29bf
00000070: a60c 043f a0b1 363f
-0.3960099 0.4622915 -0.11270992 -0.33722624 0.77419883 0.26107186 -0.20006157 0.54396206
0.65595555 -0.059382576 -0.09712668 -0.61039764 0.19203655 -1.1822556 -0.10461528 0.07355079
-0.23531045 0.3365505 -1.1355826 0.5536533 0.39050674 -1.1324171 0.24656157 0.13295397
-0.90284234 -1.2650651 -0.58186644 -0.6618123 0.515818 0.71364784

fc3.weight f4 [30, 30]
00000000: 6cf4 e2bc e18e 05bf 243f 043e beda eb3d
00000010: 5dab 0bbf 7842 54bd 6803 e4be ef35 513c
00000020: 480d 5dbd ae88 973e 6a45 82bd 24f3 c3bd
00000030: 321e 453e bc5b bcbe 789d 65be 33ac 8e3d
00000040: 0fdd 68be 6038 abbd 9552 183e bace 1b3d
00000050: c2d3 18bf e28e d1bd 8e33 843e 7c15 11bc
00000060: 28ef 16bc 71f2 6cbd 641c 27bd 6020 afbd
00000070: 5585 1bbe 7b63 be3c 8ef4 3b3d e032 f83d
00000080: 520b 0ebf f32e 92bd 3a21 89be f190 92be
00000090: a5d7 8ebe d699 3dbe c0c0 db3d d3c2 3cbe
000000a0: 40d6 7abe 218e 0cbf ae98 26bf 2c6e 223e
000000b0: cc78 d73c 39d0 a53d 22a0 cfbe 2e5a b2bc
000000c0: f375 2dbf 7a32 45be e6cc b5be bd65 13be
000000d0: ca61 993e 5fd6 62be 37d5 8d3d 1d3b 47bc
000000e0: 4e09 0abe 250f 79be 5782 163e 9f53 55be
000000f0: c545 b0be 6c5b 34be 7f65 5ebe e64e 28bd
00000100: 460e e7bd 3d69 03bd 334e 423d acaf 0dbe
00000110: 0c9f 193e 6540 ed3d f414 61be c4e4 f6bd
00000120: 4747 b3be 81c1 94be 8b93 07be ddc7 163a
00000130: f7b6 0cbd a07f 58be 356a 16bd af27 9cbd
00000140: 16d3 9e3d 5c0d e6be f8c2 9c3d 45f6 d03e
00000150: f292 da3d 8ee9 9bbe 72ee 9cbe ad4e 51be
00000160: 30ee 02bd 986c 4abe 8631 3dbe ca50 13bd
00000170: 0d39 80bd f5e7 2ebe 6f1d 0abe 5e18 513d
00000180: 2c6b 6abe c33b c4bd e990 bd3d 03c4 43bc
00000190: 7e58 9abd 5244 ac3c b399 8d3d 9aaa 38be
000001a0: 7caf 9bbe 032c a3bd 987e 2abe bcbf ebbd
000001b0: 6311 d6bd cda8 c23c bf76 a7bc 0b85 b3bd
000001c0: 1b1d adbe d3ce 37bd 3f57 c23c 2a89 c0bd
000001d0: 4faa 8abe a8cd 353c efc1 19be 5c6a 44bd
000001e0: d961 823d 3cf3 5dbe 4e99 923e 96d5 b6bd
000001f0: 167e ecbd 9337 d7bd e682 d0bd ecee 78be
00000200: a023 1fbf 9c84 60bd 101e d73c cbff 2d3d
00000210: 011b f23d 25b2 3cbd 45ec b8be 5022 1ebe
00000220: d555 77be c024 d43c b4ac c1bc 7e6b d8bc
00000230: 0a62 06be 52d0 cb3d ca7c 633d 4771 c1bd
00000240: f99a 21be a5b6 803d d74e 963c 213d c73d
00000250: 8980 f0be 8878 143e d2c5 843c afa7 a83c
00000260: 34da c2be 63e8 01be 80f2 60bd 2c01 01be
00000270: 38be 843b 21c1 6abe 5139 f8be de79 24bc
00000280: 83d7 2b3d 1f37 82bc cbfa 9d3e d3d3 0fbf
00000290: 1f21 203d 7290 0fbe 3e00 9cbe 29d3 763d
000002a0: 2943 34be b7b7 44bd 14cf 51bd 724f d4bd
000002b0: bd65 e9bd d0c4 08be d574 09be 35cd d3be
000002c0: 3183 a0bd 5776 9dbe f49b 043d 8f62 923e
000002d0: 629d 2a3d b853 d9be 7fa8 e8bd b8c7 0ebe
000002e0: fff0 653d d63a 8fbe c717 aebd 0297 b33d
000002f0: fa8a 123c 1e7d 04be 8bcf 82be c43d f4bb
00000300: 3437 8b3e fe92 ab3d 050d e6bd f935 123d
00000310: 0041 a83d 5985 c7bd 59db f4bd 9694 83be
00000320: fbb5 b2bc 3059 9fbd bc18 da3d 4d23 bbbe
00000330: 33c0 853e 4a30 51bd 2bde 7f3d 0664 17bf
00000340: 3a2a 08be fa74 12bf 4566 f7be a008 833c
00000350: 11de adbe 5551 d9bb 3203 23ba a446 01be
00000360: 6107 d73d 85a1 e6bc f4e9 1f3e 178c 5e3d
00000370: ec4b 1abd 9695 9e3d 83b0 d13b d5db 78bd
00000380: d426 26be 94ea 853d 8fc3 0abe 9a7d 7fbe
00000390: 5fc1 893d 9c76 28be 04df 8a3c f83f e7bb
000003a0: 40ce 5f3c 57c1 b53e 88e4 8bbe a777 a1be
000003b0: 45cf e93d 29ec 3abe ae1f 84be ea47 cabe
000003c0: 7497 d03d d65a 843d ab8b 23bd a806 66be
000003d0: af46 96b9 0295 813d 6db6 383d 5425 d83d
000003e0: 2dfc ce3d ac4c 1c3d 348a afbd 809b 38bd
000003f0: 1003 c1bc 32f6 0ebe b68d c73d 5221 02be
-0.02770444 -0.5217114 0.12914711 0.11516331 -0.54558355 -0.051821202 -0.4453385 0.012769206
-0.053967744 0.29596466 -0.06360896 -0.0956786 0.192498 -0.36788738 -0.22423351 0.06966438
-0.22740577 -0.08360362 0.14875253 0.038038947 -0.59698117 -0.10232331 0.25820583 -0.00885522
-0.009212293 -0.057848398 -0.04079856 -0.08551097 -0.15187581 0.023240795 0.045887522 0.12119079
-0.55486023 -0.07137861 -0.26783162 -0.28626207 -0.278989 -0.18515715 0.107301235 -0.18433695
-0.24495792 -0.5490437 -0.6507672 0.1586234 0.026302718 0.08096356 -0.4055186 -0.021771517
-0.677581 -0.19257537 -0.35507888 -0.14394279 0.2995742 -0.22152089 0.06925433 -0.01216009
-0.13480112 -0.24322183 0.14698158 -0.2083268 -0.3442823 -0.17613 -0.21718405 -0.04109087
-0.11282019 -0.032082785 0.047437858 -0.13836545 0.15002078 0.11584548 -0.21980649 -0.12055352
-0.35015318 -0.29053882 -0.13239877 0.0005751828 -0.034354176 -0.21142435 -0.03672238 -0.076247565
0.07755105 -0.44932067 0.07654375 0.4081289 0.10672559 -0.30451626 -0.3065067 -0.20440169
-0.031965435 -0.19767988 -0.18475923 -0.03596572 -0.062608816 -0.17080672 -0.1348779 0.05104863
-0.22892445 -0.09581711 0.09256155 -0.011948588 -0.0753641 0.021028671 0.069140814 -0.1803383
-0.3040732 -0.07967379 -0.16649854 -0.1151118 -0.10452535 0.023762131 -0.020442365 -0.0876561
-0.33811268 -0.044874977 0.023723243 -0.09401162 -0.2708306 0.011096396 -0.15015386 -0.047952995
0.06366319 -0.21674818 0.28632587 -0.08927457 -0.115474865 -0.10508647 -0.10181217 -0.24309891
-0.62163734 -0.054813966 0.026259452 0.04248027 0.11821557 -0.04606833 -0.3611776 -0.15442777
-0.24153836 0.02589643 -0.023641922 -0.026418444 -0.13123336 0.09951843 0.05553893 -0.09445434
-0.15781774 0.06284837 0.01834814 0.09728456 -0.46973065 0.14499104 0.01620761 0.02058777
-0.380571 -0.12686305 -0.054918766 -0.12598103 0.004050996 -0.22925235 -0.4848123 -0.010038821
0.041953575 -0.015895424 0.30855402 -0.56182593 0.039094087 -0.14019945 -0.30468935 0.06025997
-0.17603745 -0.048026767 -0.051222876 -0.103667155 -0.11396358 -0.13356328 -0.13423474 -0.41367498
-0.07837523 -0.3075435 0.03237529 0.2859082 0.041654 -0.42446685 -0.11360263 -0.13943374
0.056138035 -0.27974576 -0.08500629 0.08769037 0.008944267 -0.12938353 -0.25548968 -0.007453652
0.27190554 0.08377646 -0.11232952 0.035696004 0.08215523 -0.09742231 -0.119559 -0.256993
-0.02181529 -0.07780683 0.10649249 -0.3655037 0.261232 -0.051071443 0.062467735 -0.59137
-0.13297358 -0.5720974 -0.48320213 0.015995324 -0.33958486 -0.00663201 -0.00062184327 -0.12624604
0.10499454 -0.02815319 0.1561659 0.05433282 -0.03767006 0.07743375 0.0063992157 -0.060756523
-0.16225749 0.06538883 -0.13551162 -0.24950257 0.06726336 -0.16451496 0.016952045 -0.007057186
0.013660014 0.3549907 -0.27322793 -0.315366 0.11416487 -0.1825415 -0.2580542 -0.3950799
0.101851374 0.06462638 -0.03992812 -0.22463477 -0.00028662893 0.06327249 0.04509585 0.10553995
0.101066925 0.038159057 -0.08571282 -0.04507017 -0.02356103 -0.13961104 0.09743826 -0.12708023

fc3.bias f4 [30]
00000000: 353a 843f f338 a73f 3651 fc3d 5f85 603f
00000010: 13a0 91be 548c 793e 6b9f 27bf 6755 413f
00000020: d089 ca3f 75ec 9ebf 0886 203e a3b5 ae3f
00000030: e801 953e 88f1 ae3f 5024 813f 24a2 2f3c
00000040: d338 d6bd 48c3 60bd 4b5e 6b3e 2ea1 d9bd
00000050: 7a26 8d3f 81ca 0fbf cb1e ba3e ad9c 45bf
00000060: 9946 d43e b89f 1abf a829 98be 533e a43f
00000070: ebb4 09c0 6d57 0cbe
1.0330263 1.3064255 0.12320177 0.8770351 -0.2844244 0.24369937 -0.6547763 0.7552094
1.5823307 -1.2415911 0.15676129 1.3649181 0.29103017 1.366746 1.0089207 0.01071981
-0.10460057 -0.054873735 0.22985189 -0.10626446 1.1027367 -0.5616837 0.36351618 -0.77192193
0.41460112 -0.6039996 -0.2971928 1.283152 -2.1516674 -0.13705225

fc4.weight f4 [10, 30]
00000000: 3b28 ca3d 6362 94bc b7df 2ebe 5664 7ebe
00000010: 2078 8e3d 14df 183e 5f86 503e a790 703d
00000020: 7a1a 903d 7eb7 ca3d 6c95 b1bd 1c9f 5a3e
00000030: f23f 563e 386a 54be 79b2 033d 9bc4 87bd
00000040: 5aef 0ebd 20b0 9bbc 6224 ac3d 6cff 1e3c
00000050: ea6c ae3d 3904 c1be 06a3 c5be 85ce c83d
00000060: 54c6 95bd 8551 093d e325 8d3d 1dd7 40be
00000070: f856 43be 40b0 2b3e 9def aebd e605 86be
00000080: 7949 3abc c9e5 2e3d 9fa7 b8bd b483 8dbe
00000090: 3933 e23d fdf0 30bb 649e ce3d a881 48be
000000a0: d589 003d 3a35 d8be 5ef5 5cbe 670c 503c
000000b0: 5a38 7ebe 1488 96be 9d3b 6e3d 2435 48be
000000c0: 4015 30be 9fb0 d83c cdda 133e 3e7d 6abd
000000d0: 65e7 353b e7ab 203d 81db 863d 3004 2fbe
000000e0: 9f8a 823e 2519 5b3e 26ae 97bc 7600 2a3e
000000f0: 6b05 43be 9df5 48bd ffab f2bd 202e 15be
00000100: e46d 65bc 7d3c 363d 6a5b ee3c 50df 22be
00000110: c483 5ebe cdb9 a0bd fd9a 51bd e270 1ebe
00000120: 866f 9b3d d255 bd3b 5297 d3bb d58a 793d
00000130: a302 843d aa67 29bd 1eb7 863d f3eb fdbd
00000140: b90b 113e 06d8 b53d fd28 d6bc 1df7 d73c
00000150: 5689 8cbd 9f1c a93c 85c1 8f3d 8066 47bd
00000160: 8e02 6cbe 165b 1ebd df5b 8f3e b5b9 fb3d
00000170: 1ce4 88be 9b13 763c 3d4c 7e3b fbef a73e
00000180: a168 b2bd 0bb9 58be 43c0 85bd 461f 0b3d
00000190: af18 72bd d7e8 0bbd bbb4 b23d 8e1e 5b3d
000001a0: aa4f 6c3b c750 503e e523 6c3e 82e4 423e
000001b0: b347 2f3e 6b75 293d e3a3 39be 975a 103e
000001c0: e4d7 8dbe 9d91 293e df09 1c3d 19f7 ac3b
000001d0: 0ecf 25be 36ee b9bc 379d 153e 002e 0a3e
000001e0: 67b4 59bc c667 573d 4301 eb3c 6682 b83b
000001f0: a885 1dbe 1d1b 1d3e abac 1dbe c0a2 203e
00000200: 43b2 5bbb aa15 c4bd c09b 9f3b c9f9 adbd
00000210: 57ef e03d aa0a f7bc a187 35bd d53d 31be
00000220: 50ef abbc 1e3c 1bbb a6b4 3b3e cfa8 c63d
00000230: 3c97 c3bd 892b 163d 983f 41be aaa8 2a3c
00000240: 79a2 1bbe 7f64 26be b39c 143e e386 e83c
00000250: fb72 29be e4b6 e1bd 8631 f4bd 58cb d33a
00000260: 3b39 cabd 2e29 673e 63f3 513d a0ed 21bd
00000270: f07a 9cbc 5e19 27bc 384f 4e3d 453c 883d
00000280: 32dd 0f3e 1f83 e2bd 6e8f d4bd 583f 8a3d
00000290: 7b36 7cbe 2838 733c 1db5 86bd 8ea2 2f3e
000002a0: b3e5 96bd 3d72 64bd b803 18be a6ad f03a
000002b0: 5b8a c33d 157d 20bd 8de4 e9bd f918 f7bd
000002c0: 6a64 70bd 9bb4 f9bd fb5e c0be 00d7 b83d
000002d0: e467 403c 9cf2 7e3d d69a 84bd b9fb 953c
000002e0: 3c17 cabd cf14 733c 537d cf3d e808 6abd
000002f0: ed26 573d 1696 3abd b31d af3d f16e 2bbd
00000300: 64b8 40bc efdf 643d 88ff 87bd dd2d 66bd
00000310: 0c0b 663c 7b48 ae3d daf6 65be 7483 42be
00000320: 84a4 25be c36b 7d3d 543d 463d 11d3 2d3e
00000330: deef 75bb 73fc f0bd 208b 9fbc dec2 a33d
00000340: 9846 d1be 7fb4 683e 154c 6b3e f482 7d3e
00000350: 02d7 ac3d 24f9 e8bc 4540 423c 6afb 9f3d
00000360: 0a84 1abe dd04 7d3d f0c5 a1bc b6b0 9abe
00000370: b0a6 c9bd a3c3 22bd 8f12 cf3d 07a9 673e
00000380: bf4d 36bd 303a 9dbe 32bb 0f3d f675 57bd
00000390: a501 1fbc f8e7 65bb 92f8 d6be 7d06 dfbd
000003a0: 85d9 323d 8542 3fbe 1ade 72bc c041 ddbc
000003b0: fa71 6b3d ed95 3b3e 6ba7 73be 4643 64bc
000003c0: 6022 e73e 4c6a a43e 297a 783d 7a11 89be
000003d0: 9c5d 9f3e e9b7 fa3d d2d5 c8be 656f 83be
000003e0: 46e8 383d 6667 f8bd 7bd7 d9bd 60a2 d23d
000003f0: 9750 97bd 07c2 13be 6e03 5fbd e767 ad3e
0.098709546 -0.01811332 -0.17077528 -0.24842963 0.06956506 0.14928848 0.20363759 0.0587317
0.070363 0.098982796 -0.08671078 0.21349758 0.2092283 -0.20743644 0.032152627 -0.066292964
-0.034896232 -0.019004881 0.08405377 0.009704452 0.085168675 -0.37698534 -0.3860094 0.098050155
-0.07313219 0.03352501 0.06891992 -0.18832059 -0.19076145 0.16766453 -0.08541796 -0.26176375
-0.011370056 0.04269961 -0.09016346 -0.27639544 0.11044926 -0.002699911 0.10088804 -0.1958071
0.031381447 -0.4222811 -0.21577975 0.012698269 -0.24826184 -0.29400694 0.05816232 -0.19551522
-0.17195606 0.026451407 0.14438935 -0.057248347 0.002775633 0.03922644 0.06584836 -0.17091441
0.25496385 0.2139631 -0.018515658 0.16601738 -0.19045036 -0.04906236 -0.11849212 -0.14568377
-0.014003251 0.04449128 0.029096324 -0.159055 -0.21729952 -0.07847939 -0.0511732 -0.15472749
0.07589631 0.005778053 -0.006457248 0.060923416 0.064458154 -0.041358627 0.065778956 -0.12398519
0.14164628 0.08879094 -0.026142592 0.02636295 -0.06862132 0.02064353 0.07019333 -0.048681736
-0.2304785 -0.038661085 0.2799978 0.1229128 -0.26736534 0.015019323 0.0038802766 0.32800278
-0.08711363 -0.21164338 -0.06530812 0.03396537 -0.05910557 -0.0341576 0.08725878 0.053495936
0.0036058226 0.20343314 0.23060568 0.19032481 0.17117195 0.041371744 -0.18128924 0.14097057
-0.27703774 0.16559453 0.03809535 0.00527848 -0.16192266 -0.022696596 0.14610754 0.1349411
-0.01328764 0.0525892 0.028687125 0.005630779 -0.15383017 0.15342374 -0.15397899 0.15687084
-0.0033523 -0.095744446 0.004870862 -0.08494908 0.109831505 -0.030156452 -0.0443188 -0.17308743
-0.020988137 -0.0023686956 0.1833063 0.097001664 -0.0955033 0.036662612 -0.18871915 0.010416189
-0.15198697 -0.16249274 0.14512901 0.028384631 -0.16547768 -0.11021212 -0.11923508 0.0016158624
-0.09874197 0.22574303 0.051257502 -0.039533257 -0.01910159 -0.010198919 0.050368518 0.066521205
0.14049223 -0.110601656 -0.103789195 0.06750363 -0.24630158 0.014844932 -0.06577513 0.17151853
-0.073680304 -0.05577301 -0.14845169 0.0018362298 0.095478736 -0.039181788 -0.11420546 -0.1206531
-0.058689512 -0.12192651 -0.37572464 0.09025383 0.011743519 0.06224309 -0.06474845 0.018308507
-0.09867713 0.014836504 0.101313256 -0.0571374 0.052527357 -0.04555329 0.085505866 -0.04185385
-0.011762712 0.055877622 -0.066405356 -0.056196082 0.01404072 0.08509918 -0.22457448 -0.18995458
-0.16176039 0.061870348 0.04839833 0.16975047 -0.0037527005 -0.11766901 -0.01947552 0.07996152
-0.4087417 0.22725104 0.22978242 0.24756986 0.08439447 -0.028439112 0.011856143 0.07811625
-0.15089431 0.061772216 -0.019747704 -0.30212945 -0.09846246 -0.039737355 0.10110962 0.22623073
-0.04450774 -0.30708456 0.035090633 -0.05260273 -0.009704982 -0.003508089 -0.4198652 -0.108899094
0.043664474 -0.18677719 -0.014823461 -0.027008891 0.057481743 0.18318911 -0.23794334 -0.013932055
0.45143414 0.32112348 0.060663376 -0.26771146 0.31126106 0.12242109 -0.39225632 -0.25670925
0.04514339 -0.12129097 -0.10636803 0.10284877 -0.07388418 -0.14429484 -0.05444663 0.33868334

fc4.bias f4 [10]
00000000: 642d 0b3f 8519 d93f f296 8cbe f519 6dbf
00000010: cdc6 433e 6adc 803e 4bd4 a1be 9dca 6b3f
00000020: 6fbc 443d a6f7 213f
0.54366136 1.6960913 -0.27458912 -0.9261773 0.19118805 0.25168163 -0.3160728 0.9210604
0.048031267 0.63268507

fc5.weight f4 [1, 10]
00000000: 7b6b adbd ed44 983e e952 1dbe d4d1 13be
00000010: 5464 323d 1fd2 823d aa18 a53d 0135 e03e
00000020: 3273 2abe 9cda 8ebe
-0.08467766 0.29740086 -0.15363659 -0.14435512 0.04355271 0.06387734 0.08061345 0.4379044
-0.16645506 -0.2790116

exp_avg f4 [30, 30]
00000000: 5acb f4ba 1d4c 0e38 fa06 f9bd f5dc 5eb9
00000010: 9ad9 6939 bd6c bcb7 dfa0 56b9 d17c 95b9
00000020: f1ce eeb8 ba6f 2cbb b382 e4b8 995a 8937
00000030: 4129 0cba dcea b8b8 2ae8 a7b7 0d02 183c
00000040: c692 d63d 726d 9839 2c03 5637 243f 1cba
00000050: 87db 1b38 e555 86b9 0698 a5b8 3c14 deb8
00000060: 9bf6 a4b9 adf0 31b9 4d67 11b6 d3c9 b638
00000070: efb5 0439 bb34 8538 b098 b9ba 24e0 9638
00000080: bcbd 76be 1d29 afb8 31ad e9ba ce06 e3b8
00000090: 2ecd 7eb7 5543 fa38 6495 86b7 024a afbb
000000a0: a6b1 17b9 0245 20b8 2c04 b039 803c 18b9
000000b0: 8497 57b8 7831 3ebe ecd4 a03e 7f15 4cb9
000000c0: dd00 3737 62a4 a737 d55d 7c38 a8ac 4938
000000d0: a0f9 04b9 f7a0 a5b9 400c 0cb9 3bbb 1cb9
000000e0: 7c26 8ab8 0731 1438 a33b 64b9 00d9 54b9
000000f0: 0000 0000 0000 0000 0000 0000 0000 0000
00000100: 0000 0000 0000 0000 0000 0000 0000 0000
00000110: 0000 0000 0000 0000 0000 0000 0000 0000
00000120: 0000 0000 0000 0000 0000 0000 0000 0000
00000130: 0000 0000 0000 0000 0000 0000 0000 0000
00000140: 0000 0000 0000 0000 0000 0000 0000 0000
00000150: 0000 0000 0000 0000 0000 0000 0000 0000
00000160: 0000 0000 0000 0000 0000 0000 0000 0000
00000170: 0000 0000 0000 0000 0000 0000 0000 0000
00000180: 0000 0000 0000 0000 0000 0000 0000 0000
00000190: 0000 0000 0000 0000 0000 0000 0000 0000
000001a0: 0000 0000 0000 0000 0000 0000 0000 0000
000001b0: 0000 0000 0000 0000 0000 0000 0000 0000
000001c0: 0000 0000 0000 0000 0000 0000 0000 0000
000001d0: 0000 0000 0000 0000 0000 0000 0000 0000
000001e0: 0000 0000 0000 0000 0000 0000 0000 0000
000001f0: 0000 0000 0000 0000 0000 0000 0000 0000
00000200: 0000 0000 0000 0000 0000 0000 0000 0000
00000210: 0000 0000 0000 0000 0000 0000 0000 0000
00000220: 0000 0000 0000 0000 0000 0000 0000 0000
00000230: 0000 0000 0000 0000 0000 0000 0000 0000
00000240: 0000 0000 0000 0000 0000 0000 0000 0000
00000250: 0000 0000 0000 0000 0000 0000 0000 0000
00000260: 0000 0000 0000 0000 0000 0000 0000 0000
00000270: 0000 0000 0000 0000 0000 0000 0000 0000
00000280: 0000 0000 0000 0000 0000 0000 0000 0000
00000290: 0000 0000 0000 0000 0000 0000 0000 0000
000002a0: 0000 0000 0000 0000 0000 0000 0000 0000
000002b0: 0000 0000 0000 0000 0000 0000 0000 0000
000002c0: 0000 0000 0000 0000 0000 0000 0000 0000
000002d0: ab16 b638 8621 fdb6 ad6e d4bc a748 ddb7
000002e0: 2f31 1fb9 8b71 5f38 e168 b138 a31b 37b8
000002f0: d7cd 1fb7 8116 63ba 9d56 a5b6 3c8e df35
00000300: ff16 d3b8 8610 2237 77c2 12b7 f9ee 683c
00000310: 45f5 95bd ccfd 3bb9 781b b2b5 8b1f 3cb8
00000320: 6805 94b7 4805 b637 cc6a c5b6 c945 87b8
00000330: 213a c3b8 355e 2037 4131 cd36 6d33 8e37
00000340: 52c0 4438 0383 3637 2975 79bb 0f47 9038
00000350: 9978 9abd 8dcc 1cb9 4390 6cba 7c75 eab8
00000360: 0035 ffb7 8b03 5cb9 b1cf 1cb8 8f2b 8ebb
00000370: 4e90 e1b8 584b 4cb7 14c6 8cb9 f44c 65b9
00000380: 776b b2b8 3898 4abe 063d 94bf 625c c7b8
00000390: 5dc9 2fb7 50ff a6ba 587f 00b7 c001 2eb9
000003a0: a589 6db8 dec6 9fb9 d72d 36b9 6ca9 8ab9
000003b0: ba9b 42b9 5e2a 5fb9 d66a 57b9 9916 8337
000003c0: 9761 6eb9 188d 0ab8 54d8 2ebd 24ea 3a37
000003d0: 74f6 adb8 bf31 24b8 4c14 4a37 1f8e 6b37
000003e0: 759d 0c37 c4c1 feb9 e8ab efb7 09a7 b636
000003f0: 8371 ddb7 e8df 2437 7079 88b6 93ed 14bd
-0.0018676326 3.3926324e-05 -0.12159534 -0.00021253883 0.00022301674 -2.2461982e-05 -0.0002046856 -0.0002851249
-0.0001138727 -0.0026311711 -0.00010896232 1.637386e-05 -0.00053467235 -8.81755e-05 -2.0016061e-05 0.009277833
0.104772136 0.00029073242 1.27561325e-05 -0.00059603364 3.715933e-05 -0.00025622468 -7.89613e-05 -0.00010589554
-0.00031464253 -0.00016969694 -2.1666813e-06 8.716029e-05 0.00012656277 6.351756e-05 -0.0014159884 7.194307e-05
-0.24095815 -8.352308e-05 -0.0017828104 -0.00010825471 -1.5187352e-05 0.000119334705 -1.604361e-05 -0.0053493986
-0.00014466661 -3.821124e-05 0.00033572444 -0.00014518388 -5.1401104e-05 -0.18573558 0.31412446 -0.00019462964
1.0907851e-05 1.9984498e-05 6.016887e-05 4.8082933e-05 -0.00012681494 -0.0003159118 -0.00013356004 -0.00014947068
-6.587521e-05 3.533161e-05 -0.00021765991 -0.00020298734 0.0 0.0 0.0 0.0
0.0 0.0 0.0 0.0 0.0 0.0 0.0 0.0
0.0 0.0 0.0 0.0 0.0 0.0 0.0 0.0
0.0 0.0 0.0 0.0 0.0 0.0 0.0 0.0
0.0 0.0 0.0 0.0 0.0 0.0 0.0 0.0
0.0 0.0 0.0 0.0 0.0 0.0 0.0 0.0
0.0 0.0 0.0 0.0 0.0 0.0 0.0 0.0
0.0 0.0 0.0 0.0 0.0 0.0 0.0 0.0
0.0 0.0 0.0 0.0 0.0 0.0 0.0 0.0
0.0 0.0 0.0 0.0 0.0 0.0 0.0 0.0
0.0 0.0 0.0 0.0 0.0 0.0 0.0 0.0
0.0 0.0 0.0 0.0 0.0 0.0 0.0 0.0
0.0 0.0 0.0 0.0 0.0 0.0 0.0 0.0
0.0 0.0 0.0 0.0 0.0 0.0 0.0 0.0
0.0 0.0 0.0 0.0 0.0 0.0 0.0 0.0
0.0 0.0 0.0 0.0 8.6826585e-05 -7.54389e-06 -0.02593168 -2.6379084e-05
-0.00015181744 5.327309e-05 8.459553e-05 -4.365634e-05 -9.525064e-06 -0.0008662716 -4.9274663e-06 1.665619e-06
-0.000100655474 9.6598e-06 -8.7475555e-06 0.014217132 -0.07322172 -0.00017928256 -1.3270028e-06 -4.485207e-05
-1.7645492e-05 2.169855e-05 -5.8834903e-06 -6.4503e-05 -9.309152e-05 9.558677e-06 6.11521e-06 1.6951666e-05
4.6909154e-05 1.0878549e-05 -0.0038064218 6.879691e-05 -0.075425334 -0.0001495352 -0.0009024182 -0.00011179873
-3.0423049e-05 -0.00020982155 -3.7386726e-05 -0.0043386887 -0.00010755715 -1.217689e-05 -0.0002685046 -0.00021867809
-8.507718e-05 -0.1978463 -1.1581123 -9.506267e-05 -1.0477696e-05 -0.0012740884 -7.659044e-06 -0.00016594585
-5.6633395e-05 -0.0003047501 -0.00017373949 -0.0002644764 -0.00018559294 -0.0002128272 -0.00020543797 1.562694e-05
-0.00022733804 -3.3033168e-05 -0.042686775 1.1140979e-05 -8.295188e-05 -3.9146977e-05 1.2044864e-05 1.4040182e-05
8.381311e-06 -0.00048591022 -2.857107e-05 5.443468e-06 -2.6398111e-05 9.827294e-06 -4.067253e-06 -0.03635938

exp_avg_sq f4 [30, 30]
00000000: f9e8 ce38 4add 6933 5393 c53f c687 7534
00000010: 4791 4f37 3346 c134 571c 1f35 fa28 ad34
00000020: 219e 3933 a3a1 bc39 f4b1 9534 dfd1 1633
00000030: e736 0a36 ff5b 7a34 f43e 2634 7c50 9f3f
00000040: a4b5 0441 9e76 a035 ad55 db32 69aa a037
00000050: 85c5 4b32 648b 9934 3a48 ae33 8398 e736
00000060: 47e3 2035 5999 8834 a405 2f36 0160 a035
00000070: b406 4335 8fc7 a835 8446 4139 1a4d b033
00000080: dc9a 3b40 2541 e434 ba54 9c37 945f 4c35
00000090: db49 9c35 a729 2f35 43e8 ae33 b97f 263a
000000a0: 4778 0735 3d38 fd33 fed3 8536 313c 1435
000000b0: e8ac 9834 f63c 4b40 8428 9041 3ffb d735
000000c0: ddd2 8233 b333 3038 784a 1733 9819 1035
000000d0: 041f 8534 d452 5437 1f8e 8c35 ef1c 0635
000000e0: 0075 ca36 d783 7236 259a d035 a389 5c36
000000f0: 0000 0000 0000 0000 0000 0000 0000 0000
00000100: 0000 0000 0000 0000 0000 0000 0000 0000
00000110: 0000 0000 0000 0000 0000 0000 0000 0000
00000120: 0000 0000 0000 0000 0000 0000 0000 0000
00000130: 0000 0000 0000 0000 0000 0000 0000 0000
00000140: 0000 0000 0000 0000 0000 0000 0000 0000
00000150: 0000 0000 0000 0000 0000 0000 0000 0000
00000160: 0000 0000 0000 0000 0000 0000 0000 0000
00000170: 0000 0000 0000 0000 0000 0000 0000 0000
00000180: 0000 0000 0000 0000 0000 0000 0000 0000
00000190: 0000 0000 0000 0000 0000 0000 0000 0000
000001a0: 0000 0000 0000 0000 0000 0000 0000 0000
000001b0: 0000 0000 0000 0000 0000 0000 0000 0000
000001c0: 0000 0000 0000 0000 0000 0000 0000 0000
000001d0: 0000 0000 0000 0000 0000 0000 0000 0000
000001e0: 0000 0000 0000 0000 0000 0000 0000 0000
000001f0: 0000 0000 0000 0000 0000 0000 0000 0000
00000200: 0000 0000 0000 0000 0000 0000 0000 0000
00000210: 0000 0000 0000 0000 0000 0000 0000 0000
00000220: 0000 0000 0000 0000 0000 0000 0000 0000
00000230: 0000 0000 0000 0000 0000 0000 0000 0000
00000240: 0000 0000 0000 0000 0000 0000 0000 0000
00000250: 0000 0000 0000 0000 0000 0000 0000 0000
00000260: 0000 0000 0000 0000 0000 0000 0000 0000
00000270: 0000 0000 0000 0000 0000 0000 0000 0000
00000280: 0000 0000 0000 0000 0000 0000 0000 0000
00000290: 0000 0000 0000 0000 0000 0000 0000 0000
000002a0: 0000 0000 0000 0000 0000 0000 0000 0000
000002b0: 0000 0000 0000 0000 0000 0000 0000 0000
000002c0: 0000 0000 0000 0000 0000 0000 0000 0000
000002d0: 8f70 8d38 e631 0a33 d4b8 d23f 7b24 3934
000002e0: 9a58 a136 d700 6e34 e0a0 1c35 7c86 7334
000002f0: 97e9 4333 1364 c039 8781 2134 51ce 1231
00000300: b306 e935 6665 5a34 7fce 2d34 0d44 c23e
00000310: 7c71 8b3f a667 2935 47f5 0633 e881 5537
00000320: 22b0 a731 d661 2a34 f8ec ca32 bee3 2636
00000330: 947a 0d35 6669 4934 26b7 5635 bce7 b634
00000340: f8c0 c134 ef99 db34 d846 f738 36d9 7633
00000350: 8f80 e43d de34 6f34 b912 9537 55fa d134
00000360: 00e5 1d35 5ece ba34 49d9 5833 7cdf df39
00000370: 06b3 8a34 a915 c633 6612 0536 00b2 8734
00000380: e82c 3134 6f47 3840 67ec 9d41 0245 9035
00000390: 2c3a 9932 21d8 aa37 83a6 4e32 baf8 b534
000003a0: f489 9733 705f 3737 d4ce 1b35 6083 8934
000003b0: d732 b236 e3d8 fe35 5a2a 9235 e536 2236
000003c0: ef40 c136 b672 3331 6789 b43c cc08 6932
000003d0: c8f5 8135 2863 a832 157a 1433 527c 9432
000003e0: c43f 3231 c8a0 bb37 d981 a032 dc5f 7430
000003f0: 5e74 0b34 95b7 7332 3da9 3d32 6134 433d
9.86624e-05 5.44508e-08 1.5435585 2.2866797e-07 1.23719865e-05 3.6000128e-07 5.9273356e-07 3.2253575e-07
4.3217486e-08 0.00035978583 2.788289e-07 3.5115473e-08 2.059556e-06 2.3316532e-07 1.5482857e-07 1.2446437
8.294346 1.1955451e-06 2.5533916e-08 1.915284e-05 1.1861066e-08 2.859989e-07 8.115644e-08 6.902091e-06
5.9935377e-07 2.544355e-07 2.6080315e-06 1.194887e-06 7.2652915e-07 1.2575055e-06 0.00018432183 8.209663e-08
2.9313269 4.2515708e-07 1.8636103e-05 7.6135007e-07 1.16444e-06 6.525319e-07 8.1447546e-08 0.00063514296
5.0466446e-07 1.179146e-07 3.988388e-06 5.5221886e-07 2.8438012e-07 3.1755958 18.019783 1.609187e-06
6.0919525e-08 4.200982e-05 3.5225156e-08 5.3681424e-07 2.4795747e-07 1.265547e-05 1.0472176e-06 4.9960994e-07
6.0336897e-06 3.613755e-06 1.554207e-06 3.286267e-06 0.0 0.0 0.0 0.0
0.0 0.0 0.0 0.0 0.0 0.0 0.0 0.0
0.0 0.0 0.0 0.0 0.0 0.0 0.0 0.0
0.0 0.0 0.0 0.0 0.0 0.0 0.0 0.0
0.0 0.0 0.0 0.0 0.0 0.0 0.0 0.0
0.0 0.0 0.0 0.0 0.0 0.0 0.0 0.0
0.0 0.0 0.0 0.0 0.0 0.0 0.0 0.0
0.0 0.0 0.0 0.0 0.0 0.0 0.0 0.0
0.0 0.0 0.0 0.0 0.0 0.0 0.0 0.0
0.0 0.0 0.0 0.0 0.0 0.0 0.0 0.0
0.0 0.0 0.0 0.0 0.0 0.0 0.0 0.0
0.0 0.0 0.0 0.0 0.0 0.0 0.0 0.0
0.0 0.0 0.0 0.0 0.0 0.0 0.0 0.0
0.0 0.0 0.0 0.0 0.0 0.0 0.0 0.0
0.0 0.0 0.0 0.0 0.0 0.0 0.0 0.0
0.0 0.0 0.0 0.0 6.7443696e-05 3.217601e-08 1.6462655 1.7242739e-07
4.8084885e-06 2.2165783e-07 5.834863e-07 2.2680064e-07 4.5614424e-08 0.00036695655 1.5041415e-07 2.1363074e-09
1.7361803e-06 2.033972e-07 1.6187003e-07 0.37942544 1.0894008 6.3108234e-07 3.1422385e-08 1.27260355e-05
4.8803637e-09 1.5868076e-07 2.3623656e-08 2.486849e-06 5.270497e-07 1.8757927e-07 7.998773e-07 3.406875e-07
3.6089455e-07 4.090393e-07 0.000117910735 5.747389e-08 0.11157333 2.2277843e-07 1.7770903e-05 3.9111424e-07
5.8820297e-07 3.4795352e-07 5.048904e-08 0.00042700383 2.583476e-07 9.2240334e-08 1.9829254e-06 2.5275222e-07
1.6500746e-07 2.87936 19.74043 1.074892e-06 1.7837998e-08 2.0366222e-05 1.20286385e-08 3.389485e-07
7.056579e-08 1.0929871e-05 5.8042974e-07 2.5613826e-07 5.310732e-06 1.8987597e-06 1.0890174e-06 2.4171834e-06
5.7594075e-06 2.6113134e-09 0.022038175 1.3564385e-08 9.682781e-07 1.9602865e-08 3.4569968e-08 1.7286002e-08
2.5938656e-09 2.2367007e-05 1.86855e-08 8.890291e-10 1.2987718e-07 1.4186203e-08 1.1039728e-08 0.047657374

exp_avg f4 [30]
00000000: 92e7 63b8 c2ea 08b8 0000 0000 0000 0000
00000010: 0000 0000 0000 0000 2279 1536 8438 b7b8
00000020: 1111 8ab7 0000 0000 e96b 60b8 d89f 4b37
00000030: 0000 0000 0000 0000 601f f837 0000 0000
00000040: 0000 0000 c61c 4fb8 6ad7 c1b6 0c4d 08b4
00000050: 79b6 c037 0000 0000 a610 cf37 e5dc ed36
00000060: 2f10 1c38 2e73 0636 0000 0000 0000 0000
00000070: d1d9 11b8 2366 6e3a
-5.4336684e-05 -3.2643562e-05 0.0 0.0 0.0 0.0 2.2273239e-06 -8.736647e-05
-1.645883e-05 0.0 -5.350626e-05 1.2136959e-05 0.0 0.0 2.9578514e-05 0.0
0.0 -4.9379443e-05 -5.7769257e-06 -1.2694017e-07 2.2973154e-05 0.0 2.4684075e-05 7.088866e-06
3.720837e-05 2.00346e-06 0.0 0.0 -3.477355e-05 0.0009094199

exp_avg_sq f4 [30]
00000000: a34f a133 9ed9 1b34 0000 0000 0000 0000
00000010: 0000 0000 0000 0000 c1cb 6c33 c825 ac33
00000020: b085 aa31 0000 0000 6ff2 1533 90f2 e032
00000030: 0000 0000 0000 0000 bdc7 4132 0000 0000
00000040: 0000 0000 0d95 8b32 a00e 7a32 716a d72f
00000050: 5670 e432 0000 0000 b2eb e032 8d85 8933
00000060: dbc2 0d34 3ca9 c332 0000 0000 0000 0000
00000070: 3f8b 5834 c22e 4e37
7.5116326e-08 1.4514669e-07 0.0 0.0 0.0 0.0 5.5133345e-08 8.0162465e-08
4.9628497e-09 0.0 3.4912258e-08 2.6187337e-08 0.0 0.0 1.1279494e-08 0.0
0.0 1.624951e-08 1.4555241e-08 3.9183903e-10 2.6593778e-08 0.0 2.6184214e-08 6.4038524e-08
1.3202536e-07 2.2777947e-08 0.0 0.0 2.0167225e-07 1.22894435e-05

exp_avg f4 [30, 30]
00000000: ea7e 25bc 5dae 60bc 0000 0000 0000 0000
00000010: 0000 0000 0000 0000 a5f5 a13b 1280 2b39
00000020: 0400 0000 0000 0000 756a 203c 35ba 0a39
00000030: 0000 0000 0000 0000 cb58 66bc 0000 0000
00000040: 0000 0000 81a2 79b9 9c76 74a0 7660 4eaf
00000050: 73d4 3b39 0000 0000 5e2a 11bd 7b06 08ba
00000060: 712c a9bb 9cfc 3c3c 0000 0000 0000 0000
00000070: 1847 f3bc b208 3dbb dd10 17bb fd73 3ebb
00000080: 0000 0000 0000 0000 0000 0000 0000 0000
00000090: 05e7 5c39 85bc 58ba bfee 333a 0000 0000
000000a0: bd20 8fba e740 43bb 0000 0000 0000 0000
000000b0: 2657 993b 0000 0000 0000 0000 28e9 cebb
000000c0: 22a2 a337 fec3 79b6 94dd 8139 0000 0000
000000d0: 173a a63c 5d67 43bb 38e1 97bb 429a f3ba
000000e0: 0000 0000 0000 0000 82d9 653d 356a 323a
000000f0: 2bf3 b93d f26e 4dba 0000 0000 0000 0000
00000100: 0000 0000 0000 0000 0f16 a939 1873 693b
00000110: 3703 fe39 0000 0000 0d7b 5d3e 153e b6b9
00000120: 0000 0000 0000 0000 5b5a 1dba 0000 0000
00000130: 0000 0000 f966 d2b9 2004 4638 0000 0000
00000140: f4e6 383c 0000 0000 35d0 5ab9 7a30 5e3b
00000150: c38c 6939 bff2 3c3e 0000 0000 0000 0000
00000160: 4492 023e 7ee9 d43a 37c3 17bc d603 a3bc
00000170: 0000 0000 0000 0000 0000 0000 0000 0000
00000180: 44e8 51bb 4344 b7b6 37ad 1b16 0000 0000
00000190: 3f5c 9c3a 97ea 6935 0000 0000 0000 0000
000001a0: df01 f838 0000 0000 0000 0000 513b 8bba
000001b0: e0ab 6818 0400 0080 2fdf b131 0000 0000
000001c0: a97b a939 f03e 49bb 0122 ed38 f19f 41b9
000001d0: 0000 0000 0000 0000 1734 d6bb 64ec 54bb
000001e0: e435 1fbd 933b 59bd 0000 0000 0000 0000
000001f0: 0000 0000 0000 0000 f63f b53b e036 fab8
00000200: 5be9 bd39 0000 0000 e2cb f339 0547 bcba
00000210: 0000 0000 0000 0000 0000 0000 0000 0000
00000220: 0000 0000 552d a8bc 20fa 0039 0000 0000
00000230: 5201 7534 0000 0000 688c d7b4 a57d 01bc
00000240: f985 0080 697d d4b9 0000 0000 0000 0000
00000250: 6e03 b9ba 90b2 c2ba 07e0 a1bc 5cf3 fc3b
00000260: 0000 0000 0000 0000 0000 0000 0000 0000
00000270: fc96 a73a 41e8 cf39 f44c b5bb 0000 0000
00000280: 3b7f 61bc cd37 e13a 0000 0000 0000 0000
00000290: 82c0 8939 0000 0000 0000 0000 862e d93b
000002a0: 2e09 35ba 0000 0000 0242 5e3a 0000 0000
000002b0: 628f 9237 d4fa a6b9 2220 5a3a 77b0 e3bc
000002c0: 0000 0000 0000 0000 4cde 03bd 8f38 8eba
000002d0: 9fe1 8a3a e3b3 ecba 0000 0000 0000 0000
000002e0: 0000 0000 0000 0000 b65a b138 7370 d9b8
000002f0: 55fd 8015 0000 0000 f62f 4239 14df 15ba
00000300: 0000 0000 0000 0000 c289 ec3c 0000 0000
00000310: 0000 0000 2939 6d3b e541 1615 b922 18b0
00000320: 256f 2c38 0000 0000 47e3 723c ba24 e3b6
00000330: d5af 813d f439 ee39 0000 0000 0000 0000
00000340: a5b5 753c 3114 c13a 9788 2ebb ca08 7e3c
00000350: 0000 0000 0000 0000 0000 0000 0000 0000
00000360: 97bf abb8 5637 63b6 b6fc f5b5 0000 0000
00000370: 7bd2 0c3b d396 603c 0000 0000 0000 0000
00000380: debf bfa2 0000 0000 0000 0000 cf1d b33b
00000390: de21 80b6 0400 0000 c768 06b6 0000 0000
000003a0: f07e f6b3 eced 713b 8a17 b912 316a fe3a
000003b0: 0000 0000 0000 0000 83fa 6d3a 6f90 6638
000003c0: 773c 6abd 7b7a 2cbc 0000 0000 0000 0000
000003d0: 0000 0000 0000 0000 0845 f6ba 7489 5db9
000003e0: e5c3 6cbb 0000 0000 1110 04bd a13a afbc
000003f0: 0000 0000 0000 0000 91e8 13b8 0000 0000
-0.010101059 -0.013713446 0.0 0.0 0.0 0.0 0.004942613 0.0001635554
6e-45 0.0 0.009791006 0.00013230073 0.0 0.0 -0.014059256 0.0
0.0 -0.00023807028 -2.0706848e-19 -1.876986e-10 0.00017912853 0.0 -0.035440795 -0.0005188954
-0.0051627685 0.011534836 0.0 0.0 -0.029696986 -0.0028844294 -0.0023050823 -0.0029060834
0.0 0.0 0.0 0.0 0.00021066896 -0.00082678377 0.0006863884 0.0
-0.0010919791 -0.0029793323 0.0 0.0 0.0046795784 0.0 0.0 -0.0063144155
1.9506613e-05 -3.7217974e-06 0.00024769886 0.0 0.020291371 -0.0029816248 -0.0046350025 -0.0018585401
0.0 0.0 0.056115635 0.0006805987 0.09079584 -0.00078366615 0.0 0.0
0.0 0.0 0.00032250627 0.003562158 0.0004844905 0.0 0.21628971 -0.0003476
0.0 0.0 -0.0006002539 0.0 0.0 -0.00040131042 4.721072e-05 0.0
0.011285532 0.0 -0.00020867663 0.0033903406 0.0002227305 0.18451975 0.0 0.0
0.12751108 0.0016243903 -0.009262851 -0.01989929 0.0 0.0 0.0 0.0
-0.003202931 -5.4617717e-06 1.2575457e-25 0.0 0.0011929347 8.7140637e-07 0.0 0.0
0.0001182591 0.0 0.0 -0.0010622536 3.0072072e-24 -6e-45 5.176751e-09 0.0
0.00032326326 -0.003070768 0.000113073744 -0.00018465497 0.0 0.0 -0.0065369713 -0.0032489533
-0.038869753 -0.05303533 0.0 0.0 0.0 0.0 0.0055313064 -0.0001193115
0.00036222753 0.0 0.00046500476 -0.0014364427 0.0 0.0 0.0 0.0
0.0 -0.020529428 0.0001230021 0.0 2.2817883e-07 0.0 -4.014903e-07 -0.007903491
-4.806e-41 -0.0004052923 0.0 0.0 -0.0014115402 -0.0014854241 -0.019760145 0.0077194404
0.0 0.0 0.0 0.0 0.0012786086 0.0003965516 -0.005532855 0.0
-0.013763244 0.0017182768 0.0 0.0 0.00026274106 0.0 0.0 0.0066278605
-0.000690597 0.0 0.0008478464 0.0 1.7471324e-05 -0.0003184887 0.0008320828 -0.027794106
0.0 0.0 -0.03219442 -0.0010850596 0.0010595805 -0.0018058982 0.0 0.0
0.0 0.0 8.456914e-05 -0.000103683116 5.2098476e-26 0.0 0.00018519149 -0.000571714
0.0 0.0 0.028874282 0.0 0.0 0.00361974 3.034424e-26 -5.534662e-10
4.1111507e-05 0.0 0.014824695 -6.7694027e-06 0.063323654 0.00045438076 0.0 0.0
0.014996921 0.0014730749 -0.0026631707 0.015505025 0.0 0.0 0.0 0.0
-8.189602e-05 -3.3857846e-06 -1.8327471e-06 0.0 0.002148776 0.013707834 0.0 0.0
-5.19738e-18 0.0 0.0 0.0054662 -3.81864e-06 6e-45 -2.0028544e-06 0.0
-1.14783575e-07 0.0036915494 1.1680944e-27 0.001941031 0.0 0.0 0.00090781617 5.4970787e-05
-0.05718657 -0.0105272485 0.0 0.0 0.0 0.0 -0.0018788883 -0.00021127408
-0.0036127504 0.0 -0.032241885 -0.021390261 0.0 0.0 -3.5264125e-05 0.0
