ch-04/lightning_logs/version_3/checkpoints/epoch=799-step=28000.ckpt (torch, 47880 bytes, 27 tensors)

fc1.weight f4 [30, 30]
0.6134163 1.1635957 -0.041183006 1.9929532 1.9787334 0.8712408 0.39048728 2.4445
2.360578 0.4201577 2.5082011 1.6301041 1.9741539 0.5028291 -1.3200668 -0.08465499
0.0027913123 0.101656675 -7.6418896 0.07103868 -4.1154575 0.9769419 4.924058 -0.16489992
0.11962819 1.0078405 0.14093284 -0.8052856 -0.7205961 0.48927167 0.0011977638 -1.2308459
0.090361655 0.4185721 0.8184856 -2.9144206 -2.1561794 -1.0605749 -0.46065387 -0.21291715
1.7470855 1.2037976 -2.1162727 -0.578266 -5.392959 -0.110372186 0.02533852 -5.1196
-11.173147 -3.2920337 -8.964451 2.5671647 1.5971876 0.76629096 2.379661 2.1272852
2.19258 0.8811485 0.33012035 1.5959156 0.01149555 -0.12461422 0.056297112 -0.062875316
0.0559437 -0.038037777 0.15142554 -0.10821207 -0.108886875 -0.10889345 0.16421503 0.06084305
0.17568214 -0.15067413 -0.18109097 -0.14283943 -0.12281566 0.07394987 0.06537541 0.15170534
-0.09428594 -0.12446298 0.09686987 -0.0737973 0.11080862 -0.04332497 0.104440816 -0.1418543
-0.09213602 0.05566257 0.03101959 -0.046548884 0.101248845 0.11653983 -0.13997443 -0.105044045
0.15959936 -0.06918299 -0.07229903 -0.18423572 -0.11212829 0.0456077 -0.031674348 -0.14010376
-0.0032932346 -0.132291 -0.16247328 -0.108114064 -0.16736466 -0.12382969 0.18250278 0.026910119
0.05626201 -0.17786145 -0.12748644 -0.068346664 0.028549328 -0.16065091 -0.07866629 -0.109301426
0.00050596026 -0.06793644 -0.012651618 -0.12371769 -0.12531804 -0.1065141 -0.062494673 -0.14410232
0.15308295 -0.03623441 0.15708624 0.056886844 -0.15460327 0.12634777 -0.05023434 -0.06998544
-0.15154944 -0.18150806 0.052236415 -0.039882213 0.07108035 -0.14983197 0.1355484 -0.13401926
-0.031525694 0.038134214 0.09425425 0.14739403 0.16631764 -0.1447671 0.045947943 -0.078529894
-0.020007357 -0.13665497 0.16629927 -0.1340004 0.097577 0.0641638 0.059328564 -0.09870803
0.16595109 0.04012075 0.023486353 -0.16089438 0.076642536 -0.027389888 -0.08364166 0.15682146
0.040704694 -0.10101399 -0.0924079 -0.008718961 0.10194235 -0.046653878 -0.104172245 -0.06252123
-0.13639657 0.06511188 0.14131977 -0.1718827 1.6344669 1.1626408 0.109587476 1.1978029
0.55764544 -0.6732192 1.0016333 -0.50968933 2.5463798 0.91658974 -0.1507829 2.5280926
-1.0932777 0.75873035 0.91169536 -0.15607841 -0.044826806 2.8798103 6.415791 1.2361096
1.5045896 0.17245641 0.5262854 0.7445715 1.3737051 0.51604366 -3.3920555 -3.4643273
-0.20071813 -3.5710409 3.503889 -3.1915836 -0.14935903 3.3642187 -2.2228026 0.37344393
-2.0108218 6.491629 -1.0918131 0.70821255 3.5658364 -0.64523655 -1.5925356 4.622086
-2.62616 0.0037569187 0.0012394831 -2.6406424 -2.92277 1.1074167 1.8817642 1.1700966
3.871448 0.5740432 3.3975425 7.8274155 0.13244195 -1.3423918 -0.8429877 0.07679077
-2.4505959 7.2233634 -0.23815766 -4.9987407 1.1991684 3.5477877 -1.2643169 -3.4012928
-1.5371655 0.14639014 -1.3479978 -4.629632 1.4661467 -2.8141568 3.829445 -0.23713517
00000000: da08 1d3f b4f0 943f 83af 28bd 1719 ff3f
00000010: 2347 fd3f a309 5f3f f3ed c73e b072 1c40
00000020: b613 1740 e91e d73e 5e86 2040 40a7 d03f
00000030: 13b1 fc3f 68b9 003f f3f7 a8bf 985f adbd
00000040: 73ee 363b 6031 d03d 5c8a f4c0 ba7c 913d
00000050: d4b1 83c0 dd18 7a3f e291 9d40 86db 28be
00000060: a0ff f43d eb00 813f b350 103e 3227 4ebf
00000070: fc78 38bf d181 fa3e 49fe 9c3a 5c8c 9dbf
00000080: 880f b93d 154f d63e 4688 513f de85 3ac0
00000090: d8fe 09c0 ebc0 87bf d3da ebbe f406 5abe
000000a0: 7fa0 df3f 0a16 9a3f 0371 07c0 3e09 14bf
000000b0: 1f93 acc0 d00a e2bd ba92 cf3c c3d3 a3c0
000000c0: 36c5 32c1 aeb0 52c0 646e 0fc1 6d4c 2440
000000d0: a570 cc3f a52b 443f 5e4c 1840 7125 0840
000000e0: 3b53 0c40 f392 613f 8905 a93e f646 cc3f
000000f0: d557 3c3c bd35 ffbd cd97 663d c6c4 80bd
00000100: 3925 653d 80cd 1bbd 4c0f 1b3e 4a9e ddbd
00000110: 1500 dfbd 8703 dfbd fc27 283e 9036 793d
00000120: 05e6 333e 524a 1abe e96f 39be 8044 12be
00000130: c786 fbbd 0873 973d 8be3 853d a558 1b3e
00000140: fd18 c1bd 72e6 febd b663 c63d 0a23 97bd
00000150: a1ef e23d 8675 31bd 11e5 d53d 4142 11be
00000160: cfb1 bcbd 6ffe 633d cc1c fe3c 0baa 3ebd
00000170: 8e5b cf3d 6fac ee3d 7555 0fbe 5521 d7bd
00000180: 046e 233e d0af 8dbd 8411 94bd 4aa8 3cbe
00000190: 84a3 e5bd 24cf 3a3d f6bc 01bd 5c77 0fbe
000001a0: 4fd3 57bb 4b77 07be 655f 26be e86a ddbd
000001b0: a461 2bbe 6c9a fdbd 02e2 3a3e 9c72 dc3c
000001c0: fe72 663d 5021 36be ce8b 02be 56f9 8bbd
000001d0: 48e0 e93c ac81 24be cb1b a1bd 6dd9 dfbd
000001e0: 6ba2 043a 4322 8bbd bb48 4fbc b35f fdbd
000001f0: 5f53 00be 1124 dabd 6afa 7fbd 8f8f 13be
00000200: c7c1 1c3e 886a 14bd 37db 203e 2e02 693d
00000210: 5250 1ebe 4f61 013e 86c2 4dbd 8754 8fbd
00000220: c72f 1bbe 40dd 39be daf5 553d 885b 23bd
00000230: 9392 913d 8d6d 19be 33cd 0a3e 583c 09be
00000240: 1621 01bd 9f32 1c3d 5f08 c13d 76ee 163e
00000250: 2c4f 2a3e d43d 14be e933 3c3d 48d4 a0bd
00000260: 78e6 a3bc 48ef 0bbe 5b4a 2a3e 6737 09be
00000270: 73d6 c73d 4f68 833d 8202 733d 7027 cabd
00000280: 15ef 293e a855 243d 7466 c03c 7fc1 24be
00000290: c3f6 9c3d c260 e0bc 524c abbd ce95 203e
000002a0: f7b9 263d 6ce0 cebd 5a40 bdbd f9d9 0ebc
000002b0: 27c7 d03d 2318 3fbd 4258 d5bd 210b 80bd
000002c0: 8bab 0bbe 6159 853d 21b6 103e 0502 30be
000002d0: 3636 d13f 6ad1 943f 666f e03d 9b51 993f
000002e0: dac1 0e3f 1858 2cbf 8535 803f 007b 02bf
000002f0: e3f7 2240 a0a5 6a3f d566 1abe 45cc 2140
00000300: 86f0 8bbf 273c 423f de64 693f 05d3 1fbe
00000310: 509c 37bd d04e 3840 294e cd40 d738 9e3f
00000320: 6496 c03f 6a98 303e a4ba 063f 3d9c 3e3f
00000330: 92d5 af3f 701b 043f 7017 59c0 8ab7 5dc0
00000340: 0e89 4dbe ef8b 64c0 b83f 6040 e842 4cc0
00000350: 93f1 18be 5c4f 5740 6642 0ec0 0b34 bf3e
00000360: 4eb1 00c0 6dbb cf40 88c0 8bbf 6b4d 353f
00000370: aa36 6440 392e 25bf 35d8 cbbf 21e8 9340
00000380: 0113 28c0 a336 763b 2776 a23a 4900 29c0
00000390: aa0e 3bc0 d5bf 8d3f a6dd f03f bac5 953f
000003a0: cec5 7740 7ff4 123f 5671 5940 307a fa40
000003b0: dd9e 073e 7fd3 abbf 0bce 57bf 7b44 9d3d
000003c0: 90d6 1cc0 cb25 e740 9adf 73be aff5 9fc0
000003d0: 5a7e 993f f40e 6340 23d5 a1bf c8ae 59c0
000003e0: d7c1 c4bf 4ce7 153e 318b acbf f225 94c0
000003f0: b2aa bb3f 251b 34c0 a015 7540 90d3 72be

fc1.bias f4 [30]
0.59148943 -1.192664 0.16486004 -0.0069904914 0.036819898 0.06331028 1.2198671 1.9921995
0.68138224 -0.1220099 0.6442154 -0.33496648 0.12932575 0.07629847 -0.4966486 -0.074090034
-0.11212614 1.0589528 0.9460397 -0.704364 1.0517753 0.15707058 -0.9413834 1.6563224
0.5226023 -0.12466148 -0.057545874 0.16379763 0.59763634 -1.2336948
00000000: da6b 173f 37a9 98bf 12d1 283e 7e10 e5bb
00000010: 76d0 163d d2a8 813d 9b24 9c3f 6500 ff3f
00000020: 116f 2e3f 54e0 f9bd 4deb 243f ba80 abbe
00000030: f86d 043e 5f42 9c3d ba48 febe 84bc 97bd
00000040: 64a2 e5bd c48b 873f a82f 723f 3351 34bf
00000050: 93a0 863f 1cd7 203e 81fe 70bf 5f02 d43f
00000060: 44c9 053f 854e ffbd 39b5 6bbd 91ba 273e
00000070: b2fe 183f b6e9 9dbf

fc2.weight f4 [30, 30]
0.17218412 -0.0039270106 -0.13061544 -0.1021765 -0.050617896 -0.08663122 -0.20157571 -0.3054224
-0.15181874 -0.021401169 -0.01749363 -1.1379507 -0.089406535 -0.059413098 -0.08588748 0.039331786
-0.137077 -0.5953792 -0.29024372 1.4439968 -0.84698254 -0.19442144 -0.18379213 -0.0387349
0.07549915 -0.017019818 -0.13092391 -0.07575596 0.10329789 0.033768825 -0.19660032 -0.33017728
-0.14180005 -0.040001873 -0.050203346 0.15804747 0.47572646 0.14245053 -0.13572514 -0.049549352
-0.038316805 -0.04079969 0.029607175 -0.07116321 0.16017798 -0.026358228 -0.07469969 0.028781101
0.17048654 1.3068309 -0.11427107 -0.1428627 0.11583659 -0.16167177 -0.4071502 -0.018984243
-0.12450929 0.041334283 -0.0035417315 0.41073322 -0.016561436 0.044401653 -0.030685192 -0.15295275
0.14608417 -0.091892235 0.080354646 0.5322804 -0.55736935 -0.15410148 -0.0065495954 -0.7084646
-0.104865074 0.042532887 -0.7534956 -0.084378414 -0.08347709 -0.6147445 -1.2907673 0.054480694
0.35266173 -0.108650364 -0.7380707 -0.7647328 -1.110974 0.005793143 -0.12824813 -0.00013437473
0.031267524 0.38014916 -0.12315486 -0.10148218 -0.15693448 -0.11553503 0.101690695 -0.027261805
0.08806438 0.05930771 -0.20252872 -0.1061004 0.0009416777 -0.13477044 -0.03688318 -0.15840708
-0.08409247 0.17335057 0.077351645 0.084184356 -0.331439 0.02153109 -0.31009385 0.051376533
-0.03984356 0.15233667 -1.1511511 -0.044556513 0.03010458 -0.012850186 -0.117244676 0.8566104
0.085337065 0.0519654 -0.11181118 -0.08539225 0.17972982 8.792874e-06 -0.20608401 0.13199733
0.15596272 -0.17090912 -0.46905777 -0.04413042 0.1507784 0.17423062 -0.1681738 0.09874767
-0.10515977 -0.0047821593 0.0774075 0.10958065 -0.20366667 -0.059741076 -0.16717133 0.15478317
-0.07600135 -0.27478072 -0.0586797 0.008633042 -0.84992564 0.09313388 -0.030172395 -0.18820748
-0.11658941 -0.15862118 0.011888596 0.118486844 0.30010122 -0.29078078 0.06197997 -0.06501367
-0.004075987 0.014050037 -0.14074697 0.07106276 -0.67565006 0.011059715 -0.115610674 0.14490055
0.49028572 0.03092149 -0.1261085 0.16462809 -1.4510934 0.2887183 -0.23321053 0.020977588
0.03655894 0.051475592 0.026568059 -1.4874225 -0.017486664 0.11124839 -0.07014556 0.14305392
-0.048066244 0.057386428 -1.2144037 -0.6988067 0.062266987 -0.0027953053 -0.75619674 -0.14163643
-0.00051390653 -0.10710856 0.21293709 -0.17544937 0.0779774 -0.047004938 0.15852518 -0.5404649
-0.6238795 0.20699906 -0.00326863 0.055509478 0.06990984 -0.93553776 -0.012916688 0.09484574
-0.58110756 -0.6047425 -0.06880852 -0.10890255 0.042054463 -0.15312594 0.0054601785 -0.08120164
-0.0093615865 0.15638414 -0.01294097 0.024271606 -0.025432508 0.08501821 0.06037997 0.03387905
-0.050873693 0.027533012 0.1622536 0.011316806 0.40028423 -0.14020227 0.21327268 0.027976017
0.04922907 0.41893333 -0.3485087 -0.018301941 -0.123999804 -0.025308916 -0.110095195 -1.592037
0.04824914 -0.20237346 -0.028842323 0.014399723 0.1800946 0.10607771 0.3657741 0.16329384
0.50508267 0.2989381 -0.034563612 -0.04294362 -0.13988194 -0.1470739 -0.12421809 -0.071432196
00000000: 0951 303e 27ae 80bb 0ec0 05be ea41 d1bd
00000010: b654 4fbd b66b b1bd dd69 4ebe 5360 9cbe
00000020: 5f76 1bbe 8151 afbc cd4e 8fbc 5ea8 91bf
00000030: c61a b7bd 265b 73bd c6e5 afbd 5e1a 213d
00000040: ea5d 0cbe c56a 18bf d39a 94be e3d4 b83f
00000050: d9d3 58bf 6a16 47be 0134 3cbe 7da8 1ebd
00000060: 4c9f 9a3d 256d 8bbc eb10 06be f125 9bbd
00000070: d88d d33d 2e51 0a3d 9851 49be ff0c a9be
00000080: 0834 11be 01d9 23bd 06a2 4dbd 32d7 213e
00000090: 6b92 f33e 8dde 113e 88fb 0abe 43f4 4abd
000000a0: 15f2 1cbd 931d 27bd bf8a f23c 04be 91bd
000000b0: b205 243e 36ed d7bc 27fc 98bd 58c6 eb3c
000000c0: 0694 2e3e 3c46 a73f f306 eabd 9a4a 12be
000000d0: bc3b ed3d 498d 25be fe75 d0be d884 9bbc
000000e0: bafe febd 234e 293d 651c 68bb a04b d23e
000000f0: d9ab 87bc 82de 353d 835f fbbc a59f 1cbe
00000100: 1797 153e ff31 bcbd fa90 a43d 8743 083f
00000110: c2af 0ebf c7cc 1dbe fd9d d6bb f05d 35bf
00000120: 80c3 d6bd f736 2e3d 16e5 40bf 97ce acbd
00000130: 09f6 aabd e55f 1dbf dd37 a5bf 2627 5f3d
00000140: 1490 b43e 1584 debd 34f2 3cbf 87c5 43bf
00000150: 6534 8ebf 68d4 bd3b 7a53 03be f1e6 0cb9
00000160: 6012 003d e9a2 c23e 9e38 fcbd e4d5 cfbd
00000170: 6fb3 20be a19d ecbd 3643 d03d 2654 dfbc
00000180: 195b b43d a4ec 723d b063 4fbe 2b4b d9bd
00000190: ecda 763a 4301 0abe d112 17bd 7735 22be
000001a0: ac38 acbd d082 313e 8a6a 9e3d d968 ac3d
000001b0: 5fb2 a9be f861 b03c 9fc4 9ebe 3370 523d
000001c0: 0033 23bd 25fe 1b3e eb58 93bf e480 36bd
000001d0: e19d f63c 9689 52bc fa1d f0bd d24a 5b3f
000001e0: 33c5 ae3d acd9 543d 43fd e4bd 22e2 aebd
000001f0: 180b 383e 1b85 1337 b007 53be 4f2a 073e
00000200: b1b4 1f3e cd02 2fbe 5728 f0be 19c2 34bd
00000210: a765 1a3e 8369 323e c135 2cbe 383c ca3d
00000220: 015e d7bd a9b3 9cbb d387 9e3d d26b e03d
00000230: ff8d 50be 0fb3 74bd f62e 2bbe 7b7f 1e3e
00000240: 99a6 9bbd 0fb0 8cbe 205a 70bd 9a71 0d3c
00000250: ba94 59bf fabc be3d 192c f7bc 76b9 40be
00000260: 6ec6 eebd 976d 22be 63c8 423c 3ba9 f23d
00000270: dea6 993e 38e1 94be b6de 7d3d e325 85bd
00000280: db8f 85bb 2032 663c f91f 10be 5a89 913d
00000290: 67f7 2cbf cf33 353c 4ac5 ecbd cf60 143e
000002a0: bb06 fb3e 114f fd3c 9622 01be 4494 283e
000002b0: 6ebd b9bf e3d2 933e bece 6ebe 31d9 ab3c
000002c0: d4be 153d 12d8 523d 42a5 d93c dc63 bebf
000002d0: 3140 8fbc 32d6 e33d 7aa8 8fbd ba7c 123e
000002e0: 1ce1 44bd 080e 6b3d 9571 9bbf ffe4 32bf
000002f0: ab0b 7f3d 7131 37bb 1c96 41bf 2409 11be
00000300: afb7 06ba bc5b dbbd 2e0c 5a3e 00a9 33be
00000310: 9db2 9f3d 4088 40bd 6d54 223e e85b 0abf
00000320: 91b6 1fbf 90f7 533e 8336 56bb e85d 633d
00000330: e42c 8f3d 677f 6fbf 84a0 53bc 7c3e c23d
00000340: 77c3 14bf 68d0 1abf 7beb 8cbd 4d08 dfbd
00000350: 4d41 2c3d 0ccd 1cbe 4ceb b23b 0c4d a6bd
00000360: 5761 19bc 2a23 203e 5d06 54bc 3fd5 c63c
00000370: d657 d0bc 071e ae3d fd50 773d c2c4 0a3d
00000380: ef60 50bd e98c e13c cf25 263e 206a 393c
00000390: 0ef2 cc3e 2f91 0fbe 2764 5a3e f62d e53c
000003a0: 6ca4 493d 6e7e d63e bb6f b2be f4ed 95bc
000003b0: 9cf3 fdbd a554 cfbc 9779 e1bd dec7 cbbf
000003c0: e4a0 453d fd3a 4fbe bc46 ecbc d1ec 6b3c
000003d0: b86a 383e 453f d93d be46 bb3e 8036 273e
000003e0: 194d 013f 6a0e 993e 9392 0dbd a6e5 2fbd
000003f0: 363d 0fbe 8a9a 16be 0e66 febd 0b4b 92bd

fc2.bias f4 [30]
-1.0809582 0.13571483 0.46974462 -0.24832328 1.0724639 -0.3710445 -0.004852718 0.73415333
1.0395805 -0.6328037 -0.4830314 -2.048609 0.40482616 -1.8452471 -1.6170225 -0.2975472
-1.0709051 0.052058212 -1.9332756 0.32489905 0.3686565 -2.0525682 1.5364889 0.24771485
-1.8973677 -2.4799922 -1.5999826 -1.0161191 0.79385835 0.6537961
00000000: d75c 8abf d4f8 0a3e 5e82 f03e 7548 7ebe
00000010: 7f46 893f 8bf9 bdbe 8d03 9fbb 79f1 3b3f
00000020: f910 853f 6cff 21bf e44f f7be 691c 03c0
00000030: 6045 cf3e 0f31 ecbf 98fa cebf 1b58 98be
00000040: 6b13 89bf fe3a 553d 9375 f7bf 2b59 a63e
00000050: 8bc0 bc3e 475d 03c0 abab c43f f6a8 7d3e
00000060: f2dc f2bf 31b8 1ec0 3bcc ccbf 3110 82bf
00000070: 4d3a 4b3f 2e5f 273f

fc3.weight f4 [30, 30]
-0.08375518 -0.66472113 0.06856963 0.04200591 -0.6750857 -0.01052076 -1.0361235 -0.10226436
-0.09056187 0.32523707 0.065485016 -0.13369249 0.17497808 -0.6961848 -0.51115465 0.029950092
-0.66416717 -0.040479057 0.18384154 -0.021029636 -0.52725196 -0.03475365 0.17377228 -0.17956108
-0.06587083 -0.028244521 -0.102121785 -0.058130477 -0.33017033 -0.469608 -0.058305245 0.07330559
-0.72475237 0.32509366 -0.5212593 -0.45335045 -0.18398976 -0.20670184 -0.048017148 0.016026042
-0.33098805 -0.20848174 -1.063696 -0.32208458 -0.003628429 0.11974257 -0.3944855 -0.06422873
-0.19335413 -0.08355952 -0.36080652 -0.07097305 0.47548953 -0.56591076 0.053787377 0.061800815
-0.15634458 -0.5873691 0.1457582 0.05941363 -0.12739167 -0.017304257 -0.82863015 0.004229606
0.06278891 -0.17460603 0.051649388 -0.24363406 0.04590251 0.06985567 -0.3199071 0.022717865
-0.15749516 0.08812932 -0.23449644 -0.09631612 0.17784481 -0.27415615 -0.17041379 -0.08278766
0.043938696 -0.060079545 0.34915593 0.40065727 -0.20360167 -0.2139851 -0.5710063 -0.7523874
-0.25439247 -0.52285737 -0.0219132 0.05521614 -0.5798332 -0.15718058 -0.21429461 -0.028053038
-0.7218262 0.055345222 0.05391202 0.17961915 -0.2869976 0.061879426 0.33669555 0.15385678
-0.45825857 0.0930751 -0.5075205 -0.30684084 -0.1718451 0.099223755 0.061384633 -0.20299509
-0.7624704 -0.16002615 0.13300253 -0.32529616 -0.8266191 0.060874883 -0.37241712 -0.3475865
0.011102737 -0.58235097 0.2513359 0.07607373 -0.4250487 -0.013059946 -0.2800183 0.024094447
-1.516957 -0.17273806 0.06382036 0.11758587 0.16014671 0.0630867 -0.3304841 0.0040609227
-0.88113374 0.07612952 -0.045875594 -0.019317985 0.008245603 0.07894915 0.12965992 -0.4920822
0.14108253 0.017448137 -0.013944374 0.18229517 -1.2303132 -0.19178669 0.090614334 0.059620745
-0.10383282 -0.63551664 -0.29427543 -0.3966974 -0.2983285 -0.27032733 -0.7219866 -0.003622459
0.0011331507 0.010343997 0.30706066 -0.5539991 0.0836315 -0.33417413 -0.30386305 0.09744892
-0.50472635 0.024488725 -0.13041767 -0.06388594 -0.18338268 -0.3945945 -0.08760141 -0.7135232
0.01059777 -0.58960104 -0.036294922 0.5104159 -0.1426698 -0.24050266 -0.17130373 -0.51597875
0.042650737 -0.5477626 -0.1921751 -0.002200869 -0.3372029 -0.80403686 -0.34879258 -0.100076914
0.29778728 0.14651252 -0.17679928 -0.08753908 -0.024360629 0.12876102 -0.09395674 -0.2106151
-0.29803118 -0.052561153 0.20568722 -0.49833095 0.20389257 -0.04751651 -0.12575391 -1.2596793
-0.17073087 -0.23851214 -0.97307813 -0.0084886765 -0.2796255 0.23550658 0.020050675 0.09733489
-0.09610907 0.14178811 0.106624834 -0.14905357 0.0848915 0.06920216 -0.1640149 -0.1544312
0.012149177 0.104896896 -0.084231995 -0.98063016 0.096649654 0.11049681 -0.032619514 0.102311514
-0.37481993 0.4017625 -1.1129513 -0.31191283 0.07873503 -0.2948176 -0.89865017 -0.8595738
0.075296424 -0.040014125 -0.056992047 -0.19689213 -0.013774749 0.044757556 -0.08274693 -0.09211081
-0.13099056 0.07906613 -0.26564783 -0.03660154 -0.028304182 -0.050653625 0.12440847 -0.0062068813
00000000: d687 abbd 2a2b 2abf 3c6e 8c3d 640e 2c3d
00000010: 6bd2 2cbf 445f 2cbc b29f 84bf fa6f d1bd
00000020: 8078 b9bd 7985 a63e 021d 863d afe6 08be
00000030: 742d 333e 2b39 32bf 08db 02bf e559 f53c
00000040: dc06 2abf 5ecd 25bd f540 3c3e 5846 acbc
00000050: fcf9 06bf d859 0ebd 5cf1 313e dcde 37be
00000060: 49e7 86bd 0e61 e7bc 3a25 d1bd 391a 6ebd
00000070: 160c a9be 7670 f0be 7bd1 6ebd 3e21 963d
00000080: 5f89 39bf ad72 a63e 4071 05bf 8d1d e8be
00000090: d067 3cbe a6a9 53be a1ad 44bd 0c49 833c
000000a0: 4477 a9be 3d7c 55be 3127 88bf 45e8 a4be
000000b0: f0ca 6dbb 983b f53d 01fa c9be 5a8a 83bd
000000c0: a0fe 45be 4121 abbd a2bb b8be 525a 91bd
000000d0: 5d73 f33e 87df 10bf 2750 5c3d da22 7d3d
000000e0: cb18 20be d25d 16bf a341 153e b55b 733d
000000f0: f672 02be a8c1 8dbc 1b21 54bf 8298 8a3b
00000100: 7997 803d eccb 32be 4f8e 533d 357b 79be
00000110: 4504 3c3d 7d10 8f3d ddca a3be d11a ba3c
00000120: 6946 21be 257d b43d d61f 70be 6341 c5bd
00000130: f31c 363e 325e 8cbe f480 2ebe 948c a9bd
00000140: 10f9 333d f815 76bd 91c4 b23e f322 cd3e
00000150: f57c 50be e91e 5bbe 782d 12bf 769c 40bf
00000160: bb3f 82be fbd9 05bf 5083 b3bc 522a 623d
00000170: f36f 14bf f2f3 20be 0c70 5bbe 7ccf e5bc
00000180: 9ac9 38bf acb1 623d dad2 5c3d 15ee 373e
00000190: 59f1 92be 4875 7d3d 5c63 ac3e a28c 1d3e
000001a0: dea0 eabe 289e be3d ddec 01bf 3e1a 9dbe
000001b0: 29f8 2fbe d335 cb3d 746e 7b3d f2dd 4fbe
000001c0: 4331 43bf e5dd 23be d131 083e 388d a6be
000001d0: 4f9d 53bf f157 793d 75ad bebe dcf6 b1be
000001e0: 41e8 353c f414 15bf 19af 803e 8bcc 9b3d
000001f0: fc9f d9be 62f9 55bc 8f5e 8fbe b861 c53c
00000200: a62b c2bf 3fe2 30be 40b4 823d dcd0 f03d
00000210: 80fd 233e 9a33 813d 3635 a9be 7d11 853b
00000220: fb91 61bf cbe9 9b3d 0ce8 3bbd c040 9ebc
00000230: 9118 073c 18b0 a13d 92c5 043e 33f2 fbbe
00000240: f077 103e 65ef 8e3c f276 64bc 96ab 3a3e
00000250: e77a 9dbf bb63 44be 0294 b93d e234 743d
00000260: 4da6 d4bd 38b1 22bf 45ab 96be ec1b cbbe
00000270: 83be 98be 5868 8abe 1dd4 38bf c766 6dbb
00000280: 3a86 943a de79 293c 0e37 9d3e e3d2 0dbf
00000290: fe46 ab3d df18 abbe f093 9bbe 4d93 c73d
000002a0: bf35 01bf 949c c83c 368c 05be a2d6 82bd
000002b0: abc8 3bbe 4a08 cabe 5e68 b3bd 75a9 36bf
000002c0: 45a2 2d3c 18f0 16bf fca9 14bd 9eaa 023f
000002d0: 0818 12be 5446 76be 3f6a 2fbe 2f17 04bf
000002e0: 8ab2 2e3d 2b3a 0cbf 8dc9 44be 743c 10bb
000002f0: dca5 acbe 5cd5 4dbf f194 b2be 20f5 ccbd
00000300: 9377 983e 6107 163e df0a 35be b047 b3bd
00000310: f18f c7bc eed9 033e 646c c0bd 7cab 57be
00000320: 8b97 98be 5d4a 57bd ac9f 523e 3c25 ffbe
00000330: 37c9 503e aca0 42bd a2c5 00be 2c3d a1bf
00000340: 13d4 2ebe 873c 74be a61b 79bf 1714 0bbc
00000350: 132b 8fbe a328 713e 5041 a43c 8457 c73d
00000360: d5d4 c4bd e730 113e 1f5e da3d 80a1 18be
00000370: 98db ad3d ddb9 8d3d 86f3 27be 3623 1ebe
00000380: 570d 473c 2fd4 d63d d381 acbd 940a 7bbf
00000390: 41f0 c53d 274c e23d 0a9c 05bd b388 d13d
000003a0: 66e8 bfbe d0b3 cd3e 3075 8ebf 0ab3 9fbe
000003b0: d53f a13d 55f2 96be f00d 66bf 070d 5cbf
000003c0: 0335 9a3d dae5 23bd 7e70 69bd 179e 49be
000003d0: 7caf 61bc b353 373d 3977 a9bd 98a4 bcbd
000003e0: 6422 06be 6ced a13d fe02 88be 7feb 15bd
000003f0: 2cde e7bc 2d7a 4fbd dec9 fe3d 1863 cbbb

fc3.bias f4 [30]
1.70766 2.9661913 0.20216411 0.8463821 -0.8286886 1.3736204 -1.2736282 1.1724353
3.637109 -2.6624663 -1.1267225 1.6996056 1.0551319 1.592906 1.2807738 0.002394094
-0.5833839 -0.3611283 -0.09969133 -0.40949783 1.7875658 -1.0932381 -0.004222032 -1.245465
1.3096873 -0.8621532 -0.39954758 1.9354901 -4.2171197 0.4349254
00000000: 9a94 da3f 14d6 3d40 1c04 4f3e 7fac 583f
00000010: f024 54bf cbd2 af3f 4006 a3bf 5c12 963f
00000020: 65c6 6840 d965 2ac0 7138 90bf ad8c d93f
00000030: 900e 873f 58e4 cb3f 65f0 a33f 3be6 1c3b
00000040: a658 15bf cfe5 b8be f82a ccbd b3a9 d1be
00000050: f5ce e43f 3aef 8bbf f958 8abb 666b 9fbf
00000060: d5a3 a73f 12b6 5cbf 8091 ccbe 24be f73f
00000070: a5f2 86c0 8bae de3e

fc4.weight f4 [10, 30]
0.18927824 0.06671724 -0.11074272 -0.41520515 -0.037514366 0.17573988 0.14162317 -0.016007999
0.20755987 0.10754733 -0.24578899 0.12136718 0.11137883 -0.14863743 0.11502931 -0.03460905
-0.14885812 0.071282655 -0.08360168 -0.04948927 0.2446112 -0.19125934 -0.43867388 -0.082062095
0.246022 0.23864657 0.08728249 -0.22984363 -0.354699 0.22112834 0.04258187 -0.1593677
-0.015538821 -0.06390692 -0.047949195 -0.07541221 -0.015515594 -0.037653554 0.010422484 -0.08873008
0.022764804 -0.15398315 -0.1481333 0.0031070292 -0.14609206 -0.066479854 0.019460008 -0.077869676
-0.3107136 -0.0547654 0.12761739 -0.0037698678 0.015786432 0.0068637794 0.040384486 -0.20644844
0.22106148 -0.0024671275 -0.039507248 0.16346444 -0.21701318 -0.20706932 -0.19949977 0.016807163
0.112191685 0.21024129 0.23506916 -0.3564136 0.14376985 -0.15300418 -0.30434236 -0.17966782
-0.053254027 0.048127886 -0.06557315 0.18746835 0.13950422 -0.046569005 -0.007676657 -0.0357726
0.28659597 0.115379155 -0.041362524 -0.042681392 0.05274856 0.14859621 0.027588962 -0.19399704
-0.380143 0.06592441 0.29997194 0.18919474 -0.3418932 -0.10260031 0.08700267 0.38812184
-0.18986075 -0.10954818 -0.36152777 0.0146044465 -0.20304874 0.03584657 0.22833265 0.16875246
0.008166841 0.13851044 0.2471987 0.20573372 0.24014279 -0.06256871 -0.2584472 0.23713823
-0.22521147 0.20277855 -0.086582825 -0.18064485 -0.16932954 -0.11755937 0.15557717 0.33429834
0.016313013 -0.015397905 0.28798112 0.14142668 -0.13044171 0.057442144 -0.21888708 0.13265158
0.13674179 -0.09751438 0.10006257 -0.099963136 0.028470842 -0.005688085 -0.08478211 0.14533292
-0.037511706 -0.04576914 0.42306203 0.13666351 -0.32531807 -0.024967218 -0.03373188 -0.1936361
-0.24445234 -0.3731902 0.041605666 0.2226567 -0.28013122 -0.12212937 0.3021535 -0.16922623
0.060441338 0.23120414 -0.18154883 0.12634487 -0.13299929 -0.13642594 0.034235995 0.057014465
0.09019928 0.005785417 0.15709053 -0.003219205 -0.5476204 0.34615487 -0.2749851 -0.0007424211
-0.1719395 -0.19552933 -0.27960786 -0.0041320627 -0.016628502 0.07186352 -0.08091677 0.03451457
-0.003965058 -0.44002593 -0.61803037 -0.040755797 -0.062409826 0.1633722 -0.17251028 0.015949756
-0.20686586 0.035710346 0.10348369 -0.11134272 0.1480686 -0.45126808 -0.10889957 0.04003433
-0.042725958 0.081526704 -0.16750622 -0.21053217 0.035861254 0.0117567135 -0.30010158 -0.58892137
-0.027364656 0.10219107 -0.03861162 0.1535608 -0.20149532 -0.17781997 0.21085557 0.41335598
-0.46165228 0.4765587 -0.09658905 0.3512461 -0.35143855 0.039740067 -0.08511346 0.090737134
-0.07266175 0.028018482 -0.026891103 -0.40999123 -0.19837768 0.06041164 0.13834552 0.040706158
0.076053575 0.15477833 0.0031811367 -0.06946439 0.05883366 -0.15819357 -0.44489136 -0.15400194
0.047324646 -0.4164843 -0.028793385 -0.16425638 0.02413092 0.18562219 -0.38456607 0.044812266
0.40581235 0.54331106 0.15892074 -0.60694695 0.35048282 0.33690107 -0.6380159 -0.4659968
0.25751722 -0.11538718 -0.3142187 -0.053623978 -0.04007763 -0.19573617 -0.2034584 0.2773967
00000000: 28d2 413e 0ca3 883d 14cd e2bd c595 d4be
00000010: aaa8 19bd 28f5 333e aa05 113e 3523 83bc
00000020: 938a 543e c641 dc3d 1cb0 7bbe 5b8f f83d
00000030: 961a e43d 6934 18be 7d94 eb3d 38c2 0dbd
00000040: 436e 18be a4fc 913d 5c37 abbd 43b5 4abd
00000050: 5c7b 7a3e 7dd9 43be dd99 e0be 2c10 a8bd
00000060: 31ed 7b3e c45f 743e 2ac1 b23d 215c 6bbe
00000070: 1b9b b5be 786f 623e 546a 2e3d 4931 23be
00000080: 8a96 7ebc a2e1 82bd 6066 44bd b771 9abd
00000090: 1e35 7ebc 9d3a 1abd 11c3 2a3c 1eb8 b5bd
000000a0: 417d ba3c c2ad 1dbe 41b0 17be 4d9f 4b3b
000000b0: 2899 15be 9726 88bd 986a 9f3c 237a 9fbd
000000c0: da15 9fbe af51 60bd 22ae 023e e30f 77bb
000000d0: 8c52 813c 8ee9 e03b 346a 253d 3867 53be
000000e0: f15d 623e 88af 21bb 5ad2 21bd 3963 273e
000000f0: b438 5ebe fb09 54be ab49 4cbe 2daf 893c
00000100: c1c4 e53d 7e49 573e f8b5 703e d87b b6be
00000110: 6738 133e 21ad 1cbe c3d2 9bbe d7fa 37be
00000120: e520 5abd bf21 453d 374b 86bd b4f7 3f3e
00000130: 32da 0e3e 24bf 3ebd 778c fbbb 4a86 12bd
00000140: b5bc 923e e84b ec3d c06b 29bd afd2 2ebd
00000150: e00e 583d 9b29 183e 3f02 e23c 29a7 46be
00000160: 1aa2 c2be 6103 873d ec95 993e 44bc 413e
00000170: a00c afbe 1d20 d2bd 752e b23d e8b7 c63e
00000180: db6a 42be cc5a e0bd 2b1a b9be 7d47 6f3c
00000190: 02ec 4fbe dad3 123d 09d0 693e 72cd 2c3e
000001a0: 37ce 053c aed5 0d3e a821 7d3e dcab 523e
000001b0: fee7 753e 0624 80bd 3153 84be 5dd4 723e
000001c0: d69d 66be 2ea5 4f3e 5652 b1bd f7fa 38be
000001d0: b964 2dbe f8c2 f0bd 9f4f 1f3e 2729 ab3e
000001e0: dea2 853c 7f47 7cbc 4372 933e 28d2 103e
000001f0: 8392 05be 7448 6b3d ef23 60be d1d5 073e
00000200: 0a06 0c3e 9fb5 c7bd 9bed cc3d 79b9 ccbd
00000210: af3b e93c 1e63 babb 3ea2 adbd 27d2 143e
00000220: e0a5 19bd 6c78 3bbd 969b d83e 85f1 0b3e
00000230: 1790 a6be 0d88 ccbc 712a 0abd 8b48 46be
00000240: b751 7abe c912 bfbe b46a 2a3d 1e00 643e
00000250: 5c6d 8fbe f71e fabd ddb3 9a3e a449 2dbe
00000260: 5691 773d c7c0 6c3e f0e7 39be 8d60 013e
00000270: f730 08be 3eb3 0bbe 0b3b 0c3d 0088 693d
00000280: 66ba b83d 9893 bd3b 57dc 203e 4cf9 52bb
00000290: da30 0cbf 363b b13e d9ca 8cbe 099f 42ba
000002a0: e910 30be d738 48be c328 8fbe 4166 87bb
000002b0: 7f38 88bc 2e2d 933d b1b7 a5bd 265f 0d3d
000002c0: 51ed 81bb 144b e1be 3d37 1ebf 8def 26bd
000002d0: 72a1 7fbd 0b4b 273e 89a6 30be 10a9 823c
000002e0: a5d4 53be 0345 123d 42ef d33d a707 e4bd
000002f0: 4c9f 173e 9c0c e7be bd06 dfbd 0afb 233d
00000300: 6a01 2fbd 79f7 a63d c086 2bbe bf95 57be
00000310: 40e3 123d 3b9f 403c eaa6 99be 8dc3 16bf
00000320: d82b e0bc 8d49 d13d 3827 1ebd 0b3f 1d3e
00000330: ca54 4ebe 7016 36be 86ea 573e 65a3 d33e
00000340: b05d ecbe 80ff f33e 7bd0 c5bd 87d6 b33e
00000350: c1ef b3be 7bc6 223d f74f aebd 64d4 b93d
00000360: afcf 94bd 0487 e53c bb4a dcbc 5fea d1be
00000370: 8523 4bbe 3272 773d 73aa 0d3e 80bb 263d
00000380: fac1 9b3d 367e 1e3e 9e7a 503b 5943 8ebd
00000390: 90fb 703d 7ffd 21be cdc8 e3be afb2 1dbe
000003a0: 7dd7 413d 6e3d d5be 1be0 ebbc d332 28be
000003b0: 35ae c53c be13 3e3e d8e5 c4be 118d 373d
000003c0: a3c6 cf3e 6f16 0b3f 1ebc 223e e060 1bbf
000003d0: 7c72 b33e 4c7e ac3e 0355 23bf 2297 eebe
000003e0: 4cd9 833e 1d50 ecbd 46e1 a0be d1a4 5bbd
000003f0: 7128 24bd 106f 48be 6657 50be f106 8e3e

fc4.bias f4 [10]
1.359872 2.7693121 -0.06330286 -1.1943924 0.20400403 0.05625651 -0.08621053 1.2769493
0.32204226 1.559088
00000000: 4910 ae3f 693c 3140 eea4 81bd dae1 98bf
00000010: 6fe6 503e 3a6d 663d 258f b0bd 1373 a33f
00000020: b9e2 a43e 3290 c73f

fc5.weight f4 [1, 10]
-0.13963436 0.6317553 -0.107095234 -0.14009382 0.07600821 0.022641126 0.16082343 0.3486555
-0.13911499 -0.7178115
00000000: 4ffc 0ebe b7ba 213f bf54 dbbd c174 0fbe
00000010: 31aa 9b3d e279 b93c e6ae 243e f982 b23e
00000020: 2974 0ebe 7fc2 37bf

exp_avg f4 [30, 30]
6e-45 6e-45 6e-45 6e-45 6e-45 6e-45 6e-45 6e-45
6e-45 6e-45 6e-45 6e-45 6e-45 6e-45 6e-45 6e-45
6e-45 6e-45 6e-45 6e-45 6e-45 6e-45 6e-45 6e-45
6e-45 6e-45 6e-45 6e-45 6e-45 6e-45 0.0006764225 -7.6395845e-06
0.19013076 3.57481e-05 -4.522024e-05 6.8159134e-05 0.00017535656 3.2450385e-05 3.3732774e-06 0.0023080637
4.6627494e-05 -2.1158732e-05 0.00019419416 3.5244793e-05 8.312181e-05 0.024735061 -0.27173793 0.0002047191
3.79938e-05 0.0008439792 4.2380565e-05 -2.3056898e-05 -2.7077545e-05 0.00013160742 3.926508e-05 3.174518e-05
9.9189296e-05 8.602033e-05 6.5654895e-05 6.3828106e-06 0.0 0.0 0.0 0.0
0.0 0.0 0.0 0.0 0.0 0.0 0.0 0.0
0.0 0.0 0.0 0.0 0.0 0.0 0.0 0.0
0.0 0.0 0.0 0.0 0.0 0.0 0.0 0.0
0.0 0.0 0.0 0.0 0.0 0.0 0.0 0.0
0.0 0.0 0.0 0.0 0.0 0.0 0.0 0.0
0.0 0.0 0.0 0.0 0.0 0.0 0.0 0.0
0.0 0.0 0.0 0.0 0.0 0.0 0.0 0.0
0.0 0.0 0.0 0.0 0.0 0.0 0.0 0.0
0.0 0.0 0.0 0.0 0.0 0.0 0.0 0.0
0.0 0.0 0.0 0.0 0.0 0.0 0.0 0.0
0.0 0.0 0.0 0.0 0.0 0.0 0.0 0.0
0.0 0.0 0.0 0.0 0.0 0.0 0.0 0.0
0.0 0.0 0.0 0.0 0.0 0.0 0.0 0.0
0.0 0.0 0.0 0.0 0.0 0.0 0.0 0.0
0.0 0.0 0.0 0.0 0.00016144977 2.9554826e-06 0.0766813 2.2334598e-05
0.00024993895 5.574922e-06 4.282037e-05 1.8759214e-05 5.9383688e-06 0.000490415 2.8182603e-05 -5.4678975e-07
8.2756764e-05 3.8370636e-05 2.9692255e-05 0.029899083 0.08739926 -1.2085475e-05 1.4958993e-06 0.00028262238
6.767632e-06 8.554915e-06 5.698352e-06 -1.616512e-05 3.117754e-05 2.2394857e-05 1.2241468e-05 -9.63124e-07
1.6700035e-07 6.1647065e-06 -0.00067547185 -0.0001636795 -0.03553574 6.2546795e-05 5.7033718e-05 3.5364803e-05
0.00041348138 -0.00021026115 6.121866e-05 0.002057813 -1.981001e-06 -5.817211e-05 0.00025067787 -0.00020623545
0.00016743508 -0.12455739 -0.16209655 -0.00014820465 4.4334734e-06 0.00047312523 1.6033576e-06 -3.0067806e-05
-0.000122018384 -0.00038826306 -1.7878167e-05 -4.401872e-05 0.00017918916 0.00030766442 -0.0003027542 7.3500465e-05
-0.00011080559 -7.053597e-06 -0.0040473887 -1.3723989e-05 2.0527721e-05 -3.8673653e-07 -3.8888564e-05 -6.653586e-07
-5.4767605e-07 -0.00035826146 -2.7664503e-06 -2.842028e-06 -4.1604784e-05 -6.7381966e-06 -1.4695129e-05 -0.013616279
00000000: 0400 0000 0400 0000 0400 0000 0400 0000
00000010: 0400 0000 0400 0000 0400 0000 0400 0000
00000020: 0400 0000 0400 0000 0400 0000 0400 0000
00000030: 0400 0000 0400 0000 0400 0000 0400 0000
00000040: 0400 0000 0400 0000 0400 0000 0400 0000
00000050: 0400 0000 0400 0000 0400 0000 0400 0000
00000060: 0400 0000 0400 0000 0400 0000 0400 0000
00000070: 0400 0000 0400 0000 f251 313a c42b 00b7
00000080: a3b1 423e 3bf0 1538 ddaa 3db8 a8f0 8e38
00000090: ebdf 3739 561b 0838 7760 6236 e242 173b
000000a0: e491 4338 087e b1b7 99a0 4b39 cfd3 1338
000000b0: af51 ae38 2fa1 ca3c 3c21 8bbe dda9 5639
000000c0: 885b 1f38 7c3e 5d3a c9c1 3138 506a c1b7
000000d0: 9624 e3b7 1900 0a39 8fb0 2438 2126 0538
000000e0: d903 d038 d065 b438 34b0 8938 ed2b d636
000000f0: 0000 0000 0000 0000 0000 0000 0000 0000
00000100: 0000 0000 0000 0000 0000 0000 0000 0000
00000110: 0000 0000 0000 0000 0000 0000 0000 0000
00000120: 0000 0000 0000 0000 0000 0000 0000 0000
00000130: 0000 0000 0000 0000 0000 0000 0000 0000
00000140: 0000 0000 0000 0000 0000 0000 0000 0000
00000150: 0000 0000 0000 0000 0000 0000 0000 0000
00000160: 0000 0000 0000 0000 0000 0000 0000 0000
00000170: 0000 0000 0000 0000 0000 0000 0000 0000
00000180: 0000 0000 0000 0000 0000 0000 0000 0000
00000190: 0000 0000 0000 0000 0000 0000 0000 0000
000001a0: 0000 0000 0000 0000 0000 0000 0000 0000
000001b0: 0000 0000 0000 0000 0000 0000 0000 0000
000001c0: 0000 0000 0000 0000 0000 0000 0000 0000
000001d0: 0000 0000 0000 0000 0000 0000 0000 0000
000001e0: 0000 0000 0000 0000 0000 0000 0000 0000
000001f0: 0000 0000 0000 0000 0000 0000 0000 0000
00000200: 0000 0000 0000 0000 0000 0000 0000 0000
00000210: 0000 0000 0000 0000 0000 0000 0000 0000
00000220: 0000 0000 0000 0000 0000 0000 0000 0000
00000230: 0000 0000 0000 0000 0000 0000 0000 0000
00000240: 0000 0000 0000 0000 0000 0000 0000 0000
00000250: 0000 0000 0000 0000 0000 0000 0000 0000
00000260: 0000 0000 0000 0000 0000 0000 0000 0000
00000270: 0000 0000 0000 0000 0000 0000 0000 0000
00000280: 0000 0000 0000 0000 0000 0000 0000 0000
00000290: 0000 0000 0000 0000 0000 0000 0000 0000
000002a0: 0000 0000 0000 0000 0000 0000 0000 0000
000002b0: 0000 0000 0000 0000 0000 0000 0000 0000
000002c0: 0000 0000 0000 0000 0000 0000 0000 0000
000002d0: d84a 2939 ce56 4636 160b 9d3d 2f5b bb37
000002e0: 3d0a 8339 3710 bb36 069a 3338 1b5d 9d37
000002f0: 3342 c736 328f 003a ae69 ec37 1bc7 12b5
00000300: b38d ad38 28f0 2038 a213 f937 ecee f43c
00000310: 62fe b23d b8c2 4ab7 b5c6 c835 ef2c 9439
00000320: 8415 e336 1587 0f37 7934 bf36 559a 87b7
00000330: a1c4 0238 97dc bb37 b460 4d37 b044 81b5
00000340: b550 3334 6dda ce36 2612 31ba 62a1 2bb9
00000350: ed8d 11bd 8e2b 8338 7d37 6f38 ab54 1438
00000360: 88c8 d839 8c79 5cb9 8562 8038 60dc 063b
00000370: 57f1 04b6 d4fd 73b8 6a6d 8339 e840 58b9
00000380: 8391 2f39 f217 ffbd a3fc 25be 6267 1bb9
00000390: 3fc3 9436 cb0d f839 f332 d735 1f3a fcb7
000003a0: 1fe4 ffb8 c98f cbb9 12f9 95b7 bea0 38b8
000003b0: b9e4 3b39 054e a139 fbba 9eb9 4324 9a38
000003c0: 4c60 e8b8 f0ad ecb6 f59f 84bb 1540 66b7
000003d0: f232 ac37 aaa0 cfb4 471c 23b8 189b 32b5
000003e0: 0304 13b5 0ad5 bbb9 41a7 39b6 abb9 3eb6
000003f0: cc80 2eb8 ab18 e2b6 198b 76b7 d016 5fbc

exp_avg_sq f4 [30, 30]
1.053933e-09 2.8854057e-13 1.1392727e-05 1.4099275e-12 1.2564283e-10 2.0300246e-12 9.632009e-12 1.8481878e-12
5.394847e-13 2.7071485e-09 1.574815e-12 5.545048e-13 3.0086645e-11 2.228657e-12 1.6967205e-12 2.0207703e-05
8.354053e-05 5.854268e-12 1.3656985e-13 1.5761435e-10 1.0870895e-13 2.071692e-12 7.5541933e-13 6.0036115e-11
7.0558936e-12 2.86427e-12 3.0616433e-11 1.9404409e-11 6.10068e-12 7.808247e-12 0.00043178903 1.6992351e-07
6.1762486 8.710539e-07 3.5522124e-05 1.5550412e-06 2.1415244e-06 1.1338371e-06 1.7034289e-07 0.0015390717
1.1886813e-06 3.523008e-07 9.595321e-06 8.6792676e-07 5.618615e-07 8.462999 43.430958 4.652822e-06
1.06683494e-07 9.254986e-05 8.870883e-08 1.4596633e-06 7.084551e-07 3.298845e-05 2.7055755e-06 1.2104957e-06
1.1718172e-05 7.2176513e-06 1.9093693e-06 7.1702502e-06 0.0 0.0 0.0 0.0
0.0 0.0 0.0 0.0 0.0 0.0 0.0 0.0
0.0 0.0 0.0 0.0 0.0 0.0 0.0 0.0
0.0 0.0 0.0 0.0 0.0 0.0 0.0 0.0
0.0 0.0 0.0 0.0 0.0 0.0 0.0 0.0
0.0 0.0 0.0 0.0 0.0 0.0 0.0 0.0
0.0 0.0 0.0 0.0 0.0 0.0 0.0 0.0
0.0 0.0 0.0 0.0 0.0 0.0 0.0 0.0
0.0 0.0 0.0 0.0 0.0 0.0 0.0 0.0
0.0 0.0 0.0 0.0 0.0 0.0 0.0 0.0
0.0 0.0 0.0 0.0 0.0 0.0 0.0 0.0
0.0 0.0 0.0 0.0 0.0 0.0 0.0 0.0
0.0 0.0 0.0 0.0 0.0 0.0 0.0 0.0
0.0 0.0 0.0 0.0 0.0 0.0 0.0 0.0
0.0 0.0 0.0 0.0 0.0 0.0 0.0 0.0
0.0 0.0 0.0 0.0 5.553531e-05 3.868116e-08 1.4229608 1.4095947e-07
4.1983317e-06 1.9736486e-07 4.5824015e-07 1.9913355e-07 3.2612885e-08 0.00028887333 1.4100772e-07 1.630459e-09
1.7086275e-06 2.0796877e-07 1.11896185e-07 0.3208146 1.1130052 2.9589157e-07 1.8121545e-08 1.3146031e-05
9.348515e-09 1.7733436e-07 3.4232126e-08 1.978505e-06 6.073654e-07 1.4762823e-07 7.400869e-07 1.750756e-07
2.3260013e-07 4.2295179e-07 0.00028456943 9.782079e-08 0.27617776 4.6032957e-07 3.22751e-05 7.943674e-07
1.3925696e-06 6.489408e-07 1.1477819e-07 0.0009087908 5.339748e-07 2.502315e-07 5.442456e-06 6.313385e-07
3.2537955e-07 7.4737935 43.729492 2.3537627e-06 4.060214e-08 4.5778936e-05 2.666207e-08 7.756709e-07
1.7793758e-07 3.2183863e-05 1.3192973e-06 5.6051874e-07 1.2968195e-05 5.1189813e-06 2.8513277e-06 5.1517513e-06
6.4581413e-06 2.4965814e-09 0.025408281 1.6770324e-08 1.4304876e-06 2.5463297e-08 4.009528e-08 2.3671387e-08
3.8048986e-09 2.7528255e-05 2.296462e-08 9.951276e-10 1.8096449e-07 1.909143e-08 1.6539769e-08 0.057267915
00000000: f9d9 9030 146f a22a 6423 3f37 fe6d c62b
00000010: 5025 0a2f acd9 0e2c b672 292d fe0d 022c
00000020: f8d9 172b a908 3a31 b1a2 dd2b 4814 1c2b
00000030: 8d52 042e ead3 1c2c ccca ee2b b683 a937
00000040: 7b32 af38 8ffa cd2c 94c3 192a 7f4c 2d2f
00000050: 71ca f429 49c8 112c b3a1 542b 5405 842e
00000060: d741 f82c 1a8e 492c 0aa7 062e d8ae aa2d
00000070: 0aa6 d62c 385d 092d be61 e239 3874 3634
00000080: d4a3 c540 5ed2 6935 97fd 1438 cfb6 d035
00000090: 1cb7 0f36 592e 9835 7fe7 3634 adba c93a
000000a0: c78a 9f35 da23 bd34 97fb 2037 79fb 6835
000000b0: d4d2 1635 7268 0741 4db9 2d42 701f 9c36
000000c0: df19 e533 5417 c238 3280 be33 a6e9 c335
000000d0: aa2c 3e35 145d 0a38 6f91 3536 5178 a235
000000e0: 2a99 4437 272f f236 b722 0036 fb97 f036
000000f0: 0000 0000 0000 0000 0000 0000 0000 0000
00000100: 0000 0000 0000 0000 0000 0000 0000 0000
00000110: 0000 0000 0000 0000 0000 0000 0000 0000
00000120: 0000 0000 0000 0000 0000 0000 0000 0000
00000130: 0000 0000 0000 0000 0000 0000 0000 0000
00000140: 0000 0000 0000 0000 0000 0000 0000 0000
00000150: 0000 0000 0000 0000 0000 0000 0000 0000
00000160: 0000 0000 0000 0000 0000 0000 0000 0000
00000170: 0000 0000 0000 0000 0000 0000 0000 0000
00000180: 0000 0000 0000 0000 0000 0000 0000 0000
00000190: 0000 0000 0000 0000 0000 0000 0000 0000
000001a0: 0000 0000 0000 0000 0000 0000 0000 0000
000001b0: 0000 0000 0000 0000 0000 0000 0000 0000
000001c0: 0000 0000 0000 0000 0000 0000 0000 0000
000001d0: 0000 0000 0000 0000 0000 0000 0000 0000
000001e0: 0000 0000 0000 0000 0000 0000 0000 0000
000001f0: 0000 0000 0000 0000 0000 0000 0000 0000
00000200: 0000 0000 0000 0000 0000 0000 0000 0000
00000210: 0000 0000 0000 0000 0000 0000 0000 0000
00000220: 0000 0000 0000 0000 0000 0000 0000 0000
00000230: 0000 0000 0000 0000 0000 0000 0000 0000
00000240: 0000 0000 0000 0000 0000 0000 0000 0000
00000250: 0000 0000 0000 0000 0000 0000 0000 0000
00000260: 0000 0000 0000 0000 0000 0000 0000 0000
00000270: 0000 0000 0000 0000 0000 0000 0000 0000
00000280: 0000 0000 0000 0000 0000 0000 0000 0000
00000290: 0000 0000 0000 0000 0000 0000 0000 0000
000002a0: 0000 0000 0000 0000 0000 0000 0000 0000
000002b0: 0000 0000 0000 0000 0000 0000 0000 0000
000002c0: 0000 0000 0000 0000 0000 0000 0000 0000
000002d0: 96ee 6838 6322 2633 9423 b63f a55a 1734
000002e0: 65df 8c36 3deb 5334 0c04 f634 6ad1 5534
000002f0: 3f12 0c33 ec73 9739 e867 1734 ad16 e030
00000300: fe53 e535 054e 5f34 944b f033 d041 a43e
00000310: f476 8e3f 07db 9e34 b3a9 9b32 c68d 5c37
00000320: 349b 2032 4c69 3e34 9f06 1333 75c6 0436
00000330: d509 2335 bd83 1e34 62aa 4635 6afc 3b34
00000340: a3c0 7934 0d12 e334 4332 9539 8c11 d233
00000350: 2c67 8d3e 3723 f734 205f 0738 833c 5535
00000360: 54e8 ba35 df32 2e35 fa7b f633 eb3b 6e3a
00000370: 7856 0f35 8e57 8634 579e b636 4079 2935
00000380: d3af ae34 5129 ef40 00eb 2e42 56f5 1d36
00000390: 8662 2e33 c202 4038 8306 e532 b337 5035
000003a0: 1c0f 3f34 29fd 0638 b612 b135 8e76 1635
000003b0: f991 5937 b7c3 ab36 7059 3f36 35dd ac36
000003c0: 03b3 d836 5390 2b31 0725 d03c 550e 9032
000003d0: 2eff bf35 62ba da32 3a35 2c33 ee55 cb32
000003e0: 3ebc 8231 7aec e637 bc43 c532 f1c4 8830
000003f0: 244f 4234 80fe a332 5613 8e32 c391 6a3d

exp_avg f4 [30]
6e-45 3.4743167e-05 0.0 0.0 0.0 0.0 1.2182079e-05 1.5311145e-05
-7.0043025e-06 0.0 -2.2779606e-05 8.1981125e-06 0.0 0.0 7.845206e-06 0.0
0.0 7.317347e-05 -1.628789e-05 5.580313e-07 -7.786561e-06 0.0 2.2360204e-05 4.1975225e-05
-0.00013901245 5.2156003e-05 0.0 0.0 0.00011135951 -7.720474e-05
00000000: 0400 0000 31b9 1138 0000 0000 0000 0000
00000010: 0000 0000 0000 0000 a261 4c37 6f70 8037
00000020: 8006 ebb6 0000 0000 d516 bfb7 a08a 0937
00000030: 0000 0000 0000 0000 e79e 0337 0000 0000
00000040: 0000 0000 b574 9938 faa1 88b7 9ecb 1535
00000050: 06a3 02b7 0000 0000 2c92 bb37 8e0e 3038
00000060: dfc3 11b9 15c2 5a38 0000 0000 0000 0000
00000070: af89 e938 fbe8 a1b8

exp_avg_sq f4 [30]
6.9037565e-13 3.2119445e-07 0.0 0.0 0.0 0.0 4.8009237e-08 1.8287952e-07
6.3241172e-09 0.0 6.389182e-08 7.792169e-08 0.0 0.0 1.3210273e-08 0.0
0.0 3.211873e-08 8.4054335e-08 7.570712e-09 4.2372402e-08 0.0 4.9084395e-08 4.23639e-07
1.8677832e-07 2.6367694e-08 0.0 0.0 5.738151e-07 2.5361323e-05
00000000: cf52 422b a170 ac34 0000 0000 0000 0000
00000010: 0000 0000 0000 0000 b732 4e33 8a5d 4434
00000020: 864b d931 0000 0000 e634 8933 e755 a733
00000030: 0000 0000 0000 0000 65f3 6232 0000 0000
00000040: 0000 0000 ebf2 0933 5c81 b433 5810 0232
00000050: f3fc 3533 0000 0000 ddd0 5233 8070 e334
00000060: 3c8d 4834 2c7f e232 0000 0000 0000 0000
00000070: 4608 1a35 07bf d437

exp_avg f4 [30, 30]
6e-45 0.005018416 0.0 0.0 0.0 0.0 -0.00093965104 -0.0026333279
2.178773e-09 0.0 -0.020431215 3.4230063e-06 0.0 0.0 -0.0074957567 0.0
0.0 -3.1140677e-05 5.5916303e-06 1.3437515e-11 9.146751e-05 0.0 0.0017799936 -0.003629369
-0.006525021 -0.015417326 0.0 0.0 -0.009535148 -0.0021406016 6e-45 -0.0013383122
0.0 0.0 0.0 0.0 -0.0016515311 0.00368757 6e-45 0.0
0.012373765 -0.00014166337 0.0 0.0 0.009786164 0.0 0.0 -0.0013382424
-1.225e-42 3.4116001e-06 -0.0024830173 0.0 0.0017272256 0.00018096814 0.0037223683 -0.00060441304
0.0 0.0 0.045442775 0.007713039 6e-45 -0.0062534926 0.0 0.0
0.0 0.0 0.00073571183 0.0006350118 -2.240211e-34 0.0 -0.032647513 -0.000114008355
0.0 0.0 -5.1359417e-05 0.0 0.0 -0.0024296006 1.7441263e-06 -5.760878e-10
-0.0025972163 0.0 -3.3662283e-05 0.00018594299 0.0004052835 -0.05310504 0.0 0.0
-0.024485318 0.001419211 -6e-45 -0.0037286507 0.0 0.0 0.0 0.0
0.0016781102 0.00013516503 2.479973e-07 0.0 0.00077068235 -0.00081572356 0.0 0.0
-0.0006163095 0.0 0.0 -0.004515176 6e-45 6e-45 -8.054127e-06 0.0
-0.0017093233 -0.0035411818 -0.00017922743 0.0010589277 0.0 0.0 -0.020864889 -0.004983083
6e-45 -0.011584687 0.0 0.0 0.0 0.0 -0.0014150371 -1.588195e-09
1.7665948e-19 0.0 0.00035490602 -0.00048313133 0.0 0.0 -6e-45 0.0
0.0 0.006979163 6.3023155e-19 0.0 3.778586e-19 0.0 2.0964795e-25 0.002675731
0.0025822273 -0.00024630508 0.0 0.0 0.00046514778 -0.0032404785 6e-45 0.021867359
0.0 0.0 0.0 0.0 -0.00042121194 0.0011703727 0.0056383456 0.0
0.07895948 0.055227887 0.0 0.0 -1.9161859e-27 0.0 0.0 0.023790346
0.0020779588 6e-45 0.0011741166 0.0 1.5748141e-13 0.004558645 -5.6529294e-05 0.05982193
0.0 0.0 0.054170836 0.0019967929 6e-45 0.02959853 0.0 0.0
0.0 0.0 -1.2867565e-05 -4.9214657e-05 -6e-45 0.0 3.7865142e-05 -0.0015152303
0.0 0.0 -0.04147546 0.0 0.0 0.0006102302 -6e-45 -2.270704e-05
-0.00013510263 0.0 -0.084873065 0.0076506566 -0.0058013173 5.0233707e-06 0.0 0.0
-0.01677327 0.0046107443 -6e-45 -0.0050810934 0.0 0.0 0.0 0.0
-4.3151886e-05 -0.0047201035 -0.0046297023 0.0 -0.117873974 -0.07477628 0.0 0.0
-0.00096879294 0.0 0.0 -0.011752118 -0.0025964978 1.6145822e-07 -0.00018578401 0.0
0.0054175863 -0.009654877 -1.2584744e-09 -0.08216243 0.0 0.0 -0.049495086 -0.0002644206
6e-45 0.00013818605 0.0 0.0 0.0 0.0 0.00013974438 -0.0063561075
-0.0031612401 0.0 -0.06582968 -0.060187783 0.0 0.0 0.002712308 0.0
00000000: 0400 0000 8671 a43b 0000 0000 0000 0000
00000010: 0000 0000 0000 0000 ea52 76ba e993 2cbb
00000020: 61b9 1531 0000 0000 5d5f a7bc cdb6 6536
00000030: 0000 0000 0000 0000 f79e f5bb 0000 0000
00000040: 0000 0000 0c9d 02b8 bd9f bb36 3065 6c2d
00000050: 3fd2 bf38 0000 0000 ad4e e93a b5da 6dbb
00000060: d8cf d5bb f498 7cbc 0000 0000 0000 0000
00000070: 4f39 1cbc 5649 0cbb 0400 0000 4e6a afba
00000080: 0000 0000 0000 0000 0000 0000 0000 0000
00000090: 3078 d8ba 29ab 713b 0400 0000 0000 0000
000000a0: 55bb 4a3c 798b 14b9 0000 0000 0000 0000
000000b0: 2656 203c 0000 0000 0000 0000 f767 afba
000000c0: 6a03 0080 d8f2 6436 1eba 22bb 0000 0000
000000d0: 1364 e23a 44c2 3d39 faf2 733b 7971 1eba
000000e0: 0000 0000 0000 0000 3422 3a3d a9bd fc3b
000000f0: 0400 0000 19ea ccbb 0000 0000 0000 0000
00000100: 0000 0000 0000 0000 c9dc 403a ec76 263a
00000110: 37e3 9487 0000 0000 66b9 05bd c517 efb8
00000120: 0000 0000 0000 0000 c16a 57b8 0000 0000
00000130: 0000 0000 ef39 1fbb b917 ea35 935a 1eb0
00000140: 0f36 2abb 0000 0000 9a30 0db8 b1f9 4239
00000150: 3b7c d439 ac84 59bd 0000 0000 0000 0000
00000160: 6f95 c8bc d204 ba3a 0400 0080 615c 74bb
00000170: 0000 0000 0000 0000 0000 0000 0000 0000
00000180: 09f4 db3a 16bb 0d39 7d24 8534 0000 0000
00000190: 9e07 4a3a 48d6 55ba 0000 0000 0000 0000
000001a0: d58f 21ba 0000 0000 0000 0000 0bf4 93bb
000001b0: 0400 0000 0400 0000 3620 07b7 0000 0000
000001c0: 5f0b e0ba 2c13 68bb ffee 3bb9 b8cb 8a3a
000001d0: 0000 0000 0000 0000 d8ec aabc 2149 a3bb
000001e0: 0400 0000 b3cd 3dbc 0000 0000 0000 0000
000001f0: 0000 0000 0000 0000 c478 b9ba a547 dab0
00000200: 0d90 5020 0000 0000 ae12 ba39 ca4c fdb9
00000210: 0000 0000 0000 0000 0400 0080 0000 0000
00000220: 0000 0000 76b1 e43b f302 3a21 0000 0000
00000230: 610c df20 0000 0000 0bc4 8116 515b 2f3b
00000240: 963a 293b 8222 81b9 0000 0000 0000 0000
00000250: 14df f339 355e 54bb 0400 0000 2d23 b33c
00000260: 0000 0000 0000 0000 0000 0000 0000 0000
00000270: 1cd6 dcb9 3167 993a dfc1 b83b 0000 0000
00000280: 82b5 a13d a336 623d 0000 0000 0000 0000
00000290: ded0 1793 0000 0000 0000 0000 f9e3 c23c
000002a0: 5d2e 083b 0400 0000 d1e4 993a 0000 0000
000002b0: ed4e 312a b060 953b de19 6db8 d707 753d
000002c0: 0000 0000 0000 0000 3de2 5d3d a0dc 023b
000002d0: 0400 0000 9e78 f23c 0000 0000 0000 0000
000002e0: 0000 0000 0000 0000 c5e1 57b7 d66b 4eb8
000002f0: 0400 0080 0000 0000 63d1 1e38 b19a c6ba
00000300: 0000 0000 0000 0000 2ce2 29bd 0000 0000
00000310: 0000 0000 dbf7 1f3a 0400 0080 ff7a beb7
00000320: 56aa 0db9 0000 0000 eed1 adbd 5cb2 fa3b
00000330: fa18 bebb 6d8e a836 0000 0000 0000 0000
00000340: 1968 89bc ba15 973b 0400 0080 4d7f a6bb
00000350: 0000 0000 0000 0000 0000 0000 0000 0000
00000360: fcfd 34b8 19ab 9abb c2b4 97bb 0000 0000
00000370: e967 f1bd 4e24 99bd 0000 0000 0000 0000
00000380: 98f6 7dba 0000 0000 0000 0000 f58b 40bc
00000390: 012a 2abb 4c5d 2d34 04cf 42b9 0000 0000
000003a0: 0286 b13b 7d2f 1ebc a2f6 acb0 c744 a8bd
000003b0: 0000 0000 0000 0000 5cbb 4abd efa1 8ab9
000003c0: 0400 0000 09e6 1039 0000 0000 0000 0000
000003d0: 0000 0000 0000 0000 5988 1239 e546 d0bb
000003e0: cf2c 4fbb 0000 0000 b6d1 86bd 7787 76bd
000003f0: 0000 0000 0000 0000 fac0 313b 0000 0000
