ch-04/lightning_logs/version_4/checkpoints/epoch=49-step=1750.ckpt (torch, 47816 bytes, 27 tensors)

fc1.weight f4 [30, 30]
000000 70 ff 05 3e 18 8f a9 3c 35 fc 4c bd de 05 1a 3e
       0.13085723 0.020698115 -0.05004521 0.150413
000010 5d 25 6d bd 67 53 b7 3c 39 5d 6b be 6c f5 10 3e
       -0.05789696 0.022378637 -0.2298478 0.14156121
000020 48 62 a9 3d d9 ae 32 be 00 43 85 3e 37 8e 28 3d
       0.08270699 -0.17449512 0.2602768 0.04115125
000030 a9 9d 41 3c cd de 21 3d 0a f7 c8 bd e2 18 74 bd
       0.011817374 0.03951912 -0.09812744 -0.059594043
000040 dc 4d d3 3d 14 24 00 be 6b 42 dd be 36 ca d4 bc
       0.10317585 -0.12513763 -0.43214735 -0.025975328
000050 5c a5 49 be 7f f7 28 3d 76 f7 09 3e c2 28 e7 3d
       -0.19691986 0.041251656 0.13473305 0.11287071
000060 76 34 0e be f0 3d 10 be 41 46 85 3d 2c f3 30 3d
       -0.138872 -0.14086127 0.065075405 0.043200657
000070 81 d9 f7 3d 98 57 e9 bc ec b0 01 3e ff 2d dd be
       0.121020325 -0.02848415 0.12665147 -0.43199155
000080 54 b0 a2 3d 76 13 79 3d 7a 7f 83 be 82 d3 2a 3d
       0.07943788 0.060809575 -0.25683194 0.041705616
000090 26 2d 08 3d d8 b6 fb 3d 12 72 97 3d 6f 37 14 be
       0.033246182 0.12290734 0.07394804 -0.14474271
0000a0 5d f2 6d 3d 92 32 2b bd 6b aa 09 3c ea 20 28 3d
       0.058092464 -0.041796274 0.008402447 0.041047014
0000b0 be 2f 9d 3b 71 70 df bd 42 a5 ad 3c 4b 06 9f 3c
       0.004796951 -0.10910118 0.021196965 0.01941218
0000c0 29 87 55 3c 82 3c 52 be 99 6e 91 be e8 c5 88 be
       0.013032713 -0.20530894 -0.28404692 -0.2671349
0000d0 e5 ab 5a bd f0 01 80 3e 5d 45 37 3d ea 92 83 3d
       -0.053386588 0.25001478 0.044743884 0.06424506
0000e0 73 57 f3 3d b5 f9 13 3e 51 b0 ec 3e fe a3 a8 3c
       0.11881914 0.14450724 0.4622827 0.02058601
0000f0 d5 57 3c 3c bd 35 ff bd cd 97 66 3d c6 c4 80 bd
       0.01149555 -0.12461422 0.056297112 -0.062875316
000100 39 25 65 3d 80 cd 1b bd 4c 0f 1b 3e 4a 9e dd bd
       0.0559437 -0.038037777 0.15142554 -0.10821207
000110 15 00 df bd 87 03 df bd fc 27 28 3e 90 36 79 3d
       -0.108886875 -0.10889345 0.16421503 0.06084305
000120 05 e6 33 3e 52 4a 1a be e9 6f 39 be 80 44 12 be
       0.17568214 -0.15067413 -0.18109097 -0.14283943
000130 c7 86 fb bd 08 73 97 3d 8b e3 85 3d a5 58 1b 3e
       -0.12281566 0.07394987 0.06537541 0.15170534
000140 fd 18 c1 bd 72 e6 fe bd b6 63 c6 3d 0a 23 97 bd
       -0.09428594 -0.12446298 0.09686987 -0.0737973
000150 a1 ef e2 3d 86 75 31 bd 11 e5 d5 3d 41 42 11 be
       0.11080862 -0.04332497 0.104440816 -0.1418543
000160 cf b1 bc bd 6f fe 63 3d 9c d9 04 3d 0b aa 3e bd
       -0.09213602 0.05566257 0.03243409 -0.046548884
000170 2f 41 d2 3d 99 91 f1 3d ce e2 0d be 9f 3c d4 bd
       0.10266339 0.11795349 -0.1385605 -0.10363125
000180 b1 e0 24 3e 7d ca 8a bd ce 2c 91 bd 81 35 3b be
       0.16101338 -0.06776903 -0.07088624 -0.18282129
000190 ce be e2 bd 24 cf 3a 3d 3c e5 f7 bc c8 04 0e be
       -0.11071549 0.0456077 -0.030260675 -0.13869011
0001a0 2f 5b f6 ba 82 04 06 be 9c ec 24 be 6e 85 da bd
       -0.0018795485 -0.13087657 -0.16105884 -0.10669981
0001b0 42 ef 29 be da b4 fa bd 02 e2 3a 3e 94 05 e8 3c
       -0.16595176 -0.12241526 0.18250278 0.028322972
0001c0 fe 72 66 3d 91 ae 34 be 28 19 01 be 2b 14 89 bd
       0.05626201 -0.17644717 -0.12607253 -0.066933
0001d0 48 e0 e9 3c ac 81 24 be cb 1b a1 bd 6d d9 df bd
       0.028549328 -0.16065091 -0.07866629 -0.109301426
0001e0 6b a2 04 3a 43 22 8b bd bb 48 4f bc b3 5f fd bd
       0.00050596026 -0.06793644 -0.012651618 -0.12371769
0001f0 5f 53 00 be 11 24 da bd 6a fa 7f bd 8f 8f 13 be
       -0.12531804 -0.1065141 -0.062494673 -0.14410232
000200 c7 c1 1c 3e 88 6a 14 bd 37 db 20 3e 2e 02 69 3d
       0.15308295 -0.03623441 0.15708624 0.056886844
000210 52 50 1e be 4f 61 01 3e 86 c2 4d bd 87 54 8f bd
       -0.15460327 0.12634777 -0.05023434 -0.06998544
000220 c7 2f 1b be 40 dd 39 be da f5 55 3d 88 5b 23 bd
       -0.15154944 -0.18150806 0.052236415 -0.039882213
000230 93 92 91 3d 8d 6d 19 be 33 cd 0a 3e 58 3c 09 be
       0.07108035 -0.14983197 0.1355484 -0.13401926
000240 16 21 01 bd 9f 32 1c 3d 5f 08 c1 3d 76 ee 16 3e
       -0.031525694 0.038134214 0.09425425 0.14739403
000250 2c 4f 2a 3e d4 3d 14 be e9 33 3c 3d 48 d4 a0 bd
       0.16631764 -0.1447671 0.045947943 -0.078529894
000260 78 e6 a3 bc 48 ef 0b be 5b 4a 2a 3e 67 37 09 be
       -0.020007357 -0.13665497 0.16629927 -0.1340004
000270 73 d6 c7 3d 4f 68 83 3d 82 02 73 3d 70 27 ca bd
       0.097577 0.0641638 0.059328564 -0.09870803
000280 15 ef 29 3e a8 55 24 3d 74 66 c0 3c 7f c1 24 be
       0.16595109 0.04012075 0.023486353 -0.16089438
000290 c3 f6 9c 3d c2 60 e0 bc 52 4c ab bd ce 95 20 3e
       0.076642536 -0.027389888 -0.08364166 0.15682146
0002a0 f7 b9 26 3d 6c e0 ce bd 5a 40 bd bd f9 d9 0e bc
       0.040704694 -0.10101399 -0.0924079 -0.008718961
0002b0 27 c7 d0 3d 23 18 3f bd 42 58 d5 bd 21 0b 80 bd
       0.10194235 -0.046653878 -0.104172245 -0.06252123
0002c0 8b ab 0b be 61 59 85 3d 21 b6 10 3e 05 02 30 be
       -0.13639657 0.06511188 0.14131977 -0.1718827
0002d0 4f 67 c3 3d 4a d7 10 3f b5 80 89 3d 9f d9 de 3c
       0.09541189 0.56578505 0.06714002 0.02720338
0002e0 96 fb 85 3e 1e ac 57 3e 91 5f ba 3e 17 8e 33 be
       0.26168507 0.21061751 0.36401036 -0.17534672
0002f0 a0 45 3b 3e 9c 9b 3d 3e e1 0b 31 be 56 d1 bf be
       0.18288279 0.18516392 -0.17289688 -0.37464398
000300 cb 8d ac 3e fb f8 d7 bc ac 0a ed 3e 7d e8 88 bd
       0.3370193 -0.02636384 0.46297204 -0.066849686
000310 ec 9f 53 bc 69 d4 ab 3e e5 9e 6c 3f cf 15 43 3e
       -0.012916546 0.33560494 0.92429954 0.19051288
000320 58 20 bc bc a4 97 5f be 90 01 b2 be 6c 1f dc 3c
       -0.022964641 -0.2183519 -0.34766817 0.026870452
000330 60 9b 44 3e 5c a5 9a 3d 54 a9 fa be 36 6a f8 be
       0.19199896 0.07551071 -0.48957312 -0.48518533
000340 c6 4e e7 3d a2 e1 a1 be 46 6c de 3c 47 0d ea 3c
       0.11294322 -0.31617457 0.027151238 0.028570784
000350 77 83 61 be 32 15 3e be df 8e ab bd 1f 83 ba 3d
       -0.22022806 -0.18562773 -0.0837686 0.091070406
000360 bd c8 58 bd 4b 3f 0f be b5 e6 6e bb 1b 87 19 be
       -0.052925814 -0.13988988 -0.003645343 -0.14992945
000370 f5 74 5d be 2e 28 2d 3d 97 fb 1e be 5d f8 d6 bd
       -0.21626647 0.042274646 -0.15525661 -0.1049659
000380 18 5b 80 be f7 93 1a 3d 09 1f 58 3d 53 79 fd b9
       -0.250695 0.037738767 0.052763972 -0.00048346314
000390 90 bd 34 be cc 01 88 be 60 5c 6d be a5 37 9d 3d
       -0.17650437 -0.2656387 -0.2317977 0.07676629
0003a0 79 8f 04 bb 52 9f 4e 3d 68 65 80 3a 36 d4 42 bd
       -0.0020227118 0.05044491 0.0009795846 -0.04756566
0003b0 80 8e fd bd d1 03 88 be 10 22 94 be 67 fc a5 be
       -0.12380695 -0.26565412 -0.28932238 -0.3241913
0003c0 83 ba 59 3d 28 af 0a 3e b7 ac 50 bd 86 bb 00 be
       0.053156387 0.1354338 -0.050945964 -0.12571535
0003d0 3f b5 8d 3d 35 a9 a7 bd fa 05 c5 bd 61 18 0d bb
       0.069193356 -0.081865706 -0.096202806 -0.0021529424
0003e0 05 3b 51 bd ad e5 16 3e cf 42 d1 bd 6c 72 2a be
       -0.051081676 0.14736052 -0.10217821 -0.16645211
0003f0 4b 9b 79 3c b1 12 e8 bd 2f 51 26 3d 7d c6 2c be
       0.015234779 -0.1133169 0.040604766 -0.16872592

fc1.bias f4 [30]
000000 20 ec bc 3d ca 55 fb 3c 12 d1 28 3e b8 c4 b6 bb
       0.09224725 0.030680556 0.16486004 -0.00557765
000010 76 d0 16 3d d2 a8 81 3d a8 21 ec 3b dd a4 84 bd
       0.036819898 0.06331028 0.0072061606 -0.06476758
000020 55 c6 89 3c d6 f4 3e 3b b9 2e 45 be 24 67 f1 3d
       0.016818205 0.0029137633 -0.19256105 0.11787251
000030 df 84 03 3e 7c 15 9e 3d 53 93 25 3e 84 bc 97 bd
       0.12843655 0.077189416 0.16169481 -0.074090034
000040 06 0c 33 bd 0a bd 33 3e 07 ee 9c bd 0a b5 a7 b9
       -0.04371264 0.17552581 -0.076625876 -0.00031987607
000050 6b 9a 15 bd 47 6b 3a 3d db 91 14 be 4d 0e f4 3d
       -0.036524218 0.045512464 -0.14508764 0.1191679
000060 cc 02 a5 3d af bd 44 bd 39 b5 6b bd a1 b6 02 3e
       0.08057174 -0.04803246 -0.057545874 0.1276498
000070 a7 79 47 be 64 a1 53 be
       -0.1948 -0.20667034

fc2.weight f4 [30, 30]
000000 ca ec 1f 3e 78 98 a1 bd 0e c0 05 be ea 41 d1 bd
       0.15617672 -0.07890409 -0.13061544 -0.1021765
000010 b6 54 4f bd b6 6b b1 bd bb d7 f8 bd be e4 7f 3d
       -0.050617896 -0.08663122 -0.12150522 0.062474005
000020 51 22 98 3c 24 92 9c bd 7a a6 1c be 88 d7 7b bd
       0.01857105 -0.076450616 -0.15297881 -0.061484843
000030 8f 7b b3 bd 26 5b 73 bd fc cf 34 be 5e 1a 21 3d
       -0.08763801 -0.059413098 -0.17657465 0.039331786
000040 49 c9 17 be 54 c7 13 be 2c 9e 19 be 22 95 5c 3e
       -0.14822878 -0.14431506 -0.15001744 0.21541265
000050 01 c0 0e be a5 51 94 bd f8 b3 ee 3d a9 29 ab 3d
       -0.13940431 -0.07242135 0.1165542 0.083575554
000060 82 05 9c 3d 63 59 42 be eb 10 06 be cb 98 b0 bd
       0.07618238 -0.18979411 -0.13092391 -0.08622893
000070 ae 8e 09 3e 82 dc 99 ba d0 4e 26 be fa 33 30 bc
       0.13433334 -0.001173869 -0.16241002 -0.01075458
000080 08 34 11 be 01 d9 23 bd 06 a2 4d bd 32 d7 21 3e
       -0.14180005 -0.040001873 -0.050203346 0.15804747
000090 64 0c 30 3d 90 41 1f bd 3e e9 00 bb 95 eb a7 bd
       0.042980567 -0.038880885 -0.0019670273 -0.081992306
0000a0 54 62 7e 3d 83 b5 58 3d 4a d0 cd 3c 04 be 91 bd
       0.06210549 0.052907478 0.025123734 -0.07116321
0000b0 41 bf 19 3e 36 ed d7 bc 87 29 af bd 5e fd a0 3d
       0.15014364 -0.026358228 -0.085528426 0.07860826
0000c0 f3 e5 e8 3d ed 34 05 3e a6 d6 eb bb 4d ef 6e bd
       0.11371984 0.13008471 -0.007197219 -0.058333684
0000d0 ef 4d 92 3d 8b dd f8 3d 9b 58 2d be e9 5f be bc
       0.07143771 0.12151631 -0.16928332 -0.023239093
0000e0 ba fe fe bd 32 b6 d2 3c 07 8a 81 3d 21 28 15 bd
       -0.12450929 0.025721643 0.06325155 -0.036415223
0000f0 9a 23 95 bc e1 3d a5 3d 83 5f fb bc a7 2b 17 be
       -0.018205453 0.08068443 -0.030685192 -0.14762746
000100 17 97 15 3e ff 31 bc bd ed 1d fd 3b 73 7d 64 3c
       0.14608417 -0.091892235 0.0077245147 0.013945925
000110 5f 4c b8 bc 94 cd 0b be 93 1a 8b 3d 53 f1 9d bd
       -0.022497354 -0.1365264 0.06792178 -0.077120446
000120 26 e0 d9 bd 4f dc 4c 3d bf 07 11 bd 97 ce ac bd
       -0.10638456 0.05001479 -0.035407778 -0.084378414
000130 ce c1 99 bd 13 dc b5 bd 1c 48 c6 bd 57 e9 44 3d
       -0.075076684 -0.088798665 -0.096817225 0.048074093
000140 f3 59 8a bc 7c 1b 23 be 3e 8f ba bd da a1 d1 bb
       -0.016888594 -0.15928453 -0.091093525 -0.006397468
000150 7d c3 a0 3d 1e e7 bd 3d 7a 53 03 be 54 80 16 3d
       0.078497864 0.09272598 -0.12824813 0.036743477
000160 c2 19 b6 3d 40 00 d4 3d 0e 60 24 be 51 14 7c bd
       0.08891632 0.1035161 -0.16052267 -0.061542813
000170 6f b3 20 be a1 9d ec bd 36 43 d0 3d 26 54 df bc
       -0.15693448 -0.11553503 0.101690695 -0.027261805
000180 e4 f4 66 3e 19 d6 0f be 71 58 85 3c 42 db e4 3c
       0.22554356 -0.14046516 0.016277524 0.027936582
000190 2d fe a3 3d 92 3a be bd 02 cf 13 bd 77 35 22 be
       0.080074646 -0.09288515 -0.03608609 -0.15840708
0001a0 8d 01 79 3d d0 82 31 3e bc 19 ac 3d c7 2e db bd
       0.060792495 0.17335057 0.08403346 -0.107022814
0001b0 8e 9f 52 3a b0 44 36 3c 45 bd e3 bd 6a 26 18 3e
       0.000803464 0.011124775 -0.11120085 0.14858404
0001c0 a8 c1 04 3d 5e 9e 03 3d e7 86 12 3d 1e 79 b4 bd
       0.032411247 0.032133453 0.035773184 -0.08812164
0001d0 e1 9d f6 3c c0 9a ab 3d 31 d9 fd 3c 6a 6c d0 bc
       0.03010458 0.083791256 0.030987354 -0.02544232
0001e0 eb 36 1e 3e 27 39 15 bd 43 fd e4 bd 22 e2 ae bd
       0.15450637 -0.036431458 -0.11181118 -0.08539225
0001f0 18 0b 38 3e 1b 85 13 37 16 ba 3d bb 0d d2 bb bd
       0.17972982 8.792874e-06 -0.0028950027 -0.091709234
000200 d6 02 90 bd 8f 7e 00 be 01 c2 1f be 4f 5e c4 3d
       -0.07031791 -0.12548278 -0.1560135 0.095883004
000210 01 73 14 3e 83 69 32 3e 73 53 26 be 38 3c ca 3d
       0.14496996 0.17423062 -0.16242771 0.09874767
000220 44 62 00 be 04 0a b4 3d 4a 76 c8 3d 74 8d 58 3e
       -0.12537485 0.08790973 0.09788187 0.2114771
000230 65 3f 9c 3d 2b 42 b7 3d ba 85 36 3d 3f 3e 8f 3d
       0.07629279 0.089481674 0.044561125 0.069942944
000240 5e d2 c5 bd 41 fa 82 3d 20 5a 70 bd a6 02 2d bc
       -0.09659265 0.063953884 -0.0586797 -0.0105597135
000250 33 35 31 be 3f 16 28 bd 07 d9 c0 bd ef 86 7d bd
       -0.1730545 -0.04103684 -0.09416395 -0.06189626
000260 6e c6 ee bd 38 ce 22 be 63 c8 42 3c 3b a9 f2 3d
       -0.11658941 -0.15898979 0.011888596 0.118486844
000270 d8 c0 7e 3e 47 5c a4 3d ba cd 98 bd aa 06 e9 3c
       0.24878252 0.08025413 -0.07461114 0.02844556
000280 1a 35 24 3d c2 bb c5 3d 7e 53 07 be 8d 56 92 3d
       0.040089704 0.096549526 -0.13215443 0.071454145
000290 b8 c7 cb 3d cf 33 35 3c ef e4 f5 bd 84 2b 3c 3e
       0.09950203 0.011059715 -0.12006556 0.18375975
0002a0 4c 4e b2 3d 0b e4 56 3d 94 3d 88 bd e3 48 9f 3d
       0.0870634 0.052463572 -0.0665237 0.07777574
0002b0 49 d7 07 be 71 40 4d 3e 48 5b 0b be 3c e4 71 3d
       -0.13265719 0.20044114 -0.1360904 0.059055552
0002c0 d4 be 15 3d 74 29 00 3d 8c b6 18 bd 44 89 23 3d
       0.03655894 0.031289533 -0.037283465 0.03992583
0002d0 1c 86 c2 bd cf 8f 49 be 7a a8 8f bd ba 7c 12 3e
       -0.094982356 -0.19683765 -0.07014556 0.14305392
0002e0 1c e1 44 bd 08 0e 6b 3d 36 c4 3a be 9c 03 1c 3e
       -0.048066244 0.057386428 -0.18238911 0.15235752
0002f0 55 b3 b5 3d 98 1b b1 3c 82 a3 ad bd cc 33 07 be
       0.088720955 0.021619603 -0.08478452 -0.13203353
000300 4f 32 1d 3b bc 5b db bd b2 4a 06 3e 00 a9 33 be
       0.0023986285 -0.10710856 0.13114432 -0.17544937
000310 11 91 b2 3d 37 e3 09 3e 28 a8 5f 3d 03 be e9 3c
       0.087190755 0.13465582 0.054603726 0.028532987
000320 8b 5a 26 be 73 e8 0a 3e a5 9f 22 bd d1 b7 4c be
       -0.16245477 0.13565235 -0.03970303 -0.19991995
000330 b2 7d 26 3e 86 3d 35 bd 84 a0 53 bc 28 b0 20 3e
       0.16258886 -0.044248126 -0.012916688 0.15692198
000340 89 0a f8 bd be 01 13 be 5a ef aa 3c 1a 8f 8d bc
       -0.121113844 -0.14356133 0.020866085 -0.01728015
000350 4d 41 2c 3d 0c cd 1c be 4c eb b2 3b 0c 4d a6 bd
       0.042054463 -0.15312594 0.0054601785 -0.08120164
000360 cf 94 0e bd b6 3b 16 be 81 49 d8 3d 9c 86 6d 3d
       -0.034809884 -0.14671215 0.10560895 0.0579897
000370 89 b7 22 be 9f 3b 22 3e 7c 7d e8 3d c2 c4 0a 3d
       -0.15890326 0.15843056 0.11352059 0.03387905
000380 84 f8 01 be e9 8c e1 3c 00 e8 2c 3e d8 79 14 3e
       -0.12692457 0.027533012 0.16885376 0.14499605
000390 4b a1 ee bd 0a 0f 52 bd 83 ed d9 3d 55 79 8c 3d
       -0.11651858 -0.051283874 0.10641005 0.0685908
0003a0 ee 71 da 3d b6 43 30 3e 8e 9e 04 be 9c 91 d7 3d
       0.106662616 0.1721333 -0.12951109 0.1052582
0003b0 9c f3 fd bd ac 43 7d 3c 1b 8b b1 bd f1 bc 44 bd
       -0.123999804 0.015458029 -0.086691104 -0.04803175
0003c0 6b f5 8c bc ee 8f 0f bd bc 46 ec bc d1 ec 6b 3c
       -0.017206868 -0.03504937 -0.028842323 0.014399723
0003d0 b8 6a 38 3e 45 3f d9 3d 29 d7 c0 3d 7d 6d 81 3d
       0.1800946 0.10607771 0.094160385 0.06319711
0003e0 b0 33 27 3e 79 b4 ad 3d eb 92 24 3c 7e b4 4e 3d
       0.16328311 0.08481688 0.010044794 0.0504651
0003f0 f0 27 f7 bd 8a 9a 16 be a1 a2 08 3b 0b 4b 92 bd
       -0.12068164 -0.1470739 0.0020848888 -0.071432196

fc2.bias f4 [30]
000000 c8 5e 1d bb b6 c2 1d bd 0d a9 51 3b 52 ff 2a bc
       -0.0024012793 -0.03851577 0.0031991631 -0.01043685
000010 43 88 0e 3e d6 93 af 3d 0b 87 64 bd 23 2d 3d 3e
       0.13919167 0.08573119 -0.05579285 0.1847425
000020 93 11 4a 3e 91 d8 0c be b5 98 d8 bd ce cc fb 3d
       0.19733267 -0.13754489 -0.105760016 0.12294923
000030 b0 2d 83 3b 59 bd 26 be a1 1f 7a be 78 57 49 bd
       0.004003249 -0.16283168 -0.24426128 -0.049155682
000040 ac b6 88 3e be 54 ab 3d 94 29 0d 3e 49 2c e4 bd
       0.26701868 0.08365773 0.13785392 -0.11141259
000050 a4 8e 13 3d 9f ee 7e be 29 1f 45 3e 96 40 28 3e
       0.036024705 -0.24895714 0.19250168 0.16430888
000060 00 c8 39 3e 2e a8 09 3e 84 5f 3b be 2f bc 4c be
       0.181427 0.13443062 -0.18298155 -0.19993661
000070 43 b1 3a be 3d 6c 06 3d
       -0.18231682 0.032818068

fc3.weight f4 [30, 30]
000000 85 cc 8d 3d 82 db e7 bd 08 69 d0 3d cd 3e e1 3d
       0.06923775 -0.11321165 0.10176283 0.109983064
000010 95 33 49 be f1 8e eb 3d 06 bf c8 3b 51 c5 81 bc
       -0.19648583 0.11501873 0.0061262874 -0.015841158
000020 e3 90 0c 3e 06 9b 0d 3e 5e 0d c5 3d 8c 8c 0b 3e
       0.13727145 0.13828668 0.0962169 0.13627833
000030 d7 75 4d 3d d5 66 d5 3b 7e 0e 39 be 6d 9c 8b 3d
       0.05016121 0.0065125027 -0.18071935 0.06816945
000040 35 30 01 be 9e 9a 76 3d a4 e8 ef 3c ee 24 92 bb
       -0.12616046 0.06020605 0.029285736 -0.004459969
000050 e6 60 ff bd b0 2f c3 bd 45 85 21 3e e6 d2 03 3d
       -0.12469654 -0.0953058 0.15773495 0.03218355
000060 dc 4f f8 3d 6c d6 2a bd 3d c4 7b bd 3e bd 25 bd
       0.12124607 -0.041708395 -0.061466444 -0.04046368
000070 58 01 93 3d 81 cc 6f bd 66 99 be 3d 90 73 ba 3d
       0.07177991 -0.05854464 0.09306602 0.09104073
000080 25 94 46 be 24 9a 49 bd 2a 71 31 bd 23 e8 d4 bd
       -0.1939245 -0.049219266 -0.043320812 -0.10395839
000090 93 b3 8b 3d ae dd 42 bd a3 ad f0 3d f5 60 d5 bd
       0.068213604 -0.04757469 0.117518686 -0.10418884
0000a0 d5 4d d3 3c 23 69 22 be 94 5c d6 bd db 89 9f 3d
       0.02579395 -0.15860419 -0.104668766 0.07789966
0000b0 58 93 dd 3d cc 26 e8 3d a6 e9 64 be 12 aa d5 bb
       0.10819119 0.11335525 -0.22354755 -0.006520518
0000c0 61 a6 ff bd 08 ca 0f bd af 2b 41 be 68 61 ab bd
       -0.12482906 -0.03510478 -0.1886432 -0.08368188
0000d0 96 a9 ea 3d fc d2 2d be 2d 9e 46 be 48 69 02 3c
       0.11458127 -0.16975015 -0.19396277 0.007959671
0000e0 80 27 6f bb 4d 90 62 bd f3 63 f7 3d 90 aa 04 be
       -0.003649205 -0.055313397 0.12079611 -0.1295569
0000f0 1b 8b 00 be 6d f2 03 be f4 95 8a bd c8 f1 0d bd
       -0.12553065 -0.12885447 -0.067668825 -0.03465441
000100 1b f3 3a 3d e9 09 04 bd 25 a2 12 3d c9 5e cb bd
       0.045642 -0.032236014 0.035799164 -0.09930188
000110 f1 d5 2c 3e 8d dd 0d 3e bb 92 4b be ee a5 49 bd
       0.16878487 0.13854046 -0.19880192 -0.04923051
000120 fd ca 3b be 1b 8a c8 ba f6 87 79 be b0 60 dc bd
       -0.18339153 -0.0015299948 -0.24368271 -0.10760629
000130 8f 36 17 3e 4e c4 3c be 5c 98 04 3e af d2 ec bc
       0.14766906 -0.1843426 0.12948745 -0.028909056
000140 69 3f 0a 3e a5 ee cf bd e8 8b 54 3d 03 68 1b bc
       0.13500752 -0.1015294 0.051891237 -0.009485248
000150 a2 6b db bc 98 63 c7 3d 18 55 37 be 34 c8 33 be
       -0.026784722 0.09735793 -0.17903554 -0.1755684
000160 ac 65 41 3e 76 5f 04 be 6e 45 00 be 7b 6f 0c bd
       0.18886441 -0.1292704 -0.12526485 -0.034286004
000170 92 92 01 bd 53 db 49 bd 12 80 f8 bd 36 fc 7e 3c
       -0.03163392 -0.04928143 -0.121338025 0.015563061
000180 1a 0b ef bd f4 46 69 3c a7 28 b0 3d bc db 6d 3c
       -0.11672039 0.014238108 0.08601504 0.014517721
000190 a3 03 49 bc 18 e2 be 3c 4a ec af bd ed c1 81 bd
       -0.0122689335 0.02330117 -0.085899904 -0.063358165
0001a0 29 f4 cf bd ac 04 23 be 31 ac 10 be ac a2 1b 3e
       -0.10153992 -0.15919751 -0.14128186 0.15198773
0001b0 6d ff 3f bd 70 4e 42 3d d8 94 17 3e 23 d9 43 bd
       -0.046874452 0.047438085 0.14802873 -0.0478145
0001c0 de 01 1a be e8 0f 22 be 22 4e 3d bd e5 18 79 3d
       -0.15039775 -0.1582638 -0.04621709 0.060814757
0001d0 9f 6a 3a be be 88 17 bd 52 85 76 3d c0 94 ee 3d
       -0.18204735 -0.036995642 0.060185738 0.116494656
0001e0 51 66 a8 3c 79 0a 01 3d 78 78 ae 3d 37 b1 46 3d
       0.0205566 0.031504128 0.08519071 0.04850885
0001f0 ad 14 8f 3d 54 d2 93 bd 3b 7f 1b be 90 70 65 bd
       0.069863655 -0.07217851 -0.15185253 -0.05601555
000200 db 33 7c bd 31 61 52 bc b4 2d 53 bd 1c c5 38 3d
       -0.06157289 -0.012840555 -0.051557258 0.045109853
000210 29 7e eb 3d 68 af d9 bc 1b 7c 3a be ca 9e 03 be
       0.114986725 -0.026572898 -0.18211405 -0.12853542
000220 99 e0 ab bd 8f 28 91 3d 22 a2 05 be b3 c1 d4 bc
       -0.08392448 0.07087814 -0.1305013 -0.02597127
000230 1d 29 50 bd 5a a6 13 be ce e7 02 3e f3 e7 13 3c
       -0.05082046 -0.14418927 0.12783739 0.009027469
000240 87 d8 79 bc 95 85 12 be 1e 1e 28 bd 9d a1 8a 3b
       -0.015249378 -0.1430877 -0.041044347 0.0042306916
000250 e8 28 07 bd 81 3b cf bd fc 98 03 3c 13 39 6e bd
       -0.032997996 -0.10118771 0.00803208 -0.0581599
000260 68 3d eb bd 9d 82 34 be d4 03 9b bd 0e a3 3d be
       -0.11486322 -0.1762795 -0.075690895 -0.18519232
000270 43 2a f1 3d cb 98 d9 bd 41 05 0e be 4e c5 06 3d
       0.11775639 -0.10624846 -0.13869192 0.03290301
000280 9e 8c d1 3d ec 6f 13 bc ac 36 ad 3d 2e 63 6f bd
       0.10231899 -0.008998852 0.084576935 -0.058444194
000290 0e 9d 2e 3d 69 62 92 bd 45 09 14 be d9 66 96 bd
       0.042630248 -0.071476765 -0.14456661 -0.073438354
0002a0 95 cc 45 3d 04 6c 8f 3c 84 5b 0d 3e 3c 0b e3 3d
       0.048290808 0.01750756 0.13804442 0.11086127
0002b0 c9 16 1c be ce 8f 84 bd f4 44 82 bd 04 5b 12 be
       -0.15243067 -0.06472741 -0.06360808 -0.14292532
0002c0 4c 10 9d bd bd 56 36 be 67 f7 ba 3d 4d 4e ea 3d
       -0.07669124 -0.17806526 0.091292195 0.11440716
0002d0 95 75 b7 bb 2f d1 1e be 8e 48 3c be d1 4e 2f bd
       -0.0055987337 -0.15509485 -0.18387052 -0.042799775
0002e0 fe ab 99 bc c4 17 b4 bc 46 d4 20 3c 5f e6 da 3d
       -0.01875877 -0.021983989 0.009816235 0.10688471
0002f0 f9 a0 6d 3d 4b 59 88 bc a2 e0 a8 bd 82 5a bf 3d
       0.058014844 -0.01664414 -0.0824597 0.09343435
000300 0b bf 07 3d c5 ff 3e be e2 da 10 be ea 7a 8b 3c
       0.033141177 -0.18652256 -0.14145997 0.017026383
000310 ca b8 01 3d 08 c3 a2 3d da 99 ed bd 8d e5 35 be
       0.03167037 0.079473555 -0.116016105 -0.17763348
000320 8f 5b 38 bd d9 cb 6f bd d5 48 d5 3c a5 a4 0b bd
       -0.045009192 -0.058544014 0.026035706 -0.034092564
000330 c1 3b e6 3d bf 1c 3a bc 17 6b d4 3d 38 d1 14 be
       0.11241866 -0.011359393 0.10371988 -0.14532936
000340 14 3e 0f 3d c9 d9 dd bb db 31 bf bd 0e de cd 3d
       0.03497131 -0.006770347 -0.09335681 0.10052119
000350 b3 c0 3c be 99 e5 1c 3e e6 ed 89 3c b9 47 0b 3c
       -0.18432884 0.1532196 0.016837072 0.008500987
000360 0e f1 87 3d 6c a3 99 3c 3a 39 48 3d 96 b1 a3 3d
       0.066377744 0.018754683 0.0488827 0.07992856
000370 e0 a1 16 be 24 ad cf 3d 08 0d 03 bd a1 02 c3 bc
       -0.14710188 0.10140446 -0.03199485 -0.023804964
000380 c8 5f a2 3c e8 5f 0a 3e ad cf d0 bd 74 46 e1 bd
       0.019821063 0.13513148 -0.10195861 -0.10999766
000390 af fe e7 3d c6 0c ba bd 0a 6c 3c 3d 48 d7 08 bd
       0.11327874 -0.090844676 0.04600147 -0.033408433
0003a0 ea fb 8f 3d 63 8e 31 3e b0 64 4d bd 1d d0 b2 bd
       0.07030471 0.17339472 -0.05014485 -0.08731101
0003b0 f5 a9 a4 3d 72 cc 26 3c ea a6 d5 bc 4a e1 40 be
       0.08040229 0.0101805795 -0.026080567 -0.18835941
0003c0 d1 c2 34 3e cb c1 08 3d 56 b4 88 bd df f1 0e be
       0.17652442 0.03338794 -0.06675021 -0.13959454
0003d0 6d 14 fe bc 42 d4 4c 3d f5 9f 3b 3d 6d fe f4 3d
       -0.0310156 0.050007112 0.045806844 0.1196259
0003e0 d0 60 35 3c c6 b6 94 bd f9 da 9f 3d 65 c9 13 bd
       0.011070445 -0.07261424 0.078054376 -0.036080737
0003f0 9f 1f 80 bb 58 94 0d 3d 8e 06 bd 3d ba e4 b7 3d
       -0.0039100195 0.0345653 0.09229766 0.08979173

fc3.bias f4 [30]
000000 82 8a 73 3e 37 d1 dd 3d 7e f8 4e be 7d a1 d4 3d
       0.23783305 0.1083092 -0.2021198 0.10382364
000010 76 85 04 be ba 6e 05 be 8a 2c 93 be 41 81 ac 3d
       -0.12941536 -0.1303052 -0.28744918 0.08423091
000020 1f 72 7f 3d 58 f6 5a be 7f 21 7f 3d f8 15 fc 3d
       0.062364694 -0.21383035 0.062287804 0.12308878
000030 c5 3b 69 be f9 6e 47 bc e9 7c 03 bc c9 f5 6c 3d
       -0.22776707 -0.012172454 -0.008025386 0.057851586
000040 73 2c 10 be bd ab 9f 3c 97 e9 02 be 8a 97 21 bd
       -0.14079456 0.01949107 -0.1278442 -0.03945116
000050 47 17 13 3e af 6a 16 be 49 6b c1 3d 3a 41 a3 be
       0.14364348 -0.14689134 0.09444291 -0.318857
000060 38 4e 0c 3e ff aa 2d 3d 0c b6 4c be d1 2d b5 3d
       0.13701713 0.042399403 -0.1999132 0.088466294
000070 7f 62 91 be 91 0b 29 be
       -0.2839546 -0.16508318

fc4.weight f4 [10, 30]
000000 6f 4b 0f be 59 9b 39 bd 31 cb 91 bd c9 c5 34 be
       -0.1399362 -0.045314167 -0.07118834 -0.17653574
000010 8c 43 73 3d 37 43 0a 3d 26 cb 0d 3e d5 9a a3 3d
       0.05939059 0.033755507 0.13847026 0.07988516
000020 51 60 06 3e 43 a7 af 3d 5f 11 8f 3d b8 33 00 3e
       0.1312268 0.085768245 0.06985735 0.12519729
000030 69 2b 5c 3e 39 27 e3 bd e9 bc 00 bd 94 b0 0f be
       0.21500935 -0.110914655 -0.03143016 -0.14032203
000040 c5 ab 8c 3c a9 09 63 bd f1 f9 45 3e 85 a4 05 3c
       0.01717175 -0.055429135 0.19333626 0.0081569
000050 c6 dd ce bc f4 d4 f7 bd c8 43 3d be ac d6 76 3b
       -0.025252234 -0.121011645 -0.18482888 0.0037664576
000060 e0 57 dd bd 58 80 b5 bd e9 c8 ed 3d 87 7e 8a bd
       -0.108077765 -0.0886237 0.11610586 -0.067624144
000070 52 ff 9c bd 35 88 0d 3e cc 3a 1d 3d fe df d6 bd
       -0.07665886 0.1382149 0.03838615 -0.10491942
000080 75 d3 4c 3d d4 d9 2d 3c 50 6e 2b be 97 aa 82 3d
       0.05000635 0.010611016 -0.167413 0.06380194
000090 88 09 60 3c 43 de 43 bd ed d6 0b 3e f5 6b 9c bd
       0.013674147 -0.047819387 0.13656206 -0.07637779
0000a0 d2 80 82 3d a0 f6 07 be ed 8c e3 bd 29 18 cd 3d
       0.06372227 -0.13277674 -0.11110864 0.10014374
0000b0 ee 96 80 bd 5b 6d 24 bc 1f f0 df 3d 57 5e 0e be
       -0.062787876 -0.010035838 0.10934471 -0.13903175
0000c0 7d fd 01 be be c7 30 3d 89 2b 01 3e f4 9f 74 bb
       -0.12694354 0.04315924 0.12614264 -0.0037326785
0000d0 52 3e 90 3d f4 ed 1e 3d 0e 2a eb 3c 68 ad c7 bd
       0.07043137 0.03880115 0.028706577 -0.097498715
0000e0 72 de 0e 3e 18 39 cf 3d f3 9d a4 3b 45 5d 05 3e
       0.13952044 0.10118312 0.005023712 0.13023861
0000f0 ae d6 42 be e0 08 0c 3d 88 67 a2 bd a1 4d fc bc
       -0.19027206 0.03418815 -0.07929903 -0.030798735
000100 64 3a 20 3d fb b3 42 3d 5d 06 6d 3c cd 38 22 be
       0.039118186 0.047534924 0.014466849 -0.1584198
000110 94 68 0d be 44 21 64 bc 8d 79 52 bd df 47 27 be
       -0.13809425 -0.013923947 -0.05138545 -0.1633601
000120 95 01 15 3e 49 95 af 3c a1 e6 39 be c6 d5 18 3d
       0.14551385 0.02143349 -0.18154384 0.037313245
000130 38 0a 7e 3d 65 0c c9 bd 04 9a ba 3d fe 6e 04 be
       0.062021464 -0.09816817 0.091114074 -0.12932965
000140 41 79 e5 3c c8 43 0e 3e 72 e6 d1 3d bf 8b 27 3d
       0.02801192 0.13893044 0.10249032 0.040904757
000150 f5 08 84 bd 7b 28 61 ba 0a ce 80 3d 01 da 8e 3c
       -0.06447021 -0.0008589101 0.06289299 0.017437937
000160 60 4b 9c bd 5b 35 56 bc 6a 20 3b bd fc f6 ce bd
       -0.07631564 -0.013074244 -0.04568521 -0.10105702
000170 94 e0 25 be c6 fb 8f bd 75 65 c9 bd 71 31 15 3e
       -0.16198951 -0.07030444 -0.098338045 0.14569642
000180 e3 a3 7d 3d 42 b7 00 be c2 af 7b bd 83 b3 cf bb
       0.061923873 -0.12569907 -0.061446913 -0.006338538
000190 11 e2 e4 bc e7 0d a2 bc 31 bf ea bd ca 57 ed bc
       -0.027939828 -0.01978202 -0.11462248 -0.028972525
0001a0 ea 05 ae ba 47 94 94 3c 54 8c c6 3d f7 ca d1 3d
       -0.0013276909 0.01813711 0.09694734 0.102437906
0001b0 bb f9 f9 3d 7f 3f c9 3b 8d 84 4a bd 10 aa bb bc
       0.122058354 0.0061416025 -0.049442817 -0.02290824
0001c0 f1 59 51 bd 32 03 bd 3d 93 3b e3 bb 87 0d a6 bd
       -0.051111165 0.09229125 -0.006934592 -0.08108049
0001d0 67 bd 0b be d9 ca 8c 3d 18 a8 ed 3d d2 75 21 3e
       -0.1364647 0.068746276 0.11604327 0.15767601
0001e0 22 7e 8d bd 84 ea 8c 3d 4e f8 bc 3c 06 2e 00 be
       -0.069088235 0.06880668 0.02306762 -0.12517557
0001f0 a5 b2 eb bd ef c3 aa 3d 67 70 f0 bd 49 88 df 3d
       -0.11508683 0.083381526 -0.11740189 0.10914666
000200 7a 03 47 3d c8 96 80 3d 84 7b c2 3d f8 7f b3 3d
       0.0485873 0.06278759 0.09496215 0.087646425
000210 24 b2 db 3d ba da 42 3d ca 0d fb bd c2 dc b8 bd
       0.10727337 0.047571875 -0.122584894 -0.09026481
000220 15 a0 32 bd 9f e4 c9 3d c0 8c 21 3e 0b 2f ea 3d
       -0.043609697 0.09858059 0.15776348 0.11434754
000230 21 18 87 bd 86 12 08 bd 9a 75 18 be e9 9d 90 3d
       -0.06596399 -0.03322079 -0.14888611 0.07061369
000240 8f 4b 0c be 9b e7 92 bd 3a b9 02 3e 82 fa 0f 3d
       -0.13700698 -0.071730815 0.12765971 0.035151012
000250 3f a1 c8 bd aa d5 05 be 5d 52 18 be 3e 40 1f 3e
       -0.0979638 -0.13069788 -0.14875169 0.1555185
000260 4d e9 28 be c3 ae 17 3e 38 9d 05 3e 9b e5 33 3c
       -0.16495247 0.1481276 0.13048255 0.010980035
000270 51 7b 0e 3c 69 ce e6 3d 51 8a 64 3d fa 38 1a 3e
       0.008696393 0.11269838 0.05579597 0.15060797
000280 7e 12 e6 3d 33 15 11 be 43 e5 e9 3d cb 09 4b 3d
       0.11233996 -0.14168243 0.11420681 0.049569886
000290 ca 7c 11 be e8 12 97 3d 3a 24 f5 bd 14 60 f4 bd
       -0.1420776 0.07376653 -0.119698 -0.11932388
0002a0 9c e4 82 3c 7d b5 56 bd de f9 8a bd 40 e0 fa bd
       0.01597815 -0.052419174 -0.0678594 -0.122498035
0002b0 d4 6f a6 3d 13 52 0d 3e 37 58 9b bd 6c 5d 08 be
       0.08126798 0.1380084 -0.07585185 -0.13316888
0002c0 ef 06 0e bd c4 a9 2c be b4 f2 3c be dd 18 bf bd
       -0.03467458 -0.16861635 -0.18451959 -0.09330914
0002d0 f1 8c e2 3d 74 96 10 be c5 2a 02 bd 4e 5b 7f bd
       0.11062039 -0.14119893 -0.03177907 -0.062342934
0002e0 f1 e8 2f be 9c 3b 4d bd b3 fe 9d bc ba 85 a9 bc
       -0.17178704 -0.050105676 -0.01928649 -0.020693649
0002f0 72 19 1c 3e 56 a0 3a 3d 95 cd ec 3d 41 16 ce 3d
       0.15244082 0.045563065 0.11562649 0.10062838
000300 72 57 5a 3b 4a d1 c4 3d 4c c6 de bd 5b a2 e3 3d
       0.0033316282 0.09610231 -0.10877666 0.11114951
000310 3e 7b 86 3d 4e 3a ad bd 4c d8 9e bc 8c b1 f0 bd
       0.06566475 -0.08458386 -0.019390248 -0.117526144
000320 08 f1 1c be 37 76 1d 3b 26 8a 89 3d df dd aa bc
       -0.15326321 0.002402676 0.06715803 -0.02085775
000330 f2 ef 74 3d 5c 78 2a be b0 f9 a6 bd f0 f2 f1 3d
       0.059799142 -0.16647476 -0.08153093 0.11813915
000340 12 93 16 be 73 83 d4 3c 3d 80 db 3d 8e d6 0a 3e
       -0.1470454 0.025941586 0.10717819 0.13558409
000350 82 de 19 3d 85 f1 40 be 7c b8 0b 3c 15 53 ab bd
       0.037565716 -0.18842132 0.008527871 -0.08365456
000360 e4 89 1a bd 53 50 f9 3d 82 38 ab bd a8 a2 14 be
       -0.03772916 0.12173524 -0.083603874 -0.14515173
000370 80 71 27 be ba 11 b9 3c 85 74 01 3c 7f 7a 20 3e
       -0.1635189 0.02259146 0.007901316 0.15671729
000380 c2 d0 f8 3c 61 f1 5b be 72 85 e3 3c 3f 2f 19 3e
       0.030372981 -0.21478797 0.027773593 0.14959429
000390 ee 31 73 3d a1 04 06 3d d3 71 1a be fc 8a 09 be
       0.05937379 0.03271926 -0.15082483 -0.13431925
0003a0 e5 cd c4 3d 13 39 25 be 99 4b 64 3c 0f 06 39 bd
       0.09609584 -0.16135053 0.0139340395 -0.045171794
0003b0 02 0e 38 3d 06 ba 43 3c d7 f3 2b be 8f 46 b7 bd
       0.044935234 0.011946207 -0.16792236 -0.08949005
0003c0 a2 fc 1a 3e 87 e3 00 3d e5 ea c4 3d 75 16 05 bd
       0.15135434 0.031466987 0.09615115 -0.03249212
0003d0 63 6e 0c 3e 09 08 6a bd fd 04 ac bd 8c 39 2c 3d
       0.13713984 -0.05713657 -0.08399389 0.04204707
0003e0 8f 99 50 bd 54 ef c6 bd c4 64 7d bc c9 94 0f 3d
       -0.050927695 -0.09713617 -0.015465919 0.035054002
0003f0 67 b0 ae bd c4 68 9c 3d 8d 9e 23 be 07 d6 0e 3e
       -0.0852974 0.0763717 -0.15978451 0.13948832

fc4.bias f4 [10]
000000 69 f1 52 3e bd fb f4 3d a3 a2 01 be b7 92 bb bd
       0.20599903 0.11962078 -0.12659697 -0.09158843
000010 a8 51 c5 3d cd 76 c0 3c e7 9d 3f be 94 a4 f8 3c
       0.09634715 0.023494149 -0.18712579 0.030351914
000020 6e 42 25 be 32 62 a0 3c
       -0.16138622 0.019578073

fc5.weight f4 [1, 10]
000000 3b eb 0c 3c 0d 86 60 3d 1c 67 8f be 54 94 93 bd
       0.008601005 0.05481534 -0.28008354 -0.07206026
000010 19 4d d8 3d c3 2f 48 3e 87 0f c0 bc 3b ff 7e 3e
       0.1056158 0.1954947 -0.023444904 0.2490205
000020 86 b9 07 bd 2d 1f 08 be
       -0.033135913 -0.13293143

exp_avg f4 [30, 30]
000000 46 f4 8c b8 c9 6e 8e 34 e6 57 06 bd b8 ce 81 b6
       -6.72122e-05 2.6530168e-07 -0.03279867 -3.868565e-06
000010 8a be de b8 11 05 d8 b6 8d 79 d9 b5 dc 8d 03 b6
       -0.000106212756 -6.4378914e-06 -1.6203136e-06 -1.9603094e-06
000020 38 8a 87 b6 6d a3 6e b9 4c b1 3e b7 9e 2e 51 36
       -4.0394043e-06 -0.0002275833 -1.1366163e-05 3.1170562e-06
000030 b5 16 91 b7 10 ec b5 b4 28 6d f9 34 5a 95 52 3c
       -1.729592e-05 -3.3885635e-07 4.6459286e-07 0.012852991
000040 d8 e4 04 3c be ab 3b 37 07 0e af b5 7e 9e 1f b8
       0.008111201 1.1186055e-05 -1.3042599e-06 -3.805616e-05
000050 0c 0f df b3 94 61 92 b7 b2 2f f1 b6 84 af 92 37
       -1.0386984e-07 -1.7449995e-05 -7.187912e-06 1.7486287e-05
000060 53 e8 20 b7 a0 58 db 34 61 e2 a9 b7 12 a4 d6 b7
       -9.590835e-06 4.0856412e-07 -2.0251786e-05 -2.558719e-05
000070 91 b1 7d b7 42 2e 03 b8 97 8b 4b b9 65 e9 94 b5
       -1.5121318e-05 -3.1275915e-05 -0.0001941159 -1.1094786e-06
000080 52 47 ca bc 28 40 4a b7 47 c6 fe b7 a7 54 1e b7
       -0.024692211 -1.2055076e-05 -3.037149e-05 -9.4372435e-06
000090 e9 38 86 b7 ac 1d 12 b7 b0 16 05 b7 a1 ba a5 b9
       -1.6000546e-05 -8.709187e-06 -7.9327e-06 -0.00031610302
0000a0 ac 48 43 b7 20 4a 78 b5 ab 6a eb b7 a2 34 77 b6
       -1.1639826e-05 -9.2495065e-07 -2.8063854e-05 -3.6836504e-06
0000b0 aa 8a dd b6 54 f7 a6 bc 28 23 28 bd 3c ff 48 b7
       -6.602456e-06 -0.020381607 -0.041049153 -1.1980355e-05
0000c0 97 7b bd b6 9c f8 68 b8 61 f7 77 35 0a 4a df 35
       -5.6470267e-06 -5.5544646e-05 9.2374654e-07 1.6636343e-06
0000d0 28 d1 c0 b6 63 0e 95 b8 e3 a3 89 b7 e1 ce 41 b7
       -5.746395e-06 -7.1075534e-05 -1.6407988e-05 -1.1551864e-05
0000e0 82 59 5a b8 84 6d 50 b8 2d d1 88 b8 ac c9 29 b8
       -5.205861e-05 -4.969306e-05 -6.5239474e-05 -4.048056e-05
0000f0 00 00 00 00 00 00 00 00 00 00 00 00 00 00 00 00
       0.0 0.0 0.0 0.0
000100 00 00 00 00 00 00 00 00 00 00 00 00 00 00 00 00
       0.0 0.0 0.0 0.0
000110 00 00 00 00 00 00 00 00 00 00 00 00 00 00 00 00
       0.0 0.0 0.0 0.0
000120 00 00 00 00 00 00 00 00 00 00 00 00 00 00 00 00
       0.0 0.0 0.0 0.0
000130 00 00 00 00 00 00 00 00 00 00 00 00 00 00 00 00
       0.0 0.0 0.0 0.0
000140 00 00 00 00 00 00 00 00 00 00 00 00 00 00 00 00
       0.0 0.0 0.0 0.0
000150 00 00 00 00 00 00 00 00 00 00 00 00 00 00 00 00
       0.0 0.0 0.0 0.0
000160 00 00 00 00 00 00 00 00 04 00 00 00 00 00 00 00
       0.0 0.0 6e-45 0.0
000170 04 00 00 00 04 00 00 00 04 00 00 00 04 00 00 00
       6e-45 6e-45 6e-45 6e-45
000180 04 00 00 00 04 00 00 00 04 00 00 00 04 00 00 00
       6e-45 6e-45 6e-45 6e-45
000190 04 00 00 00 00 00 00 00 04 00 00 00 04 00 00 00
       6e-45 0.0 6e-45 6e-45
0001a0 04 00 00 00 04 00 00 00 04 00 00 00 04 00 00 00
       6e-45 6e-45 6e-45 6e-45
0001b0 04 00 00 00 04 00 00 00 00 00 00 00 04 00 00 00
       6e-45 6e-45 0.0 6e-45
0001c0 00 00 00 00 04 00 00 00 04 00 00 00 04 00 00 00
       0.0 6e-45 6e-45 6e-45
0001d0 00 00 00 00 00 00 00 00 00 00 00 00 00 00 00 00
       0.0 0.0 0.0 0.0
0001e0 00 00 00 00 00 00 00 00 00 00 00 00 00 00 00 00
       0.0 0.0 0.0 0.0
0001f0 00 00 00 00 00 00 00 00 00 00 00 00 00 00 00 00
       0.0 0.0 0.0 0.0
000200 00 00 00 00 00 00 00 00 00 00 00 00 00 00 00 00
       0.0 0.0 0.0 0.0
000210 00 00 00 00 00 00 00 00 00 00 00 00 00 00 00 00
       0.0 0.0 0.0 0.0
000220 00 00 00 00 00 00 00 00 00 00 00 00 00 00 00 00
       0.0 0.0 0.0 0.0
000230 00 00 00 00 00 00 00 00 00 00 00 00 00 00 00 00
       0.0 0.0 0.0 0.0
000240 00 00 00 00 00 00 00 00 00 00 00 00 00 00 00 00
       0.0 0.0 0.0 0.0
000250 00 00 00 00 00 00 00 00 00 00 00 00 00 00 00 00
       0.0 0.0 0.0 0.0
000260 00 00 00 00 00 00 00 00 00 00 00 00 00 00 00 00
       0.0 0.0 0.0 0.0
000270 00 00 00 00 00 00 00 00 00 00 00 00 00 00 00 00
       0.0 0.0 0.0 0.0
000280 00 00 00 00 00 00 00 00 00 00 00 00 00 00 00 00
       0.0 0.0 0.0 0.0
000290 00 00 00 00 00 00 00 00 00 00 00 00 00 00 00 00
       0.0 0.0 0.0 0.0
0002a0 00 00 00 00 00 00 00 00 00 00 00 00 00 00 00 00
       0.0 0.0 0.0 0.0
0002b0 00 00 00 00 00 00 00 00 00 00 00 00 00 00 00 00
       0.0 0.0 0.0 0.0
0002c0 00 00 00 00 00 00 00 00 00 00 00 00 00 00 00 00
       0.0 0.0 0.0 0.0
0002d0 bc 4c 07 b9 6a 71 74 b7 d3 40 f5 bb a9 4f 04 b7
       -0.00012903189 -1.456994e-05 -0.0074845343 -7.88636e-06
0002e0 10 e8 11 b8 43 b6 5b b5 dd 8f ca b7 10 20 c0 36
       -3.478682e-05 -8.1849083e-07 -2.4147268e-05 5.7257785e-06
0002f0 9c 76 85 b6 1d 05 fd b9 dc 7f b7 b5 b1 e8 82 35
       -3.977517e-06 -0.0004825973 -1.3671774e-06 9.753477e-07
000300 43 d0 b1 b7 fc 90 72 37 e1 63 88 b7 13 c6 03 bc
       -2.1197024e-05 1.4458081e-05 -1.6258973e-05 -0.00804283
000310 7d 63 9c 3c 25 3d 8d b7 a2 83 86 b7 9a d3 35 b8
       0.019090408 -1.6836982e-05 -1.6035341e-05 -4.3350832e-05
000320 6b 90 19 b4 4e 04 e4 36 3c 38 1f 37 e7 d2 19 b8
       -1.4301774e-07 6.7954306e-06 9.490232e-06 -3.667446e-05
000330 da a9 01 b8 32 cf 49 b7 2a df b0 b7 7b 7e 8e b7
       -3.0914183e-05 -1.2028775e-05 -2.1084754e-05 -1.6986616e-05
000340 81 0d 52 b8 84 14 27 b7 20 4d 67 b8 95 bd eb b5
       -5.0080478e-05 -9.958752e-06 -5.514652e-05 -1.756404e-06
000350 c6 22 7b bb f9 2b 02 b5 c1 c8 eb b7 3d 8d be b6
       -0.0038320287 -4.849276e-07 -2.8107666e-05 -5.6788836e-06
000360 4e 39 bb 35 f4 06 bf b5 1e 81 4d b4 bd e9 32 b9
       1.3949264e-06 -1.4232633e-06 -1.9139085e-07 -0.00017062477
000370 46 aa b5 b5 ac bb 96 b6 0e 04 69 b6 da 18 b7 b5
       -1.3535107e-06 -4.4921962e-06 -3.4722066e-06 -1.3641795e-06
000380 99 36 b7 b6 4d 9a c9 bc 2b 37 18 bd 39 47 14 37
       -5.460181e-06 -0.02460971 -0.037161987 8.83807e-06
000390 93 03 18 35 3c 46 2f b8 47 5e 3d b5 76 5a 07 b6
       5.6629614e-07 -4.1788662e-05 -7.054518e-07 -2.0169223e-06
0003a0 c4 65 32 36 98 7b 0a b7 3f 04 8c b5 1d 84 bb b5
       2.6583302e-06 -8.254217e-06 -1.0432049e-06 -1.3971036e-06
0003b0 5b 31 72 b7 2d 3a 38 b6 a1 87 73 b7 96 16 04 36
       -1.44358155e-05 -2.7452e-06 -1.4515507e-05 1.968268e-06
0003c0 ec cb b2 b8 ec 12 25 b6 a1 40 ba bb e8 4d 30 b6
       -8.525685e-05 -2.459793e-06 -0.005683974 -2.627139e-06
0003d0 ac e9 3b b8 4d fd 6b b6 d3 f7 27 36 fb 35 d7 35
       -4.48019e-05 -3.516517e-06 2.5029192e-06 1.6034459e-06
0003e0 a6 e6 64 35 9a ca 7f b9 b0 7d 2b b5 2f 74 c5 34
       8.5272256e-07 -0.0002439417 -6.3885363e-07 3.6778644e-07
0003f0 43 db 41 b7 aa 9c 5e b6 18 73 02 b6 64 5d a9 bb
       -1.1554747e-05 -3.3171768e-06 -1.9438503e-06 -0.0051686037

exp_avg_sq f4 [30, 30]
000000 57 85 ac 35 3e 66 3f 30 ed b4 80 3c 7c b0 20 31
       1.2853806e-06 6.963069e-10 0.015711272 2.3383384e-09
000010 8c ed 1a 34 0e c4 93 31 d5 15 de 31 3d 58 4e 31
       1.4428787e-07 4.300552e-09 6.4635324e-09 3.0027103e-09
000020 1b 08 13 30 3b c5 8e 36 a1 6b 44 31 8a 61 d3 30
       5.3489807e-10 4.2548904e-06 2.8582934e-09 1.5379993e-09
000030 40 c7 e1 32 48 94 69 31 90 d3 11 31 73 6f 33 3d
       2.6284056e-08 3.399025e-09 2.1220536e-09 0.043807458
000040 f6 83 43 3e 8d 29 71 32 87 21 04 30 61 7d 6b 34
       0.19093308 1.4037494e-08 4.8068965e-10 2.1931693e-07
000050 ed c2 00 2f 86 1d 83 31 19 7a 96 30 9e cc 10 34
       1.1710784e-10 3.815958e-09 1.0948639e-09 1.3485484e-07
000060 5b 37 13 32 41 12 62 31 0f 58 8a 33 6d a1 ba 32
       8.5691125e-09 3.2897705e-09 6.4421435e-08 2.1726658e-08
000070 49 3e 77 32 81 b6 bf 32 e9 b0 3d 35 6c ee 10 30
       1.4391454e-08 2.231832e-08 7.0665425e-07 5.272571e-10
000080 3e 12 28 3c 4e 48 cb 30 27 a5 bb 33 59 ec 1d 31
       0.0102582555 1.4790744e-09 8.737907e-08 2.2980855e-09
000090 9d df 83 31 a4 1b 04 31 2d 71 b6 2f 4b ac 2c 36
       3.8380237e-09 1.922424e-09 3.3186023e-10 2.5730285e-06
0000a0 61 60 ef 30 b1 5b d9 2f 33 93 7f 32 26 ef 14 31
       1.7416931e-09 3.953722e-10 1.4876423e-08 2.1672775e-09
0000b0 3c 97 a0 30 b8 f2 5a 3c 38 02 04 3e 69 49 e3 31
       1.1684516e-09 0.013363533 0.12891471 6.6149153e-09
0000c0 12 65 83 2f bd 6c 0d 34 08 3c aa 2e 3b 52 01 31
       2.3900576e-10 1.3171207e-07 7.741369e-11 1.8818713e-09
0000d0 be 0c 1d 30 78 a5 5a 33 fb 90 a5 31 79 15 06 31
       5.7134375e-10 5.0907573e-08 4.8186144e-09 1.9511772e-09
0000e0 4f 23 de 32 e4 a8 37 32 64 17 fa 31 57 d1 34 32
       2.5860258e-08 1.0690403e-08 7.278617e-09 1.0524977e-08
0000f0 00 00 00 00 00 00 00 00 00 00 00 00 00 00 00 00
       0.0 0.0 0.0 0.0
000100 00 00 00 00 00 00 00 00 00 00 00 00 00 00 00 00
       0.0 0.0 0.0 0.0
000110 00 00 00 00 00 00 00 00 00 00 00 00 00 00 00 00
       0.0 0.0 0.0 0.0
000120 00 00 00 00 00 00 00 00 00 00 00 00 00 00 00 00
       0.0 0.0 0.0 0.0
000130 00 00 00 00 00 00 00 00 00 00 00 00 00 00 00 00
       0.0 0.0 0.0 0.0
000140 00 00 00 00 00 00 00 00 00 00 00 00 00 00 00 00
       0.0 0.0 0.0 0.0
000150 00 00 00 00 00 00 00 00 00 00 00 00 00 00 00 00
       0.0 0.0 0.0 0.0
000160 00 00 00 00 00 00 00 00 61 aa 27 31 00 00 00 00
       0.0 0.0 2.4398548e-09 0.0
000170 13 76 8c 38 2b cc ed 2c c3 c2 85 2d 2b cc ed 2b
       6.697713e-05 6.7586123e-12 1.5206841e-11 1.6896531e-12
000180 2b cc ed 2d c3 c2 85 2d 2b cc ed 2b 65 b1 75 32
       2.703445e-11 1.5206841e-11 1.6896531e-12 1.4301212e-08
000190 2b cc ed 2b 00 00 00 00 2b cc ed 2c 2b cc ed 2c
       1.6896531e-12 0.0 6.7586123e-12 6.7586123e-12
0001a0 2b cc ed 2c 98 a6 f7 36 10 bd 22 37 c3 c2 85 2e
       6.7586123e-12 7.3805677e-06 9.699972e-06 6.0827364e-11
0001b0 2b cc ed 2b 63 00 d1 2f 00 00 00 00 2b cc ed 2b
       1.6896531e-12 3.8017153e-10 0.0 1.6896531e-12
0001c0 00 00 00 00 42 10 b6 2e c3 c2 85 2d 2b cc ed 2c
       0.0 8.27929e-11 1.5206841e-11 6.7586123e-12
0001d0 00 00 00 00 00 00 00 00 00 00 00 00 00 00 00 00
       0.0 0.0 0.0 0.0
0001e0 00 00 00 00 00 00 00 00 00 00 00 00 00 00 00 00
       0.0 0.0 0.0 0.0
0001f0 00 00 00 00 00 00 00 00 00 00 00 00 00 00 00 00
       0.0 0.0 0.0 0.0
000200 00 00 00 00 00 00 00 00 00 00 00 00 00 00 00 00
       0.0 0.0 0.0 0.0
000210 00 00 00 00 00 00 00 00 00 00 00 00 00 00 00 00
       0.0 0.0 0.0 0.0
000220 00 00 00 00 00 00 00 00 00 00 00 00 00 00 00 00
       0.0 0.0 0.0 0.0
000230 00 00 00 00 00 00 00 00 00 00 00 00 00 00 00 00
       0.0 0.0 0.0 0.0
000240 00 00 00 00 00 00 00 00 00 00 00 00 00 00 00 00
       0.0 0.0 0.0 0.0
000250 00 00 00 00 00 00 00 00 00 00 00 00 00 00 00 00
       0.0 0.0 0.0 0.0
000260 00 00 00 00 00 00 00 00 00 00 00 00 00 00 00 00
       0.0 0.0 0.0 0.0
000270 00 00 00 00 00 00 00 00 00 00 00 00 00 00 00 00
       0.0 0.0 0.0 0.0
000280 00 00 00 00 00 00 00 00 00 00 00 00 00 00 00 00
       0.0 0.0 0.0 0.0
000290 00 00 00 00 00 00 00 00 00 00 00 00 00 00 00 00
       0.0 0.0 0.0 0.0
0002a0 00 00 00 00 00 00 00 00 00 00 00 00 00 00 00 00
       0.0 0.0 0.0 0.0
0002b0 00 00 00 00 00 00 00 00 00 00 00 00 00 00 00 00
       0.0 0.0 0.0 0.0
0002c0 00 00 00 00 00 00 00 00 00 00 00 00 00 00 00 00
       0.0 0.0 0.0 0.0
0002d0 2f da 2a 35 a6 8f 22 30 29 25 76 3c 21 84 d6 30
       6.3647434e-07 5.9139393e-10 0.015023508 1.5608103e-09
0002e0 c9 4d a4 33 c4 d3 11 31 b3 71 9d 31 b4 ee 0e 31
       7.650994e-08 2.1220652e-09 4.5822275e-09 2.0799407e-09
0002f0 c0 11 d4 2f f5 2f 2c 36 c6 67 ff 30 7a 82 00 2f
       3.8575187e-10 2.5657912e-06 1.8583186e-09 1.1687887e-10
000300 72 d8 83 32 be f1 18 31 4c 9a a3 30 cc f9 bc 3b
       1.5348835e-08 2.2256326e-09 1.1903665e-09 0.005767083
000310 af 67 8a 3d e4 bf d0 31 70 83 d7 2f 6b a8 0e 34
       0.06758057 6.075412e-09 3.9201664e-10 1.328605e-07
000320 29 c3 c3 2e a8 e3 0b 31 8f 1e 39 30 71 f9 23 33
       8.902241e-11 2.035657e-09 6.7346034e-10 3.817826e-08
000330 33 2c c2 31 d4 e9 08 31 8e 6b 9d 32 bb 17 19 32
       5.651168e-09 1.992352e-09 1.8326116e-08 8.911168e-09
000340 c0 cd 95 31 18 82 1c 32 d7 67 81 35 60 2c d2 2f
       4.359862e-09 9.109975e-09 9.64147e-07 3.8230308e-10
000350 a4 3e 27 3c 05 e4 fb 30 e0 9c c7 33 45 7d 3d 31
       0.010207806 1.8327461e-09 9.295195e-08 2.7574327e-09
000360 b2 47 88 31 08 df 29 31 9a d9 b4 2f 10 07 56 36
       3.9662718e-09 2.4719515e-09 3.2896424e-10 3.1892596e-06
000370 88 74 12 31 48 29 86 30 be 72 75 32 48 2c 33 31
       2.1312037e-09 9.761516e-10 1.4286966e-08 2.60731e-09
000380 d4 8e 90 30 13 0e f7 3c 9e a2 24 3e 1c 95 b3 31
       1.0517973e-09 0.030158078 0.16077659 5.2265374e-09
000390 a2 60 1c 2f 02 e2 21 34 41 b9 62 2e 6c b5 14 31
       1.4222448e-10 1.5076515e-07 5.155099e-11 2.163996e-09
0003a0 5f a3 40 30 83 b3 bf 33 96 ff ca 31 14 10 17 31
       7.008136e-10 8.9267836e-08 5.9080305e-09 2.1982531e-09
0003b0 a8 6b 51 33 70 4a 8c 32 e4 19 14 32 fd d6 8a 32
       4.8759517e-08 1.6331995e-08 8.620621e-09 1.616308e-08
0003c0 9a fe e4 34 30 c3 c8 2f 9f 1b a8 3b 5b da 89 30
       4.2653556e-07 3.6518477e-10 0.005130246 1.0030122e-09
0003d0 27 2e 67 33 28 2c dd 30 21 c8 1b 31 90 77 ba 30
       5.3825854e-08 1.6092416e-09 2.2669229e-09 1.3567263e-09
0003e0 f0 52 74 2f b0 52 de 35 4e e0 8f 30 3b 51 44 2f
       2.2221136e-10 1.6564354e-06 1.0468371e-09 1.7854955e-10
0003f0 01 6f 20 32 41 95 af 30 4e 58 50 30 b9 82 ca 3b
       9.338465e-09 1.2775346e-09 7.579545e-10 0.006180134

exp_avg f4 [30]
000000 f4 5f e8 b5 84 fb af b6 00 00 00 00 04 00 00 00
       -1.7313273e-06 -5.2446867e-06 0.0 6e-45
000010 00 00 00 00 00 00 00 00 ea 6c 9b b6 4d 55 f7 b5
       0.0 0.0 -4.6320392e-06 -1.842776e-06
000020 dd 49 0c b6 46 6b ce b5 74 b0 8f 36 63 4b 9c b5
       -2.090462e-06 -1.5379417e-06 4.282274e-06 -1.1644846e-06
000030 36 85 04 0b 04 00 00 00 6b 63 44 36 00 00 00 00
       2.5522492e-32 6e-45 2.9264145e-06 0.0
000040 fa 85 f1 b6 a4 b6 d2 b6 52 65 c9 b4 99 7a 56 b6
       -7.1979566e-06 -6.27975e-06 -3.7512888e-07 -3.1959846e-06
000050 d1 77 d8 36 8e 02 df b5 b7 14 02 35 87 49 bd b6
       6.45125e-06 -1.6615538e-06 4.845892e-07 -5.6411986e-06
000060 c8 4e d3 36 b0 3c 07 37 00 00 00 00 6c c6 ea 35
       6.2974614e-06 8.060757e-06 0.0 1.7492107e-06
000070 98 d8 bc 36 85 50 00 b7
       5.6280514e-06 -7.648142e-06

exp_avg_sq f4 [30]
000000 11 16 7c 30 27 d1 16 30 00 00 00 00 2b cc ed 2b
       9.1708424e-10 5.4866905e-10 0.0 1.6896531e-12
000010 00 00 00 00 00 00 00 00 b6 8b 14 30 5d 4b 35 30
       0.0 0.0 5.404063e-10 6.5954514e-10
000020 65 4f bb 2f 4b 06 68 2f d9 ea 92 30 4a 0e 79 30
       3.4071515e-10 2.1102513e-10 1.0689646e-09 9.060598e-10
000030 8e 9a fe 2e 1a a6 37 2b 3d 2f fb 2e 00 00 00 00
       1.1578037e-10 6.524517e-13 1.142255e-10 0.0
000040 0d 27 9a 30 fb 92 8f 30 d2 97 c3 2f 95 11 70 2f
       1.1216074e-09 1.0446394e-09 3.5578168e-10 2.1834119e-10
000050 a4 ab 09 30 02 b2 c2 30 bd 9e f8 2f 5d 5e 8f 30
       5.0084226e-10 1.4165951e-09 4.5223728e-10 1.0431439e-09
000060 22 65 81 30 5e 09 08 31 00 00 00 00 fa 3b 5f 30
       9.414729e-10 1.979593e-09 0.0 8.121216e-10
000070 f9 82 3e 30 e1 c2 74 30
       6.930772e-10 8.904362e-10
