ch-04/lightning_logs/version_7/checkpoints/epoch=49-step=1750.ckpt (torch, 47816 bytes, 27 tensors)

fc1.weight f4 [30, 30]
0	0xbdba0b47	-0.09084182
1	0xbd796b48	-0.060893327
2	0xbdd42802	-0.103591934
3	0xbd1c81c7	-0.038209703
4	0xbd498ca4	-0.04920639
5	0xbe1698ea	-0.1470677
6	0xbd41b233	-0.047289085
7	0xbc32e071	-0.010917769
8	0xbe4eb366	-0.20185623
9	0x3d86d848	0.06584221
10	0xbcee7328	-0.029107645
11	0xbdcafe1d	-0.099117495
12	0xbdd41784	-0.10356048
13	0x3d85418b	0.06506642
14	0x3d0caffe	0.034347527
15	0x3dfd53ee	0.12369524
16	0xbc170501	-0.009217502
17	0xbe65bc2b	-0.22435062
18	0xbe8cd575	-0.27506605
19	0xbd209a9b	-0.039209943
20	0x3e1200d8	0.14258134
21	0xbd045bfd	-0.03231429
22	0xbd5b2d35	-0.05350991
23	0x3daf1485	0.08548836
24	0xbc1e0f7b	-0.0096472455
25	0x3d998173	0.074953936
26	0x3da71473	0.08158197
27	0x3e1e06a0	0.15432215
28	0x3d7162ac	0.05893199
29	0xbd4cb5d9	-0.04997811
30	0xbe3bbb2b	-0.18333118
31	0x3dc61a10	0.0967294
32	0x3ddcd98d	0.10783682
33	0xbdcff949	-0.10154969
34	0x3db8693e	0.09004448
35	0xbd1da951	-0.03849155
36	0xbdbb082e	-0.091324195
37	0xbdf6617b	-0.12030312
38	0xbdfe4a89	-0.1241656
39	0x3dd0372f	0.101667754
40	0xbe0b91c2	-0.13629821
41	0xbda7653b	-0.08173605
42	0x3e00e576	0.12587532
43	0xbe105f77	-0.14098917
44	0x3de76ad9	0.112996764
45	0x3d5c054e	0.053715996
46	0x3d171c2d	0.036892105
47	0xbbe20c81	-0.0068984632
48	0xbd72c3a9	-0.059268627
49	0x3cf3c625	0.029757569
50	0x3d03a64b	0.03214101
51	0xbe007190	-0.1254332
52	0xbe380645	-0.17971142
53	0xbe2c3df8	-0.16820514
54	0xbd47387d	-0.048637856
55	0x3ca833a8	0.020532444
56	0xbe1a3844	-0.15060526
57	0x3c12a5d1	0.0089506665
58	0x3d1c71ff	0.038194653
59	0x3da1dd7a	0.079035714
60	0xbd8bb8f4	-0.068223864
61	0x3d2b6d84	0.04185249
62	0xbe25c34c	-0.16187781
63	0x3e0680a7	0.13135014
64	0xbe156a33	-0.14591293
65	0x3c26065b	0.010133351
66	0xbd6aecc8	-0.05735472
67	0xbe1b0335	-0.15137942
68	0xbe220d9d	-0.15825506
69	0xbdf0353e	-0.11728905
70	0xbe07b94e	-0.13254282
71	0x3e0eabe3	0.13932757
72	0xbce5be44	-0.028044827
73	0xbdf9a2ae	-0.12189232
74	0x3a2ca12d	0.00065852964
75	0xbda8cba0	-0.082419634
76	0xbcd894a1	-0.02643806
77	0x3e20c82a	0.15701357
78	0xbe24ff66	-0.16113052
79	0xbe226983	-0.15860562
80	0x3d374607	0.044744518
81	0x3e024f5c	0.12725586
82	0xbe319f1f	-0.17345856
83	0x3d6af202	0.057359703
84	0x3e393a58	0.18088663
85	0xbcf049e6	-0.029332113
86	0xbddca1ed	-0.107730724
87	0x3db76fbc	0.089568585
88	0x3dd33316	0.10312478
89	0xbc9b450c	-0.018953823
90	0xbe187aca	-0.1489059
91	0x3be804ad	0.0070806355
92	0xbdf22526	-0.11823492
93	0xbe1f9ae2	-0.15586427
94	0x3de960f6	0.11395447
95	0x3e0066c5	0.12539203
96	0x3d961e2a	0.07329972
97	0xbe188c98	-0.14897382
98	0x3e1e8cec	0.15483445
99	0x3e08f681	0.13375284
100	0x3e20ad90	0.15691209
101	0xbc46d2f2	-0.012135254
102	0xbd0a7f5c	-0.033812866
103	0xbe27ac0f	-0.16374229
104	0x3e09f62f	0.13472818
105	0xbc1cd9d0	-0.009573415
106	0xbe3aef7f	-0.18255423
107	0x3e36cc6c	0.17851418
108	0xbcc1615b	-0.023605993
109	0x3de0e379	0.10980887
110	0xbcdcc3ee	-0.026948895
111	0xbceb4abd	-0.028722161
112	0x3e24753e	0.1606035
113	0x3e1b39b7	0.15158735
114	0xbdae8375	-0.08521167
115	0x3bbaeb0d	0.00570429
116	0x3dfdfa8f	0.12401306
117	0x3c0fc308	0.008774526
118	0xbd06c38f	-0.032901343
119	0x3e2707de	0.16311595
120	0x3e078e2f	0.13237832
121	0xbee36e26	-0.44419974
122	0x3d92322f	0.07138478
123	0xbd251a5a	-0.040308334
124	0xbe89f542	-0.2694493
125	0x3da92c60	0.08260417
126	0xbe4df252	-0.20111969
127	0x3d91d45f	0.07120585
128	0xbe52aa31	-0.20572735
129	0xbe8ad10e	-0.2711262
130	0x3e60f635	0.2196892
131	0xbc4caa35	-0.012491752
132	0xbeb6aa5b	-0.35676846
133	0x3daf2c6f	0.08553397
134	0xbeae6133	-0.34058532
135	0x3d520ce4	0.051281825
136	0xbc516d8d	-0.012782467
137	0xbdd8bc8c	-0.105828375
138	0xbf3f5ff7	-0.74755806
139	0xbe6cdc8c	-0.23131007
140	0xbdc9f8fe	-0.098619446
141	0xbe6188bd	-0.22024818
142	0x3e49065e	0.19631335
143	0x3e7b8f83	0.24566464
144	0x3d41e951	0.04734165
145	0xbdb33085	-0.08749489
146	0x3e6133ef	0.21992467
147	0x3e9fa7df	0.31182763
148	0xbc27f27a	-0.010250682
149	0x3ec9e2ee	0.39430946
150	0xbd084d56	-0.03327688
151	0x3da2004e	0.07910214
152	0xbe20bdf1	-0.15697457
153	0xbdc8efb7	-0.09811347
154	0xbbe39991	-0.006945797
155	0x3d93aee6	0.072110936
156	0xbdc0e431	-0.09418524
157	0x3dd4f7b0	0.10398805
158	0xbe398d50	-0.18120313
159	0xbdb96b49	-0.09053666
160	0x3dd0377e	0.10166834
161	0xbe25a2e7	-0.16175424
162	0xbe5643c8	-0.20924294
163	0xbd886bea	-0.06661208
164	0xbe446038	-0.1917733
165	0x3d0396ab	0.03212611
166	0xbd5a610c	-0.053315207
167	0xbd8410b3	-0.064484976
168	0x3d397386	0.045276187
169	0xbc74b94e	-0.014936758
170	0xbe22584b	-0.15853994
171	0xbe542c82	-0.20720103
172	0x3de8124f	0.11331617
173	0x3d387184	0.045030132
174	0x3da62c75	0.08113948
175	0xbe35c12f	-0.17749475
176	0xbd932558	-0.07184857
177	0x3df0e17f	0.1176176
178	0x3dd3b7aa	0.103377655
179	0x3daef13f	0.08542108
180	0x3e2d8ed6	0.16949019
181	0xbd6a5758	-0.057212204
182	0xbe10bb75	-0.14134009
183	0x3dd23251	0.10263503
184	0x3dee67e1	0.11640907
185	0xbd61d625	-0.055135865
186	0xbc8b9fb0	-0.017043918
187	0xbc100d3f	-0.008792221
188	0xbe25d81f	-0.16195725
189	0xbd9adf6c	-0.075621456
190	0xbd6cf726	-0.057852887
191	0x3d8b965e	0.0681579
192	0xbd5a321d	-0.053270448
193	0x3da8c12c	0.082399696
194	0x3e2857ff	0.16439818
195	0xbd1f6964	-0.038918868
196	0xbd3647d1	-0.044502083
197	0xbdeada86	-0.11467461
198	0xbc6449ff	-0.013933658
199	0xbe2b16c7	-0.16707908
200	0x3dfcbccc	0.12340698
201	0x3e2145ac	0.15749234
202	0x3d477327	0.048693802
203	0x3e30d10d	0.17267247
204	0x3dbc576f	0.09196364
205	0x3df7db51	0.12102378
206	0x3e2cad90	0.16863084
207	0xbe0089dc	-0.12552589
208	0xbc6aae3a	-0.014323765
209	0x3d8c7928	0.06859046
210	0xbdb87a5f	-0.090077154
211	0xbe342ba8	-0.17594779
212	0xbd6c9bab	-0.057765644
213	0xbe0e7d9c	-0.13915104
214	0xbdbf57b9	-0.09342904
215	0xbe439181	-0.19098474
216	0xbdba9086	-0.09109597
217	0x3d83250f	0.06403553
218	0xbdf56430	-0.11982
219	0x3d0dcbc8	0.03461817
220	0xbe445592	-0.19173267
221	0xbe02b57f	-0.12764548
222	0xbcba1e76	-0.022719603
223	0x3de83f12	0.11340155
224	0xbe653f2e	-0.22387382
225	0x3d3412c1	0.043963198
226	0xbc934f30	-0.017982095
227	0xbe35874c	-0.17727393
228	0xbe46c8dd	-0.19412561
229	0x3d0d98e1	0.034569625
230	0xbe18c765	-0.14919813
231	0x3dc0f121	0.09420992
232	0xbe0457cf	-0.12924121
233	0x3de3019b	0.110842906
234	0xbdfcf9cd	-0.12352333
235	0x3cb79c6d	0.022413457
236	0x3d69739f	0.05699503
237	0xbe18301e	-0.14862105
238	0xbd9f3aee	-0.07774912
239	0xbd82a79b	-0.063796245
240	0xbd42f3dd	-0.047595847
241	0x3eaec612	0.3413549
242	0xbd9a6024	-0.075378686
243	0xbcf2ed9a	-0.029654313
244	0x3d277011	0.04087836
245	0x3c8b6527	0.017016007
246	0x3dfb577e	0.12272547
247	0xbdbd8777	-0.092543535
248	0xbdf73c67	-0.12072068
249	0x3d7f1b86	0.062282108
250	0xbdbd503d	-0.0924382
251	0xbe0ec100	-0.13940811
252	0xbd1dcf74	-0.03852792
253	0x3b946ed6	0.0045298142
254	0x3dc6bbfb	0.09703823
255	0xbe12a864	-0.14322048

fc1.bias f4 [30]
0	0xbd866109	-0.06561477
1	0xbe189b2a	-0.1490294
2	0x3d8bc414	0.06824508
3	0xbd0251ce	-0.031816296
4	0x3d4e1b32	0.050318904
5	0xbc2c5ad6	-0.010519704
6	0x3df77981	0.12083722
7	0xbabfcd88	-0.0014633397
8	0xbd77bb2d	-0.06048124
9	0xbdba6ca5	-0.091027535
10	0xbe243e46	-0.1603938
11	0xbe07d794	-0.1326583
12	0xbd70e6fb	-0.05881403
13	0xbe14227c	-0.1446628
14	0x3d90b4b1	0.07065714
15	0x3e01ac6d	0.12663431
16	0xbe1d51bc	-0.1536321
17	0x3de43d94	0.111445576
18	0xbe052f9f	-0.13006447
19	0xbe36f772	-0.1786783
20	0xbbf6cad2	-0.0075315023
21	0x3c3123de	0.010811774
22	0xbd19141e	-0.0373727
23	0x3df77884	0.120835334
24	0x3c741577	0.014897696
25	0xbe3c078b	-0.18362252
26	0x3dab873f	0.083754055
27	0x3c935ff7	0.017990096
28	0xbd65fd3d	-0.05614971
29	0xbe539e91	-0.20665957

fc2.weight f4 [30, 30]
0	0x3ae56746	0.0017502091
1	0x3da601d3	0.08105817
2	0xbdb6aba6	-0.08919458
3	0x3dac38b6	0.08409254
4	0xbe3935f4	-0.18086988
5	0xbd8d79d6	-0.06908004
6	0xbd6b4300	-0.057436943
7	0xbe229975	-0.15878852
8	0xbc8b721d	-0.017022187
9	0xbe2768e8	-0.16348612
10	0x3d91bac8	0.07115704
11	0x3c224087	0.00990308
12	0x3b1ed7a7	0.0024237426
13	0xbdc75657	-0.09733265
14	0xbd7e7f12	-0.062132902
15	0x3d30051d	0.042973626
16	0x3df17be3	0.11791208
17	0xbdd436ea	-0.103620365
18	0xbe111397	-0.14167629
19	0xbda5dc17	-0.080986194
20	0xbe0c0180	-0.13672447
21	0xbc164da5	-0.009173785
22	0xbe19d3ef	-0.15022253
23	0x3df3de7a	0.119076684
24	0x3e04b2e2	0.12958863
25	0xbe068850	-0.13137937
26	0x3e24e24d	0.16101952
27	0x3d2715af	0.040792163
28	0xbe0c901e	-0.13726851
29	0x3d4088c9	0.04700545
30	0xbe3d7291	-0.18500735
31	0xbd9ec274	-0.07751933
32	0xbe06f23c	-0.13178343
33	0xbdcff40e	-0.101539716
34	0xbd23bc4f	-0.039974507
35	0x3d2a4a8a	0.041574992
36	0x3d0eb3bf	0.034839388
37	0xbe2fd3d7	-0.17170654
38	0xbde356e9	-0.11100561
39	0xbc9da83f	-0.019245265
40	0x3e247c5e	0.16063067
41	0x3d953095	0.07284657
42	0x3e26e1d8	0.1629709
43	0xbdb129ad	-0.08650527
44	0x3d507675	0.05089422
45	0xbe60cef3	-0.21953945
46	0x3df5f0ca	0.120088175
47	0xbb9365b4	-0.004498208
48	0xbca28402	-0.019838337
49	0xbdc9e82b	-0.09858736
50	0xbe1a5c8e	-0.1507437
51	0xbd36c3b0	-0.044620216
52	0xbcd6767e	-0.026179548
53	0xbdbbf75f	-0.09178042
54	0x3d9c4888	0.07631022
55	0xbce6c5a5	-0.028170416
56	0x3c9343e1	0.017976703
57	0xbe277751	-0.1635411
58	0x3d724382	0.05914641
59	0xbda28ab2	-0.0793661
60	0xbe12a8c0	-0.14322186
61	0xbda99846	-0.08280997
62	0xbe2a0802	-0.16604617
63	0xbe0eb389	-0.13935675
64	0x3ded609e	0.11590694
65	0x3e28b4f7	0.16475283
66	0xbe01dbe1	-0.12681533
67	0x3d0a3811	0.033744875
68	0xbde2c2ea	-0.11072333
69	0x3e22d27f	0.1590061
70	0x3dcd8219	0.1003458
71	0x3d7067d1	0.058692757
72	0xbe186d30	-0.14885402
73	0xbdb7ea6d	-0.0898026
74	0xbd1d29b7	-0.03836986
75	0xbe210144	-0.15723139
76	0xbdf9e428	-0.122017205
77	0x3d8d4b4b	0.068991266
78	0xbe1f943c	-0.1558389
79	0x3d46f8f7	0.048577275
80	0xbd0614c3	-0.032734644
81	0xbd8777d3	-0.066146515
82	0xbda7d420	-0.081947565
83	0xbdbf089f	-0.09327816
84	0xbe2ecb1e	-0.1706967
85	0xbe03b3b5	-0.12861522
86	0x3e0d31c3	0.13788514
87	0xbd017fc9	-0.031616006
88	0x3e2a06e9	0.16604199
89	0x3ad5d378	0.0016313633
90	0x3b7f0310	0.0038911738
91	0x3daf871c	0.08570692
92	0xbe30035c	-0.17188781
93	0xbde7c1fb	-0.11316296
94	0x3da4978c	0.08036718
95	0xbd1ccd73	-0.03828187
96	0x3e13e985	0.1444455
97	0xbc4dcbc6	-0.01256079
98	0x3dae2050	0.08502257
99	0x3aa9942c	0.0012937835
100	0x3b4c881b	0.0031209055
101	0xbe26e460	-0.16298056
102	0xbd81381d	-0.06309531
103	0x3c15fb89	0.009154209
104	0x3daad7c0	0.08341932
105	0x3b69aaf0	0.0035654865
106	0xbd806ee6	-0.06271152
107	0xbd475673	-0.04866643
108	0x3e14576c	0.14486474
109	0x3df96c49	0.12178857
110	0x3d0794af	0.03310078
111	0xbe2be148	-0.16785157
112	0xbe0b827b	-0.13623993
113	0x3dd65a01	0.10466386
114	0x3e284b17	0.16434895
115	0xbda4e4ca	-0.080514506
116	0x3d9ee082	0.07757665
117	0xbd605db0	-0.054776847
118	0x3dc670da	0.096894935
119	0xbc5b8ad7	-0.013399801
120	0xbe21d6c7	-0.15804587
121	0xbe61ad27	-0.22038709
122	0xbbe02711	-0.0068405946
123	0x3d5c7662	0.053823836
124	0xbe165ffb	-0.14685051
125	0x3e1c89d9	0.1528696
126	0x3db15b87	0.086600356
127	0x3dcf1fe9	0.10113508
128	0x3d8d9064	0.06912306
129	0xbe3e9766	-0.18612441
130	0xbd0aab09	-0.033854518
131	0x3d92ad4c	0.0716196
132	0x3db91878	0.0903787
133	0xbe2a1af6	-0.16611847
134	0xbdd3f255	-0.103489555
135	0x3df52e78	0.11971754
136	0xbe3b9d25	-0.18321665
137	0x3dfb81a1	0.12280584
138	0xbd6522f3	-0.055941533
139	0x3c5b7389	0.013394245
140	0x3d7d9e44	0.061918512
141	0x3ce0e385	0.02745224
142	0xbe1e5a87	-0.15464221
143	0x3d4227a5	0.04740109
144	0xbe20839e	-0.15675208
145	0xbdd22ce2	-0.10262467
146	0xbd035c28	-0.03207031
147	0xbd2c80ca	-0.04211501
148	0x3dc8e990	0.098101735
149	0xbdeec213	-0.116581105
150	0x3dc95a62	0.09831692
151	0x3bf926d1	0.007603504
152	0x3d735970	0.059411466
153	0x3e0524f8	0.13002384
154	0xbe3ee76a	-0.18642965
155	0xbe2ec977	-0.1706904
156	0x3bdf2a62	0.0068104723
157	0x3d8ad80c	0.06779489
158	0x3e108709	0.14114012
159	0xbcbcece2	-0.023062173
160	0x3e06a71a	0.13149682
161	0x3d1dcdb6	0.03852626
162	0x3da1908a	0.07888897
163	0xbdb53b08	-0.0884915
164	0x3d641d61	0.05569208
165	0xbd497762	-0.049186118
166	0xbe16acf0	-0.14714408
167	0xbdf9d22d	-0.12198291
168	0xbe0ce9f1	-0.13761117
169	0xbce18478	-0.027528986
170	0xbd8c7e20	-0.06859994
171	0x3dd9dda0	0.10637975
172	0x3cba31ae	0.022728767
173	0xbe0e75d8	-0.13912141
174	0x3bfbc7cf	0.007683731
175	0x3dbe2c33	0.09285774
176	0xbbf130c3	-0.007360549
177	0x3ce84841	0.028354766
178	0x3d842bb0	0.06453645
179	0xbd43405a	-0.047668792
180	0xbe0e18ca	-0.13876644
181	0xbda3eca9	-0.08004124
182	0xbd431d08	-0.04763511
183	0x3e131d6e	0.14366695
184	0xbe2786f8	-0.1636008
185	0x3c61e4b5	0.013787438
186	0xbd8eef0a	-0.06979187
187	0xbcf33117	-0.029686494
188	0x3d8fa29f	0.070134394
189	0xbdb03342	-0.08603527
190	0x3d02c6f7	0.03192803
191	0x3c88e299	0.016709613
192	0xbdd6b8c3	-0.10484459
193	0x3de5bd20	0.11217713
194	0x3e28a66e	0.16469738
195	0xbd9f56a2	-0.07780196
196	0x3d896cb5	0.06710187
197	0xbd8a3b8f	-0.06749641
198	0x3dcefc7a	0.1010675
199	0xbc67f098	-0.014156483
200	0xbe2f9bb6	-0.17149243
201	0x3d36a3a9	0.044589672
202	0x3db1dff7	0.08685296
203	0x3c2fd3f1	0.010731683
204	0xbd3f8395	-0.046756346
205	0xbd1c53a8	-0.03816572
206	0x3dd3b9df	0.103381865
207	0x3e22c5bb	0.1589574
208	0xbd8fcd4c	-0.07021579
209	0x3da49053	0.0803534
210	0x3d952657	0.07282703
211	0x3ddd6e98	0.1081211
212	0x3e05f022	0.13079885
213	0xbe1a6970	-0.15079284
214	0xbe40a634	-0.18813401
215	0xbe328370	-0.17432952
216	0x3deaf3b8	0.11472267
217	0xbdd2068b	-0.10255154
218	0x3e034a57	0.12821327
219	0xbd48e967	-0.049050715
220	0xbdae51c9	-0.08511693
221	0x3dca0a44	0.09865239
222	0xbd106f96	-0.035262667
223	0xbdc9cac6	-0.09853129
224	0xbce5387c	-0.027981035
225	0xbe01794c	-0.12643927
226	0xbe1800cb	-0.14844052
227	0xbd46cc48	-0.04853466
228	0xbce5e43b	-0.02806293
229	0xbdd51eb3	-0.10406246
230	0x3e0927e1	0.13394119
231	0xbd884ce2	-0.06655289
232	0xbdd97335	-0.10617677
233	0x3dff17bd	0.124556996
234	0x3ca66f28	0.020316675
235	0xbd976a3e	-0.07393311
236	0x3d2bf3de	0.041980617
237	0xbe3ab536	-0.18233189
238	0x3e1f2daa	0.15544763
239	0x3ca89093	0.02057675
240	0x3cc50e88	0.02405478
241	0xbe0c15e9	-0.13680233
242	0x3e0eefcf	0.13958667
243	0xbe19a800	-0.15005493
244	0xbdab96a7	-0.08378344
245	0xbe14dd2a	-0.14537492
246	0xbdbcd667	-0.092205815
247	0x3c85c44a	0.01632895
248	0xbe7e11cd	-0.24811478
249	0xbe5dc9bc	-0.21658987
250	0x3c6c3725	0.014417444
251	0x3c81aa28	0.015828207
252	0x3b2b8289	0.0026170334
253	0xbd8e0da7	-0.06936198
254	0xbd513063	-0.051071536
255	0xbd848016	-0.06469743

fc2.bias f4 [30]
0	0xbe2d7ebb	-0.16942875
1	0xbd9708bb	-0.07374712
2	0xbe16353b	-0.14668743
3	0xbe2ad8f3	-0.16684322
4	0xbe12fe63	-0.14354853
5	0xbe056448	-0.13026536
6	0xbdf04e3e	-0.117336735
7	0x3bdf33a6	0.006811577
8	0xbd47b29c	-0.04875432
9	0xbd4be11c	-0.049775228
10	0x3d481ba2	0.048854478
11	0xbe400225	-0.18750818
12	0xbda1d8da	-0.07902689
13	0x3d939aed	0.07207284
14	0xbe6fdd4a	-0.23424259
15	0x3d23ebcb	0.04001979
16	0xbe4350a5	-0.19073732
17	0x3d6b5dc9	0.057462487
18	0x3e0671b4	0.13129312
19	0xbcd5ee8f	-0.02611473
20	0xbe43413e	-0.19067857
21	0xbc25963b	-0.0101066185
22	0xbe18457b	-0.14870255
23	0xbcc0309d	-0.02346068
24	0x3de1287f	0.10994052
25	0x3e230519	0.15919913
26	0xbd32b717	-0.04363164
27	0xbdc0e5d1	-0.09418834
28	0x3d82c2c9	0.063848086
29	0xbe3082c7	-0.17237388

fc3.weight f4 [30, 30]
0	0x3d6fed36	0.05857583
1	0xbe16ef80	-0.147398
2	0x3d29b39c	0.041431054
3	0xbd807a13	-0.06273284
4	0x3dc38f7f	0.09548854
5	0xbd9b5d3a	-0.07586141
6	0x3dec925e	0.11551355
7	0xbc94cadb	-0.018163135
8	0xbd98905a	-0.07449408
9	0xbe13ad6f	-0.14421628
10	0x3e26ef88	0.16302311
11	0xbbb77f44	-0.005599888
12	0xbd9c343e	-0.07627152
13	0xbd43b02b	-0.04777543
14	0x3dbea65c	0.09309074
15	0xbd43cede	-0.047804706
16	0x3dfb2cc9	0.122644015
17	0x3dbeafca	0.09310873
18	0xbccc70d6	-0.024956148
19	0x3e28611d	0.16443296
20	0x3e0f1f24	0.13976723
21	0xbaa88584	-0.0012857174
22	0xbc0c7d56	-0.008574804
23	0x3c896963	0.016773885
24	0xbd72478d	-0.059150267
25	0x3e0275de	0.12740275
26	0xbe35b8b3	-0.17746238
27	0xbd8a4cc3	-0.067529224
28	0x3d96573d	0.07340858
29	0xbe1faab0	-0.15592456
30	0xbdb329b2	-0.08748187
31	0xbd9e2416	-0.077217266
32	0x3d7f9ad1	0.062403504
33	0x3c191c68	0.0093451515
34	0xbe0c8a9d	-0.13724752
35	0x3e101d5b	0.14073698
36	0xbd4ca285	-0.04995968
37	0xbb3c1366	-0.0028698086
38	0x3dcbbceb	0.099481426
39	0xbe2f3efc	-0.1711387
40	0xbcab8859	-0.020939039
41	0xbcbca617	-0.023028417
42	0xbd9a9a05	-0.07548908
43	0xbd984c7c	-0.07436463
44	0x3deeb943	0.116564296
45	0xbd10be3d	-0.035337675
46	0xbdca05b8	-0.09864372
47	0x3da50dc5	0.08059267
48	0x3d8f3e7e	0.06994341
49	0x3b63d2f3	0.0034763187
50	0xba160d7f	-0.0005724057
51	0x3e37171e	0.17879912
52	0xbd4cc5a1	-0.04999316
53	0xbdff49b4	-0.1246523
54	0xbe3670fc	-0.17816538
55	0x3d176336	0.03695985
56	0x3dc26d55	0.0949351
57	0xbba7af6e	-0.0051173484
58	0xbe18a674	-0.14907247
59	0xbdec0c17	-0.115257435
60	0xbdff7acf	-0.12474596
61	0x3de58e29	0.112087555
62	0x3c3132e5	0.010815357
63	0xbd8cd998	-0.0687744
64	0xbe3af901	-0.1825905
65	0x3dd5ef9a	0.10446091
66	0xbd0bf420	-0.034168363
67	0x3e1ab305	0.15107353
68	0xbe21db18	-0.15806234
69	0xbe139143	-0.14410882
70	0xbbd42a16	-0.0064747436
71	0x3d9de82f	0.07710301
72	0x3db1656a	0.08661921
73	0x3e0eed0c	0.13957614
74	0x3db77415	0.08957688
75	0x3d14e5ca	0.036351956
76	0xbe0a57e3	-0.13510089
77	0x3e26abcc	0.16276473
78	0xbdf782af	-0.12085473
79	0x3df7baab	0.12096151
80	0x3c77842e	0.015107198
81	0xbdbf077f	-0.09327602
82	0xbd24599b	-0.040124517
83	0xbcadde3b	-0.021224132
84	0x3e331457	0.17488228
85	0x3da78c47	0.08181053
86	0x3ca12dd2	0.01967517
87	0xbde45c90	-0.111504674
88	0x3d534804	0.05158235
89	0x3e1dd871	0.15414597
90	0xbe05a115	-0.13049729
91	0x3e0d0763	0.13772349
92	0x3c336488	0.0109492615
93	0x3ddac0b7	0.10681289
94	0x3d69111e	0.05690109
95	0x3dc02801	0.0938263
96	0xbdc26728	-0.09492332
97	0x3db72502	0.089426056
98	0xbdf05931	-0.11735762
99	0xbd229674	-0.039694265
100	0x3e2cecc0	0.16887188
101	0xbde3cdc8	-0.11123234
102	0xbe0d1adf	-0.13779782
103	0xbda23182	-0.07919599
104	0x3cd1229f	0.025529204
105	0x3cd33209	0.025780695
106	0xbe064f8b	-0.1311628
107	0x3bde9043	0.0067920997
108	0xbcecc038	-0.02890025
109	0xbdb1191f	-0.086473696
110	0x3c82d1e9	0.015969234
111	0x3d749020	0.05970776
112	0x3c1e821f	0.009674578
113	0xbdb3be42	-0.08776523
114	0x3e384bcf	0.17997669
115	0x3cf7eb2d	0.030263508
116	0xbd2832fd	-0.04106425
117	0x3e1a7dba	0.15087023
118	0x3d3be3c9	0.04587153
119	0x3d9b0284	0.07568839
120	0x3dd79c8f	0.10527908
121	0xbbed583a	-0.0072431834
122	0x3e09eecb	0.13469999
123	0x3d07e7fc	0.033180222
124	0x3e19a776	0.15005288
125	0x3cbb379f	0.02285367
126	0x3db9eb41	0.09078074
127	0x3d9e45cf	0.07728159
128	0xbd950cb1	-0.07277811
129	0x3ddbef52	0.10739006
130	0x3ca56de4	0.020194001
131	0x3dbc1364	0.09183386
132	0xbe1a5b3d	-0.15073867
133	0xbd582b74	-0.052775815
134	0x3dc33eff	0.095335
135	0xbdb593bf	-0.08866071
136	0x3c92458f	0.017855434
137	0x3e23f95c	0.16013092
138	0xbe207494	-0.15669471
139	0xbb93f57f	-0.0045153494
140	0x3cb4d7e9	0.02207561
141	0x3df83049	0.12118585
142	0xbd570f85	-0.052505035
143	0xbe1d8415	-0.15382417
144	0xbdfff6b9	-0.124982305
145	0x3d46ec44	0.048565164
146	0xbdd96152	-0.106142655
147	0xbe277260	-0.16352224
148	0x3a280f43	0.00064109656
149	0x3d401713	0.046897005
150	0xbdea577f	-0.1144247
151	0xbdc815ea	-0.09769805
152	0x3d8f69db	0.07002612
153	0xbde3a535	-0.11115495
154	0xbe359acd	-0.17734833
155	0xbcc87aa3	-0.02447254
156	0x3dc44267	0.09582978
157	0xbc6fbc1e	-0.014632253
158	0xbe17b630	-0.14815593
159	0xbe354019	-0.17700233
160	0xbd3de460	-0.046360373
161	0x3e2319dd	0.15927835
162	0x3c35ba02	0.011091711
163	0xbda3a3c1	-0.07990218
164	0xbe23b664	-0.15987545
165	0xbda5feee	-0.081052646
166	0x3ca32a6d	0.019917691
167	0x3e288984	0.16458708
168	0x3de655e7	0.11246853
169	0xbc88cefd	-0.016700262
170	0x3da7f94b	0.08201846
171	0x3c2bf4a8	0.010495342
172	0x3d91bcae	0.07116066
173	0x3dc53182	0.096285835
174	0xbd550878	-0.05201003
175	0x3d64e811	0.05588538
176	0xba8a37ba	-0.0010545172
177	0x3d86a758	0.06574887
178	0xbd19bcc3	-0.037533533
179	0x3da1e536	0.07905047
180	0xbe0decf0	-0.13859916
181	0x3dde970f	0.10868656
182	0xbe24285f	-0.16031025
183	0xbe044bb1	-0.12919499
184	0xbdfe3802	-0.124130264
185	0xbd29e582	-0.04147864
186	0xbcbc01f6	-0.022950154
187	0xbe423836	-0.18966755
188	0x3dbea268	0.0930832
189	0x3cb118cd	0.021618271
190	0x3e2b78a1	0.16745235
191	0xbe0d4130	-0.13794398
192	0xbde23d16	-0.110468075
193	0x3d85a6b6	0.06525938
194	0x3e3655af	0.17806123
195	0x3e27a539	0.16371621
196	0x3dd6a9de	0.10481618
197	0x3cd9fc13	0.026609456
198	0x3d896ae7	0.06709843
199	0xbd9810de	-0.07425092
200	0xbe4cd467	-0.200029
201	0xbe2d4d91	-0.1692412
202	0xbe0a1493	-0.13484411
203	0x3b434ceb	0.0029800485
204	0x3e105d15	0.14098008
205	0x3dbfc229	0.09363205
206	0xbe06171c	-0.13094753
207	0x3d30ed18	0.04319486
208	0x3e01ec4e	0.126878
209	0x3b445211	0.0029956142
210	0x3bbe7dba	0.0058133276
211	0xbdc3fdce	-0.09569894
212	0x3c80e28c	0.015733026
213	0x3de6892c	0.11256632
214	0xbc62958c	-0.0138296
215	0xbc920419	-0.01782422
216	0x3d3a3b29	0.045466576
217	0xbd66a422	-0.056308873
218	0xbdf7004b	-0.12060603
219	0x3da29c7c	0.07940003
220	0x3dd5c01e	0.10437034
221	0xbc8eb82a	-0.0174218
222	0x3d1e3b7e	0.038630955
223	0xbe090baa	-0.13383356
224	0x3dce8eba	0.10085817
225	0xbd48df5e	-0.049041145
226	0xbd9a72f3	-0.07541456
227	0xbe03e2f4	-0.12879544
228	0xbdd04986	-0.101702735
229	0xbdf31563	-0.118693136
230	0x3d123a4d	0.03570013
231	0x3e00f4d1	0.1259339
232	0xbc472abf	-0.012156188
233	0x3db1eb5f	0.086874716
234	0xbd8a89f0	-0.06764591
235	0xbd965fdd	-0.07342503
236	0xbe4b3f84	-0.19848448
237	0xbddebb77	-0.108756
238	0x3e0474fa	0.12935248
239	0x3e0eacca	0.13933101
240	0x3e29d8de	0.16586635
241	0xbcae380f	-0.021266965
242	0x3d131430	0.035907924
243	0xbad59661	-0.0016295427
244	0x3e4718ba	0.19443026
245	0xbdfb51d6	-0.12271468
246	0x3c42eb87	0.011896974
247	0xbe1cb0b6	-0.15301785
248	0x3d95875c	0.073012084
249	0xbe298791	-0.1655562
250	0xbe12b2ca	-0.14326015
251	0x3d668d61	0.056287173
252	0x3e409e67	0.18810426
253	0x3e3a77dd	0.18209787
254	0x3e0b6c15	0.13615449
255	0x3c08c89f	0.008348613

fc3.bias f4 [30]
0	0x3e88181a	0.26580888
1	0xbe9295fc	-0.28630054
2	0x3e6e6901	0.23282243
3	0xbe442e1a	-0.19158211
4	0xbe06521d	-0.13117261
5	0xbe1d2fc3	-0.15350251
6	0xbe58007f	-0.21093939
7	0x3cb3b220	0.021935523
8	0x3e122f69	0.14275898
9	0xbe449923	-0.19199042
10	0x3e4e29b7	0.201331
11	0xbe27850e	-0.1635935
12	0x3e1818dd	0.14853235
13	0xbdf8e757	-0.121534996
14	0x3e27ad35	0.16374667
15	0xbe797f68	-0.24365008
16	0xbce0f822	-0.027462069
17	0xbeb99358	-0.36245227
18	0xbd755c51	-0.059902493
19	0x3e33bcb6	0.17552456
20	0xbe11b5c4	-0.14229494
21	0xbe393043	-0.18084817
22	0x3e92cfd1	0.28674176
23	0x3c53652b	0.012902538
24	0xbe2259d6	-0.15854582
25	0x3deb9924	0.11503819
26	0xbd881807	-0.06645208
27	0xbe86d649	-0.26335362
28	0x3da6f93a	0.08153005
29	0x3e1e94a1	0.15486385

fc4.weight f4 [10, 30]
0	0x3db986f6	0.09058945
1	0x3d8fa26d	0.07013402
2	0x3e18e447	0.14930831
3	0xbdb09f55	-0.0862414
4	0xbb8e3311	-0.0043395837
5	0xbd011b74	-0.031520322
6	0xbdd9cdd4	-0.10634962
7	0x3e239d72	0.1597803
8	0xbe0a7fbd	-0.13525291
9	0x3d0e3d6f	0.034726556
10	0x3e2a9202	0.1665726
11	0xbdd2f4ee	-0.10300623
12	0x3deb7ec9	0.11498792
13	0xbddf3745	-0.10899214
14	0x3ca02c7e	0.019552466
15	0xbdaacfeb	-0.083404385
16	0x3d4ff745	0.050772924
17	0x3c93b7fd	0.018032068
18	0x3c78eb63	0.015192839
19	0xbd369173	-0.044572305
20	0xbd15d478	-0.03657958
21	0xbe16a95f	-0.14713047
22	0x3ccdbfc2	0.025115851
23	0x3ddbbe79	0.10729689
24	0xbdff1a07	-0.12456136
25	0xbc2e1247	-0.010624475
26	0x3d3ae1d2	0.045625515
27	0x3da98071	0.082764514
28	0x3d39808b	0.045288604
29	0x3de99a6e	0.11406408
30	0x3cf7fe94	0.03027276
31	0xbd2c8a7c	-0.042124256
32	0xbe07be9d	-0.13256307
33	0xbe2f070b	-0.1709253
34	0xbdc69ca8	-0.096978486
35	0x3dd5146b	0.10404285
36	0x3dcd7425	0.100319184
37	0x3e294668	0.16530764
38	0x3e32a016	0.1744388
39	0x3acafe57	0.0015487176
40	0x3dda5129	0.10660011
41	0x3d89eb80	0.06734371
42	0xbe008031	-0.12548901
43	0x3c8d8cdd	0.017279083
44	0xbe0c54fa	-0.13704291
45	0x3e36fe04	0.17870337
46	0x3cf9c61a	0.03048997
47	0x3e1cd3ca	0.15315166
48	0xbd0854a8	-0.03328386
49	0x3e131c3b	0.14366238
50	0x3ddc1ddc	0.10747883
51	0x3b49cc44	0.0030791918
52	0xbcbb4557	-0.022860212
53	0x3e1e4f3e	0.15459916
54	0xbcc747ff	-0.024326323
55	0x3e120208	0.14258587
56	0x3d22bced	0.039730955
57	0xbd0ffd36	-0.03515359
58	0xbddcefb7	-0.107879095
59	0xbd8ddfb6	-0.06927435
60	0x3dc2245c	0.09479591
61	0x3e0b9db8	0.13634384
62	0xbd74da04	-0.05977823
63	0xbe2e256e	-0.17006466
64	0x3d5f2da0	0.05448687
65	0xbd016f5f	-0.031600352
66	0xbde2d267	-0.11075287
67	0x3d0a9bb8	0.03383991
68	0xbda6ed4a	-0.08150728
69	0x3e0b646c	0.13612527
70	0x3d6e463d	0.058172453
71	0xbe13fc9e	-0.14451835
72	0x3aa282c6	0.0012398593
73	0xbe13ba47	-0.14426528
74	0x3dbce2da	0.09222956
75	0x3da4dc50	0.08049834
76	0x3de915f7	0.113811426
77	0xbddd7caa	-0.108147934
78	0xbda1b4fa	-0.07895847
79	0xbdcc176d	-0.099654056
80	0xbe3f0ed4	-0.18658
81	0xbe2ee74f	-0.17080425
82	0xbe09eb54	-0.13468677
83	0x3e4a31a5	0.197455
84	0xbd687acc	-0.056757733
85	0xbdabb27d	-0.08383653
86	0x3d7d3a4c	0.061823174
87	0x3d910691	0.070813306
88	0x3dd3fd90	0.103510976
89	0xbe0029d8	-0.12515962
90	0x3e0e6602	0.139061
91	0xbcda6867	-0.026661111
92	0xbdf8205b	-0.12115546
93	0x3dd2ae31	0.102871306
94	0xbe1f869b	-0.15578692
95	0xbe0e10fc	-0.13873667
96	0x3da92925	0.08259801
97	0x3d323fae	0.04351776
98	0xbdda5d0f	-0.10662281
99	0xbcf3d542	-0.029764775
100	0xbd244dc7	-0.040113237
101	0x3d1e36e8	0.03862658
102	0xba16909d	-0.0005743595
103	0x3d7dbd15	0.0619479
104	0x3df7bd36	0.12096636
105	0xbe2311cb	-0.15924756
106	0xbe201b5d	-0.15635438
107	0xbd6a9034	-0.05726643
108	0xbdd07315	-0.101782
109	0xbe1ef370	-0.15522552
110	0x3e07cfd9	0.13262881
111	0x3df90392	0.12158884
112	0x3e08a867	0.1334549
113	0xbe18079c	-0.14846653
114	0xbc9eb222	-0.01937205
115	0xbd835146	-0.06411986
116	0xbdafe0f4	-0.08587828
117	0x3dfd9a3f	0.12382936
118	0x3bc5f73c	0.0060414355
119	0x3d5f9bb2	0.054591842
120	0xbe2b9df4	-0.16759473
121	0x3daa7710	0.083234906
122	0x3ddbbbe7	0.10729199
123	0xbd838cc9	-0.06423337
124	0x3de8c631	0.11365927
125	0x3d87a4c1	0.06623221
126	0xbd7b6c06	-0.061382316
127	0xbe016c17	-0.12638889
128	0xbd4e0fc4	-0.050308004
129	0xbe2b5389	-0.16731085
130	0xbdca1c61	-0.09868694
131	0x3d83140c	0.06400308
132	0xbd38394b	-0.044976514
133	0xbcc7cc3b	-0.024389377
134	0xbd8a33c0	-0.06748152
135	0x3db45aa8	0.08806354
136	0x3e1c1e6a	0.15245977
137	0x3e113479	0.14180173
138	0xbe14387a	-0.14474669
139	0xbd22764e	-0.039663605
140	0x3d6a96b7	0.05727264
141	0x3d9c7ef7	0.07641404
142	0xbc0c91c5	-0.008579676
143	0x3db3fc76	0.087883875
144	0x3c111214	0.008854408
145	0x3d49f085	0.049301643
146	0x3e04ca63	0.1296783
147	0x3de6040b	0.1123124
148	0xbdbaa363	-0.09113195
149	0xbdbc9ff5	-0.09210197
150	0x3d770229	0.060304794
151	0x3dd08fc1	0.10183669
152	0xbd0a5b34	-0.033778384
153	0x3e20daed	0.15708514
154	0x3c933e1f	0.017973958
155	0xbdaa2d03	-0.083093666
156	0xbd6788a2	-0.056526788
157	0xbe13785a	-0.14401379
158	0x3de0bb06	0.10973172
159	0xbe33ecad	-0.17570753
160	0x3e121593	0.14266042
161	0xbdf69e4a	-0.1204191
162	0x3dcc4fe0	0.099761724
163	0xbdb4f5b3	-0.08835926
164	0xbd2b1b0f	-0.041773852
165	0xbd2109e7	-0.039316084
166	0x3db4c7ad	0.08827148
167	0x3db26836	0.08711283
168	0xbe41a4c0	-0.18910503
169	0xbe27ad78	-0.16374767
170	0x3d830811	0.06398023
171	0x3cd26b36	0.025685888
172	0xbca96d04	-0.020681866
173	0x3da2144e	0.07914029
174	0xbd3dfc81	-0.046383385
175	0x3da008dd	0.078141905
176	0x3c1110f6	0.008854141
177	0xbdb5eb0a	-0.08882721
178	0x3ce235fc	0.027613632
179	0xbe1c28a2	-0.15249875
180	0xbdcad774	-0.09904376
181	0x3d2a037a	0.04150722
182	0xbdac1af8	-0.084035814
183	0xbe3b7471	-0.18306138
184	0x3dc872ef	0.09787547
185	0x3d3407db	0.043952804
186	0x3d00fbf9	0.0314903
187	0x3d130ee7	0.035902884
188	0xbe308cb7	-0.17241178
189	0xbddd1485	-0.107949294
190	0xbde639c0	-0.11241484
191	0x3e34ca51	0.17655303
192	0xbdca78bc	-0.098863095
193	0xbe0aacb3	-0.13542442
194	0xbdc41f96	-0.09576337
195	0x3c9e8a30	0.019353002
196	0x3d52d8fb	0.05147646
197	0x3ddfd9fc	0.10930249
198	0x3dd281f9	0.102786966
199	0x3b980ee0	0.004640445
200	0x3e2293bd	0.1587667
201	0x3da8eb33	0.08247986
202	0x3d8dae01	0.06917954
203	0xbe2f0c68	-0.17094576
204	0xbc48f8d7	-0.012266359
205	0xbdad9c9c	-0.084771365
206	0xbe41327d	-0.18866916
207	0xbdbf0ee8	-0.09329015
208	0x3de144b2	0.10999431
209	0x3d2d7fc1	0.042358164
210	0x3e3dd46d	0.18538065
211	0x3dee432e	0.11633907
212	0x3c115b80	0.008871913
213	0x3e1e4960	0.15457678
214	0xbc56a1a0	-0.013100058
215	0xbcbb1e1f	-0.022841511
216	0xbbf0626f	-0.007335953
217	0x3deaabc2	0.114585415
218	0x3d176ffd	0.036972035
219	0x3dfea528	0.12433845
220	0xbca30abd	-0.019902581
221	0xbe24c067	-0.1608902
222	0x3d7ae716	0.061255537
223	0xbd2f3b9f	-0.04278147
224	0xbdde34e1	-0.108499296
225	0x3cc0aad4	0.023518957
226	0xbc816ef5	-0.015799979
227	0x3e32ddb2	0.17467383
228	0x3d0173b9	0.031604502
229	0xbdb34ac2	-0.08754493
230	0x3e016f4c	0.12640113
231	0xbc83c28f	-0.016083984
232	0xbce26b6c	-0.027639113
233	0x3e1d67a9	0.15371574
234	0x3e25a137	0.1617478
235	0x3da40f48	0.08010727
236	0x3bd4a1c9	0.006489013
237	0x3e23042a	0.15919557
238	0xbd74fc08	-0.05981067
239	0x3e288316	0.16456255
240	0xbdfb3384	-0.12265685
241	0xbc151124	-0.009098325
242	0x3e1ed76d	0.15511866
243	0x3d81de34	0.0634121
244	0xbd031d33	-0.03201027
245	0x3dd1fc7b	0.10253235
246	0x3dbe8a62	0.09303738
247	0xbe308601	-0.17238618
248	0xbc4dde8d	-0.012565267
249	0xbe21bee9	-0.15795483
250	0xbd706606	-0.058691047
251	0xbcbd6156	-0.023117702
252	0xbdcc383c	-0.09971663
253	0xbdc9008d	-0.09814558
254	0x3d8e51cf	0.069491975
255	0x3d368ff5	0.044570882

fc4.bias f4 [10]
0	0x3cfdfceb	0.03100439
1	0x3e3022f5	0.17200835
2	0xbea70b64	-0.32625878
3	0xbe18d08c	-0.14923304
4	0xbe548f59	-0.20757808
5	0x3e7c1170	0.24616027
6	0x3dd30343	0.103033565
7	0xbe8348cc	-0.25641477
8	0x3c39cd8a	0.011340508
9	0x3d28a357	0.041171398

fc5.weight f4 [1, 10]
0	0x3e829052	0.25500733
1	0x3dbfeb2b	0.093710266
2	0xbd902cfe	-0.070398316
3	0x3e244dd5	0.16045316
4	0xbe49a032	-0.19690016
5	0x3dbc983e	0.092087254
6	0x3e61e56a	0.22060171
7	0xbe1f4216	-0.15552554
8	0x3dc55634	0.096355826
9	0x3da3afcc	0.07992515

exp_avg f4 [30, 30]
0	0xb922d80e	-0.0001553001
1	0x372ef7c2	1.0428894e-05
2	0xbc7477b8	-0.014921121
3	0xb713fa75	-8.820197e-06
4	0x399a2bc2	0.0002940577
5	0xb69b8554	-4.6348814e-06
6	0x36d2d38b	6.2831145e-06
7	0xb7f122c6	-2.8745631e-05
8	0x363459db	2.6874393e-06
9	0xb920fe00	-0.00015353411
10	0xb77214f1	-1.44292e-05
11	0xb54828bf	-7.45651e-07
12	0x3849f443	4.814962e-05
13	0xb77d51de	-1.5099036e-05
14	0x378fb65d	1.7131848e-05
15	0xbc7bce2e	-0.015368981
16	0xbd9a11e9	-0.07522947
17	0x3822f528	3.885213e-05
18	0x373805a3	1.0968567e-05
19	0x378e128d	1.6936357e-05
20	0x35b0f86d	1.3185323e-06
21	0xb6008f4b	-1.9156894e-06
22	0xb79748a9	-1.8034438e-05
23	0xb8afa745	-8.375807e-05
24	0xb6a3f66a	-4.886465e-06
25	0xb54edd0e	-7.7062657e-07
26	0xb8b9c13e	-8.8574816e-05
27	0xb8844990	-6.3079526e-05
28	0xb7cb199a	-2.4211407e-05
29	0xb854c831	-5.073118e-05
30	0x392759a3	0.00015959753
31	0x370018e5	7.635191e-06
32	0x3d40727f	0.046984192
33	0x376642a7	1.3724587e-05
34	0xb7b7ce26	-2.1911295e-05
35	0x354cdb73	7.631526e-07
36	0x376607c0	1.3710873e-05
37	0xb544388d	-7.309798e-07
38	0x36d61676	6.380312e-06
39	0x3a2f5a28	0.00066891545
40	0x351da9b7	5.8734025e-07
41	0xb5b00368	-1.3114013e-06
42	0x382593a5	3.947657e-05
43	0x37aa2269	2.0281603e-05
44	0x37a20a96	1.9316834e-05
45	0x3c0e5579	0.00868737
46	0x3dcdd61d	0.100506045
47	0x3812e23c	3.501981e-05
48	0x37c55196	2.3522221e-05
49	0x38e49db9	0.00010901265
50	0x354386dc	7.2839407e-07
51	0xb5ee5596	-1.7757291e-06
52	0xb6ba5600	-5.5532437e-06
53	0x369cde60	4.67505e-06
54	0xb69fa14f	-4.757348e-06
55	0x3773c659	1.453011e-05
56	0xb7f5a5d4	-2.9283496e-05
57	0xb75dc009	-1.3217338e-05
58	0x382c6664	4.1103354e-05
59	0xb73783d0	-1.093834e-05
60	0x00000000	0.0
61	0x00000000	0.0
62	0x00000000	0.0
63	0x00000000	0.0
64	0x00000000	0.0
65	0x00000000	0.0
66	0x00000000	0.0
67	0x00000000	0.0
68	0x00000000	0.0
69	0x00000000	0.0
70	0x00000000	0.0
71	0x00000000	0.0
72	0x00000000	0.0
73	0x00000000	0.0
74	0x00000000	0.0
75	0x00000000	0.0
76	0x00000000	0.0
77	0x00000000	0.0
78	0x00000000	0.0
79	0x00000000	0.0
80	0x00000000	0.0
81	0x00000000	0.0
82	0x00000000	0.0
83	0x00000000	0.0
84	0x00000000	0.0
85	0x00000000	0.0
86	0x00000000	0.0
87	0x00000000	0.0
88	0x00000000	0.0
89	0x00000000	0.0
90	0x00000000	0.0
91	0x00000000	0.0
92	0x00000000	0.0
93	0x00000000	0.0
94	0x00000000	0.0
95	0x00000000	0.0
96	0x00000000	0.0
97	0x00000000	0.0
98	0x00000000	0.0
99	0x00000000	0.0
100	0x00000000	0.0
101	0x00000000	0.0
102	0x00000000	0.0
103	0x00000000	0.0
104	0x00000000	0.0
105	0x00000000	0.0
106	0x00000000	0.0
107	0x00000000	0.0
108	0x00000000	0.0
109	0x00000000	0.0
110	0x00000000	0.0
111	0x00000000	0.0
112	0x00000000	0.0
113	0x00000000	0.0
114	0x00000000	0.0
115	0x00000000	0.0
116	0x00000000	0.0
117	0x00000000	0.0
118	0x00000000	0.0
119	0x00000000	0.0
120	0xb8e68c83	-0.00010993427
121	0x382eecd8	4.170541e-05
122	0xbc98ce3f	-0.018653033
123	0xb7a0678d	-1.9121706e-05
124	0x38181c5e	3.6266043e-05
125	0xb73409d9	-1.0731129e-05
126	0x3842ce66	4.6445428e-05
127	0xb81e99f8	-3.781353e-05
128	0x36c66407	5.9125045e-06
129	0x3a0ab7f1	0.00052916916
130	0xb8153f68	-3.558342e-05
131	0x374be875	1.2153866e-05
132	0x39009847	0.00012263759
133	0x36813ebc	3.851803e-06
134	0x38417097	4.6119643e-05
135	0x3dbd0416	0.09229295
136	0x3c84c5f0	0.016207665
137	0x375ad2e1	1.3042912e-05
138	0x38013eab	3.081436e-05
139	0x38af871d	8.369817e-05
140	0xb617d2fa	-2.2623558e-06
141	0x375d3593	1.31851e-05
142	0xb85d9350	-5.28277e-05
143	0xb9455647	-0.00018819525
144	0x370e1ba1	8.470292e-06
145	0xb6919e16	-4.3397404e-06
146	0xb9043191	-0.00012606966
147	0xb8a8564a	-8.026937e-05
148	0x36d5dba0	6.3734624e-06
149	0xb91b3212	-0.00014800605
150	0x373098f7	1.0526032e-05
151	0xb18fdab0	-4.1867096e-09
152	0x38f9d7ed	0.000119134646
153	0x34be7353	3.5474167e-07
154	0x368d0851	4.2030956e-06
155	0x350f9bb3	5.3498223e-07
156	0x34f57afc	4.572429e-07
157	0x350c83d5	5.2345905e-07
158	0xb295e4d2	-1.7449938e-08
159	0x3781ac82	1.5458329e-05
160	0x34c33c1a	3.636531e-07
161	0x34a90e96	3.1489316e-07
162	0xb42044ca	-1.4926187e-07
163	0x35112706	5.4073496e-07
164	0x342e75e7	1.6247905e-07
165	0x3acdaa27	0.0015690968
166	0x3a0e77c9	0.00054347195
167	0x340e61d1	1.3260366e-07
168	0xb219e2ed	-8.957369e-09
169	0x35fa80fe	1.8663993e-06
170	0x00000004	6e-45
171	0x351f381a	5.9313754e-07
172	0x3418a48c	1.4215965e-07
173	0x36f6d23a	7.355845e-06
174	0x3512e5b0	5.472348e-07
175	0x33c60973	9.221812e-08
176	0x3707521c	8.065745e-06
177	0x35f93068	1.8566034e-06
178	0x3648b41e	2.9907164e-06
179	0x3590cad5	1.0787868e-06
180	0x00000000	0.0
181	0x00000000	0.0
182	0x00000000	0.0
183	0x00000000	0.0
184	0x00000000	0.0
185	0x00000000	0.0
186	0x00000000	0.0
187	0x00000000	0.0
188	0x00000000	0.0
189	0x00000000	0.0
190	0x00000000	0.0
191	0x00000000	0.0
192	0x00000000	0.0
193	0x00000000	0.0
194	0x00000000	0.0
195	0x00000000	0.0
196	0x00000000	0.0
197	0x00000000	0.0
198	0x00000000	0.0
199	0x00000000	0.0
200	0x00000000	0.0
201	0x00000000	0.0
202	0x00000000	0.0
203	0x00000000	0.0
204	0x00000000	0.0
205	0x00000000	0.0
206	0x00000000	0.0
207	0x00000000	0.0
208	0x00000000	0.0
209	0x00000000	0.0
210	0x3785be9a	1.5943591e-05
211	0x35999f47	1.1445744e-06
212	0x39d552f3	0.00040688328
213	0x365f0066	3.3229821e-06
214	0xb849e3b3	-4.8134196e-05
215	0x34e8b46e	4.3344647e-07
216	0x3704b58e	7.910085e-06
217	0x364bb465	3.035436e-06
218	0x349e3e8f	2.947531e-07
219	0x388ffdb3	6.8660265e-05
220	0x3657b8c2	3.214504e-06
221	0x35afa48a	1.3086403e-06
222	0xb6e54380	-6.83259e-06
223	0x36ed7851	7.077157e-06
224	0xb5ff5b3c	-1.9025533e-06
225	0x3c365ad5	0.0111300545
226	0x3b5578cb	0.003257322
227	0xb657ffe8	-3.2186454e-06
228	0xb6737eaf	-3.6283561e-06
229	0x37212ac2	9.606303e-06
230	0x346a2a31	2.1808297e-07
231	0x36a6edb4	4.974858e-06
232	0x36498b74	3.0032506e-06
233	0x37c5010a	2.3484714e-05
234	0x36bc4182	5.6104627e-06
235	0x368bbb5c	4.1643343e-06
236	0x37d26b77	2.5083993e-05
237	0x378781c8	1.6153688e-05
238	0xb5595213	-8.0958233e-07
239	0x375df2a6	1.32291225e-05
240	0x38bd2fd5	9.021132e-05
241	0xb7cdb096	-2.4520134e-05
242	0xbb0778d9	-0.0020671396
243	0x36a3220c	4.861742e-06
244	0xb9420a56	-0.00018505132
245	0xb7ac0c30	-2.0509673e-05
246	0x37bfe1f7	2.2874197e-05
247	0x37973664	1.802593e-05
248	0xb6da3565	-6.503122e-06
249	0xb84a4614	-4.822582e-05
250	0x3723b16c	9.756866e-06
251	0x36d8aa1c	6.457105e-06
252	0xb755a9ac	-1.2735294e-05
253	0xb6e4eafa	-6.8222844e-06
254	0xb7adf635	-2.0737856e-05
255	0x3bf29b52	0.0074037695

exp_avg_sq f4 [30, 30]
0	0x36fee9a7	7.5969906e-06
1	0x3197405e	4.401996e-09
2	0x3d747b4b	0.059687894
3	0x32839898	1.5319799e-08
4	0x358e09d3	1.0582684e-06
5	0x32bd5acb	2.2043784e-08
6	0x331b5a6e	3.6170995e-08
7	0x32acc865	2.0114564e-08
8	0x31430d39	2.838375e-09
9	0x37e65d97	2.7461718e-05
10	0x329b591e	1.80849e-08
11	0x322395ff	9.521954e-09
12	0x343150f5	1.6513862e-07
13	0x3295f70c	1.7458227e-08
14	0x323c888f	1.097409e-08
15	0x3e8af1ad	0.2713751
16	0x3fdf72bc	1.7456889
17	0x33bd3072	8.8098105e-08
18	0x310ae67c	2.0212658e-09
19	0x35c3d4e7	1.4590595e-06
20	0x30619d1d	8.2077795e-10
21	0x32b7e560	2.1408312e-08
22	0x31ce3634	6.0015513e-09
23	0x35507a97	7.766443e-07
24	0x3356803c	4.9942386e-08
25	0x32a7f890	1.9554392e-08
26	0x34c05fdc	3.5832534e-07
27	0x33f833e9	1.1557842e-07
28	0x3380bd96	5.99495e-08
29	0x341243e0	1.3622002e-07
30	0x371b8893	9.270519e-06
31	0x319d9bde	4.5870214e-09
32	0x3df167d6	0.11787383
33	0x32a14ea8	1.8778636e-08
34	0x3589b0e0	1.0258773e-06
35	0x32e6dc16	2.6875608e-08
36	0x332f07d2	4.0752475e-08
37	0x32b0e555	2.0593385e-08
38	0x314fe894	3.025467e-09
39	0x38100b1a	3.4342615e-05
40	0x32c4df25	2.2918877e-08
41	0x32058b1c	7.773249e-09
42	0x3434befe	1.6833289e-07
43	0x32a5689b	1.9256097e-08
44	0x32456d9d	1.1491832e-08
45	0x3e7dc109	0.24780668
46	0x3fcdcfeb	1.6079077
47	0x33b37e51	8.358314e-08
48	0x3122246e	2.359481e-09
49	0x35d44b9d	1.5817237e-06
50	0x3064ffa9	8.330923e-10
51	0x32e899fe	2.7078382e-08
52	0x31ed7e03	6.9119337e-09
53	0x355b43a8	8.168231e-07
54	0x3381e256	6.048201e-08
55	0x32cab8ee	2.3599991e-08
56	0x34d0fecf	3.8928417e-07
57	0x34132532	1.3703973e-07
58	0x33836cb9	6.1199394e-08
59	0x34241121	1.5279922e-07
60	0x00000000	0.0
61	0x00000000	0.0
62	0x00000000	0.0
63	0x00000000	0.0
64	0x00000000	0.0
65	0x00000000	0.0
66	0x00000000	0.0
67	0x00000000	0.0
68	0x00000000	0.0
69	0x00000000	0.0
70	0x00000000	0.0
71	0x00000000	0.0
72	0x00000000	0.0
73	0x00000000	0.0
74	0x00000000	0.0
75	0x00000000	0.0
76	0x00000000	0.0
77	0x00000000	0.0
78	0x00000000	0.0
79	0x00000000	0.0
80	0x00000000	0.0
81	0x00000000	0.0
82	0x00000000	0.0
83	0x00000000	0.0
84	0x00000000	0.0
85	0x00000000	0.0
86	0x00000000	0.0
87	0x00000000	0.0
88	0x00000000	0.0
89	0x00000000	0.0
90	0x00000000	0.0
91	0x00000000	0.0
92	0x00000000	0.0
93	0x00000000	0.0
94	0x00000000	0.0
95	0x00000000	0.0
96	0x00000000	0.0
97	0x00000000	0.0
98	0x00000000	0.0
99	0x00000000	0.0
100	0x00000000	0.0
101	0x00000000	0.0
102	0x00000000	0.0
103	0x00000000	0.0
104	0x00000000	0.0
105	0x00000000	0.0
106	0x00000000	0.0
107	0x00000000	0.0
108	0x00000000	0.0
109	0x00000000	0.0
110	0x00000000	0.0
111	0x00000000	0.0
112	0x00000000	0.0
113	0x00000000	0.0
114	0x00000000	0.0
115	0x00000000	0.0
116	0x00000000	0.0
117	0x00000000	0.0
118	0x00000000	0.0
119	0x00000000	0.0
120	0x374e3d77	1.2292868e-05
121	0x320b9bad	8.126261e-09
122	0x3e1df49b	0.15425341
123	0x32cef211	2.4091635e-08
124	0x35e42a44	1.6999625e-06
125	0x331c0095	3.632211e-08
126	0x3370d796	5.607543e-08
127	0x32f72566	2.8771591e-08
128	0x31aa5ceb	4.9582147e-09
129	0x382a3e81	4.058937e-05
130	0x32eb1864	2.7368692e-08
131	0x32551d7c	1.2404936e-08
132	0x34896f11	2.559905e-07
133	0x32fe5a11	2.961045e-08
134	0x32ade424	2.0243597e-08
135	0x3eb82475	0.35965315
136	0x3ffe12e1	1.9849511
137	0x33f24a26	1.1282491e-07
138	0x31b54ff3	5.2768825e-09
139	0x3610b0ac	2.1560509e-06
140	0x309758e4	1.101196e-09
141	0x3305a66c	3.1117835e-08
142	0x3231162d	1.0307798e-08
143	0x359c9bae	1.1668214e-06
144	0x33a48af1	7.6621184e-08
145	0x33048de1	3.0862683e-08
146	0x3515be69	5.578391e-07
147	0x3464b501	2.1300004e-07
148	0x33cfcd5e	9.676545e-08
149	0x3466d4dd	2.1497858e-07
150	0x3488bcf3	2.5469453e-07
151	0x2ed449de	9.653765e-11
152	0x39cdce97	0.00039254568
153	0x2f97f761	2.7642513e-10
154	0x32bb1a4c	2.1781624e-08
155	0x303fc3a7	6.9763434e-10
156	0x303901ff	6.7305445e-10
157	0x30047c5e	4.8198057e-10
158	0x2e8ca22d	6.395271e-11
159	0x35089716	5.0883807e-07
160	0x2fe54ccb	4.1709422e-10
161	0x308364fb	9.560205e-10
162	0x3114911f	2.1619326e-09
163	0x2ffe3d75	4.6246e-10
164	0x2f7bbd60	2.2895597e-10
165	0x3cc658d9	0.024212288
166	0x3bc4b26b	0.0060027144
167	0x307ee810	9.273444e-10
168	0x2e30e71c	4.0223033e-11
169	0x32b7fc19	2.1418645e-08
170	0x2c75c808	3.4927634e-12
171	0x2fdf8046	4.0654607e-10
172	0x2eabb88d	7.8089625e-11
173	0x33a9bcab	7.903994e-08
174	0x3083aa25	9.579862e-10
175	0x2f867033	2.445418e-10
176	0x3383befd	6.1349034e-08
177	0x3214b009	8.65476e-09
178	0x3237d818	1.0701136e-08
179	0x322b015c	9.953819e-09
180	0x00000000	0.0
181	0x00000000	0.0
182	0x00000000	0.0
183	0x00000000	0.0
184	0x00000000	0.0
185	0x00000000	0.0
186	0x00000000	0.0
187	0x00000000	0.0
188	0x00000000	0.0
189	0x00000000	0.0
190	0x00000000	0.0
191	0x00000000	0.0
192	0x00000000	0.0
193	0x00000000	0.0
194	0x00000000	0.0
195	0x00000000	0.0
196	0x00000000	0.0
197	0x00000000	0.0
198	0x00000000	0.0
199	0x00000000	0.0
200	0x00000000	0.0
201	0x00000000	0.0
202	0x00000000	0.0
203	0x00000000	0.0
204	0x00000000	0.0
205	0x00000000	0.0
206	0x00000000	0.0
207	0x00000000	0.0
208	0x00000000	0.0
209	0x00000000	0.0
210	0x36bb32bf	5.578942e-06
211	0x3188d3a6	3.9821826e-09
212	0x3d849dcf	0.06475412
213	0x323dce9e	1.1048227e-08
214	0x3563c14d	8.484538e-07
215	0x328fa622	1.672294e-08
216	0x330e6d18	3.316117e-08
217	0x32888a00	1.5895239e-08
218	0x312a536c	2.4785676e-09
219	0x37ad742e	2.0677307e-05
220	0x325fff9f	1.303843e-08
221	0x31dcdc18	6.4278645e-09
222	0x3406d9d7	1.2558972e-07
223	0x32728416	1.4116287e-08
224	0x321d0dc2	9.141731e-09
225	0x3e394d28	0.18095839
226	0x3f945bd0	1.1590519
227	0x3383a471	6.1300746e-08
228	0x311a30cf	2.2437694e-09
229	0x358517b5	9.916172e-07
230	0x30041c37	4.8061416e-10
231	0x32880b5f	1.5837655e-08
232	0x3184c7e1	3.864429e-09
233	0x3512e7cb	5.472654e-07
234	0x3328479b	3.9180673e-08
235	0x32792f26	1.4504428e-08
236	0x3495b519	2.788518e-07
237	0x33b3aa33	8.366296e-08
238	0x334f66ce	4.8289444e-08
239	0x33a8f850	7.8682774e-08
240	0x365d7aa7	3.300296e-06
241	0x3154b9d7	3.0955698e-09
242	0x3cb43443	0.021997577
243	0x3214610e	8.6368015e-09
244	0x351ecea7	5.9160305e-07
245	0x325f5b8a	1.3001122e-08
246	0x3293766a	1.71669e-08
247	0x32371071	1.065574e-08
248	0x310315f8	1.9075497e-09
249	0x37654547	1.36655935e-05
250	0x322486e7	9.57673e-09
251	0x2fd80f5c	3.9301085e-10
252	0x33b493c6	8.408783e-08
253	0x32224208	9.444655e-09
254	0x31e28705	6.5928156e-09
255	0x3cc19ff5	0.023635844

exp_avg f4 [30]
0	0xb5f07cbc	-1.7917696e-06
1	0x36e3d670	6.790091e-06
2	0x00000000	0.0
3	0x00000000	0.0
4	0x36eb5cd7	7.0143537e-06
5	0x343554e6	1.6887824e-07
6	0x00000000	0.0
7	0x357b60e0	9.364576e-07
8	0xb66e93ca	-3.5550788e-06
9	0x3781ba23	1.5464675e-05
10	0x352b6a2f	6.385698e-07
11	0xb5830533	-9.761774e-07
12	0x00000000	0.0
13	0x00000000	0.0
14	0x00000000	0.0
15	0x36242107	2.4457129e-06
16	0xb7414e10	-1.1521872e-05
17	0xb5f2e2e5	-1.809644e-06
18	0xb63734c8	-2.7299848e-06
19	0x00000000	0.0
20	0x362e7bf4	2.600017e-06
21	0x00000004	6e-45
22	0x360520fd	1.9837746e-06
23	0x34195a95	1.4282189e-07
24	0x00000000	0.0
25	0xb68d9003	-4.2188926e-06
26	0x00000000	0.0
27	0xb439c338	-1.7300488e-07
28	0x36f74171	7.368792e-06
29	0xb409ffcf	-1.2852182e-07

exp_avg_sq f4 [30]
0	0x31c2d105	5.669906e-09
1	0x31e78ee8	6.7392314e-09
2	0x00000000	0.0
3	0x00000000	0.0
4	0x321b5aa2	9.042795e-09
5	0x2eeb93c2	1.071281e-10
6	0x00000000	0.0
7	0x3193f8cf	4.3065493e-09
8	0x314e003b	2.9977076e-09
9	0x31c7fcdf	5.8204104e-09
10	0x31967121	4.378436e-09
11	0x3166a0b2	3.356075e-09
12	0x00000000	0.0
13	0x00000000	0.0
14	0x00000000	0.0
15	0x301191a2	5.295765e-10
16	0x311b0ee6	2.2563937e-09
17	0x2f468b91	1.8057579e-10
18	0x31c7ec7c	5.8185474e-09
19	0x00000000	0.0
20	0x314a8537	2.9470593e-09
21	0x2fa50cdd	3.0022465e-10
22	0x318c6ee6	4.087144e-09
23	0x303dce37	6.905085e-10
24	0x00000000	0.0
25	0x3184a9b2	3.8609977e-09
26	0x00000000	0.0
27	0x30219973	5.8789523e-10
28	0x30c96815	1.4654257e-09
29	0x311aa614	2.2504354e-09
