ch-04/logs/lightning_logs/version_1/checkpoints/epoch=799-step=28000.ckpt (torch, 48200 bytes, 27 tensors)

fc1.weight f4 [30, 30]
000000 e9 16 73 3f 97 46 0c c0 db f8 f3 bd fd 48 1c bf
       0.94956833 -2.1918085 -0.119127 -0.6104887
000010 58 85 e9 bf 52 b8 8b be bd c3 55 be 71 5e c0 3f
       -1.8243818 -0.27289063 -0.2087545 1.5028821
000020 70 71 a0 bf c0 69 0d be 27 0e ca 3f 37 0c 7c 3f
       -1.2534618 -0.13809872 1.5785569 0.9845614
000030 7a 17 9b 3f 02 1c 1d 3f 4d 4c 2f bf 6c 07 88 bd
       1.211654 0.6137086 -0.684758 -0.066420406
000040 fc 8f 58 3d dd 0b f1 3e e2 71 af c0 86 0a 1a be
       0.05287169 0.47079363 -5.4826517 -0.15043077
000050 e7 89 a5 be 8f 2e bc 3e 7b 93 40 3f ac 71 98 3f
       -0.32331774 0.3675427 0.7522504 1.190969
000060 88 74 c4 be fe 4b 1a bf 7b cd f9 3f 4d fc dc 3f
       -0.38370156 -0.60272205 1.9515833 1.7264496
000070 6f be 22 3e 79 bd eb 3f e2 1e 2a 3f 09 b6 76 c0
       0.15892957 1.8417197 0.66453373 -3.8548605
000080 49 99 a8 3d de cc 72 3f 8e 56 e0 be 7f 27 42 3e
       0.08232362 0.9484385 -0.43816036 0.18960379
000090 a0 f6 d7 bf a2 66 35 40 65 47 fd be f6 64 77 bf
       -1.6872139 2.8343892 -0.49468532 -0.9663843
0000a0 44 80 85 40 2d e9 58 3f 39 17 1b c0 57 51 c8 3f
       4.1719074 0.847308 -2.4232924 1.5649823
0000b0 d7 50 3a c0 79 8d f0 bd 75 21 ec 3c b1 5d 64 c0
       -2.911184 -0.11745734 0.028824547 -3.5682185
0000c0 fe 7a 38 c1 1d 6c b5 bf c3 d9 87 c0 cc 3b 1a 40
       -11.530027 -1.4173619 -4.2453322 2.4098997
0000d0 01 b5 af 3f 1d ee 4b 3f 04 2d 8b 3f 02 19 ab 3f
       1.3727113 0.7966021 1.0873113 1.3367007
0000e0 f2 18 7a 40 32 b6 50 40 a7 21 03 40 c5 44 49 40
       3.9077725 3.2611203 2.048929 3.1448224
0000f0 d5 57 3c 3c bd 35 ff bd cd 97 66 3d c6 c4 80 bd
       0.01149555 -0.12461422 0.056297112 -0.062875316
000100 39 25 65 3d 80 cd 1b bd 4c 0f 1b 3e 4a 9e dd bd
       0.0559437 -0.038037777 0.15142554 -0.10821207
000110 15 00 df bd 87 03 df bd fc 27 28 3e 90 36 79 3d
       -0.108886875 -0.10889345 0.16421503 0.06084305
000120 05 e6 33 3e 52 4a 1a be e9 6f 39 be 80 44 12 be
       0.17568214 -0.15067413 -0.18109097 -0.14283943
000130 c7 86 fb bd 08 73 97 3d 8b e3 85 3d a5 58 1b 3e
       -0.12281566 0.07394987 0.06537541 0.15170534
000140 fd 18 c1 bd 72 e6 fe bd b6 63 c6 3d 0a 23 97 bd
       -0.09428594 -0.12446298 0.09686987 -0.0737973
000150 a1 ef e2 3d 86 75 31 bd 11 e5 d5 3d 41 42 11 be
       0.11080862 -0.04332497 0.104440816 -0.1418543
000160 cf b1 bc bd 6f fe 63 3d 72 9d 05 3d 0b aa 3e bd
       -0.09213602 0.05566257 0.032620855 -0.046548884
000170 14 a3 d2 3d d2 f3 f1 3d c2 b1 0d be 17 da d3 bd
       0.10285011 0.11814083 -0.1383734 -0.10344332
000180 b8 11 25 3e 62 68 8a bd 46 ca 90 bd 8d 04 3b be
       0.1612004 -0.06758191 -0.070698306 -0.18263455
000190 46 5c e2 bd 24 cf 3a 3d 6a 5c f6 bc b2 d3 0d be
       -0.11052756 0.0456077 -0.030073363 -0.13850287
0001a0 ed cd dd ba 8f d3 05 be a9 bb 24 be 73 23 da bd
       -0.0016922333 -0.13068984 -0.16087212 -0.10651293
0001b0 00 be 29 be e8 52 fa bd 02 e2 3a 3e a7 8f e9 3c
       -0.16576385 -0.12222844 0.18250278 0.028510882
0001c0 fe 72 66 3d 93 7d 34 be 1a e8 00 be f2 b1 88 bd
       0.05626201 -0.17626028 -0.1258854 -0.066745654
0001d0 48 e0 e9 3c ac 81 24 be cb 1b a1 bd 6d d9 df bd
       0.028549328 -0.16065091 -0.07866629 -0.109301426
0001e0 6b a2 04 3a 43 22 8b bd bb 48 4f bc b3 5f fd bd
       0.00050596026 -0.06793644 -0.012651618 -0.12371769
0001f0 5f 53 00 be 11 24 da bd 6a fa 7f bd 8f 8f 13 be
       -0.12531804 -0.1065141 -0.062494673 -0.14410232
000200 c7 c1 1c 3e 88 6a 14 bd 37 db 20 3e 2e 02 69 3d
       0.15308295 -0.03623441 0.15708624 0.056886844
000210 52 50 1e be 4f 61 01 3e 86 c2 4d bd 87 54 8f bd
       -0.15460327 0.12634777 -0.05023434 -0.06998544
000220 c7 2f 1b be 40 dd 39 be da f5 55 3d 88 5b 23 bd
       -0.15154944 -0.18150806 0.052236415 -0.039882213
000230 93 92 91 3d 8d 6d 19 be 33 cd 0a 3e 58 3c 09 be
       0.07108035 -0.14983197 0.1355484 -0.13401926
000240 16 21 01 bd 9f 32 1c 3d 5f 08 c1 3d 76 ee 16 3e
       -0.031525694 0.038134214 0.09425425 0.14739403
000250 2c 4f 2a 3e d4 3d 14 be e9 33 3c 3d 48 d4 a0 bd
       0.16631764 -0.1447671 0.045947943 -0.078529894
000260 78 e6 a3 bc 48 ef 0b be 5b 4a 2a 3e 67 37 09 be
       -0.020007357 -0.13665497 0.16629927 -0.1340004
000270 73 d6 c7 3d 4f 68 83 3d 82 02 73 3d 70 27 ca bd
       0.097577 0.0641638 0.059328564 -0.09870803
000280 15 ef 29 3e a8 55 24 3d 74 66 c0 3c 7f c1 24 be
       0.16595109 0.04012075 0.023486353 -0.16089438
000290 c3 f6 9c 3d c2 60 e0 bc 52 4c ab bd ce 95 20 3e
       0.076642536 -0.027389888 -0.08364166 0.15682146
0002a0 f7 b9 26 3d 6c e0 ce bd 5a 40 bd bd f9 d9 0e bc
       0.040704694 -0.10101399 -0.0924079 -0.008718961
0002b0 27 c7 d0 3d 23 18 3f bd 42 58 d5 bd 21 0b 80 bd
       0.10194235 -0.046653878 -0.104172245 -0.06252123
0002c0 8b ab 0b be 61 59 85 3d 21 b6 10 3e 05 02 30 be
       -0.13639657 0.06511188 0.14131977 -0.1718827
0002d0 1b de b7 3e 1a 47 f4 3f ce c1 4a 3e 74 b2 81 be
       0.3591164 1.9084198 0.19800493 -0.2533146
0002e0 d0 6c 5e 3f 89 f3 49 bf b3 86 dc be b0 2f 4d c0
       0.86884785 -0.7888723 -0.43071517 -3.2060356
0002f0 83 de 2d bc f5 d9 35 bd 18 0c 6d bf e5 7f 02 3f
       -0.010612133 -0.044397313 -0.9259658 0.509764
000300 e7 56 1b bf 3e ea 04 c0 ae 5b b7 3f 9a 6d 63 be
       -0.6067948 -2.076797 1.4324853 -0.22209778
000310 cc 44 03 bd 40 8f d7 3d ec 1f b8 40 b2 2e 21 be
       -0.03204803 0.1052537 5.7538967 -0.15740469
000320 5a 10 9e bc a3 7e 08 3f 77 c8 92 c0 50 de 0d bf
       -0.019294906 0.5331823 -4.586971 -0.55417347
000330 40 c4 a4 3f c1 a2 15 bf 44 00 17 c0 26 09 86 bf
       1.2872391 -0.5845147 -2.3593912 -1.0471542
000340 f4 90 38 40 76 2c 89 bf c7 3f 0b 3e ef 64 ef 3f
       2.8838472 -1.0716693 0.13598548 1.8702677
000350 8b cc ba bd 31 4c a2 3f 41 f8 01 3f 40 6b 7e be
       -0.09121045 1.2679502 0.5076943 -0.248456
000360 7f 6d 2f 40 bf c1 31 40 73 f3 55 3f df 02 b4 be
       2.741058 2.7774503 0.835746 -0.3515844
000370 3a ec 79 be 18 4c cc 3d 8f 08 86 bd fa 2a 3b 40
       -0.2440652 0.09975451 -0.06544601 2.924498
000380 68 f9 0b bf 5e e6 f0 3c 8d 56 0f 3d 4e 1a 27 40
       -0.5467744 0.029406723 0.03499465 2.6109805
000390 f9 d6 38 c0 25 62 2a 3f 13 11 69 40 d4 fc ff be
       -2.888121 0.66556007 3.6416671 -0.4999758
0003a0 1a c6 41 40 15 0c 0d 3f 19 dc cf 3e d0 3d f9 be
       3.0277162 0.5509656 0.4059761 -0.48679972
0003b0 c1 70 26 3d b0 09 4f bf ef a0 d6 be 14 35 38 be
       0.040634874 -0.80874157 -0.41919658 -0.17988998
0003c0 6d 3b d9 bf fd 01 3f 40 be 8b bc be 9c 5e 15 c0
       -1.697126 2.9844964 -0.36825365 -2.3338995
0003d0 eb 24 e1 3f 2a 57 97 3f f9 17 b6 bf f0 e7 3f c0
       1.7589391 1.1823475 -1.4226066 -2.9985313
0003e0 a6 9c 77 be 34 93 eb 3e b8 84 e1 bf bd 16 df bf
       -0.2418085 0.46010745 -1.7618628 -1.7428814
0003f0 4f 4c af 3f 87 43 95 bf d8 28 32 40 e0 a0 df bd
       1.3695163 -1.1661233 2.783743 -0.10919356

fc1.bias f4 [30]
000000 e9 85 d2 bd ef 56 05 bf 12 d1 28 3e 5b 9c b0 bb
       -0.102794476 -0.52085775 0.16486004 -0.005389733
000010 76 d0 16 3d d2 a8 81 3d ad ae 6d 3e 0f 7d 31 3e
       0.036819898 0.06331028 0.23211165 0.17332862
000020 df 64 c2 3e dd ba e4 be a0 0a 31 bf be 7b 0f be
       0.37967584 -0.44673815 -0.6915684 -0.14012048
000030 c7 5a 03 3e 2a 11 a1 3d e0 d0 c4 be 84 bc 97 bd
       0.12827598 0.07864602 -0.3844061 -0.074090034
000040 40 cc 97 bc 46 e8 e7 be d7 e8 57 3f e7 7f fb be
       -0.018530011 -0.45294398 0.8433966 -0.4912102
000050 15 6c 48 3d 84 0a 59 3f e6 df 0d bf 2d a1 90 3f
       0.0489312 0.8478167 -0.55419767 1.1299187
000060 c1 bf 5d 3d d6 89 dd be 39 b5 6b bd 47 c4 7f 3f
       0.05413795 -0.43269223 -0.057545874 0.9990887
000070 48 5d b6 3f 28 85 3f bd
       1.4247217 -0.046757847

fc2.weight f4 [30, 30]
000000 01 89 1b 3c d9 61 0e bf 0e c0 05 be ea 41 d1 bd
       0.0094931135 -0.55618054 -0.13061544 -0.1021765
000010 b6 54 4f bd b6 6b b1 bd 05 ea 13 be f0 9e 13 3d
       -0.050617896 -0.08663122 -0.1444474 0.036040246
000020 92 2a 9b 3d b8 13 a1 3c 08 56 0a be 08 45 85 be
       0.07576479 0.019662723 -0.13509381 -0.2602923
000030 f3 54 94 bd 26 5b 73 bd 32 01 d3 bd 5e 1a 21 3d
       -0.07242765 -0.059413098 -0.10302962 0.039331786
000040 40 a4 13 be e7 3f a0 be c0 8b 34 3e 09 8a 04 bc
       -0.14418125 -0.31298754 0.17631435 -0.008089551
000050 70 f4 e8 be 25 61 5d be 27 ac 0a be a1 81 bc be
       -0.4549899 -0.21619089 -0.13542233 -0.3681765
000060 8d 8c ca 3d 4e a4 86 bf eb 10 06 be 3d 96 1a 3e
       0.09890089 -1.0518892 -0.13092391 0.15096374
000070 78 56 ee 3d 5a e2 b4 be 91 2e 07 bf e6 7f ad 3b
       0.11637586 -0.35328943 -0.5280543 0.0052947877
000080 08 34 11 be 01 d9 23 bd 06 a2 4d bd 32 d7 21 3e
       -0.14180005 -0.040001873 -0.050203346 0.15804747
000090 38 14 ff 3d 93 fd 75 bd f1 2d 8e bd 85 73 a0 bf
       0.12455028 -0.06005628 -0.069423564 -1.2535254
0000a0 a6 4a a7 3b 2c f4 c0 3c 36 0d f8 3c 04 be 91 bd
       0.0051053343 0.02355393 0.030279737 -0.07116321
0000b0 36 5a 4d 3e 36 ed d7 bc 13 40 d5 bd 04 cf 9f bd
       0.20053944 -0.026358228 -0.10412612 -0.07803157
0000c0 7c 18 1b 3d 2c 5c 08 3c f3 82 96 be ae 7b d9 bd
       0.037865147 0.008322757 -0.2939678 -0.10619293
0000d0 e6 bf f1 3c b2 9b 70 bd 07 8a d6 bd 4c 53 4a 3f
       0.02951045 -0.058742233 -0.104755454 0.7903335
0000e0 ba fe fe bd 58 ef be be f0 bb 2d bf 12 39 5c 3a
       -0.12450929 -0.3729198 -0.67864895 0.0008400838
0000f0 69 3f 29 bc c5 fc aa 3c 83 5f fb bc 75 00 1d be
       -0.01033006 0.020872483 -0.030685192 -0.15332206
000100 17 97 15 3e ff 31 bc bd 22 e6 77 bf 02 1b 2c bc
       0.14608417 -0.091892235 -0.9683553 -0.010504486
000110 f0 c3 4c bd 36 00 79 be 83 06 24 bd 24 50 3a be
       -0.049991548 -0.24316487 -0.040045273 -0.18194634
000120 f0 e2 e1 bd ab aa 32 3d bc c4 ae bc 97 ce ac bd
       -0.11029613 0.043619793 -0.021334045 -0.084378414
000130 4f 28 ad bd 30 d1 3e bc 90 51 52 be 11 d8 56 be
       -0.08454954 -0.011646554 -0.20538926 -0.2098086
000140 dd 29 bd 3d d9 f8 26 be b9 3d a9 bc f5 47 02 be
       0.092365004 -0.16305865 -0.020659314 -0.12722762
000150 e3 7c 9a 3d d1 1d 75 3f 7a 53 03 be 94 06 99 be
       0.075433515 0.9574862 -0.12824813 -0.2988783
000160 0b 84 14 3e 21 2b 7c 3d 71 d9 78 be f0 5a 48 be
       0.14503495 0.06156457 -0.24301697 -0.1956594
000170 6f b3 20 be a1 9d ec bd 36 43 d0 3d 26 54 df bc
       -0.15693448 -0.11553503 0.101690695 -0.027261805
000180 33 27 0a 3e bf 97 99 be 34 01 6b 38 35 8a a8 bf
       0.13491516 -0.29998586 5.6029487e-05 -1.3167177
000190 b6 54 bc 3b 02 5f eb bd 0e 86 3b bd 77 35 22 be
       0.005747403 -0.11492731 -0.04578214 -0.15840708
0001a0 c5 56 3c 3e d0 82 31 3e 19 38 dc 3d 42 24 95 bd
       0.18392475 0.17335057 0.10752887 -0.07282306
0001b0 17 42 b1 be 50 4c af 3d 2f 99 59 be bd 17 0f 3e
       -0.34620735 0.08559477 -0.21249841 0.13973899
0001c0 4a 12 57 3d ab b6 81 3d 35 a7 57 bc f9 79 a2 3e
       0.052507676 0.06333669 -0.013162424 0.31733683
0001d0 e1 9d f6 3c 95 dc d6 be 90 82 3b be 34 92 47 bd
       0.03010458 -0.41965166 -0.18311524 -0.048723415
0001e0 aa 42 df 3b 18 dd 88 be 43 fd e4 bd 22 e2 ae bd
       0.006813367 -0.2673118 -0.11181118 -0.08539225
0001f0 18 0b 38 3e 1b 85 13 37 8a 68 8f bd 34 3c 84 be
       0.17972982 8.792874e-06 -0.07002361 -0.2582718
000200 69 cd 61 be 08 26 5e be d7 1f 2f be 68 f7 be 3d
       -0.22051014 -0.21694195 -0.1710199 0.09324533
000210 39 ad 18 3e 83 69 32 3e 14 f6 9a bc 38 3c ca 3d
       0.14909829 0.17423062 -0.018916167 0.09874767
000220 09 72 04 be 56 56 13 be 68 0b 34 3a 79 5a 44 3e
       -0.12934126 -0.14388403 0.0006868155 0.19175138
000230 df 46 1d 3d 79 e3 de bc 3a 6a 69 3d fc f7 3a bd
       0.038397666 -0.027208077 0.05698607 -0.045646653
000240 f8 c0 83 be c3 fd 38 be 20 5a 70 bd 01 23 7f bd
       -0.2573316 -0.18065552 -0.0586797 -0.06228924
000250 60 6f 09 bf f2 de 79 be 07 ce db bd b9 98 83 be
       -0.5368557 -0.24401453 -0.10732656 -0.25702456
000260 6e c6 ee bd 6b 09 22 be 63 c8 42 3c 3b a9 f2 3d
       -0.11658941 -0.15823905 0.011888596 0.118486844
000270 ee 30 87 3e 28 d9 ad 3b dc 98 82 bd 0e 50 28 be
       0.26404518 0.005305428 -0.06376812 -0.16436788
000280 bd 9c 7c 3e a4 2c a7 3d 03 49 0d be 96 51 92 3d
       0.24669166 0.081628114 -0.13797383 0.071444675
000290 23 b2 45 be cf 33 35 3c 5f 08 02 be c4 64 41 be
       -0.19306235 0.011059715 -0.12698506 -0.18886095
0002a0 b2 26 84 3e 5a 8d 99 3d 75 16 8a 3e d5 8d 16 be
       0.25810772 0.07497664 0.26970258 -0.14702542
0002b0 b3 4e 63 bf 41 87 3f be fa 85 4d bf 57 fe 8c 3e
       -0.8879196 -0.18703939 -0.80282557 0.27537796
0002c0 d4 be 15 3d 14 df e4 bc 03 18 1b be d5 ce ff 3d
       0.03655894 -0.027938403 -0.15145878 0.12490622
0002d0 26 82 36 bd 14 4f 7f be 7a a8 8f bd ba 7c 12 3e
       -0.044557713 -0.2493251 -0.07014556 0.14305392
0002e0 1c e1 44 bd 08 0e 6b 3d ab fa 41 be 37 04 ab 3d
       -0.048066244 0.057386428 -0.18943278 0.08350413
0002f0 77 21 ec bc e8 14 a7 3e 00 b7 87 3b 3c cb 89 be
       -0.028824551 0.32633138 0.0041416883 -0.26912868
000300 9e bd 15 ba bc 5b db bd ab 31 22 3d 00 a9 33 be
       -0.0005712154 -0.10710856 0.03959815 -0.17544937
000310 be 82 75 3d 6c 22 6f 3d 47 13 38 be f5 22 da be
       0.05993914 0.058382437 -0.17976104 -0.42604795
000320 46 fd 30 bf 12 74 da bd 78 cb a9 bc a2 3a 32 be
       -0.69136465 -0.1066667 -0.020726904 -0.17405179
000330 6a 21 6e bc 58 97 b2 be 84 a0 53 bc a7 1d 99 3d
       -0.014534334 -0.3488109 -0.012916688 0.07476359
000340 98 1e 2c bf 69 f0 56 bf 76 33 d0 be d3 8e 35 bb
       -0.6723418 -0.83960587 -0.40664262 -0.0027703538
000350 4d 41 2c 3d 0c cd 1c be 4c eb b2 3b 0c 4d a6 bd
       0.042054463 -0.15312594 0.0054601785 -0.08120164
000360 ba b9 63 bd 06 84 25 bf 0f c6 69 bc 5b 4a 1e 3d
       -0.055597045 -0.64654577 -0.014268412 0.03864513
000370 f0 42 db be c4 2d a0 3d a4 2b 54 3d c2 c4 0a 3d
       -0.42824507 0.07821229 0.05179943 0.03387905
000380 74 6a c8 be e9 8c e1 3c 46 e4 19 3e 99 ad d1 3d
       -0.39143717 0.027533012 0.15028486 0.10238189
000390 4c 71 70 be 18 a8 98 3d 32 ce 5d be b3 3a b0 bc
       -0.2348072 0.07453936 -0.21660689 -0.021512365
0003a0 07 b4 03 3e 24 0a 24 3b 95 d8 c4 bc 79 2e a3 be
       0.12861644 0.0025030458 -0.024029056 -0.31871393
0003b0 9c f3 fd bd e5 00 82 3e 3f 28 54 be 24 b9 83 be
       -0.123999804 0.25391307 -0.20718478 -0.2572719
0003c0 9c 28 78 bc 15 91 38 be bc 46 ec bc d1 ec 6b 3c
       -0.015146401 -0.18024094 -0.028842323 0.014399723
0003d0 b8 6a 38 3e 45 3f d9 3d 7e 0c ba 3d 1c 2b 87 3d
       0.1800946 0.10607771 0.09084414 0.06600019
0003e0 7f b8 6b 3d ec ad d4 3d 00 59 a4 be 9b 80 9d 3e
       0.057548996 0.103847355 -0.32099152 0.3076218
0003f0 0d 03 10 be 8a 9a 16 be 7e ca 10 3d 0b 4b 92 bd
       -0.14063664 -0.1470739 0.03534936 -0.071432196

fc2.bias f4 [30]
000000 82 a6 61 bf aa bb c2 bf 89 2f 85 3f 7a 59 92 bf
       -0.88144696 -1.521352 1.0405132 -1.1433556
000010 61 a5 e6 bd b5 74 54 3f 3a c1 3c bf 13 c8 a9 3e
       -0.11262012 0.8299058 -0.7373234 0.33160457
000020 7a 34 5b bf a1 ad 46 3f 3e 00 1d 3f 7c f5 c4 bf
       -0.8562695 0.77608687 0.61328495 -1.5387416
000030 f0 4b be bf f3 17 11 bf 02 35 8c 3f 6a 2c 04 bf
       -1.4866924 -0.5667717 1.0953677 -0.5163027
000040 32 b5 87 3f ba 23 ab 3e ee 30 df 3e 68 dd ae 3e
       1.0602171 0.33425695 0.43592018 0.34153295
000050 7a 69 b5 be 75 93 a6 bf 9b d5 9d be 56 57 25 bc
       -0.35432035 -1.301375 -0.3082703 -0.010091623
000060 f5 58 68 bf e7 f9 92 bf 41 df 05 bf 78 63 15 bf
       -0.9076074 -1.1482514 -0.52293783 -0.583549
000070 f7 07 da be f9 22 91 bf
       -0.42584202 -1.1338798

fc3.weight f4 [30, 30]
000000 15 23 af bd 13 73 dd be dd 80 73 3e 37 8d 71 3d
       -0.08551613 -0.43251857 0.23779626 0.058972564
000010 95 5d 8a bb d1 3c 10 be 1f 01 36 3e fa b1 c1 bd
       -0.0042225816 -0.140857 0.17773865 -0.094577745
000020 c3 0e 9c bd ed fe f6 3d f5 38 aa 3e 35 b0 19 3d
       -0.07620003 0.12060342 0.3324658 0.03752156
000030 18 8f b2 3d 15 90 e1 be c5 14 5d 3c 24 60 5e 3d
       0.08718699 -0.44055238 0.013493721 0.054290906
000040 06 38 9e be ed 91 07 3e 12 b2 cb 3d 9f 9a 11 be
       -0.30902117 0.1323926 0.099460736 -0.1421914
000050 31 6e 50 be 3f d7 06 be 96 a7 b3 be 89 b4 08 be
       -0.20354535 -0.13168047 -0.35088795 -0.13350119
000060 70 58 20 bd 97 0d 9a bd 16 87 90 3d f6 e1 a7 bd
       -0.03914684 -0.07522123 0.070570156 -0.081973955
000070 84 18 83 3b 42 7b eb bc 9d 78 27 bd 0a f4 81 be
       0.004000725 -0.028745297 -0.04088651 -0.253815
000080 b3 10 d0 be d6 10 5c 3e 37 a0 e6 3d b2 06 c0 be
       -0.4063774 0.21490797 0.11261027 -0.37505108
000090 37 b6 13 3e 1b cf 0a bc e1 eb 48 3e cf ff 1c be
       0.14424978 -0.008472229 0.1962123 -0.15331958
0000a0 3c c5 a5 be dc 1f 86 bd bf 96 3d be 1f e4 bd be
       -0.3237704 -0.065490454 -0.18514536 -0.37088105
0000b0 74 75 46 3e 2a c5 19 3e 36 d4 36 bc 06 6d dc be
       0.19380742 0.15016618 -0.0111589935 -0.43051928
0000c0 e2 6a 79 be 14 a7 a5 3d ec ab 65 be 18 d9 bc be
       -0.24357179 0.08088508 -0.22428864 -0.3688438
0000d0 94 60 0a 3d 2d 54 92 bd cc 40 80 be 2a a9 39 be
       0.03378351 -0.071449615 -0.25049436 -0.18130937
0000e0 06 86 1d be 17 44 10 be 2d 30 67 3b e7 e0 bf bd
       -0.15383157 -0.14088474 0.0035276518 -0.093690686
0000f0 8b 78 2b 3d 3e 53 fb bd 35 62 86 be ab e9 4d be
       0.041863006 -0.122717366 -0.262468 -0.20108669
000100 d4 d7 0e be b9 31 12 be ca 18 3d be 21 1d b7 bd
       -0.1394952 -0.1427678 -0.18466488 -0.08941103
000110 92 d6 3e 3e 34 ce c1 3e 1b 6a 84 be 2f fb df bd
       0.1863654 0.37852633 -0.25862202 -0.10936581
000120 28 b5 e1 be e1 e1 fd be db 9e 60 bd 5c de 8f be
       -0.44083524 -0.49586394 -0.054838996 -0.28099334
000130 5b 87 cc bc 5f c8 c7 bd 09 e3 8c 3e 23 58 9a bd
       -0.024966886 -0.09755015 0.27516964 -0.07536342
000140 31 83 c0 3c f5 54 71 be 8e 09 e4 3d 54 c7 a6 3d
       0.023500057 -0.23567565 0.11134635 0.081434876
000150 09 cd c3 bd 79 c8 9f 3d 0c 84 64 be 69 1a 7d be
       -0.09560592 0.07801909 -0.22315997 -0.24717106
000160 fd 05 0c be 1c 38 58 be 78 f5 c4 bd 9c e7 26 3e
       -0.1367416 -0.21115154 -0.09617132 0.1629929
000170 16 95 20 bf 84 00 9a 3d f9 8e 8b be cc 86 88 bd
       -0.6272749 0.075196296 -0.27257517 -0.066663355
000180 78 a4 ca 3c 63 e1 a2 3c 06 28 9a 3d 76 9a 5b be
       0.024736628 0.019882863 0.07527165 -0.21445641
000190 73 cf da be d3 98 0a bc 21 21 4b be 95 77 95 bf
       -0.42736396 -0.008459288 -0.19836856 -1.1677119
0001a0 d7 28 6d be b6 7f 4d bc 0f fd 01 bf 58 0b dc 3d
       -0.2316011 -0.012542656 -0.5077676 0.10744351
0001b0 52 d3 1b bb d6 0e aa bd b6 78 f2 3d d2 76 dc 3d
       -0.002377708 -0.08303611 0.1183943 0.10764851
0001c0 10 d1 92 be 42 71 46 bd 1a 25 9b be bf bd 38 be
       -0.28675127 -0.048447855 -0.30301744 -0.18041132
0001d0 15 ca 27 bf 84 5d 1c bf b8 1f c3 3d ba 16 a6 3d
       -0.6554273 -0.61080194 0.09527534 0.081098035
0001e0 af ec 7f bc 6d 9f 89 be ec c9 92 3e ec aa 71 3e
       -0.015620395 -0.26879445 0.2866968 0.23600358
0001f0 98 a4 87 bc b4 3f 8c bd f0 0c 77 3d c8 9f 07 be
       -0.016557977 -0.06848088 0.060315073 -0.13244545
000200 4d 24 08 bd 8f e9 e8 bc 2f c2 b9 3d 07 18 3a bc
       -0.033237744 -0.028431682 0.09070241 -0.011358268
000210 34 e6 a7 bd e4 03 50 bf 72 0e 3f bd 80 95 8f bd
       -0.08198205 -0.81255937 -0.046644635 -0.07010937
000220 48 ad de bd 6d 7a 4c be fc e4 9e be d3 90 09 3d
       -0.108728945 -0.19968577 -0.31034076 0.03358538
000230 fe d6 80 be 26 27 3a 3e 50 bb 09 bd 75 e5 8b be
       -0.25164026 0.18178996 -0.0336259 -0.273235
000240 bf c7 31 3e d9 c4 b1 be b6 62 4d be 5f 00 90 3d
       0.17361353 -0.34720495 -0.20057186 0.07031321
000250 d7 55 81 be 30 c6 d4 bd 58 5c ca 3d 4d 38 89 be
       -0.25260803 -0.10389364 0.098808944 -0.26800767
000260 08 8b 68 3d ca 97 f2 bc 87 f2 07 be 0b bd 5b 3d
       0.056773216 -0.029613394 -0.1327611 0.053647082
000270 43 17 82 3d 47 f7 be bc 3c ce cb bd 42 89 8f 3e
       0.06352093 -0.02331127 -0.099514455 0.28034407
000280 a0 2c 64 bd b3 e8 b8 bd 03 a1 31 3e 42 72 63 be
       -0.05570662 -0.09028759 0.17346577 -0.22211555
000290 62 6f e0 bd 81 21 82 bc 6f e6 aa be 09 6c 83 be
       -0.109587446 -0.015885117 -0.33378932 -0.25668362
0002a0 bd bb 52 bf f2 73 6d bd d3 e9 f8 3c 8b 09 4d be
       -0.82317716 -0.057971902 0.030384934 -0.20023172
0002b0 ed c7 8f 3d e4 c7 3d be b1 69 80 be 5c e0 83 3c
       0.07020555 -0.18533283 -0.25080636 0.016098194
0002c0 2d d7 38 3e 9d 8b e6 be 1b e7 aa bd 0b 89 fa 3d
       0.18050833 -0.4502839 -0.08344861 0.1223317
0002d0 31 72 94 be a5 e6 ca be 2d d4 10 bf ca 90 d2 be
       -0.2899337 -0.39629093 -0.56573755 -0.4112609
0002e0 43 1e 6f 3e 95 08 ba bd fe 20 91 3d 0b f8 a4 3d
       0.23351388 -0.09083668 0.07086371 0.08055123
0002f0 4e 63 17 be 92 03 cc 3c 37 6a 03 3f 5b 54 e8 3d
       -0.14783975 0.024904046 0.51333946 0.113442145
000300 aa 05 b1 be bd 17 50 be a8 00 93 3c 7c c8 65 3d
       -0.34574634 -0.20321555 0.017944649 0.0560994
000310 dc ad 9e 3b 45 d1 7d 3d 35 93 db be 1a 4a 24 be
       0.004842503 0.061967153 -0.42885748 -0.16043893
000320 f3 da 01 3e 24 19 8e be 7f 16 37 bc 43 59 b2 be
       0.12681179 -0.27753556 -0.011174797 -0.34833726
000330 51 30 8f bd c6 34 e9 bd f1 a5 09 be aa e5 8f be
       -0.069916375 -0.11387019 -0.13442208 -0.28104907
000340 ae 0b 21 be e6 90 d3 bc 65 04 83 be 15 a3 1e be
       -0.15727112 -0.025825929 -0.2558929 -0.15491898
000350 2a 9b 8a bd 43 14 30 3e fe c7 02 3e 06 f6 16 be
       -0.067678764 0.17195229 0.12771603 -0.14742288
000360 70 80 91 be 88 d9 eb 3c c6 e7 15 be 44 38 05 3d
       -0.28418303 0.02879025 -0.14639196 0.032524362
000370 f2 94 39 be fc 82 91 3d bb b7 f7 bc 2c 6c b3 be
       -0.18123224 0.071050614 -0.030238977 -0.35043466
000380 d1 b0 44 be 23 c2 b4 3d 1b c8 72 bd 5e 1e 2f be
       -0.19208075 0.08826091 -0.059272867 -0.17101428
000390 7e 70 b3 3e 08 a3 e0 bd c8 bf 90 be 05 c8 8e 3d
       0.35046762 -0.10968596 -0.28271317 0.069717444
0003a0 e1 4c 16 bf 76 d9 50 bd 2a f0 94 be c8 55 90 bd
       -0.5871106 -0.050988637 -0.2908948 -0.070476115
0003b0 5f 5b b2 3d cb 39 83 3b 1b c8 cb bd 10 a3 bc 3d
       0.08708834 0.004004692 -0.099502765 0.09210789
0003c0 65 c2 9b 3e d9 c2 2f be cc 9c 82 bd 94 df 85 be
       0.3042175 -0.17164172 -0.06377563 -0.2614714
0003d0 85 9a 04 be 7a 52 d2 3d 51 da dd 3c 5e 40 1a be
       -0.1294957 0.102696374 0.02708164 -0.15063617
0003e0 a9 33 01 be ab 32 14 3d 87 b0 31 be ba 7c 9c be
       -0.12617363 0.036181133 -0.17352496 -0.3056391
0003f0 09 4e fa bc b8 f5 9b be 77 4a 87 3e ae 9d 9e bb
       -0.030554788 -0.30460906 0.26424 -0.004840574

fc3.bias f4 [30]
000000 53 69 a2 3f 14 7e d5 3e 72 a6 bc 3f 72 f5 20 3f
       1.2688392 0.41697752 1.4738295 0.6287452
000010 a7 9f 8e 3e 52 c9 9e bf 63 30 f7 bd 65 81 13 3d
       0.2785618 -1.2405188 -0.12069776 0.036012072
000020 cc 5a f0 3f 98 33 9b bf f9 d7 03 40 5e a8 a9 3f
       1.8777709 -1.212512 2.060057 1.3254507
000030 2d e7 93 bb 37 0d fb 3e 8b 4e 18 be bb b2 f8 3f
       -0.0045136423 0.4903352 -0.14873712 1.9429544
000040 2b 2e 52 bf 3e f6 e5 3d ef 1f ee bf 23 6e e2 be
       -0.82101697 0.112286076 -1.8603495 -0.44224653
000050 2f cd 9d be 71 6c 31 bf 09 37 13 bf 6d 91 97 be
       -0.30820605 -0.69306093 -0.5750585 -0.2960314
000060 2c 82 4e bf 28 84 8f bf 53 fb 72 bf 1e ed e6 be
       -0.80667377 -1.1212206 -0.9491474 -0.4510278
000070 e6 88 b7 bf 34 6c bf 3d
       -1.4338653 0.0934681

fc4.weight f4 [10, 30]
000000 d8 7b 5e 3a dd 4a 0a 3b b2 65 23 be 47 d8 36 3d
       0.0008487082 0.002110175 -0.15956762 0.044639852
000010 fa 05 2d bc cd f7 42 bd d6 d9 c9 3b d4 8a 2c 3d
       -0.010560507 -0.047599602 0.0061600013 0.042124584
000020 d5 04 ad bb 4a 2d d2 3b 3e 8d 61 3d d5 f1 d9 bd
       -0.005280117 0.0064140903 0.05506634 -0.10641829
000030 0e a3 db 3d 7d 34 24 3b cd 90 52 bb db 1c 89 be
       0.107244596 0.00250557 -0.0032129765 -0.26779827
000040 a3 39 b2 bb 45 8c 94 bd 5f d5 4f bc 42 82 d8 bd
       -0.0054389997 -0.07253317 -0.012685149 -0.1057172
000050 d9 3b 1a bd 0f 2d f5 bd 48 ba 1b bd 30 ab 19 bb
       -0.03765473 -0.11971485 -0.03801945 -0.0023447983
000060 2b 2d a6 bd 04 99 4a be a9 ad 20 be 0f 08 0e bd
       -0.08114084 -0.19784933 -0.15691246 -0.034675654
000070 fb 98 57 bc 48 6e 39 3d f9 ac 90 bd 2f e8 67 3d
       -0.013159032 0.045271188 -0.07064242 0.056617912
000080 51 8f b0 3d bc 8d 98 3d e8 30 76 be 52 ae 2f 3e
       0.086210854 0.07448909 -0.24042094 0.17156342
000090 3c 21 38 be ff 10 85 be 19 2c 6d 3e 56 fe 61 be
       -0.17981428 -0.2598953 0.23161353 -0.22069678
0000a0 a5 d7 db 3d fd 6f 97 be aa eb 1d 3e c5 75 26 3e
       0.1073449 -0.29577628 0.1542193 0.16255863
0000b0 76 64 cb be 47 dc e8 bd b2 40 4d 3d 5f a4 60 be
       -0.39725083 -0.113701396 0.050110526 -0.21937703
0000c0 e3 91 ae be ca 1d 05 3e 0c 7f 1b 3e 3a ba 46 3d
       -0.34095678 0.12999645 0.15185183 0.048517443
0000d0 00 a5 e6 bc 74 06 08 bd 17 5f 4e 3d 23 bd 03 bd
       -0.02815485 -0.03320928 0.050383653 -0.032162797
0000e0 d0 18 b7 3d 3c f8 26 3e 51 eb 05 bb c9 63 7e 3e
       0.089402795 0.16305631 -0.002043445 0.24842753
0000f0 fa b3 88 be b0 1c 69 be 34 cb 8b bd e9 85 f0 bd
       -0.2669981 -0.2276485 -0.06825867 -0.11744291
000100 04 0b 90 3d 10 2e 6d bd 48 24 d8 bd eb 12 bf 3c
       0.07033351 -0.057905257 -0.10553795 0.02332445
000110 67 5f 6c be 2f 65 f5 bb bc 56 c5 be 14 30 6c 3d
       -0.23083268 -0.0074888687 -0.38542736 0.05766304
000120 da 77 a9 3d 1e d1 3b bc de ba 6f bd 35 4d 2a ba
       0.08274813 -0.011463432 -0.05852782 -0.000649649
000130 55 ea 1b 3e e3 e0 7e be 64 c2 57 3e 53 e3 c5 bd
       0.1522611 -0.24890475 0.21070248 -0.09662499
000140 d4 04 5f 3d ce c7 26 3e ed 11 f9 bd a6 ac 5e be
       0.054447964 0.16287157 -0.12161622 -0.21745548
000150 8c ac 2a bc b5 0b 1b be 39 72 6f be bc a5 88 3e
       -0.010417115 -0.15141185 -0.23383416 0.26688945
000160 54 d8 05 bb 61 47 80 3d 49 f9 f6 bd bc 54 9f be
       -0.002042313 0.062636144 -0.12059266 -0.31119335
000170 59 15 f2 bd 99 d5 01 be be 6f 7c bd 0a d5 91 3d
       -0.11820478 -0.12679137 -0.061630003 0.07120712
000180 50 ad 24 be 42 2e e7 3c 1a 45 1e bd 19 04 7b 3d
       -0.16081738 0.0282203 -0.03864012 0.061283205
000190 2f f6 3c be 96 9a 31 3e 23 9d d1 bc 78 31 83 bd
       -0.18453287 0.17344126 -0.025587624 -0.0640592
0001a0 b2 bc 4b 3e b5 99 2d 3e b0 0c 48 3e d2 e6 91 bb
       0.198962 0.16953166 0.1953609 -0.0044525648
0001b0 35 c5 b0 3e 78 b3 86 3d e0 cd a9 bc 5e c6 3d bd
       0.34525457 0.065772 -0.020728052 -0.046331756
0001c0 b6 3a 85 3b ad bb 4b 3d 01 b8 1d 3d 13 6a e8 bd
       0.004065837 0.04973953 0.038505558 -0.11348357
0001d0 26 81 43 be 97 70 1e 3e 47 d2 18 3e 7b 05 2c 3e
       -0.19092235 0.15472637 0.14923964 0.16798966
0001e0 c2 73 8d be 73 73 7b 3d 40 59 24 3e 18 02 f4 bd
       -0.2762738 0.061389398 0.16049671 -0.11914462
0001f0 94 6f 1b bf c8 5f ed 3c 4b f0 e9 bd b4 c9 d8 bd
       -0.6071713 0.028976336 -0.11422785 -0.10585347
000200 30 88 41 be 69 e1 ac bd 9c 15 f7 3d 92 99 28 3e
       -0.18899608 -0.08441431 0.120646685 0.16464832
000210 6f bc 01 b9 5a 63 7e bd ad 1c 15 3e ca eb 42 be
       -0.00012372596 -0.062106468 0.1456172 -0.19035259
000220 e7 f9 7f 3c 19 12 c9 ba 7e ef 10 3c da 1b 40 bd
       0.015623546 -0.0015340477 0.008846162 -0.04690156
000230 8d 94 1b be cf 6d ba bd 08 2f 39 be bd db b0 bd
       -0.15193386 -0.091029756 -0.18084347 -0.08635662
000240 26 2e 34 be 57 b3 a4 be 0a ad 0a bd f0 90 ea bd
       -0.17595729 -0.32168075 -0.03385643 -0.11453426
000250 ae ba d0 bc 36 03 81 be 58 dd 60 be 9c 3a 5f 3d
       -0.02547964 -0.25197762 -0.21959436 0.054499254
000260 6a 62 3a be 08 7b 80 3d b9 82 dc 3c 2f 91 b7 bc
       -0.18201604 0.06273466 0.026917802 -0.022408096
000270 bd 4a 0e be 85 d5 85 b9 ba 43 7d bd 77 ce aa 3c
       -0.13895698 -0.0002552682 -0.061832167 0.020850403
000280 52 f6 c1 bc 85 88 06 be aa 62 45 3d 5d d7 f6 3b
       -0.023677025 -0.13138016 0.048189797 0.0075329975
000290 a4 91 8b bd 61 21 ac 3c f0 86 ca bd ff 8d 09 be
       -0.06814888 0.02101201 -0.098890185 -0.13433073
0002a0 d2 ee 7b bc e3 5b 26 be 41 9e f9 bd a6 eb eb bd
       -0.015376763 -0.1624599 -0.12188388 -0.11519556
0002b0 2c 4e 0f 3d 8e fc f3 bb d4 26 66 be d6 57 02 be
       0.03498666 -0.0074458783 -0.22475749 -0.12728819
0002c0 28 d1 9f bd 78 e5 2d be 26 f8 a3 be 61 34 47 be
       -0.07803565 -0.16982067 -0.3202526 -0.19453575
0002d0 72 65 81 3e 50 cc 78 be 67 3f 24 3d 79 45 8a be
       0.2527271 -0.24296689 0.040099528 -0.27006128
0002e0 a6 86 ed bc 08 c0 0f be 32 34 9e 3d 13 ee 99 3d
       -0.02899487 -0.14038098 0.07724799 0.07516112
0002f0 dd e5 96 3e 02 72 45 3b 43 0d 08 3e c5 ae e1 3e
       0.29472247 0.0030127768 0.13286309 0.4407865
000300 ff 40 66 bd 2f 99 cf be cf eb a7 bd 03 2b c2 3e
       -0.05621433 -0.40546557 -0.08199274 0.3792344
000310 3c 75 76 3d 67 2a 44 3e 06 5d 9d 3e c8 4b 7a be
       0.060170397 0.191568 0.30735034 -0.24442971
000320 03 86 fc be f9 82 0d 3d 42 de 63 3e be 6a fc 3d
       -0.49320993 0.034548733 0.22252753 0.12325047
000330 ec 3d 80 3d b5 53 c0 be 24 5f 82 be 59 e5 57 3e
       0.06261811 -0.37563863 -0.25463212 0.21083583
000340 61 a8 88 be fc 34 08 3d 73 e3 e9 bd 7a c8 2e 3e
       -0.26690963 0.033253655 -0.114203356 0.17068663
000350 bc 57 0d 3e 9a 82 8f bc c2 f2 ab 3d 98 56 9a 3d
       0.13803 -0.01751833 0.08395912 0.07536048
000360 f5 2d d2 bd fe cb 29 bb ac 0d c6 bc b1 fa 88 be
       -0.10262672 -0.0025908942 -0.024176441 -0.26753762
000370 fe 50 df bc e3 d4 7a bd e4 88 59 3e e9 48 9c bd
       -0.0272603 -0.06123818 0.21243626 -0.07631094
000380 43 23 06 3d f1 07 65 be fb 90 6a 3c 32 84 38 3e
       0.032748472 -0.2236631 0.014316793 0.18019179
000390 fe da d6 3d 78 f4 dd bd 7b b5 d4 bd ec 87 cc bd
       0.10490988 -0.10837644 -0.10386177 -0.099868625
0003a0 31 18 01 3e 73 26 98 bd c7 60 62 bd 95 82 4a be
       0.12606885 -0.074292086 -0.055268075 -0.19776376
0003b0 17 6c e6 bd ca cf 82 3d 22 30 bc be 1f 61 fb bd
       -0.11251085 0.06387289 -0.36755472 -0.12274384
0003c0 5d ed 0d 3e 76 d5 9c be 21 90 65 3e ea 57 b6 be
       0.13860078 -0.30631608 0.22418262 -0.35613948
0003d0 62 3a d8 3e 6a 63 4d be 59 07 80 be ee 29 6e 3e
       0.42232043 -0.20057455 -0.25005606 0.23258182
0003e0 9f c1 cd bd 36 37 b4 ba cf c3 1e bd 6c 5c b8 3e
       -0.10046696 -0.0013749364 -0.038760956 0.36008012
0003f0 b7 d8 51 be 61 61 51 bd 9f cf 20 3d 6d f5 94 3e
       -0.20492826 -0.05111826 0.039260503 0.29093495

fc4.bias f4 [10]
000000 79 bb 0f 40 c3 cd c2 3f ca 38 76 bf f8 b1 ad bf
       2.2458174 1.5219043 -0.96180403 -1.3569937
000010 04 53 b1 3f c4 de 88 be 86 d1 d1 be 3a bf a1 3f
       1.3853459 -0.26732457 -0.40980166 1.2636483
000020 28 90 b4 be 8d 64 b5 3e
       -0.35266232 0.35428277

fc5.weight f4 [1, 10]
000000 0b a2 ff 3e 1f 58 1a 3e 4d fb 70 be db 63 d3 bd
       0.49928316 0.15072678 -0.23533364 -0.1032178
000010 d7 23 fe 3e b5 55 17 ba 9e 57 3e be 39 62 89 3e
       0.4963672 -0.0005772964 -0.18588111 0.2683275
000020 ce 26 ad bd 57 49 10 be
       -0.08454667 -0.14090477

exp_avg f4 [30, 30]
000000 15 de e6 3a ee 51 14 37 63 a0 f0 3d 7c 48 f9 38
       0.0017613793 8.840563e-06 0.11749341 0.000118867465
000010 ba 86 be 3a 7c 39 0b 39 ef a4 25 39 56 5b 1a 39
       0.0014536001 0.00013277488 0.00015797069 0.0001472061
000020 f7 4e 9a 38 bd 0c 39 3b 9c 53 ca 38 d3 12 9d b7
       7.3580006e-05 0.0028236352 9.647684e-05 -1.8724624e-05
000030 92 56 26 39 18 db 9c 38 dd 21 88 38 ab a3 ac 3d
       0.00015863244 7.479469e-05 6.491293e-05 0.08429655
000040 bb 0b de 3e 06 71 d0 33 41 1c b7 38 48 67 8b 3a
       0.43368325 9.7063136e-08 8.731383e-05 0.0010635639
000050 9b b1 c6 32 f9 14 14 39 9f 62 2a 39 27 27 7d b7
       2.3131e-08 0.00014122193 0.00016249203 -1.5089091e-05
000060 d5 c6 62 39 e4 35 04 39 ab 31 51 b8 50 7d 83 b7
       0.0002162711 0.00012608577 -4.987574e-05 -1.567477e-05
000070 1e 5e c2 b7 22 fd e4 b8 89 06 c5 3b 37 cf bc 37
       -2.3170429e-05 -0.00010919037 0.006012742 2.2507838e-05
000080 3f 0a 7c 3f 3f 92 1a 39 ad 6f ff 3a 13 30 c6 39
       0.98453134 0.00014741065 0.0019488238 0.0003780132
000090 aa 2b a8 38 8c 08 81 39 02 ff 8a 37 83 55 21 3c
       8.018997e-05 0.00024611165 1.656963e-05 0.009847048
0000a0 cc 2e 92 39 a9 bc a4 39 17 27 94 3a 34 64 c1 38
       0.00027882156 0.0003142108 0.0011303154 9.2216214e-05
0000b0 d8 7e 25 39 02 8e 92 3f 57 a1 c8 3f e9 0f 1c 3a
       0.00015782879 1.1449587 1.5674237 0.00059532985
0000c0 a8 9a 84 38 5c bc 69 3b a8 66 5e 39 e6 28 ac 39
       6.3230575e-05 0.003566525 0.00021209812 0.00032836868
0000d0 39 dd db 39 aa 51 0b 3b 83 3b 76 39 33 98 ae 39
       0.0004193576 0.0021258392 0.00023482558 0.00033301263
0000e0 17 4e 92 3a 0f f8 81 3a 3c 85 3f b9 44 73 72 3a
       0.0011162189 0.0009915846 -0.00018264813 0.00092487433
0000f0 00 00 00 00 00 00 00 00 00 00 00 00 00 00 00 00
       0.0 0.0 0.0 0.0
000100 00 00 00 00 00 00 00 00 00 00 00 00 00 00 00 00
       0.0 0.0 0.0 0.0
000110 00 00 00 00 00 00 00 00 00 00 00 00 00 00 00 00
       0.0 0.0 0.0 0.0
000120 00 00 00 00 00 00 00 00 00 00 00 00 00 00 00 00
       0.0 0.0 0.0 0.0
000130 00 00 00 00 00 00 00 00 00 00 00 00 00 00 00 00
       0.0 0.0 0.0 0.0
000140 00 00 00 00 00 00 00 00 00 00 00 00 00 00 00 00
       0.0 0.0 0.0 0.0
000150 00 00 00 00 00 00 00 00 00 00 00 00 00 00 00 00
       0.0 0.0 0.0 0.0
000160 00 00 00 00 00 00 00 00 04 00 00 00 00 00 00 00
       0.0 0.0 6e-45 0.0
000170 04 00 00 00 04 00 00 00 04 00 00 00 04 00 00 00
       6e-45 6e-45 6e-45 6e-45
000180 04 00 00 00 04 00 00 00 04 00 00 00 04 00 00 00
       6e-45 6e-45 6e-45 6e-45
000190 04 00 00 00 00 00 00 00 04 00 00 00 04 00 00 00
       6e-45 0.0 6e-45 6e-45
0001a0 04 00 00 00 04 00 00 00 04 00 00 00 04 00 00 00
       6e-45 6e-45 6e-45 6e-45
0001b0 04 00 00 00 04 00 00 00 00 00 00 00 04 00 00 00
       6e-45 6e-45 0.0 6e-45
0001c0 00 00 00 00 04 00 00 00 04 00 00 00 04 00 00 00
       0.0 6e-45 6e-45 6e-45
0001d0 00 00 00 00 00 00 00 00 00 00 00 00 00 00 00 00
       0.0 0.0 0.0 0.0
0001e0 00 00 00 00 00 00 00 00 00 00 00 00 00 00 00 00
       0.0 0.0 0.0 0.0
0001f0 00 00 00 00 00 00 00 00 00 00 00 00 00 00 00 00
       0.0 0.0 0.0 0.0
000200 00 00 00 00 00 00 00 00 00 00 00 00 00 00 00 00
       0.0 0.0 0.0 0.0
000210 00 00 00 00 00 00 00 00 00 00 00 00 00 00 00 00
       0.0 0.0 0.0 0.0
000220 00 00 00 00 00 00 00 00 00 00 00 00 00 00 00 00
       0.0 0.0 0.0 0.0
000230 00 00 00 00 00 00 00 00 00 00 00 00 00 00 00 00
       0.0 0.0 0.0 0.0
000240 00 00 00 00 00 00 00 00 00 00 00 00 00 00 00 00
       0.0 0.0 0.0 0.0
000250 00 00 00 00 00 00 00 00 00 00 00 00 00 00 00 00
       0.0 0.0 0.0 0.0
000260 00 00 00 00 00 00 00 00 00 00 00 00 00 00 00 00
       0.0 0.0 0.0 0.0
000270 00 00 00 00 00 00 00 00 00 00 00 00 00 00 00 00
       0.0 0.0 0.0 0.0
000280 00 00 00 00 00 00 00 00 00 00 00 00 00 00 00 00
       0.0 0.0 0.0 0.0
000290 00 00 00 00 00 00 00 00 00 00 00 00 00 00 00 00
       0.0 0.0 0.0 0.0
0002a0 00 00 00 00 00 00 00 00 00 00 00 00 00 00 00 00
       0.0 0.0 0.0 0.0
0002b0 00 00 00 00 00 00 00 00 00 00 00 00 00 00 00 00
       0.0 0.0 0.0 0.0
0002c0 00 00 00 00 00 00 00 00 00 00 00 00 00 00 00 00
       0.0 0.0 0.0 0.0
0002d0 21 be 28 3b 4e 62 a6 37 d3 37 e2 3e 49 dc d3 38
       0.0025748091 1.9834519e-05 0.44183215 0.00010102295
0002e0 07 75 8f 3a bc 66 11 39 4a 43 10 39 c8 52 ef 38
       0.0010944911 0.00013866549 0.00013757977 0.00011411827
0002f0 3b fd 2f 38 0d 89 cc 3b 33 e9 7c 38 a7 39 95 36
       4.195909e-05 0.0062419237 6.0298666e-05 4.4472577e-06
000300 2f 42 09 3a 76 f1 0d 39 3d f3 e2 37 1c d5 3f 3e
       0.00052359974 0.00013536759 2.7054566e-05 0.18733639
000310 df 77 cd 3f 56 79 18 39 45 9a 9b 36 7c 72 a4 3a
       1.6052207 0.00014541051 4.6373193e-06 0.0012546326
000320 f9 0a 89 37 b1 c7 fa 38 54 dd ca 38 c0 b4 ab 39
       1.6336782e-05 0.000119581244 9.673336e-05 0.0003275033
000330 b0 5d 0f 39 15 5d 88 38 0b bc 4d 39 9d 00 27 39
       0.00013672444 6.502323e-05 0.00019620375 0.0001592659
000340 80 9e c6 38 77 8a cd 38 23 4d f7 38 dd 6e bc b8
       9.470899e-05 9.800953e-05 0.00011792246 -8.9851885e-05
000350 94 df b0 bd 60 64 ed b8 56 9b 67 b9 5e 25 2c b7
       -0.08636394 -0.00011319737 -0.00022087744 -1.0260699e-05
000360 84 89 2d b9 47 46 40 b9 c1 8e 1f 38 0e 5e a1 ba
       -0.00016549794 -0.00018336727 3.8041504e-05 -0.0012311356
000370 6d ea d3 38 54 f3 4d 38 ea 9b 11 39 d8 4d 67 b8
       0.00010104929 4.9102426e-05 0.0001388636 -5.514719e-05
000380 aa 7d 52 b7 29 c1 b9 3e 19 75 64 be fe 92 08 39
       -1.2546234e-05 0.36280182 -0.22310294 0.0001302473
000390 e0 ed 64 38 f2 f2 a2 37 63 d1 38 b7 b1 8c 31 37
       5.4580974e-05 1.9425035e-05 -1.1016006e-05 1.0582779e-05
0003a0 fe 69 8e b7 a9 41 1c 3a 19 20 9f b8 34 b7 13 b7
       -1.6977076e-05 0.0005960712 -7.5876895e-05 -8.804538e-06
0003b0 d7 d2 24 3a 9a a3 e4 39 34 25 5e 39 7f 7a 37 39
       0.0006287521 0.00043609441 0.00021185429 0.00017497873
0003c0 ac 25 69 3a 5a c1 5f 35 f0 6f d7 3c 91 67 54 38
       0.0008893858 8.335534e-07 0.026298493 5.0641193e-05
0003d0 ae 42 e4 39 79 7a 26 38 5e 75 43 38 e9 3c c7 37
       0.0004353723 3.9691546e-05 4.660093e-05 2.3751012e-05
0003e0 eb f1 86 37 e8 1c cf 3a 56 b4 8f 38 42 17 55 b5
       1.6086697e-05 0.0015801461 6.8523615e-05 -7.938253e-07
0003f0 11 78 d5 38 a3 c6 82 b7 8a 8e b3 37 75 7a 89 3d
       0.000101789956 -1.5589705e-05 2.1404838e-05 0.0671281

exp_avg_sq f4 [30, 30]
000000 29 9b 76 38 fc 79 f1 32 cc c4 e0 3e 52 57 20 34
       5.8795475e-05 2.8111565e-08 0.43900144 1.4932928e-07
000010 f7 8b 46 37 ab 39 6e 34 d9 4e af 34 82 62 51 34
       1.1834308e-05 2.2186457e-07 3.265366e-07 1.9500479e-07
000020 06 87 0f 33 6b b1 4b 39 64 3b 1a 34 26 f5 04 33
       3.3417585e-08 0.00019425682 1.4363974e-07 3.0956606e-08
000030 da 3a 8b 35 2c d2 20 34 93 ef a1 33 68 b3 81 3f
       1.0373435e-06 1.4977621e-07 7.540725e-08 1.0132875
000040 10 58 03 41 c6 01 1a 35 96 2f c3 32 9c f4 33 37
       8.209 5.737205e-07 2.2722627e-08 1.0726184e-05
000050 19 d1 7e 31 85 8c 5b 34 19 2a 17 34 22 f5 87 36
       3.7080723e-09 2.0447085e-07 1.4078286e-07 4.0518507e-06
000060 27 91 ce 34 84 01 31 34 05 16 09 36 9d 2d 40 35
       3.8476102e-07 1.6484961e-07 2.0427408e-06 7.159195e-07
000070 37 a6 9c 34 bb 85 20 35 ae 8b bd 39 4e 82 e0 33
       2.9178202e-07 5.979925e-07 0.0003615296 1.0454515e-07
000080 67 15 84 40 f4 fc 2e 35 46 67 1c 38 82 f4 83 35
       4.1276126 6.5188146e-07 3.728948e-05 9.831422e-07
000090 b5 86 e4 35 91 c1 75 35 67 8b 0b 34 3e fb 88 3a
       1.7026529e-06 9.155129e-07 1.2996098e-07 0.0010450853
0000a0 49 ee 53 35 20 a7 8d 34 2c df fc 36 3b ad 66 35
       7.8950376e-07 2.6384896e-07 7.536166e-06 8.593376e-07
0000b0 8b 24 c9 34 57 61 c0 40 d8 b5 28 42 4a 41 8d 36
       3.7465756e-07 6.0118823 42.17758 4.209728e-06
0000c0 74 1a ab 33 8c 8e 91 38 1a 25 89 33 84 90 85 35
       7.96762e-08 6.94069e-05 6.3863084e-08 9.951332e-07
0000d0 a2 16 49 35 fb c2 e0 37 6e bf 00 36 cd 6d 7a 35
       7.491127e-07 2.6793676e-05 1.9184913e-06 9.329204e-07
0000e0 f9 8f 2b 37 7a cd cf 36 61 ea c6 35 d9 d3 cb 36
       1.02259155e-05 6.1930014e-06 1.4820363e-06 6.0745338e-06
0000f0 00 00 00 00 00 00 00 00 00 00 00 00 00 00 00 00
       0.0 0.0 0.0 0.0
000100 00 00 00 00 00 00 00 00 00 00 00 00 00 00 00 00
       0.0 0.0 0.0 0.0
000110 00 00 00 00 00 00 00 00 00 00 00 00 00 00 00 00
       0.0 0.0 0.0 0.0
000120 00 00 00 00 00 00 00 00 00 00 00 00 00 00 00 00
       0.0 0.0 0.0 0.0
000130 00 00 00 00 00 00 00 00 00 00 00 00 00 00 00 00
       0.0 0.0 0.0 0.0
000140 00 00 00 00 00 00 00 00 00 00 00 00 00 00 00 00
       0.0 0.0 0.0 0.0
000150 00 00 00 00 00 00 00 00 00 00 00 00 00 00 00 00
       0.0 0.0 0.0 0.0
000160 00 00 00 00 00 00 00 00 88 a7 0f 1e 00 00 00 00
       0.0 0.0 7.605002e-21 0.0
000170 30 b1 70 25 cd bd cb 19 bb 35 65 1a cd bd cb 18
       2.0876715e-16 2.1066368e-23 4.7399493e-23 5.266592e-24
000180 cd bd cb 1a bb 35 65 1a cd bd cb 18 e7 81 52 1f
       8.426547e-23 4.7399493e-23 5.266592e-24 4.4576682e-20
000190 cd bd cb 18 00 00 00 00 cd bd cb 19 cd bd cb 19
       5.266592e-24 0.0 2.1066368e-23 2.1066368e-23
0001a0 cd bd cb 19 5e 2f d4 23 f0 6e 0b 24 bb 35 65 1b
       2.1066368e-23 2.3005147e-17 3.0234788e-17 1.8959797e-22
0001b0 cd bd cb 18 4a 12 b3 1c 00 00 00 00 cd bd cb 18
       5.266592e-24 1.1849954e-21 0.0 5.266592e-24
0001c0 00 00 00 00 ae fd 9b 1b bb 35 65 1a cd bd cb 19
       0.0 2.5806536e-22 4.7399493e-23 2.1066368e-23
0001d0 00 00 00 00 00 00 00 00 00 00 00 00 00 00 00 00
       0.0 0.0 0.0 0.0
0001e0 00 00 00 00 00 00 00 00 00 00 00 00 00 00 00 00
       0.0 0.0 0.0 0.0
0001f0 00 00 00 00 00 00 00 00 00 00 00 00 00 00 00 00
       0.0 0.0 0.0 0.0
000200 00 00 00 00 00 00 00 00 00 00 00 00 00 00 00 00
       0.0 0.0 0.0 0.0
000210 00 00 00 00 00 00 00 00 00 00 00 00 00 00 00 00
       0.0 0.0 0.0 0.0
000220 00 00 00 00 00 00 00 00 00 00 00 00 00 00 00 00
       0.0 0.0 0.0 0.0
000230 00 00 00 00 00 00 00 00 00 00 00 00 00 00 00 00
       0.0 0.0 0.0 0.0
000240 00 00 00 00 00 00 00 00 00 00 00 00 00 00 00 00
       0.0 0.0 0.0 0.0
000250 00 00 00 00 00 00 00 00 00 00 00 00 00 00 00 00
       0.0 0.0 0.0 0.0
000260 00 00 00 00 00 00 00 00 00 00 00 00 00 00 00 00
       0.0 0.0 0.0 0.0
000270 00 00 00 00 00 00 00 00 00 00 00 00 00 00 00 00
       0.0 0.0 0.0 0.0
000280 00 00 00 00 00 00 00 00 00 00 00 00 00 00 00 00
       0.0 0.0 0.0 0.0
000290 00 00 00 00 00 00 00 00 00 00 00 00 00 00 00 00
       0.0 0.0 0.0 0.0
0002a0 00 00 00 00 00 00 00 00 00 00 00 00 00 00 00 00
       0.0 0.0 0.0 0.0
0002b0 00 00 00 00 00 00 00 00 00 00 00 00 00 00 00 00
       0.0 0.0 0.0 0.0
0002c0 00 00 00 00 00 00 00 00 00 00 00 00 00 00 00 00
       0.0 0.0 0.0 0.0
0002d0 48 ba d8 38 87 0b e8 33 85 af 0b 40 ee 36 9b 34
       0.0001033438 1.0805439e-07 2.1825879 2.8910966e-07
0002e0 6d ca 3e 37 56 43 c9 34 2e 95 5c 35 f0 04 e2 34
       1.1372013e-05 3.748816e-07 8.217347e-07 4.2099373e-07
0002f0 d9 6c 8c 33 9e d4 df 39 8c df a8 34 e3 2d 48 32
       6.539057e-08 0.00042692287 3.145509e-07 1.1651966e-08
000300 b1 f6 0b 36 bc a2 ae 34 2f 3f 23 34 f0 87 36 3f
       2.0856207e-06 3.252843e-07 1.5203544e-07 0.71301174
000310 bb 2a 0d 41 7d b1 36 35 cf 37 fa 32 a0 e5 97 37
       8.822932 6.8058563e-07 2.912921e-08 1.810753e-05
000320 5f 40 0b 32 b4 13 d4 34 9c a2 ab 33 e3 f1 a1 36
       8.105501e-09 3.9502413e-07 7.9923865e-08 4.826333e-06
000330 6d eb 9d 35 70 d5 8c 34 54 e5 d0 35 4d 72 43 35
       1.176593e-06 2.6232328e-07 1.5563951e-06 7.280949e-07
000340 ca c8 cb 34 3a 84 3f 35 d8 fb 59 39 b6 3b 36 34
       3.795779e-07 7.134546e-07 0.00020788552 1.6971794e-07
000350 ec 16 29 40 71 2a ff 34 01 42 0f 38 f1 2a 73 35
       2.642024 4.7528331e-07 3.4155328e-05 9.058704e-07
000360 cc 98 80 35 2a bb 17 35 0f 9d af 33 af a9 28 3a
       9.581213e-07 5.6524243e-07 8.177641e-08 0.0006433976
000370 9d 6b 2b 35 cf 36 2a 34 56 31 74 36 97 c0 e4 34
       6.385906e-07 1.5852423e-07 3.638755e-06 4.2608437e-07
000380 00 88 aa 34 9f 8a 90 40 1a bc 7c 41 9e df 13 36
       3.176392e-07 4.5169215 15.795923 2.203487e-06
000390 44 59 28 33 9c 27 10 38 4a a9 93 32 b4 01 36 35
       3.9196735e-08 3.4369164e-05 1.7190036e-08 6.780276e-07
0003a0 05 e7 0c 34 84 43 a9 37 3c cd 91 35 cb 33 0f 35
       1.312256e-07 2.017781e-05 1.0863073e-06 5.334702e-07
0003b0 ef f0 4e 37 7e 30 a8 36 85 2f a9 36 f0 29 c9 36
       1.2334654e-05 5.0124354e-06 5.0421245e-06 5.995149e-06
0003c0 d2 a2 80 36 d9 12 f0 30 12 70 74 3b 8d 01 09 32
       3.833652e-06 1.7467655e-09 0.0037298244 7.974802e-09
0003d0 24 88 83 35 9f 7c 72 32 40 5c d8 32 d2 ae 37 32
       9.799883e-07 1.41145895e-08 2.518766e-08 1.06917515e-08
0003e0 5c 13 a8 30 de 49 61 37 eb b4 47 32 64 7d 7c 31
       1.2229111e-09 1.3428244e-05 1.16244605e-08 3.6742103e-09
0003f0 36 38 f6 33 9c 96 79 32 5c 3f 04 32 86 54 b6 3d
       1.14654924e-07 1.4527952e-08 7.6978175e-09 0.0890284

exp_avg f4 [30]
000000 f8 f4 7e 38 0c 4b 1a 39 00 00 00 00 04 00 00 00
       6.0786464e-05 0.00014714542 0.0 6e-45
000010 00 00 00 00 00 00 00 00 71 d1 88 38 1a cc b6 b7
       0.0 0.0 6.523997e-05 -2.1791133e-05
000020 df b2 b9 37 97 a5 ae b7 3d 4c 40 b7 04 00 00 00
       2.2137012e-05 -2.0819525e-05 -1.1461842e-05 6e-45
000030 04 00 00 00 04 00 00 00 cd 09 c1 b7 00 00 00 00
       6e-45 6e-45 -2.3011957e-05 0.0
000040 04 00 00 00 6c 11 09 39 3d 7d 67 38 33 cb 8f b3
       6e-45 0.00013071828 5.519133e-05 -6.695918e-08
000050 04 00 00 00 bd a4 2e b5 bd d3 90 b8 45 39 0c 38
       6e-45 -6.5059777e-07 -6.9058944e-05 3.3431937e-05
000060 61 af f2 b7 b3 dc 75 39 00 00 00 00 ec 84 72 03
       -2.8930315e-05 0.00023447238 0.0 7.1269995e-37
000070 22 da 67 b8 1b 89 d2 38
       -5.5277844e-05 0.00010039118

exp_avg_sq f4 [30]
000000 d8 ab 40 33 27 f4 86 34 00 00 00 00 cd bd cb 18
       4.4859775e-08 2.513709e-07 0.0 5.266592e-24
000010 00 00 00 00 00 00 00 00 e9 0c bd 33 51 e2 1e 34
       0.0 0.0 8.803347e-08 1.479723e-07
000020 cd 13 66 31 a5 15 17 33 3a 1e 3a 31 fb 1b 8f 2b
       3.348066e-09 3.5177113e-08 2.7083744e-09 1.0168527e-12
000030 19 13 5c 1b 1f ba 63 18 1b 38 f1 31 00 00 00 00
       1.8204144e-22 2.943303e-24 7.0204016e-09 0.0
000040 34 9e 33 1e 74 98 2d 34 ac 47 a5 32 82 9f 8c 2f
       9.508897e-21 1.6167343e-07 1.924112e-08 2.557919e-10
000050 aa 50 2e 2b c8 b1 49 33 ec 89 86 33 90 79 7a 33
       6.192916e-13 4.696065e-08 6.264949e-08 5.831822e-08
000060 21 dc ec 33 3c d0 a0 37 00 00 00 00 48 ee 06 32
       1.10296476e-07 1.9170453e-05 0.0 7.8540054e-09
000070 17 f2 b4 33 15 29 a8 35
       8.425939e-08 1.2528932e-06
