ch-04/lightning_logs/version_13/checkpoints/epoch=799-step=28000.ckpt (torch, 48264 bytes, 27 tensors)

fc1.weight f4 [30, 30]
0	0x3f0b07a9	0.54308563
1	0xc01d9b2f	-2.4625967
2	0xbd8f39d7	-0.06993454
3	0xbe3a1a4a	-0.18174091
4	0xbd3d79a2	-0.046258576
5	0x3e01fd6f	0.12694333
6	0x3fbbb828	1.4665575
7	0x40568200	3.3516846
8	0xbe040734	-0.12893373
9	0xbf16d619	-0.5892044
10	0x4002d505	2.0442517
11	0x3fbbcee3	1.4672512
12	0x3ee0a2ba	0.4387415
13	0x3f917f74	1.1367021
14	0xbf89a564	-1.0753598
15	0xbd95faf5	-0.07323257
16	0x3d8b5973	0.068041705
17	0xbf4fcce6	-0.81172025
18	0xc09926b6	-4.7859755
19	0x3d85ae32	0.06527366
20	0xbfe4644e	-1.784311
21	0x3f3174bf	0.69318765
22	0x4038cc5c	2.887473
23	0x3f076a3a	0.52896464
24	0x3ec5a11b	0.38599476
25	0x3f24f624	0.6443808
26	0x3f45125c	0.7698114
27	0x3f841aa7	1.0320634
28	0x3fc0cc79	1.50624
29	0x3fd9c5bf	1.7013472
30	0x3f43a7e5	0.7642806
31	0xc00a0a59	-2.1568816
32	0x3e08b42d	0.13349982
33	0xbe0f56fa	-0.13998023
34	0x3f571512	0.84016526
35	0xbf30ccf6	-0.69062746
36	0xbe7fc025	-0.24975641
37	0x3e392c06	0.180832
38	0x4031ad85	2.7762158
39	0xbf0dccbe	-0.55390537
40	0x3ef1a2ad	0.47194424
41	0x3f771dc7	0.9652981
42	0xbf5af0df	-0.8552379
43	0x3f908eab	1.1293539
44	0xc0505c11	-3.2556193
45	0xbdefe8ae	-0.11714302
46	0xbb12e127	-0.0022412033
47	0xbfddb789	-1.7321635
48	0xc031580f	-2.7709997
49	0xbf351e28	-0.7074914
50	0xc02b9d1a	-2.6814637
51	0x400c61e1	2.193474
52	0x4049168b	3.142001
53	0x3f692158	0.91066504
54	0x406c473d	3.691848
55	0x400faa34	2.2447634
56	0xbf057fe9	-0.521483
57	0xbf22cfbe	-0.6359824
58	0xbe9ca2b2	-0.30592877
59	0xbf42d89b	-0.76111764
60	0x3c3c57d5	0.01149555
61	0xbdff35bd	-0.12461422
62	0x3d6697cd	0.056297112
63	0xbd80c4c6	-0.062875316
64	0x3d652539	0.0559437
65	0xbd1bcd80	-0.038037777
66	0x3e1b0f4c	0.15142554
67	0xbddd9e4a	-0.10821207
68	0xbddf0015	-0.108886875
69	0xbddf0387	-0.10889345
70	0x3e2827fc	0.16421503
71	0x3d793690	0.06084305
72	0x3e33e605	0.17568214
73	0xbe1a4a52	-0.15067413
74	0xbe396fe9	-0.18109097
75	0xbe124480	-0.14283943
76	0xbdfb86c7	-0.12281566
77	0x3d977308	0.07394987
78	0x3d85e38b	0.06537541
79	0x3e1b58a5	0.15170534
80	0xbdc118fd	-0.09428594
81	0xbdfee672	-0.12446298
82	0x3dc663b6	0.09686987
83	0xbd97230a	-0.0737973
84	0x3de2efa1	0.11080862
85	0xbd317586	-0.04332497
86	0x3dd5e511	0.104440816
87	0xbe114241	-0.1418543
88	0xbdbcb1cf	-0.09213602
89	0x3d63fe6f	0.05566257
90	0x3d066a23	0.032816064
91	0xbd3eaa0b	-0.046548884
92	0x3dd30966	0.10304527
93	0x3df25a3a	0.118336156
94	0xbe0d7e8e	-0.13817808
95	0xbdd373a0	-0.10324788
96	0x3e2544f2	0.16139582
97	0xbd8a01ff	-0.06738662
98	0xbd9063cf	-0.07050287
99	0xbe3ad15c	-0.18243927
100	0xbde1f5cf	-0.110332124
101	0x3d3acf24	0.0456077
102	0xbcf4c2c7	-0.029878033
103	0xbe0da079	-0.13830747
104	0xbac43380	-0.0014968961
105	0xbe05a05e	-0.13049456
106	0xbe248878	-0.16067684
107	0xbdd9bd11	-0.10631765
108	0xbe298abf	-0.16556834
109	0xbdf9ec91	-0.122033246
110	0x3e3ae202	0.18250278
111	0x3ceb2991	0.028706344
112	0x3d6672fe	0.05626201
113	0xbe344a65	-0.17606504
114	0xbe00b4e5	-0.12569006
115	0xbd884b8a	-0.06655033
116	0x3ce9e048	0.028549328
117	0xbe2481ac	-0.16065091
118	0xbda11bcb	-0.07866629
119	0xbddfd96d	-0.109301426
120	0x3a04a26b	0.00050596026
121	0xbd8b2243	-0.06793644
122	0xbc4f48bb	-0.012651618
123	0xbdfd5fb3	-0.12371769
124	0xbe00535f	-0.12531804
125	0xbdda2411	-0.1065141
126	0xbd7ffa6a	-0.062494673
127	0xbe138f8f	-0.14410232
128	0x3e1cc1c7	0.15308295
129	0xbd146a88	-0.03623441
130	0x3e20db37	0.15708624
131	0x3d69022e	0.056886844
132	0xbe1e5052	-0.15460327
133	0x3e01614f	0.12634777
134	0xbd4dc286	-0.05023434
135	0xbd8f5487	-0.06998544
136	0xbe1b2fc7	-0.15154944
137	0xbe39dd40	-0.18150806
138	0x3d55f5da	0.052236415
139	0xbd235b88	-0.039882213
140	0x3d919293	0.07108035
141	0xbe196d8d	-0.14983197
142	0x3e0acd33	0.1355484
143	0xbe093c58	-0.13401926
144	0xbd012116	-0.031525694
145	0x3d1c329f	0.038134214
146	0x3dc1085f	0.09425425
147	0x3e16ee76	0.14739403
148	0x3e2a4f2c	0.16631764
149	0xbe143dd4	-0.1447671
150	0x3d3c33e9	0.045947943
151	0xbda0d448	-0.078529894
152	0xbca3e678	-0.020007357
153	0xbe0bef48	-0.13665497
154	0x3e2a4a5b	0.16629927
155	0xbe093767	-0.1340004
156	0x3dc7d673	0.097577
157	0x3d83684f	0.0641638
158	0x3d730282	0.059328564
159	0xbdca2770	-0.09870803
160	0x3e29ef15	0.16595109
161	0x3d2455a8	0.04012075
162	0x3cc06674	0.023486353
163	0xbe24c17f	-0.16089438
164	0x3d9cf6c3	0.076642536
165	0xbce060c2	-0.027389888
166	0xbdab4c52	-0.08364166
167	0x3e2095ce	0.15682146
168	0x3d26b9f7	0.040704694
169	0xbdcee06c	-0.10101399
170	0xbdbd405a	-0.0924079
171	0xbc0ed9f9	-0.008718961
172	0x3dd0c727	0.10194235
173	0xbd3f1823	-0.046653878
174	0xbdd55842	-0.104172245
175	0xbd800b21	-0.06252123
176	0xbe0bab8b	-0.13639657
177	0x3d855961	0.06511188
178	0x3e10b621	0.14131977
179	0xbe300205	-0.1718827
180	0x3b8999bf	0.004199236
181	0x3e0cfd62	0.13768533
182	0x3cca3f3c	0.024688356
183	0xbde41d46	-0.11138396
184	0x3d209035	0.039200027
185	0x3cc131cd	0.023583317
186	0xbc191284	-0.009342793
187	0xbd461b0d	-0.04836564
188	0xbd90f747	-0.070784144
189	0xbc027542	-0.007962527
190	0xbd6bd98a	-0.05758051
191	0xbdc2455f	-0.09485888
192	0x3e46a7cc	0.19399947
193	0x3e9041e6	0.28175277
194	0xbdffc4ee	-0.12488733
195	0xbd64ac0b	-0.055828135
196	0xbc81de05	-0.015852937
197	0xbe297ae4	-0.16550785
198	0xbe821c11	-0.25412038
199	0xbca27016	-0.019828837
200	0xbea8c85b	-0.3296536
201	0xbd2bb541	-0.041920904
202	0x3e8e7da3	0.27830228
203	0x3dae787c	0.08519074
204	0x3d11663e	0.035497896
205	0xbdbf8445	-0.093514
206	0x3d1572bd	0.036486376
207	0xbd5dbd2d	-0.05413549
208	0xbdb82f76	-0.089934275
209	0x3e375ec1	0.1790724
210	0x3ee637a6	0.4496433
211	0xc082f2c6	-4.0921354
212	0xbe86f606	-0.26359576
213	0x3f1bb1a7	0.6081795
214	0x3ecc9cb6	0.3996331
215	0x3d17247e	0.036900036
216	0x3f12956c	0.5725925
217	0x40078b70	2.1178856
218	0xbf2454b3	-0.6419174
219	0xbf613399	-0.87969357
220	0x402c8d6f	2.6961324
221	0x3f5de7e2	0.8668195
222	0xbed18b3b	-0.40926537
223	0x3ef0b7b9	0.4701517
224	0xc009feed	-2.1561844
225	0xbe33d838	-0.1756295
226	0x3db70544	0.08936551
227	0x3e19c267	0.15015565
228	0xc0b7ec3a	-5.7475863
229	0xbf33b569	-0.70198685
230	0xbfc84d01	-1.56485
231	0x3e4fa7ec	0.20278901
232	0x4041d480	3.028595
233	0x3f435405	0.7630008
234	0x3fa1713b	1.261268
235	0x3f469d45	0.77583724
236	0x3fa0f62e	1.2575128
237	0x3ec52c36	0.38510293
238	0xbd3f9bad	-0.046779323
239	0x3fb45fe5	1.4091765
240	0xbf03387b	-0.5125806
241	0x40eebef0	7.460808
242	0xbd8339d9	-0.06407518
243	0xbfe0bffd	-1.755859
244	0x4029c7b5	2.6528141
245	0x3fbd960c	1.4811416
246	0x40376d14	2.8660326
247	0xc0200313	-2.5001876
248	0x3fcc2007	1.5947274
249	0x3f8a18ba	1.0788796
250	0xc041e322	-3.029488
251	0xc0238fbf	-2.5556486
252	0x402d7a68	2.710596
253	0xbfa18d98	-1.2621336
254	0x409b605f	4.855514
255	0xbe070541	-0.13185598

fc1.bias f4 [30]
0	0x3e076594	0.13222343
1	0xbdade02a	-0.084900215
2	0x3e28d112	0.16486004
3	0xbbaa34b0	-0.005194269
4	0x3d16d076	0.036819898
5	0x3d81a8d2	0.06331028
6	0xbe678ebe	-0.22613046
7	0xbd5be023	-0.05368055
8	0x3f9a07e1	1.2033654
9	0xbdf03c0e	-0.117302045
10	0x3f6a09b3	0.9142105
11	0x3d008bb5	0.031383235
12	0x3e04d020	0.12970018
13	0x3da17632	0.07883872
14	0x3f53d7f6	0.82751405
15	0xbd97bc84	-0.074090034
16	0x3f851d71	1.039961
17	0xbf82cb7f	-1.0218352
18	0x3ed92804	0.42413342
19	0x3ea2aff8	0.31774879
20	0x3f530ac7	0.8243832
21	0x3f8ba435	1.0909487
22	0xbfd98038	-1.6992254
23	0x3f805849	1.0026942
24	0xbd8db075	-0.06918422
25	0xbf13d93d	-0.57753354
26	0xbd6bb539	-0.057545874
27	0x3da8b73b	0.082380734
28	0xbf5928b4	-0.84827733
29	0xbeb53004	-0.35388196

fc2.weight f4 [30, 30]
0	0x3dbf941f	0.09354424
1	0x3c63534e	0.013874842
2	0xbe05c00e	-0.13061544
3	0xbdd141ea	-0.1021765
4	0xbd4f54b6	-0.050617896
5	0xbdb16bb6	-0.08663122
6	0xbdcbcbfb	-0.099510156
7	0xbe85b5af	-0.26115176
8	0xbe45a4b7	-0.19301115
9	0xbd487adc	-0.048945293
10	0xbe9fc231	-0.31202844
11	0xbd7f2d66	-0.062299155
12	0xbd92821f	-0.07153725
13	0xbd735b26	-0.059413098
14	0xbef574b7	-0.4794061
15	0x3d211a5e	0.039331786
16	0xbe8c91dd	-0.27455035
17	0xbdd05ea4	-0.10174301
18	0xbe912f80	-0.28356552
19	0xbe29c249	-0.1657802
20	0xbeb10bb6	-0.34579247
21	0xbdba114a	-0.09085329
22	0x3e6e4e02	0.23271945
23	0xbc9bde82	-0.019026998
24	0x3d4555c0	0.04817748
25	0xbf55968c	-0.8343284
26	0xbe0610eb	-0.13092391
27	0xbd975eac	-0.07391104
28	0xb9ebd8b1	-0.0004498414
29	0xbcf9dd44	-0.030501015
30	0xbea05573	-0.31315193
31	0xbd15982c	-0.036522076
32	0xbe113408	-0.14180005
33	0xbd23d901	-0.040001873
34	0xbd4da206	-0.050203346
35	0x3e21d732	0.15804747
36	0x3d42f43e	0.04759621
37	0xbd82eb1b	-0.06392499
38	0xbdc8a0b5	-0.097962774
39	0xbd8102ba	-0.06299348
40	0x3e3d6f29	0.18499435
41	0xbe8dd5f3	-0.27702293
42	0x3d07ccc7	0.033154275
43	0xbd91be04	-0.07116321
44	0x3e204a11	0.15653254
45	0xbcd7ed36	-0.026358228
46	0xbb5660d9	-0.0032711534
47	0x3e41a85a	0.18911877
48	0xbddb8875	-0.107193865
49	0x3e0fc680	0.14040565
50	0xbeb34555	-0.35013834
51	0x3de7224c	0.112858385
52	0xbd757054	-0.059921578
53	0x3e613ea8	0.21996558
54	0xbdfa45ce	-0.122203454
55	0x3e682a45	0.22672375
56	0xbdfefeba	-0.12450929
57	0x3ce4f49f	0.027948676
58	0x3c80f304	0.015740879
59	0xbd0d7858	-0.034538597
60	0xbc8b3420	-0.016992629
61	0xbd875456	-0.06607883
62	0xbcfb5f83	-0.030685192
63	0xbe22eb83	-0.15910153
64	0x3e159717	0.14608417
65	0xbdbc31ff	-0.091892235
66	0xbd77a3bc	-0.060458884
67	0xbca3650e	-0.019945648
68	0xbece5cdb	-0.40305218
69	0xbe2f0740	-0.1709261
70	0x3d634939	0.055489752
71	0xbdd6914d	-0.10476933
72	0xbde37984	-0.11107162
73	0x3d1aff09	0.037840877
74	0xbef3130e	-0.47475475
75	0xbdacce97	-0.084378414
76	0x3d11a17d	0.035554398
77	0xbc1476c2	-0.009061517
78	0xbf19d9d0	-0.6009798
79	0xbec0d945	-0.37665763
80	0x3cd8f33f	0.026483176
81	0xbf39319b	-0.72341317
82	0xbf5492fe	-0.8303679
83	0xbf37102d	-0.7150906
84	0x3da15821	0.078781374
85	0x3ecea8b8	0.40363097
86	0xbe03537a	-0.12824813
87	0x3d871c0a	0.06597145
88	0xbd835119	-0.064119525
89	0x3e023301	0.12714769
90	0xbeb00935	-0.34382024
91	0xbd81412e	-0.0631126
92	0xbe20b36f	-0.15693448
93	0xbdec9da1	-0.11553503
94	0x3dd04336	0.101690695
95	0xbcdf5426	-0.027261805
96	0x3dad5651	0.08463729
97	0xbe1f859f	-0.15578316
98	0xbd2a5398	-0.041583627
99	0xbde229e1	-0.11043144
100	0xbcfa0442	-0.030519608
101	0xbdcc6866	-0.0998085
102	0xbd350e37	-0.04420301
103	0xbe223577	-0.15840708
104	0xbe8d4cb1	-0.27597573
105	0x3e3182d0	0.17335057
106	0xbd7914ee	-0.060810976
107	0xbe3b621d	-0.18299146
108	0xbd6ee2a2	-0.058321603
109	0xbdc2c7b1	-0.09510744
110	0xbe70ef5c	-0.23528808
111	0xbca229e6	-0.01979537
112	0x3e46b142	0.19403556
113	0xbd836cef	-0.06417262
114	0xbd2a6bbe	-0.041606657
115	0xbe4c9960	-0.19980383
116	0x3cf69de1	0.03010458
117	0x3d0f80c3	0.035034906
118	0x3c9761c9	0.018479245
119	0xbd9b26a9	-0.07575733
120	0x3dddcc67	0.10830002
121	0xbd301236	-0.042986117
122	0xbde4fd43	-0.11181118
123	0xbdaee222	-0.08539225
124	0x3e380b18	0.17972982
125	0x3713851b	8.792874e-06
126	0xba4dcac8	-0.0007850346
127	0xbf3b4cee	-0.7316426
128	0xbb52165f	-0.0032056791
129	0xbe1d75ab	-0.15376918
130	0xbd669165	-0.056291003
131	0xbebe70e3	-0.371955
132	0x3e189663	0.14901118
133	0x3e326983	0.17423062
134	0xbec07d6b	-0.37595686
135	0x3dca3c38	0.09874767
136	0xbdc6d642	-0.09708835
137	0xbdfe1a26	-0.12407331
138	0xbd0bf911	-0.034173075
139	0xbe8c2f58	-0.2737987
140	0x3e25ae37	0.16179739
141	0xbd62e1d9	-0.055391166
142	0xbe1fc7d5	-0.15603574
143	0xbd99612e	-0.07489239
144	0xbc0865c8	-0.008325048
145	0x3ebb7aee	0.36617225
146	0xbd705a20	-0.0586797
147	0xbd7eb45d	-0.062183727
148	0xbe0948f1	-0.13406731
149	0xbdc5ff8a	-0.09667881
150	0xbdba1de0	-0.090877295
151	0xbdbcc078	-0.09216398
152	0xbdeec66e	-0.11658941
153	0xbe223c7d	-0.15843387
154	0x3c42c863	0.011888596
155	0x3df2a93b	0.118486844
156	0x3e22230d	0.15833683
157	0xbe0ae81e	-0.13565108
158	0xbec0b7f1	-0.37640336
159	0xbe363511	-0.1779368
160	0xbe2846e6	-0.16433296
161	0x3d2ced7d	0.042218674
162	0xbe1127f3	-0.14175396
163	0x3d91eb92	0.071250096
164	0xbe533173	-0.20624332
165	0x3c3533cf	0.011059715
166	0x3c880395	0.01660327
167	0x3eb63913	0.3559042
168	0x3e6c4b8c	0.23075694
169	0x3e1cd976	0.1531733
170	0xbee161f3	-0.44020042
171	0xbd5bf73b	-0.053702574
172	0xbe31c987	-0.17362033
173	0x3e69d98b	0.22836892
174	0xbf421ae3	-0.75822276
175	0xbe510e2e	-0.20415565
176	0x3d15bed4	0.03655894
177	0x3ab21b82	0.001358852
178	0xbe67d75d	-0.22640748
179	0x3c96b8fc	0.018398754
180	0xbd5f4f18	-0.05451879
181	0x3cd5860f	0.0260649
182	0xbd8fa87a	-0.07014556
183	0x3e127cba	0.14305392
184	0xbd44e11c	-0.048066244
185	0x3d6b0e08	0.057386428
186	0xbd566d87	-0.052350547
187	0x3db44bb5	0.088035025
188	0x3d73dc3b	0.0595362
189	0x3d822a34	0.06355706
190	0xbe31cf99	-0.17364348
191	0xbe561b09	-0.2090875
192	0xbb2d34a1	-0.0026429074
193	0xbddb5bbc	-0.10710856
194	0xbd92d098	-0.07168692
195	0xbe33a900	-0.17544937
196	0xbec1250b	-0.37723574
197	0xbd765117	-0.060135927
198	0xbe23454f	-0.15944408
199	0xbe8e2ddd	-0.27769366
200	0xbf1fe37f	-0.62456506
201	0xbd2caae8	-0.042155176
202	0xbe98530c	-0.2975086
203	0xbe2b7aca	-0.16746059
204	0x3de6a6c7	0.11262279
205	0xbead18ce	-0.33807987
206	0xbc53a084	-0.012916688
207	0x3dda643f	0.10663652
208	0xbe86e69a	-0.2634781
209	0xbe6a856c	-0.22902459
210	0xbcbf18d1	-0.023327263
211	0xbc2c421e	-0.01051381
212	0x3d2c414d	0.042054463
213	0xbe1ccd0c	-0.15312594
214	0x3bb2eb4c	0.0054601785
215	0xbda64d0c	-0.08120164
216	0xbe097960	-0.13425207
217	0xbf35e411	-0.71051127
218	0x3e26dcd1	0.16295172
219	0x3d3a35a6	0.04546132
220	0x3c522d2f	0.012828155
221	0xbea28c65	-0.31747738
222	0x3d616aad	0.055033375
223	0x3d0ac4c2	0.03387905
224	0xbf158b0f	-0.5841531
225	0x3ce18ce9	0.027533012
226	0xbb856b72	-0.0040716464
227	0x3e9d3d62	0.30710894
228	0xbed44709	-0.41460446
229	0x3e7f5c31	0.24937512
230	0xbf3afdc2	-0.73043454
231	0x3d6a7eb1	0.05724973
232	0xbdfe7d8e	-0.124262914
233	0x3c13ab38	0.00901299
234	0xbcaa15b0	-0.020762295
235	0xbe8f051e	-0.27933592
236	0xbdfdf39c	-0.123999804
237	0xbc1eff97	-0.009704492
238	0xbe5b9ece	-0.21447298
239	0xbde2078f	-0.11036598
240	0xbce40afc	-0.027837269
241	0xbd07ec09	-0.033184085
242	0xbcec46bc	-0.028842323
243	0x3c6becd1	0.014399723
244	0x3e386ab8	0.1800946
245	0x3dd93f45	0.10607771
246	0x3de51133	0.11184921
247	0xbd0dac5a	-0.034588195
248	0x3e6856b4	0.22689325
249	0x38dc3b4b	0.00010501462
250	0xbd18efeb	-0.03733818
251	0x3f69b58f	0.9129266
252	0xbe142d6f	-0.14470457
253	0xbe169a8a	-0.1470739
254	0x3c089086	0.008335238
255	0xbd924b0b	-0.071432196

fc2.bias f4 [30]
0	0xbe7f850e	-0.249531
1	0xbf7373ec	-0.9509876
2	0x3ee09266	0.43861693
3	0xbdfc8d23	-0.12331607
4	0xbd1ad4ea	-0.037800707
5	0x3f5c0c3b	0.8595616
6	0x3e3a657e	0.18202779
7	0xbe159fa0	-0.14611673
8	0x3ec4f8df	0.38471124
9	0xbe3b088a	-0.18264976
10	0x3e35d86e	0.17758343
11	0x3f8cb1c3	1.0991749
12	0x3e85effd	0.2615966
13	0xbfca4f14	-1.5805383
14	0x3c2d53de	0.0105790775
15	0xbf4da3b3	-0.8032791
16	0xbf2add7e	-0.6674422
17	0xc013093d	-2.2974389
18	0xbe9d83a4	-0.30764496
19	0xbe09f224	-0.13471276
20	0x3f4d79f5	0.80264217
21	0xbfbc07cb	-1.4689878
22	0x3f241f9e	0.64110744
23	0x3ec5e8cd	0.38654175
24	0xbceccc70	-0.028906077
25	0xbce0b5b1	-0.027430387
26	0xbc16a936	-0.0091956165
27	0x3e24ec9a	0.16105881
28	0xbeec7839	-0.46185473
29	0xbfc01a52	-1.5008032

fc3.weight f4 [30, 30]
0	0x3d6a686b	0.057228487
1	0xbd4ce3a2	-0.050021775
2	0x3e05d215	0.13068421
3	0x3e2caf06	0.16863641
4	0xbd929600	-0.071575165
5	0xbcaf1302	-0.021371368
6	0xbd3945b2	-0.045232482
7	0xbd28b183	-0.041184913
8	0xbe1fee14	-0.15618163
9	0xbd1e421e	-0.038637273
10	0xbc943c8e	-0.018095281
11	0x3eb20c4d	0.3477501
12	0xbdac0a68	-0.08400422
13	0x3d986af9	0.074422784
14	0xbf48f1ee	-0.78494155
15	0x3bf62f7c	0.007512985
16	0xbeb8082f	-0.35943744
17	0xbe9296bf	-0.28630635
18	0x3d69d994	0.057092264
19	0xbe6251ae	-0.22101471
20	0xbd7a6684	-0.061132923
21	0x3b173fdf	0.0023078842
22	0x3eba0e3a	0.3633898
23	0xbe17cd48	-0.14824402
24	0x3db54cdd	0.08852551
25	0xbeb0f6e4	-0.34563363
26	0xbcf6a08a	-0.030105848
27	0x3c9fc289	0.019501941
28	0xbd3430bd	-0.043991793
29	0xbeb13e4a	-0.34617835
30	0x3e924d00	0.2857437
31	0xbcf4b5c6	-0.029871833
32	0xbe846d0f	-0.25864455
33	0x3eb25af9	0.34835032
34	0xbe504bef	-0.20341466
35	0xbe619bba	-0.22032061
36	0xbdde6fff	-0.10861205
37	0xbe2fb325	-0.17158182
38	0xbe13386e	-0.14376995
39	0xbec48363	-0.3838149
40	0xbd5598f4	-0.05214782
41	0xbe421c93	-0.18956213
42	0xbefec1f6	-0.49757355
43	0xbdc8e1e9	-0.09808714
44	0xbb95363c	-0.0045535844
45	0xbebe6b69	-0.37191322
46	0xbe215449	-0.15754808
47	0x3e28a2c8	0.16468346
48	0xbdad2b95	-0.08455578
49	0xbe609422	-0.21931508
50	0xbe5bf94e	-0.21481821
51	0xbea71650	-0.3263421
52	0x3c76ceee	0.015063984
53	0xbe18e551	-0.14931227
54	0xbee15903	-0.44013223
55	0xba8d8752	-0.0010797775
56	0xbcebcaac	-0.028783165
57	0xbe72e806	-0.23721322
58	0x3d8f8c12	0.07009138
59	0xbe260a00	-0.16214752
60	0x3d9a7f4c	0.07543811
61	0x3d671886	0.05641987
62	0x3e0c415c	0.13696808
63	0xbdbbde01	-0.09173203
64	0x3d8733c9	0.06601674
65	0xbe9e4dc5	-0.30918708
66	0x3e7bf950	0.24606824
67	0xbe3e39ad	-0.18576689
68	0xbe002d9e	-0.12517402
69	0x3d0b324c	0.033983514
70	0x3e118d91	0.1421416
71	0xbe5edab7	-0.2176312
72	0x3d327e5b	0.043577533
73	0x3eb45248	0.35219026
74	0xbcc0d422	-0.023538653
75	0x3e04f6ba	0.12984744
76	0xbd696a56	-0.056986175
77	0xbd9cf102	-0.07663156
78	0x3e712c9d	0.23552175
79	0xbcd7ae54	-0.026328243
80	0x3d5b74a1	0.053578023
81	0xbf234027	-0.63769764
82	0x3d53fc84	0.05175449
83	0xbe09b610	-0.13448358
84	0x3e27b50d	0.16377659
85	0x3ddb4705	0.10706905
86	0xbde9b72b	-0.1141189
87	0xbc22a7ab	-0.0099276705
88	0x3eb5c563	0.35502157
89	0xbda7600a	-0.08172615
90	0xbe277d25	-0.16356333
91	0x3d828fc2	0.06375076
92	0xbe451dde	-0.19249675
93	0x3d9dce45	0.077053584
94	0xbeec1462	-0.461093
95	0x3df92524	0.12165287
96	0x3d8bd3fc	0.06827542
97	0xbdf8766f	-0.121319644
98	0xbde88e0f	-0.113552205
99	0x3d8ddf68	0.06927377
100	0x3d9bd838	0.076096
101	0xbee8132c	-0.45327127
102	0x3dd78398	0.105231464
103	0x3e0e9b86	0.13926515
104	0xbd691930	-0.056908786
105	0xbec0873e	-0.37603182
106	0xbd1f2758	-0.03885588
107	0x3d838194	0.064211994
108	0xbf2279ce	-0.6346711
109	0x3de7bc88	0.11315256
110	0x3d928f23	0.071562074
111	0xbe7ad22c	-0.24494237
112	0x3d7f45ae	0.06232231
113	0x3ea7f913	0.32807216
114	0xbe0c60c5	-0.1370879
115	0x3c49a5df	0.012307613
116	0x3d4553e5	0.04817571
117	0x3d72954a	0.059224404
118	0x3da9e417	0.08295458
119	0x3e29d3f2	0.16584757
120	0x3e147a58	0.14499795
121	0xbe32c121	-0.17456485
122	0x3e160b3e	0.14652726
123	0x3d8b7f09	0.068113394
124	0x3dfc20cb	0.12310942
125	0xbf2d3b0c	-0.67668223
126	0xbe079585	-0.13240631
127	0xbd84845f	-0.0647056
128	0xbea9bffe	-0.3315429
129	0xb7ab3186	-2.040785e-05
130	0x3db5d572	0.08878602
131	0x3ea36106	0.3190996
132	0x3d375093	0.044754576
133	0xbeccb950	-0.39985132
134	0xbe0641df	-0.13111065
135	0xbd7ddd9a	-0.061978914
136	0xbe97f35f	-0.29677865
137	0x3e315ac4	0.1731978
138	0xbcb89c4f	-0.022535471
139	0xbd7d1910	-0.06179148
140	0x3d668f9d	0.056289304
141	0xbd51453f	-0.05109143
142	0x3e5ec3e1	0.2175441
143	0xbdb95f00	-0.09051323
144	0x3de40d7b	0.11135384
145	0xbebb3d31	-0.36570123
146	0x3c7471f4	0.014919747
147	0x3d96267e	0.073315606
148	0x3dc70a29	0.09718735
149	0xbed7c140	-0.42139626
150	0xbc6c23d7	-0.014412842
151	0xbcb49f16	-0.022048514
152	0xbeb00049	-0.34375218
153	0x3dadfd61	0.08495594
154	0xbe9dfe5c	-0.30858123
155	0xbd5dedbf	-0.05418181
156	0xbd3cf894	-0.0461355
157	0xbec2601f	-0.3796396
158	0xbefd66ac	-0.49492395
159	0xbd74db96	-0.059779726
160	0xbe3a49f1	-0.18192269
161	0xbe4426ae	-0.1915538
162	0xbdd6ae80	-0.10482502
163	0x3dea5afd	0.11443136
164	0x3b48c52e	0.0030635106
165	0xbddf6f3d	-0.10909889
166	0xbc305f7d	-0.010764954
167	0x3e30d070	0.17267013
168	0x3d5f4879	0.054512475
169	0xbd38d683	-0.04512645
170	0x3d0d9fbc	0.034576163
171	0x3e115ebe	0.14196298
172	0xbf2b2683	-0.6685564
173	0xbe867077	-0.2625768
174	0xbe132b44	-0.14371973
175	0xbe9cfce5	-0.30661693
176	0xbe070e39	-0.1318902
177	0xbe49a363	-0.19691233
178	0x3e200954	0.15628558
179	0x3e7a9210	0.24469781
180	0xbee61443	-0.44937333
181	0xbed39a1a	-0.41328508
182	0xbf8d457a	-1.1036828
183	0xbea3b055	-0.31970468
184	0xbe97ad55	-0.2962443
185	0xbde05338	-0.10953373
186	0xbe624670	-0.22097182
187	0x3c46b00a	0.012126932
188	0x3e50cc4e	0.20390436
189	0x3d5a4330	0.05328673
190	0xbec8cc20	-0.39218235
191	0x3d1dacf7	0.03849503
192	0xbd4f9eb1	-0.05068845
193	0xbee61afd	-0.44942465
194	0xbe338ac3	-0.17533402
195	0xbe784c9e	-0.24247977
196	0x3d31df90	0.043426096
197	0xbf21d935	-0.63222057
198	0xbc98a505	-0.018633375
199	0xbe296ccf	-0.16545413
200	0x3d77f833	0.060539436
201	0x3d0b9125	0.034073967
202	0x3e287310	0.16450143
203	0x3e0b07d8	0.13577211
204	0x3dd86c33	0.10567512
205	0xbec0054a	-0.37504035
206	0x3e54d220	0.20783281
207	0xbe8c4b2e	-0.27401108
208	0xbeb6d2e9	-0.35707787
209	0xbdaf230b	-0.08551606
210	0xbed16fa3	-0.40905485
211	0x3d7f840d	0.062381793
212	0xbe586bf2	-0.21134928
213	0xbe0ad1d8	-0.13556612
214	0x3c645ca5	0.013938104
215	0x3d2dc33b	0.042422514
216	0x3e41c8a8	0.189242
217	0xbd4ec864	-0.050484076
218	0xbbd5cfe1	-0.0065250252
219	0xbd178a78	-0.03699729
220	0xbf4df9e2	-0.80459416
221	0x3e23b4ab	0.15986888
222	0xbe60f109	-0.21966948
223	0x3d7150de	0.05891501
224	0xbc1e7b81	-0.009673
225	0xbd6a8285	-0.05725338
226	0xbe84988e	-0.2589764
227	0xbcde85bc	-0.027163379
228	0x3df96111	0.12176717
229	0xbe424bfe	-0.18974301
230	0xbc063035	-0.008190204
231	0xbd9b2b7c	-0.07576653
232	0x3e344846	0.17605695
233	0x3e6706e2	0.2256122
234	0xbdd21b43	-0.10259106
235	0x3cdcc641	0.026950004
236	0x3cf041d2	0.02932826
237	0xbe9e006f	-0.30859706
238	0xbecbc5f6	-0.3979947
239	0xbef1eb4f	-0.4724984
240	0xbd13f092	-0.036118098
241	0xbd0ead72	-0.03483338
242	0xbdec23d7	-0.115302734
243	0xbe41f583	-0.18941312
244	0xbe864df7	-0.26231357
245	0xbced13c3	-0.028940087
246	0x3d6ab633	0.057302665
247	0x3d8dab91	0.06917489
248	0x3e017af4	0.12644559
249	0xbd92af59	-0.07162351
250	0xbec84863	-0.39117727
251	0x3d9c068c	0.07618436
252	0xbdd661a6	-0.10467844
253	0x3ec6cb3c	0.3882693
254	0x3d3f2b30	0.046672046
255	0x3da0a17a	0.07843299

fc3.bias f4 [30]
0	0x4002a896	2.0415397
1	0xbb695777	-0.0035605112
2	0x3ef097d0	0.46990824
3	0x3f412096	0.7544035
4	0x3f8c1c91	1.0946218
5	0xbe8a8c20	-0.27060032
6	0x3eed493b	0.46344933
7	0x3fa66dfa	1.3002312
8	0x3f7a9f64	0.9789946
9	0xbfa64c15	-1.2991968
10	0xbc9fe91c	-0.019520335
11	0xbf186599	-0.59530026
12	0xc008e5e2	-2.139031
13	0x3fa02abd	1.2513043
14	0x3f922984	1.141892
15	0x3fbdb069	1.4819461
16	0x3e3aef71	0.18255402
17	0xbeb48cd0	-0.3526368
18	0x3f01bd85	0.5067981
19	0x3ea1dc70	0.31613493
20	0x3f517254	0.81815076
21	0x3e5ad7a7	0.21371327
22	0x3d8e7f41	0.069578655
23	0xbff9444e	-1.947397
24	0x3f1e5f3b	0.6186406
25	0x3f5fccb0	0.87421703
26	0x3f3ec3aa	0.7451731
27	0x3f80aab0	1.005209
28	0xc03608e8	-2.8442936
29	0xbe9b3f22	-0.30321604

fc4.weight f4 [10, 30]
0	0xbdd71d16	-0.105035946
1	0xbeae78af	-0.3407645
2	0xbe1ab6ab	-0.15108745
3	0xbd4d6ed6	-0.05015453
4	0xbe5a9302	-0.21345142
5	0x3ddf9e87	0.109189086
6	0x3c63324f	0.013866975
7	0xbe3e6b9c	-0.18595737
8	0xbba8b6c0	-0.0051487386
9	0xbe9bc113	-0.3042074
10	0xbda11c3a	-0.07866712
11	0xbdb18133	-0.08667221
12	0x3cedf8bc	0.02904927
13	0xbdf71f22	-0.12066485
14	0xbecdb8cb	-0.40180048
15	0x3dd252c9	0.10269696
16	0xbcaf26e5	-0.021380851
17	0x3bfbee9f	0.007688358
18	0x3e589241	0.21149541
19	0xbe184f1a	-0.14873925
20	0xbf36fdf3	-0.71481246
21	0xbdae64ff	-0.08515357
22	0xbce4b226	-0.027916979
23	0xbd2f792c	-0.042840168
24	0xbe02babe	-0.12766549
25	0xbeedb43c	-0.4642657
26	0x3dfeb343	0.12436535
27	0x3d901014	0.07034317
28	0xbe039c46	-0.12852582
29	0xbe246a08	-0.16056073
30	0x3e502100	0.20325089
31	0xbe85e286	-0.26149386
32	0xbdc8dc83	-0.09807684
33	0x3d05c1e7	0.032655623
34	0xbe5ffcca	-0.21873775
35	0xbde59c93	-0.11211505
36	0x3d75e021	0.0600282
37	0xbca20cbf	-0.019781468
38	0x3e213ce0	0.15745878
39	0xbe51df7f	-0.20495413
40	0x3ca23a23	0.019803112
41	0xbe407a37	-0.18796621
42	0xbe016e69	-0.12639774
43	0x3da5633a	0.080755666
44	0x3d797547	0.06090286
45	0xbd48da24	-0.04903616
46	0x3d949fed	0.07257066
47	0x3d1fa23b	0.038973074
48	0xbe08aa23	-0.13346152
49	0xbcd3c475	-0.025850514
50	0xbd752fd3	-0.05986006
51	0xbe4df492	-0.20112827
52	0x3c82f3fd	0.015985483
53	0x3d22530f	0.039629992
54	0x3dabefe0	0.08395362
55	0xbdcbdf5e	-0.09954713
56	0xbd4b6049	-0.04965237
57	0xbd9ba5eb	-0.07600006
58	0xbda6646c	-0.08124623
59	0x3d301b50	0.042994797
60	0xbe6a14e2	-0.22859529
61	0xbc8949d2	-0.016758833
62	0xbdcc6a6c	-0.09981236
63	0xbdf7abe4	-0.120933324
64	0xbd2c68d9	-0.042092178
65	0x3db3e337	0.08783572
66	0xbe404b2c	-0.18778676
67	0xbe3945c5	-0.18093021
68	0xbe4c3e9c	-0.19945759
69	0xbd54aba4	-0.0519215
70	0xbe117044	-0.14202982
71	0xbe2eccbb	-0.17070286
72	0x3e176cc1	0.1478758
73	0xba00fa81	-0.00049201405
74	0xbd9f03ab	-0.077643715
75	0x3ccf9417	0.02533917
76	0xbc30ef46	-0.010799235
77	0xbdca9149	-0.09890992
78	0xbce44ec9	-0.027869599
79	0xbe7ed720	-0.24886751
80	0xbbaadf61	-0.005214617
81	0x3c587b39	0.013212972
82	0x3ce37939	0.027767764
83	0xbd9ce719	-0.07661266
84	0xbd9d3a1e	-0.076771006
85	0xbe05fe30	-0.13085246
86	0x3c972742	0.018451337
87	0xbc7da329	-0.015480795
88	0xbe598938	-0.21243751
89	0xbd0476a6	-0.032339714
90	0xbb6bbd2b	-0.0035970907
91	0xbd2fe251	-0.04294044
92	0x3e1dee45	0.15422924
93	0xbd88699a	-0.06660767
94	0xbd1b8221	-0.037965897
95	0x3e998c28	0.29989743
96	0x3d3930ef	0.045212682
97	0xbe4b55b2	-0.19856909
98	0xbd38caa3	-0.045115124
99	0xbd8a5251	-0.06753982
100	0xbe41d903	-0.1893044
101	0x3cd87925	0.026424954
102	0x3e17d67b	0.14827912
103	0xbe8d67d7	-0.27618286
104	0xbde34a08	-0.11098105
105	0xbdbe2295	-0.0928394
106	0x3d08c3fb	0.033390027
107	0x3e715712	0.23568371
108	0x3e49e150	0.19714856
109	0xbe2bda86	-0.16782579
110	0xbe707386	-0.23481569
111	0xbcdfb9fe	-0.027310368
112	0xbe814046	-0.2524435
113	0x3e5b7876	0.21432671
114	0xbb9239d1	-0.0044624587
115	0xbdcfd08a	-0.101471975
116	0xbd28602c	-0.04110734
117	0x3e83be08	0.2573092
118	0x3e4a5104	0.19757468
119	0x3e02f908	0.1279031
120	0xbcf7a4ba	-0.030229915
121	0x3e3979f6	0.1811293
122	0xbb6cf59a	-0.0036157132
123	0x3da0cbd7	0.07851379
124	0xbd9819ea	-0.07426818
125	0xbd5bd0a6	-0.05366578
126	0xbd70e1aa	-0.05880896
127	0x3db8175f	0.08988833
128	0x3dc52be1	0.0962751
129	0x3b127cce	0.0022352221
130	0xbe6eee58	-0.23333108
131	0x3db0054a	0.08594759
132	0x3e8069c9	0.25080708
133	0x3e7254d1	0.23665167
134	0x3d290a47	0.041269567
135	0xbe34f389	-0.17671026
136	0xbd2317db	-0.039817672
137	0x3e29568a	0.16536918
138	0x3d98424e	0.074345216
139	0xbd9b0f75	-0.075713076
140	0x3e9923d8	0.2991016
141	0xbe21172b	-0.15731494
142	0xbe1bdcca	-0.15220943
143	0xbe91ce4a	-0.284777
144	0xbdde3108	-0.10849196
145	0x3dad622a	0.08465989
146	0x3d6f1928	0.0583736
147	0x3e03e38a	0.12879768
148	0xbeca7f7d	-0.3955039
149	0xbdfdfca0	-0.124017
150	0xbede0c10	-0.43368578
151	0xbe5a86e0	-0.21340513
152	0xbe89b0ac	-0.26892602
153	0x3d835496	0.06412618
154	0xbe40ac12	-0.1881564
155	0x3e19e241	0.15027715
156	0x3c0cf4af	0.008603259
157	0xbd11514a	-0.035477914
158	0x3e47e956	0.19522604
159	0x3e2bfaa2	0.16794828
160	0x3db5348a	0.08847912
161	0xbe8a0391	-0.26955846
162	0xbd82181a	-0.06352253
163	0xbe49915d	-0.19684358
164	0xbe0944ec	-0.13405198
165	0xbeb1e404	-0.34744275
166	0xbdd3380e	-0.10313426
167	0xbebe29cd	-0.37141266
168	0xbd6d9d42	-0.0580113
169	0xbd885e2f	-0.06658589
170	0x3e962090	0.29321718
171	0xbe90e018	-0.2829597
172	0x3e202235	0.15638049
173	0x3d7db7f9	0.061943028
174	0xbd8b5ffe	-0.068054184
175	0xbe2a3304	-0.16621023
176	0xbdaa55f8	-0.083171785
177	0x3d7a2090	0.06106621
178	0xbe838955	-0.25690714
179	0x3e048f18	0.12945211
180	0x3d0c5c39	0.034267638
181	0xbe3ffddb	-0.18749182
182	0xbda28998	-0.079364
183	0xbd7e2cd9	-0.06205449
184	0xbe8739ee	-0.26411384
185	0xbd1fc876	-0.039009534
186	0x3c1e58bb	0.00966471
187	0xbcbca057	-0.023025675
188	0x3e312c78	0.1730212
189	0xbb21fd94	-0.0024717795
190	0xbbc3d195	-0.005975912
191	0xbd80adae	-0.06283127
192	0xbe054c97	-0.13017498
193	0x3d6852ba	0.05671952
194	0xbc70861b	-0.014680411
195	0x3e3812c6	0.17975911
196	0x3e0c601c	0.13708538
197	0x3e3e5727	0.18587933
198	0x3e6b96bd	0.23006721
199	0xbd284a1d	-0.041086305
200	0x3a62d5c1	0.00086530676
201	0xbeb14274	-0.34621012
202	0x3d97e324	0.074163705
203	0x3df6bf0b	0.12048157
204	0x3d551803	0.052024852
205	0xbd861e4c	-0.065487474
206	0x3e17b594	0.1481536
207	0xbe4a4b2c	-0.19755238
208	0xbce533ff	-0.027978895
209	0x3d3144ba	0.043278433
210	0x3df9cd20	0.121973276
211	0xbdcb5dcd	-0.099300005
212	0xbdcca1bd	-0.09991787
213	0xbf13e974	-0.57778096
214	0xbd820b5d	-0.063498236
215	0x3be9a74d	0.0071305395
216	0xbe6d3f22	-0.23168615
217	0x3d9914e9	0.074746914
218	0xbeeda3cb	-0.46414027
219	0xbe4eb327	-0.20185529
220	0xbe0180c0	-0.1264677
221	0xbe01691a	-0.1263775
222	0xbdd04146	-0.101687
223	0x3d4489ef	0.047983106
224	0xbef6da5f	-0.4821348
225	0x3e169094	0.1470359
226	0xbbca759f	-0.0061785723
227	0x3e1d8184	0.15381438
228	0x3d429a14	0.04751022
229	0x3a4a87c4	0.0007725919
230	0xbed9f099	-0.42566374
231	0xbdb408be	-0.0879073
232	0x3e525c66	0.2054306
233	0xbe54c669	-0.20778812
234	0x3e16aa2e	0.14713356
235	0xbcb62408	-0.022233978
236	0xbc85235b	-0.01625221
237	0x3e5c6263	0.21521907
238	0xbe28365b	-0.16426985
239	0xbefe99a4	-0.49726593
240	0x3eab0a1f	0.3340616
241	0x3e45f1c1	0.19330503
242	0x3e1307b0	0.14358401
243	0xbd9cfb55	-0.07665125
244	0x3e8cbe42	0.27488905
245	0x3e2c445b	0.1682295
246	0xbecc9ba4	-0.39962494
247	0xbe338b8b	-0.175337
248	0x3b382a90	0.002810154
249	0xbd7f07ca	-0.062263288
250	0xbe362e56	-0.17791113
251	0x3df38c82	0.11892034
252	0xbee9766f	-0.4559817
253	0xbe865c05	-0.2624208
254	0xbed17052	-0.40906006
255	0x3ed37996	0.413037

fc4.bias f4 [10]
0	0x4008e056	2.1386924
1	0x4007a6fc	2.119567
2	0xbea600ef	-0.32422587
3	0xbf3e474c	-0.7432754
4	0x3fac4854	1.3459573
5	0x3f21a0fc	0.6313627
6	0xc020ebfd	-2.5144036
7	0x3fab8afa	1.3401787
8	0x3f0e4ec0	0.5558891
9	0x3f02cc30	0.51092815

fc5.weight f4 [1, 10]
0	0x3f3b2738	0.7310672
1	0x3e61edc4	0.22063357
2	0xbe056d7d	-0.13030048
3	0xbdd6e4a4	-0.104928285
4	0xbe967ef8	-0.29393744
5	0x3dba5cfb	0.09099766
6	0xbe8d172b	-0.27556738
7	0x3eab3030	0.33435202
8	0xbe3e889b	-0.18606798
9	0xbe395c4f	-0.18101619

exp_avg f4 [30, 30]
0	0x39166b3c	0.00014345063
1	0x390aac9d	0.00013225009
2	0xbe04815e	-0.12939975
3	0x38fd0a12	0.00012065856
4	0x38b6af7e	8.711124e-05
5	0x395aef37	0.00020879215
6	0xb986b0a3	-0.00025690076
7	0xb90df5ff	-0.00013538449
8	0x3880c5a7	6.140331e-05
9	0xbb04f7ac	-0.0020289226
10	0xb8ff507d	-0.0001217434
11	0xb7f0fc18	-2.872762e-05
12	0x38538ab2	5.043549e-05
13	0x38a2e7f5	7.767967e-05
14	0x38bd4dbb	9.026701e-05
15	0xbe2a2166	-0.16614303
16	0xbe9eb033	-0.30993804
17	0x378215ca	1.5507354e-05
18	0x36f95018	7.4301024e-06
19	0xba09e850	-0.00052607525
20	0xb7a44248	-1.9581188e-05
21	0xb77dbc31	-1.5123792e-05
22	0xb86831ce	-5.5359495e-05
23	0xb99c95fd	-0.0002986639
24	0xb6bd456d	-5.640721e-06
25	0xb8cb5d88	-9.697216e-05
26	0x37bfcaba	2.2863376e-05
27	0x391851bb	0.00014526297
28	0x395a13b3	0.00020797439
29	0x3847fb8c	4.767957e-05
30	0xb9377d81	-0.00017498994
31	0xb824f67d	-3.9330207e-05
32	0x3d8a08aa	0.06739934
33	0x382e26f8	4.1521125e-05
34	0xb90d5afb	-0.000134807
35	0xb88334ff	-6.256438e-05
36	0x3964c366	0.00021816566
37	0x380f7a2b	3.4207635e-05
38	0x373aa1e8	1.1124161e-05
39	0x3aac0776	0.0013124782
40	0x3885a27a	6.372198e-05
41	0xb6d8ace8	-6.4574306e-06
42	0x38278fa7	3.994969e-05
43	0xb829170e	-4.031421e-05
44	0x3814668b	3.538145e-05
45	0x3ceca2ca	0.028886218
46	0x3d035006	0.03205874
47	0x38a12f6e	7.685913e-05
48	0x37dec599	2.6556476e-05
49	0x39825aaa	0.00024863082
50	0x36eb590b	7.0139117e-06
51	0x38382d75	4.3911354e-05
52	0xb8110e92	-3.4584264e-05
53	0x390633d0	0.00012798538
54	0x39040017	0.00012588534
55	0x372defbf	1.0367424e-05
56	0xb8d36eb5	-0.00010081885
57	0xb7a6b62f	-1.9873578e-05
58	0xb976f342	-0.00023551009
59	0xb7bbc7a9	-2.2385111e-05
60	0x00000000	0.0
61	0x00000000	0.0
62	0x00000000	0.0
63	0x00000000	0.0
64	0x00000000	0.0
65	0x00000000	0.0
66	0x00000000	0.0
67	0x00000000	0.0
68	0x00000000	0.0
69	0x00000000	0.0
70	0x00000000	0.0
71	0x00000000	0.0
72	0x00000000	0.0
73	0x00000000	0.0
74	0x00000000	0.0
75	0x00000000	0.0
76	0x00000000	0.0
77	0x00000000	0.0
78	0x00000000	0.0
79	0x00000000	0.0
80	0x00000000	0.0
81	0x00000000	0.0
82	0x00000000	0.0
83	0x00000000	0.0
84	0x00000000	0.0
85	0x00000000	0.0
86	0x00000000	0.0
87	0x00000000	0.0
88	0x00000000	0.0
89	0x00000000	0.0
90	0x00000004	6e-45
91	0x00000000	0.0
92	0x00000004	6e-45
93	0x00000004	6e-45
94	0x00000004	6e-45
95	0x00000004	6e-45
96	0x00000004	6e-45
97	0x00000004	6e-45
98	0x00000004	6e-45
99	0x00000004	6e-45
100	0x00000004	6e-45
101	0x00000000	0.0
102	0x00000004	6e-45
103	0x00000004	6e-45
104	0x00000004	6e-45
105	0x00000004	6e-45
106	0x00000004	6e-45
107	0x00000004	6e-45
108	0x00000004	6e-45
109	0x00000004	6e-45
110	0x00000000	0.0
111	0x00000004	6e-45
112	0x00000000	0.0
113	0x00000004	6e-45
114	0x00000004	6e-45
115	0x00000004	6e-45
116	0x00000000	0.0
117	0x00000000	0.0
118	0x00000000	0.0
119	0x00000000	0.0
120	0x00000000	0.0
121	0x00000000	0.0
122	0x00000000	0.0
123	0x00000000	0.0
124	0x00000000	0.0
125	0x00000000	0.0
126	0x00000000	0.0
127	0x00000000	0.0
128	0x00000000	0.0
129	0x00000000	0.0
130	0x00000000	0.0
131	0x00000000	0.0
132	0x00000000	0.0
133	0x00000000	0.0
134	0x00000000	0.0
135	0x00000000	0.0
136	0x00000000	0.0
137	0x00000000	0.0
138	0x00000000	0.0
139	0x00000000	0.0
140	0x00000000	0.0
141	0x00000000	0.0
142	0x00000000	0.0
143	0x00000000	0.0
144	0x00000000	0.0
145	0x00000000	0.0
146	0x00000000	0.0
147	0x00000000	0.0
148	0x00000000	0.0
149	0x00000000	0.0
150	0x00000000	0.0
151	0x00000000	0.0
152	0x00000000	0.0
153	0x00000000	0.0
154	0x00000000	0.0
155	0x00000000	0.0
156	0x00000000	0.0
157	0x00000000	0.0
158	0x00000000	0.0
159	0x00000000	0.0
160	0x00000000	0.0
161	0x00000000	0.0
162	0x00000000	0.0
163	0x00000000	0.0
164	0x00000000	0.0
165	0x00000000	0.0
166	0x00000000	0.0
167	0x00000000	0.0
168	0x00000000	0.0
169	0x00000000	0.0
170	0x00000000	0.0
171	0x00000000	0.0
172	0x00000000	0.0
173	0x00000000	0.0
174	0x00000000	0.0
175	0x00000000	0.0
176	0x00000000	0.0
177	0x00000000	0.0
178	0x00000000	0.0
179	0x00000000	0.0
180	0x00000004	6e-45
181	0x00000004	6e-45
182	0x00000004	6e-45
183	0x00000004	6e-45
184	0x00000004	6e-45
185	0x00000004	6e-45
186	0x00000004	6e-45
187	0x00000004	6e-45
188	0x00000004	6e-45
189	0x00000004	6e-45
190	0x00000004	6e-45
191	0x00000004	6e-45
192	0x00000004	6e-45
193	0x00000004	6e-45
194	0x00000004	6e-45
195	0x00000004	6e-45
196	0x00000004	6e-45
197	0x00000004	6e-45
198	0x00000004	6e-45
199	0x00000004	6e-45
200	0x00000004	6e-45
201	0x00000004	6e-45
202	0x80000004	-6e-45
203	0x00000004	6e-45
204	0x00000004	6e-45
205	0x00000004	6e-45
206	0x00000004	6e-45
207	0x00000004	6e-45
208	0x00000004	6e-45
209	0x00000004	6e-45
210	0xba0b2c39	-0.0005309019
211	0x38727ad1	5.7811678e-05
212	0x3d0b23a6	0.033969544
213	0xb7912f50	-1.7307379e-05
214	0x39fbfb2c	0.00048061588
215	0xb7c0627e	-2.2934048e-05
216	0xb89af5b9	-7.389062e-05
217	0xb85b25e1	-5.2248946e-05
218	0x36bfdc81	5.7179136e-06
219	0xba806474	-0.0009795562
220	0xb8978b81	-7.226226e-05
221	0xb6b8756f	-5.4972984e-06
222	0xb8af6d5b	-8.365019e-05
223	0xb732540a	-1.0629194e-05
224	0x38339c0f	4.2822267e-05
225	0xbbfc50e6	-0.0077000735
226	0x3dba0710	0.09083378
227	0xb8ef3def	-0.00011407944
228	0x3790aabd	1.7245644e-05
229	0x38686882	5.541044e-05
230	0x377f0c7c	1.5202091e-05
231	0xb776fd63	-1.4721739e-05
232	0xb8895709	-6.5488806e-05
233	0xb8c6f9c4	-9.487898e-05
234	0xb882de97	-6.240344e-05
235	0x35ce4e99	1.5371071e-06
236	0xb79f736c	-1.9008025e-05
237	0xb7361881	-1.0853751e-05
238	0xb7f1e6d2	-2.8836923e-05
239	0xb755fb9f	-1.2754374e-05
240	0x3bbd5f02	0.005779148
241	0xb80ae10f	-3.3111366e-05
242	0x3dffd9f2	0.12492742
243	0x39c32343	0.0003721957
244	0x3a494874	0.0007678338
245	0x392b6759	0.00016346331
246	0x3981e8ce	0.0002477825
247	0x398312fd	0.00025000414
248	0x390b5830	0.00013288925
249	0x3c7ee471	0.015557394
250	0x39a4190c	0.0003129918
251	0x37315bd9	1.0571407e-05
252	0x3a48de9b	0.00076625653
253	0x39713698	0.00023003889
254	0x39261a96	0.00015840898
255	0x3edc61e8	0.43043447

exp_avg_sq f4 [30, 30]
0	0x39c621af	0.000377906
1	0x341aa662	1.4402897e-07
2	0x4058bc4c	3.3864927
3	0x35252730	6.1524315e-07
4	0x386c62c1	5.6358756e-05
5	0x358ec34b	1.0636662e-06
6	0x35e6d9fd	1.7199778e-06
7	0x358f90a9	1.0696432e-06
8	0x33c68934	9.2450506e-08
9	0x3a812584	0.00098531
10	0x355d70b8	8.2492943e-07
11	0x34c71875	3.7084433e-07
12	0x36a04278	4.7761096e-06
13	0x35751e1e	9.131344e-07
14	0x34e1d972	4.2067728e-07
15	0x412dea19	10.869653
16	0x41f5ec09	30.740252
17	0x363fba07	2.85695e-06
18	0x337b5328	5.851612e-08
19	0x387b4455	5.9906703e-05
20	0x337ab82e	5.837517e-08
21	0x359bedab	1.161757e-06
22	0x34aeb86f	3.254422e-07
23	0x382129b7	3.842424e-05
24	0x35ce572e	1.5373569e-06
25	0x3572dc82	9.0472906e-07
26	0x37ad659b	2.067052e-05
27	0x370734d5	8.058928e-06
28	0x36961bca	4.4735834e-06
29	0x37155ebc	8.903149e-06
30	0x396ca3fd	0.00022567804
31	0x34239e77	1.5238207e-07
32	0x40796121	3.8965533
33	0x35095a22	5.116764e-07
34	0x387ae61e	5.9818958e-05
35	0x358459f7	9.86095e-07
36	0x35f95f75	1.8579727e-06
37	0x35294fc4	6.307348e-07
38	0x341a5fbf	1.43772e-07
39	0x3a5bfe6c	0.0008392099
40	0x354a0ca8	7.526928e-07
41	0x342bf9e7	1.601653e-07
42	0x36d3bff2	6.3106354e-06
43	0x355a70a3	8.1375237e-07
44	0x349d3475	2.9281696e-07
45	0x406c1029	3.6884863
46	0x415caa66	13.791601
47	0x36531c2d	3.145785e-06
48	0x331cd0e8	3.651158e-08
49	0x382a8817	4.0657902e-05
50	0x32a002d3	1.8627736e-08
51	0x34f0a21d	4.4821437e-07
52	0x34d7130d	4.0060732e-07
53	0x37a949ac	2.0180676e-05
54	0x363413cf	2.683362e-06
55	0x35563db1	7.9810985e-07
56	0x36d41aba	6.3212037e-06
57	0x36560372	3.189049e-06
58	0x35b285b8	1.3300951e-06
59	0x36457595	2.942373e-06
60	0x00000000	0.0
61	0x00000000	0.0
62	0x00000000	0.0
63	0x00000000	0.0
64	0x00000000	0.0
65	0x00000000	0.0
66	0x00000000	0.0
67	0x00000000	0.0
68	0x00000000	0.0
69	0x00000000	0.0
70	0x00000000	0.0
71	0x00000000	0.0
72	0x00000000	0.0
73	0x00000000	0.0
74	0x00000000	0.0
75	0x00000000	0.0
76	0x00000000	0.0
77	0x00000000	0.0
78	0x00000000	0.0
79	0x00000000	0.0
80	0x00000000	0.0
81	0x00000000	0.0
82	0x00000000	0.0
83	0x00000000	0.0
84	0x00000000	0.0
85	0x00000000	0.0
86	0x00000000	0.0
87	0x00000000	0.0
88	0x00000000	0.0
89	0x00000000	0.0
90	0x1dd7d9ee	5.713536e-21
91	0x00000000	0.0
92	0x2534d448	1.5684435e-16
93	0x19991206	1.5827109e-23
94	0x1a2c33f8	3.5610746e-23
95	0x18991206	3.9567772e-24
96	0x1a991206	6.3308435e-23
97	0x1a2c33f8	3.5610746e-23
98	0x18991206	3.9567772e-24
99	0x1f1e2714	3.3490126e-20
100	0x18991206	3.9567772e-24
101	0x00000000	0.0
102	0x19991206	1.5827109e-23
103	0x19991206	1.5827109e-23
104	0x19991206	1.5827109e-23
105	0x239f6975	1.7283477e-17
106	0x23d1824c	2.2715008e-17
107	0x1b2c33f8	1.4244299e-22
108	0x18991206	3.9567772e-24
109	0x1c8688cf	8.90274e-22
110	0x00000000	0.0
111	0x18991206	3.9567772e-24
112	0x00000000	0.0
113	0x1b6a6374	1.9388161e-22
114	0x1a2c33f8	3.5610746e-23
115	0x19991206	1.5827109e-23
116	0x00000000	0.0
117	0x00000000	0.0
118	0x00000000	0.0
119	0x00000000	0.0
120	0x00000000	0.0
121	0x00000000	0.0
122	0x00000000	0.0
123	0x00000000	0.0
124	0x00000000	0.0
125	0x00000000	0.0
126	0x00000000	0.0
127	0x00000000	0.0
128	0x00000000	0.0
129	0x00000000	0.0
130	0x00000000	0.0
131	0x00000000	0.0
132	0x00000000	0.0
133	0x00000000	0.0
134	0x00000000	0.0
135	0x00000000	0.0
136	0x00000000	0.0
137	0x00000000	0.0
138	0x00000000	0.0
139	0x00000000	0.0
140	0x00000000	0.0
141	0x00000000	0.0
142	0x00000000	0.0
143	0x00000000	0.0
144	0x00000000	0.0
145	0x00000000	0.0
146	0x00000000	0.0
147	0x00000000	0.0
148	0x00000000	0.0
149	0x00000000	0.0
150	0x00000000	0.0
151	0x00000000	0.0
152	0x00000000	0.0
153	0x00000000	0.0
154	0x00000000	0.0
155	0x00000000	0.0
156	0x00000000	0.0
157	0x00000000	0.0
158	0x00000000	0.0
159	0x00000000	0.0
160	0x00000000	0.0
161	0x00000000	0.0
162	0x00000000	0.0
163	0x00000000	0.0
164	0x00000000	0.0
165	0x00000000	0.0
166	0x00000000	0.0
167	0x00000000	0.0
168	0x00000000	0.0
169	0x00000000	0.0
170	0x00000000	0.0
171	0x00000000	0.0
172	0x00000000	0.0
173	0x00000000	0.0
174	0x00000000	0.0
175	0x00000000	0.0
176	0x00000000	0.0
177	0x00000000	0.0
178	0x00000000	0.0
179	0x00000000	0.0
180	0x21da2a75	1.4783493e-18
181	0x1ca7e5b2	1.1110508e-21
182	0x291976ff	3.4076037e-14
183	0x1d96f6ac	3.9959722e-21
184	0x20492e48	1.7040675e-19
185	0x1daf4dc2	4.6402514e-21
186	0x1e36b7b4	9.672989e-21
187	0x1db0ed38	4.683209e-21
188	0x1c689846	7.695917e-22
189	0x22d069ae	5.6490406e-18
190	0x1dba0b73	4.924563e-21
191	0x1b1ee76b	1.3144229e-22
192	0x1f155869	3.162511e-20
193	0x1da668c5	4.4048163e-21
194	0x1d2caf90	2.2854774e-21
195	0x28397bd3	1.0296413e-14
196	0x2a5c342d	1.9558027e-13
197	0x1e6e5554	1.26172605e-20
198	0x1c266e95	5.5067717e-22
199	0x20bbda27	3.1823393e-19
200	0x1b92606b	2.4215983e-22
201	0x1dafe019	4.6553826e-21
202	0x1cfb83ca	1.6643853e-21
203	0x1f960010	6.3527574e-20
204	0x1e5980ce	1.15145205e-20
205	0x1da1d654	4.2837955e-21
206	0x1f176358	3.205767e-20
207	0x1e91ad41	1.5424128e-20
208	0x1e1ff1a5	8.467361e-21
209	0x1e8f5243	1.5174737e-20
210	0x38316f6b	4.2303855e-05
211	0x3338c96a	4.3024023e-08
212	0x3eadb915	0.3393027
213	0x33eacac5	1.0933358e-07
214	0x36e9dfec	6.970009e-06
215	0x33ed5209	1.10510946e-07
216	0x3499f1a8	2.86743e-07
217	0x340e5c2c	1.3258312e-07
218	0x32e8dca4	2.710869e-08
219	0x393f3af1	0.00018237137
220	0x33e279ec	1.05461226e-07
221	0x32984ad2	1.7729153e-08
222	0x3579e961	9.309934e-07
223	0x341636b5	1.3989741e-07
224	0x33a25bef	7.5604355e-08
225	0x3f16489a	0.5870453
226	0x413edcf2	11.928942
227	0x34b58ab5	3.38148e-07
228	0x3226d485	9.710793e-09
229	0x36ffca1a	7.62312e-06
230	0x318f0d02	4.1633266e-09
231	0x342fe6a3	1.638205e-07
232	0x338c17c3	6.52358e-08
233	0x362b4cd7	2.5525712e-06
234	0x34a4ea0d	3.0717675e-07
235	0x341029df	1.3426278e-07
236	0x3580772e	9.571429e-07
237	0x34ce9c43	3.8484185e-07
238	0x341f8e31	1.4859758e-07
239	0x35065f40	5.0057497e-07
240	0x38cc308b	9.73652e-05
241	0x3390fe13	6.7517384e-08
242	0x3f8acb96	1.084338
243	0x3483233f	2.4426296e-07
244	0x37887f8f	1.6271862e-05
245	0x34b32314	3.336687e-07
246	0x3521055c	5.998497e-07
247	0x34a74502	3.1156384e-07
248	0x33584a99	5.0359265e-08
249	0x39e010f4	0.0004273724
250	0x348e1a61	2.6468754e-07
251	0x3337e08c	4.2812232e-08
252	0x361e3573	2.3574946e-06
253	0x34a2a359	3.0293702e-07
254	0x341d3357	1.4640442e-07
255	0x3fb0d406	1.3814704

exp_avg f4 [30]
0	0xb7c03a8e	-2.291545e-05
1	0x3798c7e0	1.8212886e-05
2	0x00000000	0.0
3	0x00000004	6e-45
4	0x00000000	0.0
5	0x00000000	0.0
6	0x00000004	6e-45
7	0xb6b80eae	-5.4853363e-06
8	0x391ce372	0.0001496205
9	0x00000004	6e-45
10	0xb751aaf8	-1.24971775e-05
11	0xb7855fae	-1.589939e-05
12	0x00000004	6e-45
13	0x00000004	6e-45
14	0x374a0dce	1.2043352e-05
15	0x00000000	0.0
16	0xb8894ac3	-6.5465945e-05
17	0x386f21f6	5.701367e-05
18	0xb6d20084	-6.2585477e-06
19	0x3772bac5	1.446781e-05
20	0x37aeffd2	2.0861542e-05
21	0xb760bf87	-1.3396034e-05
22	0x3667a9e4	3.4520572e-06
23	0xb8722e77	-5.774057e-05
24	0x385c78b9	5.256452e-05
25	0xbb03398b	-0.0020023312
26	0x00000000	0.0
27	0x00000004	6e-45
28	0x00000004	6e-45
29	0x00000004	6e-45

exp_avg_sq f4 [30]
0	0x3471ab88	2.2507277e-07
1	0x34528558	1.9606284e-07
2	0x00000000	0.0
3	0x18991206	3.9567772e-24
4	0x00000000	0.0
5	0x00000000	0.0
6	0x1cc3caac	1.2956407e-21
7	0x3316c893	3.5107018e-08
8	0x33b7a9b1	8.552468e-08
9	0x19391520	9.568542e-24
10	0x3385eabc	6.235993e-08
11	0x301763ba	5.50752e-10
12	0x1b8e846d	2.3577508e-22
13	0x1924e239	8.5242866e-24
14	0x3159ec10	3.1711842e-09
15	0x00000000	0.0
16	0x33785dc9	5.7827297e-08
17	0x35aada0b	1.2729446e-06
18	0x32170cc9	8.792264e-09
19	0x31ea1636	6.8128214e-09
20	0x3387d977	6.325984e-08
21	0x336d5994	5.5262333e-08
22	0x329f60ba	1.8554022e-08
23	0x3332d840	4.1640533e-08
24	0x33d50795	9.9199646e-08
25	0x37ca883f	2.4143721e-05
26	0x00000000	0.0
27	0x219c68f6	1.0598754e-18
28	0x2b5eaf7b	7.911377e-13
29	0x23ac58eb	1.8685936e-17

exp_avg f4 [30, 30]
0	0x3cf99e77	0.03047107
1	0x3e19ac32	0.15007094
2	0x00000000	0.0
3	0x00000000	0.0
4	0x00000000	0.0
5	0x00000000	0.0
6	0x80000004	-6e-45
7	0xb7bc5c25	-2.2454255e-05
8	0xba892396	-0.0010462876
9	0x80000004	-6e-45
10	0xba39e86b	-0.0007091823
11	0x00000004	6e-45
12	0x80000004	-6e-45
13	0x00000000	0.0
14	0xba9c2b83	-0.0011914823
15	0x00000000	0.0
16	0xbad0209f	-0.0015878862
17	0x3c92fb20	0.017942011
18	0xaf34945e	-1.6423615e-10
19	0x38e5a6c8	0.00010950636
20	0x390a4d58	0.00013189518
21	0x3b0df669	0.0021661764
22	0xbb3fe3e3	-0.0029280118
23	0xbaaa7879	-0.0013005874
24	0x3d10f00a	0.03538517
25	0x3ad6161c	0.0016333493
26	0x00000000	0.0
27	0x00000004	6e-45
28	0x80000004	-6e-45
29	0x80000004	-6e-45
30	0xba17037e	-0.0005760713
31	0xbb65bae3	-0.003505402
32	0x00000000	0.0
33	0x00000000	0.0
34	0x00000000	0.0
35	0x00000000	0.0
36	0x00000004	6e-45
37	0xbb151ce8	-0.0022752825
38	0xbbd02629	-0.0063522053
39	0x00000004	6e-45
40	0x3b7a7f60	0.0038222894
41	0xb9cb78be	-0.00038809137
42	0x00000004	6e-45
43	0x00000000	0.0
44	0x394b8f16	0.00019412892
45	0x00000000	0.0
46	0x3b8c2b55	0.0042776265
47	0x3b08a537	0.002085043
48	0xbb315020	-0.0027055815
49	0x39b4172c	0.0003434954
50	0x3a27dc05	0.000640333
51	0xbb9dcfd1	-0.0048160334
52	0x3a1a5b2d	0.000588822
53	0xbc676880	-0.014124036
54	0xba28bd57	-0.0006436905
55	0xb96454ee	-0.00021775413
56	0x00000000	0.0
57	0x00000004	6e-45
58	0x00000004	6e-45
59	0x00000004	6e-45
60	0xbb4de76b	-0.0031418453
61	0xbc0a9504	-0.00845838
62	0x00000000	0.0
63	0x00000004	6e-45
64	0x00000000	0.0
65	0x00000000	0.0
66	0x00000004	6e-45
67	0x3bf6b5e4	0.0075290073
68	0xba2a8770	-0.0006505167
69	0x80000004	-6e-45
70	0x3c007eb7	0.007842711
71	0x00000004	6e-45
72	0x80000004	-6e-45
73	0x00000004	6e-45
74	0x2e9381f4	6.7078704e-11
75	0x00000000	0.0
76	0x3c62fae9	0.013853767
77	0xbbe4438e	-0.006966061
78	0x384e9d72	4.926086e-05
79	0xb5fba2aa	-1.8748299e-06
80	0xba32c76a	-0.0006819876
81	0x34518788	1.9513948e-07
82	0xba0b7959	-0.00053205114
83	0x342387b2	1.5229924e-07
84	0xbd25c551	-0.04047138
85	0xbc0d790f	-0.00863482
86	0x00000000	0.0
87	0x00000004	6e-45
88	0x00000004	6e-45
89	0x00000004	6e-45
90	0x00000004	6e-45
91	0x00000004	6e-45
92	0x00000000	0.0
93	0x00000000	0.0
94	0x00000000	0.0
95	0x00000000	0.0
96	0x00000004	6e-45
97	0x80000004	-6e-45
98	0x00000004	6e-45
99	0x00000000	0.0
100	0x00000004	6e-45
101	0x00000004	6e-45
102	0x80000004	-6e-45
103	0x00000000	0.0
104	0xbb89070e	-0.004181749
105	0x00000000	0.0
106	0x00000004	6e-45
107	0x00000004	6e-45
108	0x00000004	6e-45
109	0x3a7a48b1	0.0009547575
110	0x365f7db3	3.3302756e-06
111	0x00000004	6e-45
112	0xbbd814df	-0.006594285
113	0x00000004	6e-45
114	0xbc033fe9	-0.008010843
115	0x382f476b	4.1789765e-05
116	0x00000000	0.0
117	0x00000004	6e-45
118	0x00000004	6e-45
119	0x00000004	6e-45
120	0xbda3544f	-0.07975065
121	0xbc884218	-0.016633078
122	0x00000000	0.0
123	0x00000000	0.0
124	0x00000000	0.0
125	0x00000000	0.0
126	0x00000004	6e-45
127	0x3a84f9d7	0.0010145259
128	0xbc9189ea	-0.017765958
129	0x00000000	0.0
130	0xbb7cbb85	-0.0038563919
131	0x00000004	6e-45
132	0x80000004	-6e-45
133	0x00000000	0.0
134	0x9b730147	-2.0100902e-22
135	0x00000000	0.0
136	0xbd37501f	-0.044754144
137	0xbbf9e75e	-0.007626458
138	0x39e02893	0.0004275484
139	0xa4b962ba	-8.039821e-17
140	0xbc30ead8	-0.010798179
141	0xbac559e7	-0.00150567
142	0xbb51ee7f	-0.0032033024
143	0xbbd782e8	-0.0065768845
144	0xbcbf75d8	-0.023371622
145	0xbc083969	-0.008314469
146	0x00000000	0.0
147	0x80000004	-6e-45
148	0x00000004	6e-45
149	0x80000004	-6e-45
150	0xb9aaf315	-0.00032606037
151	0x3c993914	0.018703975
152	0x00000000	0.0
153	0x80000004	-6e-45
154	0x00000000	0.0
155	0x00000000	0.0
156	0x80000004	-6e-45
157	0xbb662e38	-0.0035122763
158	0x3bad25fd	0.0052840696
159	0x80000004	-6e-45
160	0xbad12225	-0.001595561
161	0x80000004	-6e-45
162	0x80000004	-6e-45
163	0x80000004	-6e-45
164	0x80000004	-6e-45
165	0x00000000	0.0
166	0xbcc4f6c0	-0.02404344
167	0x3c211253	0.009831029
168	0xb89fda6f	-7.622397e-05
169	0xb898c505	-7.2846226e-05
170	0x05169647	7.080568e-36
171	0xbbc05ea5	-0.0058706575
172	0xb84041b7	-4.583757e-05
173	0xbad27508	-0.0016056607
174	0xb55d0020	-8.23291e-07
175	0x3bd20706	0.0064095287
176	0x00000000	0.0
177	0x00000004	6e-45
178	0x00000004	6e-45
179	0x80000004	-6e-45
180	0xb8b125dc	-8.4470696e-05
181	0x3cb54245	0.022126326
182	0x00000000	0.0
183	0x00000000	0.0
184	0x00000000	0.0
185	0x00000000	0.0
186	0x00000004	6e-45
187	0x335ded34	5.1671307e-08
188	0x3b08e19e	0.0020886431
189	0x00000004	6e-45
190	0x35432e8a	7.2710884e-07
191	0x00000004	6e-45
192	0x00000004	6e-45
193	0x00000000	0.0
194	0xb94c130b	-0.0001946205
195	0x00000000	0.0
196	0xb83db304	-4.5227833e-05
197	0x39c390e7	0.0003730126
198	0xab09af33	-4.8915315e-13
199	0xb88abb1c	-6.6152046e-05
200	0xb8389cce	-4.4015054e-05
201	0x3addeff3	0.0016932472
202	0x39ef7f57	0.00045680508
203	0xb9930b6d	-0.00028046538
204	0x3ceeaf6a	0.029136378
205	0x3b730066	0.0037079095
206	0x00000000	0.0
207	0x00000004	6e-45
208	0x80000004	-6e-45
209	0x80000004	-6e-45
210	0x3d08affe	0.033370964
211	0x3cdefca6	0.027220082
212	0x00000000	0.0
213	0x00000000	0.0
214	0x00000000	0.0
215	0x00000000	0.0
216	0x80000004	-6e-45
217	0xb94e427a	-0.00019670455
218	0x3c97a1b8	0.01850973
219	0x80000004	-6e-45
220	0x3c6e8ec5	0.014560406
221	0x36cc25d1	6.084076e-06
222	0x80000004	-6e-45
223	0x00000000	0.0
224	0x293d527b	4.203797e-14
225	0x00000000	0.0
226	0x3ca1aa2d	0.019734466
227	0x3c786cfa	0.015162701
228	0xba15c1a1	-0.0005712752
229	0x3a22689f	0.00061953993
230	0x3848d030	4.7877606e-05
231	0x3bb6cd84	0.0055786986
232	0x38dab13d	0.00010428063
233	0x3d056665	0.032568354
234	0x3ab233bc	0.001359574
235	0x3baac5d6	0.005211572
236	0x00000000	0.0
237	0x80000004	-6e-45
238	0x80000004	-6e-45
239	0x00000004	6e-45
240	0x3d3b5c06	0.045742057
241	0xbca15a4b	-0.019696375
242	0x00000000	0.0
243	0x00000000	0.0
244	0x00000000	0.0
245	0x00000000	0.0
246	0x00000004	6e-45
247	0xbd452e06	-0.048139594
248	0x3c455fbc	0.012046751
249	0x80000004	-6e-45
250	0x3ade1659	0.0016943916
251	0x39d24cea	0.00040111627
252	0x80000004	-6e-45
253	0x00000000	0.0
254	0x3a8ef131	0.0010905621
255	0x00000000	0.0
