ch-04/logs/lightning_logs/version_4/checkpoints/epoch=9-step=2150.ckpt (torch, 668716 bytes, 18 tensors)

model.1.weight f4 [64, 784]
0.012746661 0.029502153 -0.022292238 0.0028835037 -0.040077668 0.028087934 -0.03388887 0.008050437
-0.010625865 0.022678634 0.003405913 -0.00019171003 0.019228956 0.013570845 0.0030961558 -0.016598374
-0.010371712 -0.019395003 0.006770553 -0.02581008 0.025842061 0.012882462 -0.028525583 0.02009084
-0.03276825 -0.02219077 -0.0222236 -0.03056327 -0.03050272 -0.03125687 0.015286255 0.003841234
-0.034683 0.012073757 -0.016499437 -0.024515862 0.015580521 0.0028927508 -0.031017678 0.011151476
0.025572889 0.013100944 0.018379014 0.028335273 0.031409252 -0.033026267 -0.004609444 -0.03238412
-0.011747544 0.021991218 -0.0011381957 0.028597796 -0.029133808 0.010939465 -0.0030795508 -0.03289916
0.0002642666 0.028107593 -0.02921831 -0.014996939 -0.010059599 -0.03795588 -0.010445085 0.014489828
0.0016727747 -0.03215997 -0.017617645 0.0027043596 -0.01974137 0.0033126494 0.013011954 0.018280527
0.013084142 0.006855455 0.0121483235 -0.005913174 0.008535263 0.026856584 -0.028365025 0.012995189
-0.025886426 -0.0012944911 0.010341159 0.021029655 0.007067155 -0.032257475 -0.029176442 0.018304149
-0.029318176 -0.038086314 0.018916346 0.02247919 -0.025736555 -0.019130958 -0.04167651 -0.052670237
-0.061358977 -0.07366175 -0.052123252 -0.03537285 -0.039500747 0.0007909815 -0.040377565 -0.015596855
-0.036377106 -0.0148071265 0.02824412 0.01825987 -0.027319381 0.016521262 -0.036786724 -0.011976312
-0.011546289 -0.016487787 -0.032423325 0.0034249406 0.026128752 -0.00473057 -0.046762165 -0.020484136
-0.039872766 -0.06099914 -0.038618404 -0.09502224 -0.0608424 -0.05295928 -0.024022182 -0.047356475
-0.04568303 0.0021071522 0.007483339 -0.040285174 0.004791057 -0.009451174 0.003753144 0.014625388
-0.013816553 0.006280669 0.027405668 0.004424453 -0.011633717 0.0068943347 0.0038880901 -0.024971586
0.018628608 -0.03819512 -0.044560824 -0.053803764 -0.092730924 -0.051129725 -0.08382773 -0.028756388
-0.07059814 -0.06586519 -0.035491485 -0.076891646 -0.07255468 -0.03326072 -0.036338326 -0.019112902
0.04679577 -0.006727749 0.032624457 -0.024496289 0.0019274255 -0.022747802 0.0319215 -0.015307542
-0.0073013883 0.0044902656 -0.02034649 -0.0013351468 -0.04876021 -0.02750722 -0.031990405 -0.025714476
-0.048779037 -0.0720555 -0.019249693 -0.039436016 -0.01177933 -0.031564288 0.0077596637 0.016627772
-0.024815883 0.0105832815 0.029290112 0.038601458 0.03419254 0.01649879 0.0048453994 0.013243204
-0.016168652 0.041199725 0.030749125 -0.025243843 0.018353418 -0.033033535 -0.041199014 -0.009872067
-0.025779117 -0.056544624 -0.022994325 -0.056108702 -0.01702188 -0.083798245 -0.057492096 -0.051220194
-0.00044436118 0.02552923 0.022427503 0.067843504 0.0834954 0.063305505 0.085040025 0.021894155
0.05293605 0.030839039 0.010498532 0.00712137 0.01286273 0.021323936 -0.026149284 0.021020355
-0.014979854 0.027273353 -0.012023556 -0.007164124 -0.02282864 -0.045747604 -0.052257404 -0.048850592
-0.05187495 -0.02124707 -0.007488267 0.013211461 0.04406837 0.0647837 0.00045272263 0.0719341
0.09040609 0.045552835 0.10029256 0.03480011 0.03954918 0.008222724 0.061971556 0.043244887
0.031176401 0.016169531 0.0070255944 0.0070899893 -0.032629404 0.022416912 0.020196656 -0.021170596
00000000: 5fd7 503c 80ae f13c 369e b6bc 2af9 3c3b
00000010: 7b28 24bd ab18 e63c 0ecf 0abd fbe5 033c
00000020: 1c18 2ebc 8bc8 b93c bd35 5f3b c505 49b9
00000030: 0b86 9d3c 4058 5e3c e0e8 4a3b 50f9 87bc
00000040: 1dee 29bc 45e2 9ebc 84db dd3b a96f d3bc
00000050: bbb2 d33c f610 533c 7cae e9bc 8c95 a43c
00000060: 0038 06bd 6bc9 b5bc 440e b6bc d35f fabc
00000070: d7e0 f9bc 3407 00bd 3373 7a3c 36bd 7b3b
00000080: c30f 0ebd 02d1 453c d429 87bc 7dd5 c8bc
00000090: 7145 7f3c 4e94 3d3b c918 febc aeb4 363c
000000a0: 3c7e d13c 58a5 563c 968f 963c 601f e83c
000000b0: fda6 003d 8d46 07bd d20a 97bb 36a5 04bd
000000c0: c578 40bc ed26 b43c 832f 95ba ed45 ea3c
000000d0: 06aa eebc 713b 333c 4ad2 49bb 45c1 06bd
000000e0: 438d 8a39 e541 e63c 3d5b efbc b9b5 75bc
000000f0: 04d1 24bc a077 1bbd dd21 2bbc be66 6d3c
00000100: 0141 db3a 2cba 03bd e152 90bc a03b 313b
00000110: a7b8 a1bc 0919 593b 1730 553c 0bc1 953c
00000120: de5e 563c baa3 e03b c309 473c 4cc3 c1bb
00000130: 7dd7 0b3c 5702 dc3c c55d e8bc c6e9 543c
00000140: c50f d4bc eaab a9ba f76d 293c 6246 ac3c
00000150: 9893 e73b 6a20 04bd 6f03 efbc 95f2 953c
00000160: ac2c f0bc 6500 1cbd 74f6 9a3c 4726 b83c
00000170: 78d5 d2bc 87b8 9cbc fdb4 2abd bfbc 57bd
00000180: 8d53 7bbd f9db 96bd 317f 55bd 1fe3 10bd
00000190: 89cb 21bd df59 4f3a f262 25bd f489 7fbc
000001a0: 2900 15bd 9799 72bc 3660 e73c b995 953c
000001b0: e5cc dfbc 9957 873c adad 16bd 4b38 44bc
000001c0: a52c 3dbc 6511 87bc 52ce 04bd f874 603b
000001d0: f70b d63c e602 9bbb af89 3fbd 59ce a7bc
000001e0: a051 23bd 3cda 79bd 552e 1ebd 059b c2bd
000001f0: e135 79bd d4eb 58bd 2bca c4bc ddf8 41bd
00000200: 211e 3bbd 2618 0a3b cc36 f53b 1102 25bd
00000210: 4dfe 9c3b 19d9 1abc 4ff7 753b 539f 6f3c
00000220: d35e 62bc 12ce cd3b da81 e03c 00fb 903b
00000230: 599b 3ebc dfe9 e13b 54cf 7e3b 3691 ccbc
00000240: 069b 983c 7c72 1cbd 6985 36bd 5661 5cbd
00000250: b6e9 bdbd 676d 51bd dfad abbd 8492 ebbc
00000260: c295 90bd 54e4 86bd 855f 11bd 5e79 9dbd
00000270: 8c97 94bd 653c 08bd 7fd7 14bd a992 9cbc
00000280: ecac 3f3d 7374 dcbb 39a1 053d 71ac c8bc
00000290: aba1 fc3a 9959 babc 1ec0 023d 7ccc 7abc
000002a0: 7c40 efbb 1423 933b afad a6bc 1800 afba
000002b0: c9b8 47bd d256 e1bc 5f08 03bd 2aa7 d2bc
000002c0: 87cc 47bd d591 93bd 88b1 9dbc a987 21bd
000002d0: 17fe 40bc 8e49 01bd c744 fe3b f736 883c
000002e0: ae4a cbbc 8065 2d3c d1f1 ef3c 901c 1e3d
000002f0: 7a0d 0c3d 7828 873c 28c6 9e3b 06fa 583c
00000300: 1f74 84bc 0bc1 283d 97e5 fb3c 2dcc cebc
00000310: e859 963c 2c4e 07bd 4cc0 28bd 73be 21bc
00000320: ba2e d3bc 569b 67bd 985e bcbc 3dd2 65bd
00000330: 7871 8bbc 6a9e abbd d57c 6bbd 44cc 51bd
00000340: 26f9 e8b9 ad22 d13c e2b9 b73c 89f1 8a3d
00000350: a3ff aa3d 51a6 813d 7729 ae3d 5f5b b33c
00000360: 79d3 583d 27a2 fc3c 0902 2c3c 625a e93b
00000370: 33be 523c 89af ae3c 0637 d6bc e132 ac3c
00000380: 106e 75bc 5e6c df3c 73fe 44bc 07c1 eabb
00000390: 2103 bbbc d761 3bbd dc0b 56bd 8f17 48bd
000003a0: d47a 54bd 560e aebc 2360 f5bb e274 583c
000003b0: 0981 343d 51ad 843d 675b ed39 2f52 933d
000003c0: d426 b93d 9c95 3a3d 3066 cd3d 8f8a 0e3d
000003d0: 52fe 213d 9bb8 063c e3d5 7d3d 8d21 313d
000003e0: a765 ff3c f775 843c f536 e63b 2453 e83b
000003f0: 69a6 05bd aca3 b73c 7573 a53c f56d adbc

model.1.bias f4 [64]
-0.014618002 -0.014618212 0.013276725 -0.010307417 0.020036243 -0.023257427 0.007982238 -0.028531132
-0.0022589646 -0.036161188 0.020435289 0.0010701212 -0.016467106 -0.01804749 0.027111886 -0.016226064
-0.01074091 -0.013934857 0.03033858 0.023609502 0.029576102 -0.0043687834 -0.022680767 0.040325556
-0.031491626 -0.020753454 0.026745636 -0.021021198 -0.0018247447 0.00519613 0.0029663409 0.0272529
-0.016944379 -0.016320154 0.003322673 0.03742997 0.011553878 -0.02812144 0.031232297 0.008132154
0.024224816 -0.026212297 -0.010868558 -0.041085467 -0.017211849 0.016427746 0.019262683 -0.011103212
-0.03368241 0.034434922 -0.0054208 0.010699993 -0.0077632354 -0.008248947 0.010093918 0.015791005
0.00043284838 0.0048964606 -0.008672743 0.023763325 -0.0015402926 -0.0133452965 -0.019707765 0.004576242
00000000: 5880 6fbc 3a81 6fbc 9f86 593c 71e0 28bc
00000010: 0c23 a43c 5c86 bebc efc7 023c 1fba e9bc
00000020: 230b 14bb c11d 14bd e867 a73c 4f43 8c3a
00000030: 06e6 86bc 54d8 93bc bf19 de3c 86ec 84bc
00000040: a4fa 2fbc 074f 64bc 9d88 f83c b768 c13c
00000050: 9549 f23c 0328 8fbb 04cd b9bc 692c 253d
00000060: 5dfd 00bd 2603 aabc aa19 db3c a634 acbc
00000070: 462c efba 4c44 aa3b f166 423b 7941 df3c
00000080: f0ce 8abc d8b1 85bc 34c1 593b 2b50 193d
00000090: 7a4c 3d3c ef5e e6bc e0da ff3c ba3c 053c
000000a0: 1f73 c63c 2cbb d6bc 0912 32bc 3c49 28bd
000000b0: ddff 8cbc 7b93 863c c6cc 9d3c 3fea 35bc
000000c0: 91f6 09bd a20b 0d3d f7a0 b1bb 064f 2f3c
000000d0: bd62 febb 9726 07bc f660 253c 235c 813c
000000e0: edef e239 7d72 a03b 1f18 0ebc 4eab c23c
000000f0: a5e3 c9ba 3ba6 5abc 2e72 a1bc 4df4 953b

model.4.weight f4 [64, 64]
0.20420152 -0.10587042 0.10376745 0.10422301 -0.0475744 0.1633275 -0.13977765 0.010885442
0.19771045 -0.19268 0.10068756 0.07282378 0.09971029 -0.12367872 0.12098907 -0.114505745
-0.18406293 0.08266904 0.084424645 0.04199541 0.16310723 -0.09904322 0.14223994 -0.118915886
0.037666492 -0.033047397 0.021040214 -0.047544856 0.078640595 -0.110216185 -0.05929753 0.15116641
-0.1846782 0.057898395 0.12676147 -0.07536874 -0.04151913 -0.047000956 -0.014529354 -0.028642006
0.036404792 0.062654644 0.050558552 -0.015737673 0.123877995 -0.009604991 0.109431416 -0.098929755
-0.11940231 0.03157282 0.13417825 0.04280749 -0.11421591 0.010080343 0.06656691 -0.07646236
-0.11885025 -0.002333853 0.05429672 0.19924535 -0.02782692 0.089777306 0.13047285 -0.24563754
-0.05910496 0.028904874 -0.15521088 -0.1475314 0.081356406 -0.054797944 -0.026032511 0.14185643
0.10209109 0.111250885 -0.053690974 0.023630584 0.13262445 0.05460876 -0.0734931 -0.107655026
0.14503586 -0.046140347 0.047951765 -0.09866306 0.048691478 -0.15491886 -0.07845315 0.014337611
0.0041670897 -0.05408024 0.008452945 0.044027425 -0.16078848 0.047511354 0.08237503 0.017170794
-0.07503985 0.0050303545 -0.052304946 0.016966451 -0.004324447 -0.053101014 -0.034988075 0.13170467
-0.14851642 0.01758862 -0.19345398 0.022908824 -0.09824419 0.081889614 -0.05736126 0.12204338
0.09257427 -0.24199641 -0.11865728 0.06493462 -0.1044627 -0.020788193 0.0651173 0.14647184
0.07324609 0.07051284 0.11211344 -0.0866383 0.032422934 -0.060801752 0.01948036 0.21239333
0.094931245 0.052561484 -0.11867805 0.05265776 -0.18609592 0.07336717 -0.06980381 -0.04739335
0.15346576 0.16455121 0.040021677 0.110929936 0.1483433 0.1298718 -0.105453916 0.034493726
-0.08928116 0.033869658 -0.09764437 0.14607458 0.06549158 -0.17080818 -0.059442196 -0.11176114
0.12525271 -0.035710033 0.039006375 0.14136522 -0.03884308 -0.1481887 0.05654181 -0.09880852
-0.05968238 -0.06440887 -0.0066306065 0.010381603 -0.122153774 0.08112797 0.04130941 0.1588054
0.02540531 -0.040466517 0.06107786 0.16409874 -0.08420677 -0.040889427 0.18783092 -0.05390125
-0.0763254 -0.051005434 -0.13639577 -0.043279435 -0.105854094 -0.02819628 0.066082664 0.026125945
-0.0047797943 0.026508339 0.20114185 0.0932166 0.076545835 0.069477715 -0.023942564 -0.041383546
-0.14347635 0.030339526 0.08452295 -0.0945324 -0.17900725 -0.19887449 0.014921723 0.027997566
-0.11194718 0.052373346 -0.08411077 -0.029297387 0.033358928 0.13131797 -0.13313153 0.1739711
-0.08112476 0.024544371 -0.006619035 0.16422404 -0.034129653 0.11317945 -0.1477128 0.06730457
-0.07256486 0.06356036 0.020072773 -0.026062772 -0.0083483895 -0.091220506 0.022283854 -0.015403214
0.015474731 0.029449321 0.13415295 -0.06948859 -0.10008776 0.2602563 0.115062065 -0.049834516
0.07784913 -0.2348833 -0.026980327 0.12616773 0.0018578229 0.11661344 0.21593541 -8.5333035e-05
0.13764371 0.19888924 0.0069404524 0.046855394 -0.060265794 -0.017394865 -0.08993765 -0.094271176
-0.060586285 0.035062872 0.2354429 -0.14198111 0.02064141 0.092523545 0.05902942 0.18376358
00000000: 341a 513e 97d2 d8bd 0784 d43d e072 d53d
00000010: 60dd 42bd 533f 273e df21 0fbe da58 323c
00000020: 9c74 4a3e e84d 45be 4835 ce3d a224 953d
00000030: e934 cc3d 454b fdbd 1ec9 f73d fd81 eabd
00000040: fe7a 3cbe 634e a93d d4e6 ac3d 6103 2c3d
00000050: 9505 273e 2cd7 cabd 59a7 113e 2c8a f3bd
00000060: 2e48 1a3d b55c 07bd 875c ac3c 65be 42bd
00000070: 520e a13d 06b9 e1bd f8e1 72bd 5ecb 1a3e
00000080: 481c 3dbe de26 6d3d c2cd 013e ed5a 9abd
00000090: f70f 2abd 1384 40bd 870c 6ebc a4a2 eabc
000000a0: 311d 153d 1451 803d 7c16 4f3d 4bec 80bc
000000b0: bfb3 fd3d 415e 1dbc 941d e03d af9b cabd
000000c0: 3389 f4bd 8052 013d 0666 093e e856 2f3d
000000d0: 08ea e9bd 0628 253c 3b54 883d 4c98 9cbd
000000e0: c367 f3bd 8ef3 18bb 3d66 5e3d f906 4c3e
000000f0: 48f5 e3bc 2add b73d ad9a 053e 6888 7bbe
00000100: 0b18 72bd eac9 ec3c 9aef 1ebe 7912 17be
00000110: 309e a63d cf73 60bd 2242 d5bc d042 113e
00000120: 2215 d13d 81d7 e33d 11eb 5bbd ed94 c13c
00000130: b4ce 073e 6fad 5f3d 8d83 96bd 3d7a dcbd
00000140: 4884 143e a9fd 3cbd 1269 443d dc0f cabd
00000150: b770 473d 0da3 1ebe 0cac a0bd 4de8 6a3c
00000160: 158c 883b 3e83 5dbd 397e 0a3c 1a56 343d
00000170: bca5 24be 449b 423d 3db4 a83d c4a9 8c3c
00000180: 7eae 99bd acd5 a43b b63d 56bd 3afd 8a3c
00000190: 17b4 8dbb 7380 59bd a84f 0fbd 97dd 063e
000001a0: b014 18be 0216 903c cd18 46be 49ab bb3c
000001b0: 4034 c9bd beb5 a73d a4f3 6abd e1f1 f93d
000001c0: 9497 bd3d e8cd 77be 9702 f3bd 71fc 843d
000001d0: 8af0 d5bd 004c aabc 385c 853d b7fc 153e
000001e0: 0c02 963d 0969 903d bb9b e53d 6c6f b1bd
000001f0: e9cd 043d 420b 79bd 4795 9f3c a37d 593e
00000200: 506b c23d b64a 573d 7a0d f3bd aaaf 573d
00000210: ee8f 3ebe 8741 963d 4df5 8ebd 881f 42bd
00000220: 2126 1d3e 1d80 283e c5ed 233d 3c2f e33d
00000230: 4ee7 173e 1dfd 043e 39f8 d7bd 4b49 0d3d
00000240: 0ad9 b6bd e9ba 0a3d c5f9 c7bd 9394 153e
00000250: 7320 863d 57e8 2ebe a979 73bd 06e3 e4bd
00000260: 3f42 003e af44 12bd 26c5 1f3d 0bc2 103e
00000270: ec19 1fbd c7be 17be 6398 673d 1f5c cabd
00000280: 8375 74bd cce8 83bd 8f45 d9bb 9917 2a3c
00000290: c22b fabd 6c26 a63d 0e34 293d e29d 223e
000002a0: cc1e d03c 38c0 25bd c72c 7a3d 8009 283e
000002b0: 9974 acbd ac7b 27bd c056 403e 8fc7 5cbd
000002c0: 7e50 9cbd 13eb 50bd 55ab 0bbe c745 31bd
000002d0: 08ca d8bd e3fb e6bc 5956 873d 1406 d63c
000002e0: d29f 9cbb 0428 d93c 21f8 4d3e 58e8 be3d
000002f0: 10c4 9c3d 554a 8e3d 3223 c4bc cb81 29bd
00000300: 77eb 12be 998a f83c 5e1a ad3d 349a c1bd
00000310: ad4d 37be c1a5 4bbe 3e7a 743c 275b e53c
00000320: 9044 e5bd 6f85 563d 4442 acbd 1301 f0bc
00000330: 5fa3 083d 3878 063e a253 08be 7b25 323e
00000340: bd24 a6bd 4711 c93c 7de4 d8bb 592a 283e
00000350: 89cb 0bbd a1ca e73d 0642 17be fad6 893d
00000360: e39c 94bd ef2b 823d a86f a43c 9881 d5bc
00000370: afc7 08bc d1d1 babd a18c b63c c35d 7cbc
00000380: ba89 7d3c b43f f13c 645f 093e 0950 8ebd
00000390: d0fa ccbd 5040 853e a9a5 eb3d 471f 4cbd
000003a0: 5d6f 9f3d 3f85 70be d905 ddbc 1d32 013e
000003b0: 3182 f33a 07d3 ee3d 2c1e 5d3e d3f4 b2b8
000003c0: 79f2 0c3e 9fa9 4b3e bc6c e33b 71eb 3f3d
000003d0: 44d9 76bd ad7f 8ebc 3b31 b8bd 3f11 c1bd
000003e0: 5329 78bd 169e 0f3d f217 713e 7f63 11be
000003f0: 2d18 a93c fc7c bd3d d5c8 713d 852c 3c3e

model.4.bias f4 [64]
0.05049687 0.11849184 0.12377116 -0.09057089 -0.07246213 0.018961629 -0.08441801 0.09214111
0.079277925 0.10289206 0.06027394 -0.019840533 0.14990078 0.08402506 -0.011367479 -0.118722185
-0.10403633 0.0833035 -0.080034904 0.05082425 0.078860804 0.13219175 0.13202499 0.031321127
0.044446852 0.014085676 -0.03112311 -0.05784718 0.1057405 -0.053393986 -0.04006019 -0.025474919
0.120120384 0.052708957 0.08274679 -0.004167303 0.1226091 0.012577266 -0.11230899 0.13522549
0.052357238 0.04997615 0.07205528 -0.08659045 -0.006369432 -0.11064412 0.08059676 0.030572757
-0.08259508 -0.12143735 -0.08729375 0.11608368 -0.07320544 -0.0053200675 -0.08123572 -0.060055755
0.05195239 0.115171224 -0.06830028 -0.020024039 0.05628464 -0.0029035977 0.11728218 0.059692316
00000000: ced5 4e3d daab f23d bc7b fd3d 3b7d b9bd
00000010: 0667 94bd 6b55 9b3c 5ae3 acbd 7ab4 bc3d
00000020: 775c a23d 13b9 d23d cfe1 763d 9d88 a2bc
00000030: 977f 193e 5515 ac3d aa3e 3abc 9e24 f3bd
00000040: 0011 d5bd 079b aa3d 57e9 a3bd 172d 503d
00000050: c681 a13d 465d 073e 8f31 073e 954a 003d
00000060: e70d 363d 9bc7 663c e4f5 febc 2af1 6cbd
00000070: 7a8e d83d a7b3 5abd 2716 24bd c7b0 d0bc
00000080: ad01 f63d 59e5 573d 2677 a93d df8d 88bb
00000090: 7b1a fb3d e110 4e3c 4102 e6bd 8d78 0a3e
000000a0: 8b74 563d cbb3 4c3d b891 933d 5556 b1bd
000000b0: abb6 d0bb 6299 e2bd ea0f a53d b873 fa3c
000000c0: 9c27 a9bd 25b4 f8bd 11c7 b2bd 48bd ed3d
000000d0: bcec 95bd f653 aebb ea5e a6bd 06fd 75bd
000000e0: 07cc 543d e4de eb3d 04e1 8bbd 7409 a4bc
000000f0: b98a 663d 494a 3ebb a431 f03d ee7f 743d

model.7.weight f4 [10, 64]
-0.2505948 -0.051779903 -0.05187032 -0.04755945 -0.11228639 0.00972655 -0.19229311 -0.19289868
-0.07381085 -0.123097315 0.1608346 0.0021598877 0.013925892 -0.14155418 0.07211958 -0.2230465
-0.15762585 0.16744837 0.18371287 -0.09345547 -0.043325953 -0.14127392 0.08538911 -0.20308737
0.14384787 -0.16361496 -0.08946991 0.0859016 -0.057317894 0.08459329 -0.15917167 0.17497063
-0.18764861 0.115835324 0.116310485 0.06385221 -0.102701865 -0.19435082 0.1562753 -0.11542821
-0.18275341 -0.029547414 -0.07674439 0.046393774 0.044667903 0.09247016 -0.12671645 -0.17877248
-0.20831497 0.15199125 0.03101792 -0.010557517 -0.2372759 0.022716533 0.0916848 -0.06177961
0.13844222 0.19295512 -0.05066292 -0.0435621 0.08593862 0.060557872 -0.042223472 -0.01840116
0.114354685 -0.17565995 0.16971639 -0.0369917 -0.087908156 -0.118143044 0.09876914 0.11907489
-0.15294509 -0.15395468 -0.12588069 0.030776225 -0.16871633 0.0445295 -0.11408037 0.16189446
0.16066319 0.039746903 -0.044356108 0.14130482 0.060312796 -0.18272178 0.04283933 -0.17305134
-0.07013087 0.016073981 -0.13987483 -0.14874046 0.07735422 -0.010933432 0.09207929 -0.009383155
0.1648912 -0.22050603 -0.1647531 -0.11673433 -0.1900848 0.08982335 -0.05061872 0.12698378
-0.13584358 0.103824206 0.07156254 -0.11842081 0.11040368 -0.16203955 -0.12993783 -0.092422225
0.115434065 -0.06365604 -0.13199426 0.09910013 0.19156547 -0.1471512 -0.10531652 -0.003319713
-0.08208365 -0.12798326 -0.095682316 0.0861251 -0.12664893 0.04048475 0.1432085 0.06570536
-0.009237957 -0.1351488 -0.25341174 -0.23764677 -0.096812434 0.12761791 0.20696509 -0.07603458
0.1451946 -0.090156026 -0.096449465 -0.12836976 0.02355018 0.13832667 0.062056094 0.09405333
0.15284309 -0.07997018 -0.124552995 0.078908496 0.0030419268 -0.0055012857 -0.089581735 -0.1710922
-0.07510561 0.043449562 -0.059165854 0.08594931 -0.018250965 -0.06609352 -0.13588795 0.09923984
-0.0033471782 -0.10391925 0.06551008 -0.1457562 0.020136107 0.14281282 0.07473612 0.04832493
-0.09299674 -0.12071136 0.11709471 -0.018518822 -0.15883403 0.1283405 0.043811016 0.11976057
0.09004529 0.07784394 -0.09270649 -0.018652705 -0.19514537 -0.031245073 -0.10069225 -0.004332414
0.15491152 0.123000234 -0.09311914 0.13861829 0.15909663 0.09972842 -0.20262355 -0.0850222
-0.1901678 0.023880808 -0.12518874 0.07629592 -0.08596101 0.13791159 0.054329425 0.1438895
-0.055629853 0.092483096 0.14254354 0.03190475 0.14769259 0.1390572 -0.0048046457 -0.046293963
-0.10823257 0.09349894 -0.01782813 0.08758589 -0.02795918 -0.093684055 -0.19583774 -0.039006874
-0.08811035 -0.051042527 0.21011062 -0.03844173 -0.15814264 0.08391585 0.034469485 0.008614907
-0.15558545 -0.12016497 0.07893951 -0.003352087 -0.027910851 -0.0068200435 0.1350772 0.10398651
0.13540581 0.017529394 0.14644673 -0.07680042 0.15506443 0.012195692 0.052749988 -0.052269083
0.14211474 -0.09746732 -0.13476077 -0.058066905 0.17195304 -0.07893268 -0.20765038 -0.12681477
-0.15751193 -0.1124509 -0.049870633 0.06694971 0.14796434 -0.10415061 0.004146602 0.062017985
00000000: f64d 80be 2a17 54bd f975 54bd b3cd 42bd
00000010: 68f6 e5bd 1c5c 1f3c 7ce8 44be 3b87 45be
00000020: 252a 97bd 721a fcbd d3b1 243e e78c 0d3b
00000030: 6d29 643c 94f3 10be 6eb3 933d 4d66 64be
00000040: ac68 21be 9677 2b3e 3a1f 3c3e 9565 bfbd
00000050: 8e76 31bd 1caa 10be 7ce0 ae3d 23f6 4fbe
00000060: db4c 133e ae8a 27be 003c b7bd 2eed af3d
00000070: 2bc6 6abd 3f3f ad3d e6fd 22be 802b 333e
00000080: f526 40be 123b ed3d 3134 ee3d f3c4 823d
00000090: 5b55 d2bd e703 47be a206 203e a065 ecbd
000000a0: b623 3bbe 6b0d f2bc 2a2c 9dbd 6607 3e3d
000000b0: b1f5 363d ff60 bd3d f5c1 01be 2210 37be
000000c0: 8550 55be 98a3 1b3e 4b19 fe3c 70f9 2cbc
000000d0: 74f8 72be 0618 ba3c 3ec5 bb3d 9e0c 7dbd
000000e0: ccc3 0d3e 0796 453e ec83 4fbd 2c6e 32bd
000000f0: 9600 b03d 880b 783d 85f2 2cbd 08be 96bc
00000100: ca32 ea3d 34e0 33be 22ca 2d3e 9c84 17bd
00000110: 3109 b4bd fbf4 f1bd 7a47 ca3d 89dd f33d
00000120: a39d 1cbe 4ca6 1dbe dee6 00be 6c1e fc3c
00000130: f9c3 2cbe 9164 363d f8a2 e9bd a9c7 253e
00000140: e484 243e a6cd 223d c0ae 35bd 36b2 103e
00000150: 8d0a 773d 6b1b 3bbe 4b78 2f3d 5f34 31be
00000160: c6a0 8fbd 95ad 833c 593b 0fbe 6b4f 18be
00000170: e46b 9e3d 2322 33bc 1194 bc3d cebb 19bc
00000180: 3dd9 283e 55cc 61be 09b5 28be 6912 efbd
00000190: 97a5 42be 4ef5 b73d 9355 4fbd 0908 023e
000001a0: 941a 0bbe c9a1 d43d 628f 923d 9c86 f2bd
000001b0: 531b e23d b2ed 25be 6c0e 05be dd47 bdbd
000001c0: b268 ec3d 195e 82bd 8129 07be 02f5 ca3d
000001d0: bd29 443e ceae 16be 30b0 d7bd 8b8f 59bb
000001e0: 791b a8bd 0b0e 03be 17f5 c3bd 5b62 b03d
000001f0: 42b0 01be 56d3 253d 40a5 123e 8890 863d
00000200: cd5a 17bc 7264 0abe 2fbf 81be ad59 73be
00000210: 9945 c6bd 45ae 023e a8ee 533e 05b8 9bbd
00000220: e5ad 143e b9a3 b8bd 4c87 c5bd 5d73 03be
00000230: 4fec c03c 82a5 0d3e 882e 7e3d 089f c03d
00000240: e682 1c3e 68c7 a3bd a415 ffbd c79a a13d
00000250: 105b 473b 2144 b4bb a176 b7bd cb32 2fbe
00000260: f8d0 99bd 2bf8 313d e557 72bd 3106 b03d
00000270: 0c83 95bc 0a5c 87bd 3626 0bbe 423e cb3d
00000280: 555c 5bbb 9ed3 d4bd 262a 863d 1d41 15be
00000290: 7af4 a43c 863d 123e 400f 993d 5df0 453d
000002a0: 1375 bebd 8437 f7bd 5acf ef3d c9b4 97bc
000002b0: 63a5 22be b16b 033e 2e73 333d 0845 f53d
000002c0: aa69 b83d a56c 9f3d e6dc bdbd 8fcd 98bc
000002d0: 30d4 47be abf5 ffbc bd37 cebd ecf6 8dbb
000002e0: 20a1 1e3e 8ce7 fb3d 3fb5 bebd f4f1 0d3e
000002f0: 3aea 223e 6a3e cc3d 8c7c 4fbe 1f20 aebd
00000300: 59bb 42be afa1 c33c 7a31 00be 0941 9c3d
00000310: 530c b0bd b238 0d3e 8888 5e3d c557 133e
00000320: 21dc 63bd c767 bd3d eff6 113e 8eae 023d
00000330: ba3c 173e 0365 0e3e 4a70 9dbb bd9e 3dbd
00000340: 0aa9 ddbd 5f7c bf3d 4c0c 92bc 3b60 b33d
00000350: a60a e5bc 6ddd bfbd b089 48be acc5 1fbd
00000360: 3373 b4bd f811 51bd 3d27 573e 1375 1dbd
00000370: 25f0 21be 13dc ab3d e02f 0d3d 8a25 0d3c
00000380: cb51 1fbe 0d19 f6bd 0aab a13d b0ae 5bbb
00000390: 4ca5 e4bc ac7a dfbb ad51 0a3e e1f6 d43d
000003a0: d2a7 0a3e ce99 8f3c 22f6 153e 8a49 9dbd
000003b0: 36c9 1e3e 71d0 473c 5f10 583d 1b18 56bd
000003c0: 8786 113e f29c c7bd bafe 09be 90d7 6dbd
000003d0: 7514 303e 75a7 a1bd 4da2 54be bbdb 01be
000003e0: cf4a 21be a84c e6bd 2645 4cbd ee1c 893d
000003f0: f783 173e ea4c d5bd 38e0 873b 9206 7e3d

model.7.bias f4 [10]
0.0062310095 0.021764195 0.07357961 -0.058307238 0.01819964 0.03948056 0.077378236 0.075357385
-0.021891972 0.05241659
00000000: 7f2d cc3b d34a b23c e8b0 963d 92d3 6ebd
00000010: 6917 953c 5eb6 213d 7b78 9e3d f954 9a3d
00000020: cb56 b3bc c7b2 563d

exp_avg f4 [64, 784]
-0.0003844113 -0.0003844113 -0.0003844113 -0.0003844113 -0.0003844113 -0.0003844113 -0.0003844113 -0.0003844113
-0.0003844113 -0.0003844113 -0.0003844113 -0.0003844113 -0.0003844113 -0.0003844113 -0.0003844113 -0.0003844113
-0.0003844113 -0.0003844113 -0.0003844113 -0.0003844113 -0.0003844113 -0.0003844113 -0.0003844113 -0.0003844113
-0.0003844113 -0.0003844113 -0.0003844113 -0.0003844113 -0.0003844113 -0.0003844113 -0.0003844113 -0.0003844113
-0.0003844113 -0.0003844113 -0.0003844113 -0.0003844113 -0.0003844113 -0.0003844113 -0.0003844113 -0.0003844113
-0.0003844113 -0.0003844113 -0.0003844113 -0.00038441143 -0.00038441163 -0.00038441148 -0.0003844113 -0.00038443942
-0.00038442545 -0.0003844116 -0.00038441145 -0.0003844113 -0.0003844113 -0.0003844113 -0.0003844113 -0.0003844113
-0.0003844113 -0.0003844113 -0.0003844113 -0.0003844113 -0.0003844113 -0.0003844113 -0.0003844113 -0.0003844113
-0.0003844113 -0.0003844113 -0.0003844113 -0.00038442065 -0.0003843535 -0.00034555505 -0.00013213225 -0.00014256983
-0.0003841033 -0.00038438174 -0.00038449437 -0.0003843006 -0.000384115 -0.00039366118 -0.0003951227 -0.00038688132
-0.0003844136 -0.00038440817 -0.0003844113 -0.0003844113 -0.0003844113 -0.0003844113 -0.0003844113 -0.0003844113
-0.0003844113 -0.0003844113 -0.0003844113 -0.0003844963 -0.00038780642 -0.00038529676 -0.0003832893 -0.00038059516
-0.00037910635 -0.00015240691 -7.936904e-06 -0.0002738813 -0.00036206082 -0.00021116136 -0.000110506626 -9.54668e-05
-0.00019967963 -0.00038736628 -0.00040052863 -0.00039864582 -0.00038509554 -0.00038232477 -0.00038443 -0.0003844113
-0.0003844113 -0.0003844113 -0.0003844113 -0.0003844113 -0.00038441125 -0.00038441125 -0.00038420546 -0.0003816276
-0.0003804016 -0.00038143515 -0.00038518806 -0.00036690512 -0.0002439788 6.8092835e-05 0.00016652425 0.00022865378
0.0003259743 0.00013364914 0.00013872707 0.00033510826 0.00056288816 0.0003524296 -4.8603753e-05 -0.00031577976
-0.0004180522 -0.00040433646 -0.00038945948 -0.00038441093 -0.0003844113 -0.0003844113 -0.00038448125 -0.0003844483
-0.00038450438 -0.00038455814 -0.00038489982 -0.0003719984 -0.0003651889 -0.000433416 -0.00047752797 -0.00035038966
-1.5862418e-06 0.00024715817 0.0006696144 0.00084827177 0.0012188663 0.0012733319 0.001011353 0.00033665198
0.0003260976 0.00030949825 0.00010613101 -4.0618004e-05 -0.00030033916 -0.00037464593 -0.0003853014 -0.0003844113
-0.0003844113 -0.00038441122 -0.00038444845 -0.00038289645 -0.0003825859 -0.00038673237 -0.0004102387 -0.0004002986
-0.00040073998 -0.00039449814 -0.00049083197 -0.000639282 -0.0003763634 0.0004571035 0.00073858903 0.0011035796
0.0010769262 0.00060895 0.00041224805 3.557192e-05 8.745199e-05 2.16164e-05 5.065292e-05 -0.00022982113
-0.00013065239 -0.0004084329 -0.00043552087 -0.00038905884 -0.0003844113 -0.0003821451 -0.0003844802 -0.0003807771
-0.00038368895 -0.0004055729 -0.00047821924 -0.0004330144 -0.00028561548 -0.00017493576 -0.00074753974 -0.00037244766
0.00045144436 0.0012309485 0.0011922814 3.897475e-06 -4.5733872e-05 0.00023180562 -0.0006995662 -2.6092164e-05
0.0005188891 0.00020965557 0.00042255168 0.00045530856 0.00016566768 -0.00037181482 -0.0004494899 -0.00038622864
-0.0003844113 -0.00038454632 -0.0003849723 -0.0003512538 -0.0003191392 -0.0003870401 -0.00040892808 -0.00053430424
-0.00036602392 -0.00039267188 -7.1787304e-05 0.00060810987 0.0008757954 0.0006262404 0.00039377462 -0.00045580324
0.000305495 0.0006253373 -0.00038819827 0.0005878743 0.0010621839 0.0007678278 0.0007869667 0.00074834627
1.9245392e-05 -0.00029022575 -0.00037861933 -0.00038520788 -0.0003844113 -0.00038458672 -0.0003859058 -0.00032375343
00000000: d08a c9b9 d08a c9b9 d08a c9b9 d08a c9b9
00000010: d08a c9b9 d08a c9b9 d08a c9b9 d08a c9b9
00000020: d08a c9b9 d08a c9b9 d08a c9b9 d08a c9b9
00000030: d08a c9b9 d08a c9b9 d08a c9b9 d08a c9b9
00000040: d08a c9b9 d08a c9b9 d08a c9b9 d08a c9b9
00000050: d08a c9b9 d08a c9b9 d08a c9b9 d08a c9b9
00000060: d08a c9b9 d08a c9b9 d08a c9b9 d08a c9b9
00000070: d08a c9b9 d08a c9b9 d08a c9b9 d08a c9b9
00000080: d08a c9b9 d08a c9b9 d08a c9b9 d08a c9b9
00000090: d08a c9b9 d08a c9b9 d08a c9b9 d08a c9b9
000000a0: d08a c9b9 d08a c9b9 d08a c9b9 d48a c9b9
000000b0: db8a c9b9 d68a c9b9 d08a c9b9 968e c9b9
000000c0: b68c c9b9 da8a c9b9 d58a c9b9 d08a c9b9
000000d0: d08a c9b9 d08a c9b9 d08a c9b9 d08a c9b9
000000e0: d08a c9b9 d08a c9b9 d08a c9b9 d08a c9b9
000000f0: d08a c9b9 d08a c9b9 d08a c9b9 d08a c9b9
00000100: d08a c9b9 d08a c9b9 d08a c9b9 118c c9b9
00000110: 0e83 c9b9 9d2b b5b9 fb8c 0ab9 cc7e 15b9
00000120: 7961 c9b9 d886 c9b9 f695 c9b9 f47b c9b9
00000130: 0b63 c9b9 4f64 ceb9 7928 cfb9 55d6 cab9
00000140: 1f8b c9b9 648a c9b9 d08a c9b9 d08a c9b9
00000150: d08a c9b9 d08a c9b9 d08a c9b9 d08a c9b9
00000160: d08a c9b9 d08a c9b9 d08a c9b9 3896 c9b9
00000170: 7f52 cbb9 a801 cab9 38f4 c8b9 9e8a c7b9
00000180: cbc2 c6b9 6bcf 1fb9 be28 05b7 ba97 8fb9
00000190: fbd2 bdb9 326b 5db9 cbbf e7b8 5935 c8b8
000001a0: 1861 51b9 6c17 cbb9 0bfe d1b9 5601 d1b9
000001b0: a6e6 c9b9 c372 c8b9 528d c9b9 d08a c9b9
000001c0: d08a c9b9 d08a c9b9 d08a c9b9 d08a c9b9
000001d0: ce8a c9b9 ce8a c9b9 2f6f c9b9 3015 c8b9
000001e0: a370 c7b9 5cfb c7b9 11f3 c9b9 2c5d c0b9
000001f0: 8fd4 7fb9 10cd 8e38 039d 2e39 c8c2 6f39
00000200: 88e7 aa39 2b24 0c39 4477 1139 78b1 af39
00000210: c98e 133a 4dc6 b839 e2db 4bb8 3e8f a5b9
00000220: 042e dbb9 1ffd d3b9 5e30 ccb9 c38a c9b9
00000230: d08a c9b9 d08a c9b9 3394 c9b9 c78f c9b9
00000240: 4e97 c9b9 859e c9b9 61cc c9b9 c808 c3b9
00000250: d376 bfb9 1c3c e3b9 b85c fab9 81b4 b7b9
00000260: dae6 d4b5 0295 8139 1089 2f3a 8e5e 5e3a
00000270: 5ec2 9f3a eee5 a63a 608f 843a aa80 b039
00000280: 14f8 aa39 2744 a239 a792 de38 405d 2ab8
00000290: d776 9db9 206c c4b9 4702 cab9 d08a c9b9
000002a0: d08a c9b9 cd8a c9b9 cc8f c9b9 7ebf c8b9
000002b0: cf95 c8b9 57c2 cab9 4e15 d7b9 2bdf d1b9
000002c0: 691a d2b9 a5d4 ceb9 2dab 00ba 7d95 27ba
000002d0: a452 c5b9 65a7 ef39 df9d 413a fda5 903a
000002e0: a627 8d3a f1a1 1f3a ff22 d839 0f33 1538
000002f0: 6e66 b738 de54 b537 2974 5438 24fc 70b9
00000300: bcff 08b9 f022 d6b9 9f56 e4b9 98fa cbb9
00000310: d08a c9b9 a65a c8b9 0f94 c9b9 0aa3 c7b9
00000320: dc29 c9b9 13a3 d4b9 80b9 fab9 3506 e3b9
00000330: a9be 95b9 f66e 37b9 8bf6 43ba 1445 c3b9
00000340: d6af ec39 c757 a13a 5346 9c3a 0ec7 8236
00000350: 5fd2 3fb8 d910 7339 1863 37ba 7fe0 dab7
00000360: 0f06 083a fdd6 5b39 ed89 dd39 7bb6 ee39
00000370: 14b7 2d39 24f0 c2b9 83a9 ebb9 bb7e cab9
00000380: d08a c9b9 ef9c c9b9 1cd6 c9b9 7d28 b8b9
00000390: 2352 a7b9 a5eb cab9 6665 d6b9 8d10 0cba
000003a0: e6e6 bfb9 87df cdb9 848c 96b8 9069 1f3a
000003b0: a295 653a 482a 243a 8973 ce39 e0f8 eeb9
000003c0: d82a a039 aded 233a 1787 cbb9 941b 1a3a
000003d0: fa38 8b3a 0d48 493a 714c 4e3a ab2c 443a
000003e0: 2a71 a137 7129 98b9 6d81 c6b9 baf5 c9b9
000003f0: d08a c9b9 5ba2 c9b9 6653 cab9 73bd a9b9

exp_avg_sq f4 [64, 784]
7.8650504e-07 7.8650504e-07 7.8650504e-07 7.8650504e-07 7.8650504e-07 7.8650504e-07 7.8650504e-07 7.8650504e-07
7.8650504e-07 7.8650504e-07 7.8650504e-07 7.8650504e-07 7.8650544e-07 7.86506e-07 7.8650504e-07 7.8650504e-07
7.8650504e-07 7.8650504e-07 7.8650504e-07 7.8650504e-07 7.8650504e-07 7.8650504e-07 7.8650504e-07 7.8650504e-07
7.8650504e-07 7.8650504e-07 7.8650504e-07 7.8650504e-07 7.8650504e-07 7.8650504e-07 7.8650504e-07 7.8650504e-07
7.865051e-07 7.865054e-07 7.8650504e-07 7.865392e-07 7.8672105e-07 7.8663874e-07 7.867304e-07 7.868879e-07
7.8688555e-07 7.853378e-07 7.8514836e-07 7.8477984e-07 7.9568565e-07 7.86054e-07 7.8688157e-07 7.8632377e-07
7.8716874e-07 7.883429e-07 7.861617e-07 7.8636674e-07 7.8650504e-07 7.8650504e-07 7.8650504e-07 7.8650504e-07
7.8650504e-07 7.8650504e-07 7.865036e-07 7.8625686e-07 7.863899e-07 7.8650515e-07 7.865346e-07 7.867354e-07
7.87139e-07 7.8663703e-07 7.8184127e-07 7.847119e-07 7.8358914e-07 7.8083957e-07 7.792439e-07 7.7353326e-07
7.8654824e-07 7.896379e-07 8.0248213e-07 7.865022e-07 7.849618e-07 8.0100307e-07 8.0162147e-07 7.858897e-07
7.877022e-07 7.8683195e-07 7.8650504e-07 7.8650504e-07 7.8650504e-07 7.8650504e-07 7.865143e-07 7.863416e-07
7.872201e-07 7.932903e-07 7.926045e-07 7.8182273e-07 7.7541716e-07 7.786821e-07 7.8919345e-07 8.190925e-07
8.788835e-07 9.157835e-07 1.0809771e-06 1.1359409e-06 1.0327648e-06 1.0821253e-06 1.0837398e-06 9.541691e-07
9.4917186e-07 9.68385e-07 8.7865334e-07 8.026305e-07 8.0336065e-07 8.107414e-07 7.86968e-07 7.8650504e-07
7.8650504e-07 7.8649043e-07 7.865383e-07 7.8670945e-07 7.867175e-07 7.9596384e-07 8.047354e-07 8.127298e-07
8.446502e-07 9.2320744e-07 1.053228e-06 1.2351735e-06 1.5022987e-06 1.7898849e-06 2.1265366e-06 2.4447859e-06
2.4609742e-06 2.6074977e-06 2.5458814e-06 2.2634674e-06 1.8559641e-06 1.4783003e-06 1.1973839e-06 1.0104246e-06
9.02739e-07 8.1466055e-07 7.822028e-07 7.8763605e-07 7.8650504e-07 7.8650504e-07 7.861749e-07 7.879968e-07
7.915976e-07 8.180021e-07 8.87235e-07 9.861136e-07 1.1078512e-06 1.4472599e-06 1.9293407e-06 2.588013e-06
3.3769804e-06 4.4539465e-06 5.889145e-06 6.7346164e-06 6.877329e-06 6.4220285e-06 6.10132e-06 5.300706e-06
3.9511415e-06 2.7797637e-06 1.9678523e-06 1.4232862e-06 1.0343402e-06 8.4159984e-07 8.033411e-07 7.891006e-07
7.8650504e-07 7.864193e-07 7.858404e-07 7.9486153e-07 7.9989866e-07 8.2438066e-07 9.753412e-07 1.2406957e-06
1.7339858e-06 2.258148e-06 3.2627327e-06 4.5315255e-06 6.703959e-06 1.0184278e-05 1.2135009e-05 1.3093403e-05
1.2127758e-05 1.0385402e-05 9.5080695e-06 8.235466e-06 6.1832484e-06 4.2106876e-06 3.0834992e-06 2.1757767e-06
1.3998999e-06 1.009807e-06 8.481993e-07 7.9862315e-07 7.865041e-07 7.8569894e-07 7.8582946e-07 7.927298e-07
8.106422e-07 8.5439746e-07 1.0602487e-06 1.3545248e-06 2.1187734e-06 3.189213e-06 4.781087e-06 7.278735e-06
1.04585915e-05 1.414151e-05 1.5370733e-05 1.6534546e-05 1.5442405e-05 1.2772336e-05 1.11519585e-05 1.0277215e-05
8.328281e-06 5.2717087e-06 3.7369193e-06 2.6639334e-06 1.6707128e-06 1.1282237e-06 8.7920967e-07 7.932345e-07
7.8648344e-07 7.859551e-07 7.8608184e-07 7.875412e-07 8.200773e-07 9.230515e-07 1.1383391e-06 1.5877931e-06
2.7459546e-06 4.5597603e-06 7.1016757e-06 1.0210897e-05 1.4008791e-05 1.540311e-05 1.5193068e-05 1.5566517e-05
1.5192353e-05 1.34212305e-05 1.1635493e-05 1.0425905e-05 9.607872e-06 7.034182e-06 4.5185466e-06 3.2004593e-06
2.062068e-06 1.1695187e-06 9.29668e-07 7.852881e-07 7.8609094e-07 7.871515e-07 7.852129e-07 7.898452e-07
00000000: 3720 5335 3720 5335 3720 5335 3720 5335
00000010: 3720 5335 3720 5335 3720 5335 3720 5335
00000020: 3720 5335 3720 5335 3720 5335 3720 5335
00000030: 3e20 5335 4820 5335 3720 5335 3720 5335
00000040: 3720 5335 3720 5335 3720 5335 3720 5335
00000050: 3720 5335 3720 5335 3720 5335 3720 5335
00000060: 3720 5335 3720 5335 3720 5335 3720 5335
00000070: 3720 5335 3720 5335 3720 5335 3720 5335
00000080: 3820 5335 3d20 5335 3720 5335 9022 5335
00000090: 0f2f 5335 6729 5335 b42f 5335 863a 5335
000000a0: 5d3a 5335 01d0 5235 fcc2 5235 a9a9 5235
000000b0: 1a97 5535 3801 5335 173a 5335 c213 5335
000000c0: d34d 5335 839e 5335 9f08 5335 b616 5335
000000d0: 3720 5335 3720 5335 3720 5335 3720 5335
000000e0: 3720 5335 3720 5335 1e20 5335 290f 5335
000000f0: 4d18 5335 3920 5335 3f22 5335 0c30 5335
00000100: c84b 5335 4929 5335 b9df 5135 fea4 5235
00000110: d657 5235 e39a 5135 3c2d 5135 cda4 4f35
00000120: 2f23 5335 81f7 5335 276a 5735 0520 5335
00000130: 2ab6 5235 8304 5735 022f 5735 eef5 5235
00000140: 7c72 5335 ae36 5335 3720 5335 3720 5335
00000150: 3720 5335 3720 5335 da20 5335 fc14 5335
00000160: 5a51 5335 7ff2 5435 5ec3 5435 73de 5135
00000170: 4326 5035 a006 5135 f6d8 5335 9cdf 5b35
00000180: 6aec 6b35 2ad4 7535 1716 9135 a276 9835
00000190: 879d 8a35 8b3d 9135 0475 9135 0011 8035
000001a0: 98ca 7e35 75f9 8135 99dc 6b35 5974 5735
000001b0: 86a6 5735 baa1 5935 0740 5335 3720 5335
000001c0: 3720 5335 361f 5335 8022 5335 432e 5335
000001d0: d12e 5335 38aa 5535 ff04 5835 5e2a 5a35
000001e0: ebbb 6235 55d2 7735 a35c 8d35 3dc8 a535
000001f0: 97a2 c935 fa3b f035 9fb5 0e36 1a11 2436
00000200: 3727 2536 78fc 2e36 e9d9 2a36 13e6 1736
00000210: 711a f935 036a c635 ccb5 a035 ed9d 8735
00000220: c053 7235 0caf 5a35 91f8 5135 f06d 5335
00000230: 3720 5335 3720 5335 8709 5335 ba86 5335
00000240: 2c7e 5435 ad94 5b35 532a 6e35 9b5a 8435
00000250: 7ab1 9435 793f c235 d279 0136 baad 2d36
00000260: 15a0 6236 1c73 9536 5f9b c536 eaf9 e136
00000270: cec3 e636 ce7c d736 f1b9 cc36 b8dc b136
00000280: 0c94 8436 fa8b 3a36 720f 0436 be07 bf35
00000290: a9d3 8a35 4dea 6135 2ea5 5735 95d2 5335
000002a0: 3720 5335 531a 5335 8bf2 5235 785e 5535
000002b0: 9eb8 5635 024b 5d35 78e8 8235 fb85 a635
000002c0: 4cbb e835 b08a 1736 52f5 5a36 820d 9836
000002d0: 92f2 e036 24dd 2a37 7797 4b37 bdab 5b37
000002e0: 5378 4b37 f63c 2e37 d984 1f37 0f2b 0a37
000002f0: b379 cf36 8849 8d36 1dee 4e36 8f03 1236
00000300: 32e4 bb35 b488 8735 d0af 6335 f760 5635
00000310: 2620 5335 d2e8 5235 caf1 5235 facb 5435
00000320: e89a 5935 bf59 6535 de4d 8e35 1ecd b535
00000330: 4030 0e36 4306 5636 396d a036 dc3b f436
00000340: 4f77 2f37 5341 6d37 66f0 8037 abb3 8a37
00000350: 508a 8137 c448 5637 4c19 3b37 4d6c 2c37
00000360: b2b9 0b37 a2e3 b036 c9c7 7a36 07c6 3236
00000370: 413d e035 796d 9735 d402 6c35 a9ee 5435
00000380: bb1e 5335 6cfa 5235 2203 5335 6b67 5335
00000390: 4823 5c35 9ec7 7735 09c9 9835 281c d535
000003a0: 2447 3836 0b00 9936 ee4a ee36 784f 2b37
000003b0: 4d07 6b37 ed35 8137 bbe5 7e37 d794 8237
000003c0: a9e2 7e37 bf2b 6137 1036 4337 ecea 2e37
000003d0: 7f31 2137 2a07 ec36 059e 9736 79c7 5636
000003e0: 0f62 0a36 5bf8 9c35 4c8e 7935 96cc 5235
000003f0: c203 5335 a44c 5335 6bc7 5235 c005 5435

exp_avg f4 [64]
0.0009061753 -0.00040985507 0.00011312516 0.0003322196 -0.0011476409 -1.170618e-06 0.0005815512 -3.8324237e-07
-0.00038444702 0.00014024545 -0.00083453587 -0.00020580304 5.39834e-05 0.00050416787 -0.00071004045 -0.0004360127
-0.0003205362 -0.00018159044 -0.0004934925 0.00022265513 -8.9781155e-05 -0.0006562384 0.00079586625 -0.00080275803
0.00076699106 0.00049181626 -0.0005855058 -0.00024134661 0.0007639069 -0.00014499144 -0.00021099922 0.00078791456
0.0010861766 0.00017515388 0.00015797495 -4.5417004e-05 -3.3314143e-05 0.00032519718 0.0002120041 -0.0003296809
-0.000115248346 -0.00041217403 0.0007636128 0.00016924119 -5.8755366e-05 0.0011795247 0.0005009854 -0.0008099668
-0.00067398185 0.0013025334 -0.0005606609 0.00046148192 -0.00094368524 0.001385819 0.00043513117 -0.0001873544
0.00051454577 -0.00052810344 0.00014790845 0.00037249838 0.00058355945 -0.00036594036 0.00049232197 -0.00018814144
00000000: 658c 6d3a d1e1 d6b9 9c3d ed38 c32d ae39
00000010: 706c 96ba 211e 9db5 3e73 183a 6ec0 cdb4
00000020: 9b8f c9b9 da0e 1339 c1c4 5aba d5cc 57b9
00000030: 3c6c 6238 222a 043a 0222 3aba a298 e4b9
00000040: a40d a8b9 5069 3eb9 b95d 01ba 8878 6939
00000050: e448 bcb8 6a07 2cba aea1 503a 2e70 52ba
00000060: e60f 493a 3bed 003a a17c 19ba fd11 7db9
00000070: ed40 483a d808 18b9 ac3f 5db9 0d8c 4e3a
00000080: 0a5e 8e3a 83a9 3739 14a6 2539 237e 3eb8
00000090: caba 0bb8 3a7f aa39 6b4d 5e39 05d9 acb9
000000a0: 7cb1 f1b8 1019 d8b9 302d 483a 5676 3139
000000b0: 1870 76b8 489a 9a3a 9054 033a f453 54ba
000000c0: 28ae 30ba c5b9 aa3a 51f9 12ba 0ef3 f139
000000d0: a561 77ba 5fa4 b53a 5122 e439 9074 44b9
000000e0: 95e2 063a 6c70 0aba df17 1b39 e34b c339
000000f0: 03fa 183a afdb bfb9 2b0f 013a d547 45b9

exp_avg_sq f4 [64]
4.370527e-06 5.066034e-06 3.802191e-06 3.4745551e-06 7.632277e-06 4.6431574e-06 4.222254e-06 3.052959e-06
3.2681462e-06 3.2179764e-06 3.2572225e-06 2.7547899e-06 9.662836e-07 4.319207e-06 3.1423617e-06 2.9034795e-06
3.3838403e-06 3.551807e-06 2.3626803e-06 3.6403128e-06 3.0204185e-06 8.96021e-06 6.409769e-06 2.401494e-06
4.000799e-06 3.2547073e-06 2.8213337e-06 3.0924475e-06 2.505291e-06 3.7499349e-06 1.5074047e-06 4.7350004e-06
3.7144994e-06 3.4259194e-06 3.3053354e-06 3.6409294e-06 6.504721e-06 4.545628e-06 2.831947e-06 3.7375041e-06
4.8481447e-06 2.5516752e-06 5.071546e-06 4.3968384e-06 3.0682434e-06 5.8796295e-06 5.0913154e-06 2.9952603e-06
2.110339e-06 3.805904e-06 3.7941802e-06 2.4589438e-06 4.8191855e-06 3.3260153e-06 3.8933645e-06 2.0845682e-06
3.901033e-06 2.7591616e-06 5.6965155e-06 3.4355562e-06 4.318796e-06 5.5340074e-06 4.7008916e-06 6.173161e-06
00000000: 8ba6 9236 e7fc a936 2529 7f36 672c 6936
00000010: 610c 0037 6bcc 9b36 e3ac 8d36 70e1 4c36
00000020: 5352 5b36 6af4 5736 a896 5a36 eede 3836
00000030: 40b1 8135 b5ed 9036 5de1 5236 66d9 4236
00000040: ef15 6336 945b 6e36 8a8e 1e36 194c 7436
00000050: 65b2 4a36 cf53 1637 7f13 d736 5a29 2136
00000060: 9a3e 8636 726b 5a36 2556 3d36 d887 4f36
00000070: 9220 2836 64a7 7b36 0852 ca35 58e1 9e36
00000080: 9d46 7936 d9e8 6536 3bd1 5d36 b156 7436
00000090: 2143 da36 a686 9836 7b0c 3e36 d5d1 7a36
000000a0: 3fad a236 723d 2b36 402c aa36 8e88 9336
000000b0: 05e8 4d36 a249 c536 11d6 aa36 2e02 4936
000000c0: 599f 0d36 ef68 7f36 859f 7e36 5504 2536
000000d0: 7db4 a136 8234 5f36 bfa3 8236 9ce4 0b36
000000e0: 9ee5 8236 092a 3936 b224 bf36 688e 6636
000000f0: 2dea 9036 c3b0 b936 5abc 9d36 0d23 cf36

exp_avg f4 [64, 64]
0.00092506444 0.00033620122 0.002124093 -0.00031844576 0.001174955 0.00013391861 0.00071159325 0.00050494977
5.7656194e-05 0.0007874029 0.0010079156 0.0015284661 0.0010686576 -0.00015953757 0.00013611732 0.0008086879
0.0014821558 0.0008144543 0.00096215797 0.0008675214 0.0007668555 0.0002429217 0.00029901156 0.001978389
0.000120800076 0.00052087713 0.0010344853 0.0010648101 0.00062798586 0.00094944146 0.002054353 0.00037531924
8.05828e-06 0.0003177935 -5.115716e-05 0.0005019944 0.0009068173 1.4416905e-05 0.0019217466 0.00044570028
0.0005388922 0.0011514736 -4.451596e-05 0.0006170159 0.0011533623 0.0002622435 -0.00027699696 0.0016544332
0.001058432 0.0012236529 0.0011942134 0.0010010573 0.00061444496 0.00022624471 0.00026780574 0.0017715573
9.292578e-05 0.00040128853 -0.00014256255 -0.00017332476 0.0004924012 0.0004729546 -0.0001753637 0.00031290695
-3.2543834e-05 -0.0005195769 0.00069877884 -0.00045325834 0.00019394996 -0.0015652181 -0.0004187761 -0.002210706
-0.0021092484 -0.0007867622 -0.0017941155 5.4039803e-05 2.7314159e-06 -0.00064832973 -0.0012158112 -0.0012518506
-0.0029410818 -0.00060076156 -0.00095130946 -0.0006361749 -0.0019183327 0.0010646564 3.672579e-06 -0.002315992
-0.00016900344 -0.00042364743 -0.0029440168 -0.0018131977 0.00061289885 -0.00026171614 -0.0012167671 -0.0021982132
-0.00021392558 -0.0014031257 0.00013412572 -0.0016401422 0.00033155983 -0.00033951897 -0.00019564919 0.00048103218
0.00022326958 -0.0005762022 8.4818974e-05 -0.00040314533 3.2160082e-05 0.00014141203 -0.00052211276 -0.0005965106
-0.0010552604 -0.00044613422 0.0002553176 -0.00081945374 -0.0006234999 -0.0009598325 -0.0006042765 -0.0013414382
-0.0003763862 -0.0008814952 -0.00034028158 -0.0003409887 -0.00091623527 0.00015488021 -0.00046680646 -0.0014790674
0.0004908039 -0.00033774308 0.0024014814 -0.0011722109 0.0005660649 -0.0010534609 0.0011666975 0.0012541618
-0.0011793649 0.0007641139 0.0006672169 0.0006955256 0.0014457878 0.0001277393 0.00012651703 0.001084727
-0.0012848735 0.0014387514 -0.0005299288 0.0012534347 0.00018562665 0.0006595122 -0.0017807891 0.0015650252
0.0017556403 -5.0027847e-05 0.0004698539 -0.00021922913 0.0015291292 -2.3727736e-05 0.0030395568 -0.0004592677
0.0006510826 -0.00046838273 0.00091101404 0.00129588 -2.3579758e-05 0.00017189638 0.002202974 4.0783892e-05
0.00050408713 -0.0010419589 -0.0013257216 0.0006858352 0.00037364417 0.00058526266 7.513845e-05 0.0022365125
0.00046402388 0.0024096873 0.00046172756 -0.00012371237 0.001095524 -0.0010623186 0.0025959525 0.00021184534
0.00023696963 4.0059964e-05 -0.00044433563 0.0006171761 -0.000642572 -0.0016935572 0.0013072097 0.0001319469
0.0013415753 0.00014192941 0.00097049 0.00021292618 -0.00016478248 0.00040142646 0.0017392017 0.00033683202
0.00054330466 0.0005764323 0.0008256426 -0.0014339602 0.0046244273 -0.00020724871 0.0011528804 0.0004661117
0.0004657012 0.00092672114 -0.00035595178 0.0004924322 0.0011086001 -4.6279692e-05 -5.3673702e-05 0.0007608196
0.0011659617 -0.00011168651 0.0024504457 0.0004577304 0.0013493166 -0.00024138222 0.0006306875 0.0013907392
0.0010918415 0.00039759188 0.00021031026 0.00058122637 -0.00046313545 -0.0005701988 0.0011502323 0.00037893906
0.00029712307 0.0020242597 0.0015112592 0.0021684242 0.00029821036 0.00090241054 0.0009335002 0.0017829894
0.00030206345 0.0013791312 0.0008772445 0.0012885926 0.00010476447 0.00054636196 0.0017579267 0.001082705
0.0005597295 0.0009207285 0.00037102058 0.0006462013 0.00090837403 -0.00015394088 0.001013983 -0.0007856196
00000000: 0680 723a 2a44 b039 5e34 0b3b 11f5 a6b9
00000010: f300 9a3a 816c 0c39 378a 3a3a 9b5e 043a
00000020: ded3 7138 b769 4e3a 091c 843a d056 c83a
00000030: 3312 8c3a 8a49 27b9 b7ba 0e39 20fe 533a
00000040: e544 c23a 1a81 553a 5439 7c3a 606a 633a
00000050: cd06 493a ccb8 7e39 a7c4 9c39 dca7 013b
00000060: 0c56 fd38 798b 083a 9197 873a 1991 8b3a
00000070: 6b9f 243a f0e3 783a 53a2 063b 7fc6 c439
00000080: 0d32 0737 869d a639 9591 56b8 4698 033a
00000090: 7bb7 6d3a 23e0 7137 1ee3 fb3a e1ac e939
000000a0: 7244 0d3a 0bed 963a a6b6 3ab8 3cbf 213a
000000b0: 6b2c 973a ba7d 8939 e739 91b9 91d9 d83a
000000c0: 16bb 8a3a fa62 a03a 2787 9c3a e935 833a
000000d0: b412 213a 1a3c 6d39 4768 8c39 9933 e83a
000000e0: 26e1 c238 0964 d239 d87c 15b9 83be 35b9
000000f0: 7c14 013a e4f6 f739 d6e1 37b9 a90d a439
00000100: ad7f 08b8 3734 08ba 412e 373a 4ea3 edb9
00000110: 0c5f 4b39 0128 cdba 2d8f dbb9 7ee1 10bb
00000120: 513b 0abb b83e 4eba 8728 ebba cca8 6238
00000130: 5e4d 3736 acf4 29ba db5b 9fba 2315 a4ba
00000140: 2abf 40bb 6d7c 1dba 4c61 79ba fac4 26ba
00000150: 9070 fbba f18b 8b3a 6d76 7636 e6c7 17bb
00000160: 8436 31b9 ff1c deb9 68f0 40bb d2a8 edba
00000170: f2aa 203a f236 89b9 ee7b 9fba e60f 10bb
00000180: 3651 60b9 16e9 b7ba 19a4 0c39 0afa d6ba
00000190: 35d5 ad39 7701 b2b9 2e27 4db9 0c33 fc39
000001a0: 791d 6a39 460c 17ba d7e0 b138 405d d3b9
000001b0: a0e3 0638 0148 1439 65de 08ba 265f 1cba
000001c0: aa50 8aba 1fe7 e9b9 26dc 8539 9cd0 56ba
000001d0: 5f72 23ba 459d 7bba 4f68 1eba 32d3 afba
000001e0: b355 c5b9 2414 67ba d267 b2b9 bbc6 b2b9
000001f0: 822f 70ba 5767 2239 b4bd f4b9 44dd c1ba
00000200: 4ba9 003a 1c13 b1b9 2c62 1d3b dfa4 99ba
00000210: f963 143a 4814 8aba dfeb 983a b062 a43a
00000220: eb94 9aba d14e 483a 2be8 2e3a ef53 363a
00000230: 9780 bd3a c2f1 0539 a8a9 0439 662d 8e3a
00000240: 3369 a8ba 7c94 bc3a ebea 0aba 4a4a a43a
00000250: c6a4 4239 1de3 2c3a 5e69 e9ba 8821 cd3a
00000260: 831d e63a fed4 51b8 b956 f639 dfe0 65b9
00000270: 106d c83a ed0a c7b7 4d33 473b dec9 f0b9
00000280: 6aad 2a3a 4491 f5b9 1ed1 6e3a 84da a93a
00000290: 25cd c5b7 153f 3439 c55f 103b 5f0f 2b38
000002a0: b724 043a 5792 88ba d6c3 adba 9fc9 333a
000002b0: ace5 c339 506c 193a a693 9d38 7492 123b
000002c0: 3b48 f339 d8eb 1d3b 0614 f239 c9b8 01b9
000002d0: b097 8f3a 7f3d 8bba db20 2a3b cd22 5e39
000002e0: 0d7b 7839 0f06 2838 b8f5 e8b9 fdc9 213a
000002f0: 4772 28ba 5afa ddba ae56 ab3a 3a5b 0a39
00000300: ccd7 af3a e3d2 1439 7b68 7e3a f044 5f39
00000310: 76c9 2cb9 8c76 d239 edf5 e33a d498 b039
00000320: 8f6c 0e3a b81b 173a f06f 583a b8f3 bbba
00000330: 8288 973b e750 59b9 3f1c 973a 7460 f439
00000340: 5b29 f439 34ef 723a 0a9f bab9 9116 013a
00000350: 724e 913a 711c 42b8 b31f 61b8 bd71 473a
00000360: 2fd3 983a 3d39 eab8 a897 203b 89fb ef39
00000370: 8ddb b03a 8c1b 7db9 b954 253a 7749 b63a
00000380: 1f1c 8f3a e173 d039 bb86 5c39 715d 183a
00000390: fdd0 f2b9 6579 15ba 64c3 963a 57ac c639
000003a0: 2fc7 9b39 71a9 043b 7215 c63a 1f1c 0e3b
000003b0: 1e59 9c39 bf8f 6c3a 23b6 743a 32b3 e93a
000003c0: 455e 9e39 f7c3 b43a e2f6 653a fee5 a83a
000003d0: ffb4 db38 bb39 0f3a 3b6a e63a 8de9 8d3a
000003e0: d0ba 123a 0b5d 713a 8a85 c239 d665 293a
000003f0: f31f 6e3a 316b 21b9 a0e7 843a 0af2 4dba
