ch-04/lightning_logs/version_10/checkpoints/epoch=17-step=630.ckpt (torch, 47816 bytes, 27 tensors)

fc1.weight f4 [30, 30]
000000 30 3e e0 3d e4 0a d5 3c 23 1a d1 bd d3 f0 55 3d
       0.10949361 0.02600617 -0.10210063 0.05223162
000010 2e d1 87 bd 1f a0 6f 3c 83 88 05 be 5d 0b 18 3e
       -0.06631695 0.014625578 -0.13040356 0.14848085
000020 8b da 34 bb c9 14 3f 3e 09 f4 12 3e c0 9a 20 be
       -0.0027596082 0.18660273 0.14350905 -0.15684032
000030 49 d5 28 be b2 b7 ef 3d 96 cb 0b bd d2 ee f8 3d
       -0.16487612 0.11704959 -0.0341297 0.12154926
000040 cc c9 42 3d c6 e1 c3 3d 22 fb 18 3e 14 ed b2 3d
       0.04755573 0.09564547 0.1493955 0.08736625
000050 c6 a5 2b 3e af 37 ee ba 6a 30 16 3e 40 24 0f be
       0.16762456 -0.0018174554 0.14666906 -0.13978672
000060 bf 0f 29 be 52 2b fb bd 11 b5 bb 3d f1 cd 26 be
       -0.16509913 -0.12264122 0.09165395 -0.16289498
000070 28 24 ca 3d fb 83 99 3d a2 2c 04 be 5c 99 17 be
       0.098701775 0.074958764 -0.12907651 -0.14804596
000080 0e 77 3c bd 0e af cd bd c6 9f 93 bd 2b ff e5 bc
       -0.046011977 -0.10043155 -0.07208209 -0.028075775
000090 b5 8b 3c 3d 11 07 ce bd 5e e2 fd bd 0c ef 21 be
       0.046031673 -0.100599416 -0.12396692 -0.15813845
0000a0 d8 88 84 3d b6 b5 99 bd 32 48 15 3e 91 f6 54 bc
       0.064714134 -0.07505362 0.14578322 -0.012998239
0000b0 59 5b 23 3b 8a 7f 26 bd d3 1e f8 bd d0 27 d4 3d
       0.0024926274 -0.040648974 -0.12115254 0.10359156
0000c0 23 a4 10 3e 16 ba 00 be eb 03 a3 3d 51 53 84 bc
       0.14125113 -0.12570986 0.07959732 -0.01615301
0000d0 06 c5 2a be 13 ae 69 bc 47 aa 67 bd 91 65 6f bd
       -0.16676721 -0.014262694 -0.056558874 -0.05844647
0000e0 2a 8f 07 be 13 f4 b6 bc 6f e5 38 3e 5d bb a8 3c
       -0.13238207 -0.02233318 0.18056272 0.020597154
0000f0 f9 d7 37 be 40 93 1c 3c 36 1a 19 be 92 85 99 3d
       -0.17953481 0.0095565915 -0.14951405 0.0749618
000100 f5 36 26 3e b7 87 ae 3d 0d ff ab ba e9 b7 a9 bd
       0.16231902 0.08521979 -0.0013122276 -0.08287031
000110 1b 95 8d bd aa e1 27 be 4b 9d 99 bd 6c c3 ba bd
       -0.06913205 -0.16394678 -0.075007044 -0.09119305
000120 ee a4 97 bd 0c af ea bd 46 26 22 bd da 1e cb bd
       -0.07404505 -0.11459169 -0.03958728 -0.09917994
000130 71 3b 3c bc 1e 5c 2f bd 70 80 f9 bd e1 ee 33 be
       -0.011488781 -0.04281246 -0.12182701 -0.17571594
000140 c3 53 78 3d f2 7e 0b 3e 74 cd bf bd f5 43 c3 bd
       0.060626756 0.13622645 -0.09365359 -0.09534446
000150 10 02 f2 3d 02 a3 20 3b 35 51 67 bc e3 12 31 3e
       0.118168 0.0024511223 -0.014118482 0.17292361
000160 ad 7e b9 bc 0f 83 e7 3d e1 f6 7a 3d c5 b4 b7 3d
       -0.022643412 0.11304294 0.0612706 0.08970026
000170 c1 f6 c6 3c ad db 42 3b f4 6a 09 be e3 92 2a bd
       0.024287583 0.0029732988 -0.13419706 -0.04164399
000180 94 10 24 be 34 0c 81 3c 43 68 f5 3d b0 dc 7f bb
       -0.16021949 0.01575289 0.11982777 -0.0039041452
000190 9e b9 12 3d 3f 55 ab bc 4f 1b 02 bd 15 c2 1d be
       0.03582155 -0.020914672 -0.031764325 -0.15406068
0001a0 5f 74 af bb 5d 62 1f be 3c e4 01 3e 50 e4 d2 bd
       -0.0053544487 -0.15564866 0.12684721 -0.102974534
0001b0 7f 39 ab 3c 35 41 93 bc f9 fe 27 3e 01 92 2c be
       0.02090144 -0.01797543 0.16405858 -0.16852571
0001c0 4f 86 1e 3e 2c 16 a0 3d 01 53 06 be 19 80 43 bc
       0.15480922 0.07816729 -0.13117601 -0.011932396
0001d0 f2 a0 1e 3e ae 85 96 3d 5a 13 88 ba ea 04 0e 3e
       0.15491083 0.07349716 -0.0010381744 0.13869062
0001e0 8c 0b bc 3d 57 ca 47 3e 47 4d 12 3e 0e e5 b1 3d
       0.0918189 0.1951078 0.14287291 0.08686267
0001f0 70 41 da 3c 76 94 82 bd 67 94 af bd e6 3e 46 bd
       0.026642531 -0.06375973 -0.085732274 -0.04839983
000200 b7 e4 da 3d b8 5b e0 bd 4c 2c 47 3e c8 50 0f bd
       0.10688155 -0.10954994 0.19450492 -0.03498915
000210 5a 74 f3 bd 23 92 19 be a3 67 67 bc f0 fe 43 3e
       -0.11887427 -0.14997153 -0.01412383 0.1914022
000220 af 0a e7 bd 5f 44 0f be e2 5b 0d be b6 11 b5 bd
       -0.112813346 -0.13990925 -0.13804582 -0.08841269
000230 81 50 0f 3e 4a 92 18 3e 05 e3 3f 3d 01 50 8a bd
       0.13995554 0.14899555 0.046847362 -0.06753541
000240 9b 4d 48 3e 51 73 74 bd 60 41 20 be 69 4f c8 3d
       0.19560854 -0.059680287 -0.15649939 0.09780771
000250 45 c4 46 3e 02 58 8e bd ee 31 da bd bc 6c 73 bd
       0.19410808 -0.0695038 -0.106540546 -0.05942987
000260 66 dc ff bd 85 73 a8 3d f0 01 9a bd 8f 33 86 3c
       -0.124932095 0.082251586 -0.07519901 0.016382007
000270 82 34 02 3c 0e ac be 3d 08 4c 99 bd 4c 8c bd bd
       0.007947089 0.093101606 -0.07485205 -0.09255275
000280 87 38 74 bc 04 86 84 3c 8a 5b 37 3d 30 1b 03 be
       -0.014906055 0.016177185 0.044765033 -0.1280334
000290 27 70 e1 bb 8d 77 fc 3d cb ff c2 bd 2e 84 14 3c
       -0.0068798247 0.1232749 -0.09521445 0.009064717
0002a0 18 6d 8d bd c5 3b 0c 3e c9 ca 35 be 6d fe 8f 3b
       -0.069055736 0.13694675 -0.17753138 0.0043943436
0002b0 38 be 21 3d 6d 47 32 bc 1b 81 bd 3d c6 8b ec 3d
       0.039488047 -0.010881287 0.092531405 0.11550097
0002c0 55 f6 3c be 5d 79 e3 bd 1e 31 cf bd b5 e6 d2 bd
       -0.18453343 -0.111071326 -0.1011679 -0.1029791
0002d0 46 ff 36 be ce 53 c1 3d 26 71 1d be 3c da 17 bd
       -0.17870817 0.094398126 -0.15375194 -0.03707336
0002e0 bf 50 35 be 25 bc 6c 3d 29 44 17 3e 19 94 8a bd
       -0.17706583 0.057796616 0.14772095 -0.06766529
0002f0 f6 ad b9 bd 01 64 e1 bc 47 d2 a7 bd 5b c9 0f bd
       -0.090663835 -0.027513506 -0.08194404 -0.035104137
000300 7d 00 62 3d 32 4c c5 bd b2 cd 95 bd be 72 15 be
       0.055176247 -0.09633674 -0.07314624 -0.14594552
000310 b5 66 eb 3d d5 13 ab 3c 08 79 ea 39 de ad 69 bb
       0.11494199 0.02088348 0.00044722133 -0.0035656611
000320 67 3d 30 3e 2d ca 21 3e c9 8e 18 3e fd 46 ba bd
       0.17210923 0.1579978 0.14898218 -0.09095571
000330 94 0e 37 3e b6 6c 11 3e d9 9d 1f be 86 95 0a be
       0.17876655 0.14201626 -0.15587558 -0.13533601
000340 59 21 30 be 34 fb 3f bd 19 8c 26 be b8 9c c0 bd
       -0.17200221 -0.046870425 -0.1626438 -0.09404892
000350 7a 52 dd bd 5f 3a 3a 3e 5c 34 85 bd e3 a4 5c bc
       -0.10806747 0.1818633 -0.065041274 -0.013467046
000360 91 0e 1e 3e b8 0f 0d 3d a4 b6 b3 3c af 13 64 bd
       0.15435244 0.03443882 0.021937676 -0.055682834
000370 0f a7 0c 3e c3 7b 06 be 9f f9 91 3d 02 8e 1b 3d
       0.13735603 -0.13133149 0.071276896 0.037977226
000380 2c 6d 00 3e 93 0d ce bd b5 6c f4 3d c8 e2 f8 3d
       0.12541646 -0.10061183 0.11934797 0.1215263
000390 3c 51 f2 bd 34 cb 3e 3e 09 61 99 bc cc bb ff 3d
       -0.118319005 0.18632203 -0.018723028 0.12486991
0003a0 58 c7 b0 bd e7 e6 cb 3c d5 b0 00 be 3a 79 e4 bd
       -0.08631772 0.024890376 -0.12567456 -0.11155935
0003b0 df 23 e4 3c f4 87 be 3d e8 f6 37 3e 14 d8 38 be
       0.027849136 0.09303275 0.17965281 -0.18051177
0003c0 e1 32 bc 3d 02 de 34 3d 72 0d 1d 3e 30 09 ae bc
       0.09189392 0.044157036 0.1533716 -0.021244615
0003d0 77 5b e5 bc ce 15 49 be 91 f8 a8 3d d8 96 20 bd
       -0.027997715 -0.19637224 0.08250535 -0.039206356
0003e0 d8 21 8d bd 55 a3 6c bd 0b a2 0a be e0 e8 3f bd
       -0.06891221 -0.057772953 -0.13538377 -0.046852946
0003f0 d7 1c f4 3c 09 67 d0 3d 7d 23 18 be 99 db 38 be
       0.029798908 0.101759024 -0.14857288 -0.1805252

fc1.bias f4 [30]
000000 e0 70 02 be 91 32 c7 bd 10 ba d6 3d 8b 79 dd bd
       -0.12738371 -0.09726442 0.10484707 -0.10814198
000010 b9 f5 1e be 0d b8 e3 3d 49 cc 13 be fb 7f db bd
       -0.15523423 0.11119089 -0.14433397 -0.1071777
000020 f2 a3 50 3d 19 31 0a 3d 28 09 29 be 63 20 7b bc
       0.0509376 0.03373823 -0.16507399 -0.015327546
000030 f6 1b 0c 3e 4d 8e dd bd 0c b6 ad 3d c0 43 51 3c
       0.13682541 -0.10818157 0.08481988 0.0127725005
000040 f0 58 19 3e e0 10 1b 3e 4c 97 8b bc 68 72 0f 3d
       0.14975333 0.15143156 -0.017039917 0.035021216
000050 04 d7 c9 bd 52 35 32 be 24 eb bb 3d a0 35 2b be
       -0.09855464 -0.17403153 0.09175709 -0.16719675
000060 4e ea 4e 3d ce de 67 3d 3f 8c 99 3c a2 96 1a 3e
       0.05051642 0.056608967 0.018743632 0.15096524
000070 d3 39 5f 3d 3f 10 24 be
       0.054498505 -0.16021822

fc2.weight f4 [30, 30]
000000 82 44 d0 bd 6d 3b 39 be 90 76 d4 bd c7 e3 9e bd
       -0.10169317 -0.18089075 -0.103741765 -0.07758289
000010 23 66 c2 bd 3f 78 1a 3e df 90 b7 3d bf e2 2d be
       -0.09492137 0.15084933 0.08963179 -0.16981028
000020 b6 51 a5 bd 31 fb d4 3d 7b 6a 8b 3d 8b d7 b1 3d
       -0.08072226 0.103994735 0.06807419 0.0868369
000030 ba 16 6b bd e6 1b e2 3d 56 40 16 3d 08 9f f2 3d
       -0.05739472 0.110404775 0.03668245 0.11846739
000040 7b 42 e6 3d c5 5c b2 3c eb 9a 4a bd 9d 95 79 3d
       0.11243149 0.021772752 -0.049464148 0.060933698
000050 53 95 ce bd 31 01 dc bd ab 4d d8 3d 7f 22 0c 3d
       -0.10087075 -0.10742415 0.10561689 0.034212586
000060 2a 79 ff bd df 47 1d 3e 25 50 08 bb 6d a9 88 3d
       -0.12474282 0.15359448 -0.0020799723 0.066729404
000070 d9 a7 d0 bd c8 ca 0d be 5e 51 97 bd 53 6b 20 bc
       -0.101882644 -0.13846886 -0.073885664 -0.009791213
000080 87 4e 25 be b0 a4 5b 3d 3b e9 26 be 26 07 08 3e
       -0.16143237 0.053623855 -0.16299908 0.13283977
000090 04 7e f2 bd b3 bf 3a be aa 8a f8 bc d1 6e 00 3e
       -0.11840442 -0.1823719 -0.030339558 0.12542273
0000a0 e6 6c 29 3e 22 09 04 3c fa 01 f7 3c b0 47 23 3e
       0.16545448 0.008058818 0.03015231 0.15945315
0000b0 44 f4 06 3b 25 f1 cc bd f4 ed 7f bc 32 69 24 be
       0.002059237 -0.10006932 -0.015620697 -0.16055754
0000c0 4d 33 e8 3c 00 e2 3e 3d 96 9f 2c be a4 64 1b 3e
       0.028344775 0.04660225 -0.16857752 0.1517511
0000d0 e5 51 1e 3e 30 7e a7 3c 81 cd 2d be cb 33 33 be
       0.15460928 0.020445913 -0.16972925 -0.17500226
0000e0 25 a5 4c 3c 14 02 06 be 93 3c 00 bc 4f bf 70 3c
       0.012490545 -0.1308673 -0.007826942 0.014694049
0000f0 cd 6f 2a be c5 b7 0c be 10 57 68 3d a2 88 05 be
       -0.16644211 -0.13741978 0.056723654 -0.13040403
000100 a5 53 32 3d 4f 01 f4 3d 0c 98 11 be 3c e7 67 bd
       0.0435368 0.11914312 -0.14218158 -0.056617007
000110 97 4d e4 3c 36 37 00 3d e4 b1 bd bd aa d4 f5 bd
       0.027869029 0.031302653 -0.092624456 -0.12003453
000120 9a d4 ae bc f5 5a af bc a9 c6 44 be 79 98 bc bd
       -0.02134161 -0.021405676 -0.19216408 -0.09208769
000130 b6 7a 3e 3e cb 25 61 bd a6 c5 8a bc ce af 29 be
       0.18601498 -0.054967683 -0.01693995 -0.1657097
000140 2e f3 f5 bb 37 d0 6c 3d 1e c4 20 be 96 a3 00 3d
       -0.007505796 0.057815757 -0.15699813 0.031406008
000150 fd 0c 9e 3d 04 6a 08 be 55 0c 02 3e 41 52 f1 bd
       0.07717321 -0.13321692 0.12700017 -0.11783267
000160 86 8a 13 bd 82 cd e1 bd 88 ac 60 3d cc 39 c2 bc
       -0.036020778 -0.11025526 0.05485204 -0.0237092
000170 34 68 89 3a 9f b9 12 be 73 74 22 3e cd 4a 5f bd
       0.0010483325 -0.14328621 0.15864734 -0.054514695
000180 e3 38 c7 bc b3 6f a7 3b e8 13 53 3b 66 b1 1d 3d
       -0.024319118 0.005109751 0.003220791 0.03849926
000190 ae c2 20 3e 19 99 0a 3e 24 3f 25 3e 25 e4 14 3d
       0.15699264 0.13534965 0.16137367 0.036350388
0001a0 3d c2 b3 bd 27 59 38 3c d2 34 44 3e 8d 8d 0b 3e
       -0.087772824 0.011251724 0.19160774 0.13628216
0001b0 15 15 66 bd e3 f2 d2 bd 0d f1 0c 3e f4 a8 10 3e
       -0.05617245 -0.10300233 0.13763829 0.1412695
0001c0 6a c4 1d 3e 5d ca 9c bc 5a d7 0a 3e 6b 2a 14 3e
       0.15406957 -0.019139463 0.13558713 0.14469306
0001d0 b8 20 28 3e e1 e2 33 3e 7b 10 1e be ac fe 3c 3e
       0.16418731 0.17567016 -0.15435974 0.18456525
0001e0 bc d4 13 3e 21 7f 5b 3d cd 4a bb 3d c3 47 d3 3c
       0.1443662 0.053588036 0.091451265 0.025791055
0001f0 d9 e9 ea bd c7 af a6 3d 15 00 12 3c 50 31 3b 3e
       -0.11470384 0.081389956 0.008911152 0.1828053
000200 bd 18 9d bd 7f 76 95 3d 1d 61 03 be bb 03 1f be
       -0.07670734 0.07297992 -0.12830015 -0.15528767
000210 1e 58 f4 3d af 32 33 3e ad 3e 3d 3e dd 4a 90 bb
       0.119308695 0.17499803 0.1848094 -0.0044034556
000220 38 cf 04 3c 4b 67 0d 3b b0 43 19 be 80 41 c3 3d
       0.008106045 0.002157646 -0.14967227 0.095339775
000230 ab 2c d2 bd 2d fb 98 bc 7b 8c 74 bd 28 fd 25 be
       -0.10262426 -0.018674457 -0.059704285 -0.16209853
000240 43 c1 ee 3d 59 98 94 3d 2a d1 3f 3d 37 23 c6 3c
       0.116579555 0.072556205 0.046830334 0.024186714
000250 e3 77 12 3e 41 de d4 3d 7f 2c 8c 3c 27 06 e6 3d
       0.14303546 0.10393954 0.017111061 0.11231642
000260 17 da 2b 3e 5a 58 13 bc 92 a6 23 3e 91 76 f9 bd
       0.16782413 -0.008993233 0.1598151 -0.12180818
000270 a3 c3 2c be 61 1b d9 3d 56 58 fc bd 98 57 d2 bd
       -0.16871504 0.10600925 -0.12321536 -0.102706134
000280 b1 15 37 3e b7 45 ba bd 32 cb 8a 3d d0 c0 1a 3e
       0.17879368 -0.09095328 0.06777038 0.15112615
000290 41 80 15 bd 08 59 c1 bd 67 4f e0 bd 52 d3 36 3d
       -0.036499266 -0.094408095 -0.10952645 0.044635125
0002a0 2e 89 10 3e 8f c2 e4 3d 69 72 e3 bd 98 d9 0e be
       0.1411483 0.111699216 -0.111058064 -0.13950193
0002b0 83 09 8a bd 76 cf 95 bd 1f b1 25 3d f3 3c b4 bd
       -0.067400955 -0.07314961 0.04045212 -0.08800688
0002c0 4e 36 78 3d 39 bd ee bd b6 84 18 3e 2f 2b 0d be
       0.060598664 -0.11657185 0.14894375 -0.13786004
0002d0 4b 9e 7f bc 24 ed 97 3d bf 59 18 3e 84 8d 3f be
       -0.015601705 0.07418278 0.14877985 -0.18706328
0002e0 19 09 29 be 74 73 04 3e 8c 07 bb bc 71 20 82 3d
       -0.16507377 0.12934667 -0.022830747 0.06353844
0002f0 95 6a df 3d cc 62 1e 3e 04 59 0d be 15 48 85 bd
       0.10909001 0.15467376 -0.13803488 -0.06507889
000300 fc 1e 0e be d8 d1 01 be 90 7d bb 3d 3e 52 e5 3d
       -0.13879007 -0.12677705 0.091548085 0.11197327
000310 8d 7e 04 3d 84 df a0 bd ab f8 e0 bd 3f ed 46 bd
       0.03234725 -0.07855132 -0.1098493 -0.0485661
000320 7b f9 04 3d 56 06 ce 3d ad b4 1e 3d 97 fa 9d 3d
       0.032464486 0.10059802 0.038746525 0.07713812
000330 3a 79 9d 3d f1 35 38 3d 83 26 00 bc 2e a9 38 3d
       0.07689138 0.044973318 -0.007821682 0.045083217
000340 b1 42 8a bd ea 7f 7c 3c 90 2d 0d be 71 88 11 be
       -0.067510016 0.015411356 -0.13786912 -0.14212205
000350 61 ea 89 bd 30 3f 0d be 4f cd c4 bc 7b e6 39 3e
       -0.06734157 -0.13793635 -0.02402368 0.18154328
000360 e0 fa b8 3d 0b 83 81 3c 76 8e 8f bd e0 e8 9f bd
       0.090322256 0.015809556 -0.07009594 -0.07808089
000370 06 8e 40 3c 91 20 25 bd 78 0a f1 bc 17 d2 1c be
       0.011752611 -0.04031426 -0.029423937 -0.15314518
000380 93 47 cf 3d 61 f1 be 3b d2 6e a2 bd 72 9d 7f 3c
       0.101210736 0.0058271145 -0.079312935 0.015601503
000390 2d e7 8a bd e9 8a 1d be 56 22 2a bd 4e c1 3a be
       -0.067823745 -0.15385021 -0.04153665 -0.18237802
0003a0 d4 73 62 bd 86 eb 46 3d 60 9e 15 be fa 10 8e 3d
       -0.055286244 0.048564456 -0.14611197 0.06936832
0003b0 51 03 2f 3e 9a c0 3d 3d d6 d5 e7 bd 4b e7 5e bd
       0.17091109 0.046326257 -0.11320083 -0.054419797
0003c0 cc d7 18 bd 84 ff 83 bc 83 0d 08 be cb 2c b9 bc
       -0.037315175 -0.01611305 -0.13286404 -0.022604367
0003d0 57 ce 33 3d 62 aa 38 be 2c 3a df bd 14 75 e5 3d
       0.043897953 -0.18033746 -0.10899767 0.112039715
0003e0 14 af b0 bb 07 63 d4 bd 59 54 a5 3a 75 19 be 3d
       -0.0053919647 -0.103704505 0.0012613639 0.09282199
0003f0 0f 3b bd 3d 20 88 d6 bb 42 f6 33 bb 10 19 dd 3d
       0.0923978 -0.006546989 -0.0027460014 0.10795796

fc2.bias f4 [30]
000000 e5 b4 49 be 0b 3f 28 be 7b d7 ed bd 53 60 21 3e
       -0.19697912 -0.16430299 -0.11613365 0.15759401
000010 e9 bf 2d 39 9b 3f 91 bd 3d b9 5e 3c c0 b0 22 bd
       0.00016570058 -0.0709221 0.013593969 -0.039719343
000020 b9 2d 71 3d 6f 72 33 be d0 db 72 bd 0c 6b 5c 3e
       0.058881495 -0.17524122 -0.05929166 0.2152521
000030 a6 27 99 3b 74 8a 20 3e dd c3 ee 3d 4e de 25 bc
       0.004673916 0.15677816 0.11658452 -0.010123802
000040 4c b7 1b 3e ea 79 a0 bd c7 00 e2 3d 53 26 cf 3c
       0.15206641 -0.07835753 0.110353045 0.02528683
000050 b7 89 3f be 05 b9 23 3d e4 32 66 3c 19 ab f8 bd
       -0.18704878 0.03997137 0.014050219 -0.12142009
000060 a1 c5 cd 3d b1 a1 02 be 90 7d 38 be 9a e7 69 ba
       0.1004746 -0.12756993 -0.18016648 -0.0008922756
000070 85 56 95 3b cc 25 1d 3e
       0.004557433 0.1534645

fc3.weight f4 [30, 30]
000000 2a 31 92 bd 64 11 a3 bd 10 f9 24 3d e9 68 3a 3e
       -0.071382836 -0.079623014 0.040276587 0.18204083
000010 3a 95 2f 3e 7d 14 39 bc 3d bc 70 3c 91 dd 7e bc
       0.17146769 -0.011296389 0.014693317 -0.015555755
000020 ae 6c 49 3e 49 5c 67 3d 20 cd a9 3b 19 70 ad 3d
       0.19670364 0.056484494 0.0051819235 0.084686466
000030 ce 7f f2 bd 00 f2 c3 bc 02 fa f0 bd 58 e7 8f 3d
       -0.11840783 -0.023919106 -0.11766435 0.07026547
000040 19 b6 22 3e 24 5c 65 3d bd ef 4a bd 75 52 19 3e
       0.15889777 0.055996075 -0.04954504 0.14972861
000050 e2 bf 01 3d db 77 09 be fa f9 17 be 26 25 b8 3d
       0.031677134 -0.13424627 -0.14841452 0.089914605
000060 38 28 18 3e fc 9b 2b 3e 85 a7 5e 3d a3 c9 ea bd
       0.14859092 0.16758722 0.054358978 -0.114642404
000070 52 06 cb bd 53 e4 f2 3c e9 9d d8 3d 6b 45 c3 bc
       -0.09913315 0.02964989 0.10576994 -0.023836812
000080 a5 d1 1f 3d aa 21 cd 3d 88 c3 9d 3d 55 ce 51 bd
       0.039018292 0.100161865 0.0770331 -0.051222164
000090 b9 69 e8 bc 38 d7 d8 bd fd da 00 ba 43 1d 0e be
       -0.028370725 -0.10587925 -0.00049154443 -0.1387835
0000a0 25 ef f2 3d 96 16 75 3c 6f 0f 92 3d a4 27 0c 3e
       0.118620194 0.014958998 0.0713185 0.13686997
0000b0 f4 76 98 bd e5 0b a6 3c da 2d 78 bd d1 52 d0 3d
       -0.074445635 0.020269344 -0.060590602 0.10172046
0000c0 a9 3b 9e 3d 1f 36 cf 3d 56 1c 03 3b 1e 27 a0 3d
       0.07726223 0.10117745 0.0020005903 0.07819961
0000d0 90 a9 d2 bd 04 d6 d2 bd 8e 34 14 be 81 38 bf 3d
       -0.10286248 -0.102947265 -0.14473173 0.09336949
0000e0 db 88 40 be 09 a3 93 bd 69 83 a9 bc 81 17 14 bd
       -0.18802206 -0.07208831 -0.020692544 -0.036155228
0000f0 17 cf f5 3d 47 fb 0e 3e 78 f2 a9 bd 2c 2f 6b bd
       0.1200239 0.13963042 -0.082982 -0.057418033
000100 7a 47 34 be 75 51 d9 bd 70 b7 aa bd f6 7c 6b bd
       -0.17605391 -0.1061124 -0.08335769 -0.05749222
000110 e5 62 a6 3d 11 f5 6f bd c7 31 38 3d 36 5a 29 be
       0.081243314 -0.058583323 0.044969346 -0.16538319
000120 06 17 9f bd 96 4b 88 3c 89 1a 26 bd 01 e4 11 3e
       -0.07768063 0.016637605 -0.04055265 0.14247133
000130 2f 4c 4a bd 8a c7 1e 3e 69 85 bd 3d c4 53 5e 3d
       -0.04938906 0.15505806 0.092539616 0.054279104
000140 be bd 3a be 11 df 8a 3d a0 50 1f be e6 66 21 3e
       -0.18236443 0.06780828 -0.155581 0.15761909
000150 cd 59 d0 3d b0 80 f1 bd b9 31 10 3c 4d 45 bb 3c
       0.10173378 -0.11792123 0.008800917 0.022860194
000160 99 d0 19 be 2c 3b d0 3c 59 0a a2 bc f9 17 44 3d
       -0.1502098 0.02541884 -0.019780325 0.047874425
000170 5c d8 17 3e 91 64 ec bd 4c c1 43 be 06 d9 09 be
       0.14828628 -0.11542619 -0.19116706 -0.13461694
000180 84 68 b4 ba 30 db 3a bd 5d 16 ff bd 0a 6e 8e bd
       -0.0013764058 -0.04561919 -0.12455437 -0.06954582
000190 77 7e a2 3d 6d 5e e0 bd 3f 9d e6 3d 58 0d a5 3d
       0.079342775 -0.1095551 0.11260461 0.08059186
0001a0 05 85 17 bd 16 30 38 bd ac a8 04 3d af 31 b8 3d
       -0.03699209 -0.044967733 0.03238742 0.089938514
0001b0 68 60 84 bc ca e2 e8 bd 5b be 0f 3e bc 58 44 bd
       -0.016159251 -0.113713816 0.14037459 -0.047936186
0001c0 78 4e 1a 3d 09 07 1c 3e 3f bf e9 3c 50 62 12 3e
       0.03767249 0.15237059 0.028533576 0.14295316
0001d0 f4 25 6f bd 19 ed e0 bd 8f e1 db 3d df af 19 3e
       -0.058385804 -0.10982723 0.10736381 0.15008496
0001e0 55 f6 22 3e 6a b5 35 3e cd 96 83 3d 5f 46 3c be
       0.1591428 0.17744985 0.06425247 -0.1838622
0001f0 2b a1 ff 3d d8 36 0e 3e 14 04 3a be e1 54 ea bb
       0.12481912 0.13888109 -0.18165618 -0.0071512316
000200 9b c6 e4 bc 29 b4 9e bb 09 f1 bb 3d fc 9f ed bd
       -0.027926734 -0.004843254 0.09176833 -0.1160278
000210 71 c1 b5 bd 4a 97 15 be 20 7e 9d bd d7 cd f9 bd
       -0.08874787 -0.14608493 -0.07690072 -0.12197464
000220 df 46 e9 bd 95 f1 d9 3d 45 76 d4 bc 91 8b 1a be
       -0.11390471 0.10641781 -0.025935302 -0.15092303
000230 c7 15 0a be b0 e7 36 3d 33 e2 cd bd 5d 9e 00 3e
       -0.1348487 0.04465455 -0.1005291 0.12560411
000240 46 2f 53 3d e0 c0 fb bd 51 36 0b be 2d dd c0 bd
       0.051558755 -0.12292647 -0.13594939 -0.09417186
000250 74 34 1f be fd cb d8 3d aa bf 27 be 9b 06 d1 3d
       -0.15547353 0.10585783 -0.16381708 0.10206338
000260 40 82 a2 bd eb ea b4 3c 22 28 03 3d 74 ff 9b 3d
       -0.079349995 0.022084674 0.032020696 0.07617083
000270 f0 16 82 3d 5c 50 ec 3d 5b ce e2 3d 75 3d 27 3e
       0.06352031 0.11538765 0.110745154 0.16332038
000280 40 ab 6b bd 27 bd 02 be 07 c8 e2 bc 07 dc 9e bd
       -0.057536364 -0.12767468 -0.027683271 -0.07756811
000290 d0 77 59 bc 5e 58 bf bd 28 d8 36 be 68 a9 0a bd
       -0.013273194 -0.093430266 -0.17855895 -0.033852965
0002a0 a5 c8 33 3e a7 ca 06 3e 02 ba a3 bd 0f 80 f4 3d
       0.17557009 0.13163243 -0.079944625 0.11938488
0002b0 5d 1a 4c bd 1b ac 29 bd bb e7 40 be b6 6e 0d 3e
       -0.04982983 -0.0414239 -0.18838398 0.13811764
0002c0 96 86 28 be 49 22 25 3d 1c 2d 1c be f7 db 2f 3e
       -0.1645759 0.0403159 -0.15251583 0.17173754
0002d0 5f 5d 11 be a6 b0 8e 3d 5d a9 3e be f2 b4 77 3d
       -0.14195774 0.06967287 -0.18619294 0.060475297
0002e0 07 3e f7 3d 1c 3b 12 3e ed 38 78 3c da 77 2e 3e
       0.12072378 0.14280361 0.015150291 0.17037907
0002f0 58 1d 0c 3e 76 15 1a 3e 7d dd 01 3e e5 44 27 bd
       0.13683069 0.15047249 0.12682147 -0.040837187
000300 87 98 67 3d 47 dc d1 bd db 73 af 3c 76 c8 f4 3d
       0.056541946 -0.10247093 0.021417549 0.119522974
000310 c2 c7 5b 3d 51 56 1c be a0 b3 a6 bd d5 7c c3 3d
       0.0536573 -0.15267302 -0.081397295 0.09545294
000320 69 b2 08 be f1 61 2f 3e 8f 34 4c bd 61 7d ae bc
       -0.13349308 0.17127205 -0.04985481 -0.02130002
000330 88 fc 6d bc f4 39 bd bc 61 0e 21 be 28 24 1a bc
       -0.01452554 -0.023098923 -0.15728141 -0.009408034
000340 4f 7b 13 bd b1 fe 1a 3e 6b 1a 2b bd a4 eb e0 bc
       -0.036006268 0.1513622 -0.04177324 -0.027456112
000350 a1 31 a8 3d 3c 28 27 3e 8e 68 23 be 04 6f 9a bd
       0.08212591 0.16323942 -0.15957853 -0.07540706
000360 df a2 52 bd 41 6e 19 3e 38 04 2e bd 05 23 80 bd
       -0.051424857 0.14983465 -0.042484492 -0.062566794
000370 37 19 a3 bd 4d a6 93 bd 7d db 3c be 86 04 33 be
       -0.07963794 -0.07209454 -0.18443103 -0.17482194
000380 f3 3e 87 3d 07 20 d2 bc ea a6 47 be d4 63 92 ba
       0.066038035 -0.025650037 -0.19497266 -0.0011168667
000390 ab d6 97 bd 29 f5 7a 3d 45 11 cd 3d 43 99 12 3e
       -0.074139915 0.06126896 0.100130595 0.14316277
0003a0 81 5c dd 3c e1 69 1c 3e b3 9b 1c 3e f5 dd 82 bd
       0.027021648 0.15274765 0.1529377 -0.06389991
0003b0 d8 e7 2f be a3 53 02 bd bb 5b e5 3d f1 a9 2b 3d
       -0.17178285 -0.031818043 0.11199137 0.041910116
0003c0 ca f9 64 bd d6 72 c2 bc e7 c2 c3 3d b3 e8 eb 3d
       -0.05590228 -0.023736399 0.09558659 0.11518993
0003d0 0d 56 29 3e 3b c3 a2 3d af 0b 57 bd ae 6b 12 be
       0.16536732 0.079473935 -0.052501377 -0.14298889
0003e0 18 74 fc 3d a2 9d d2 bd e9 72 cd bd 12 88 e0 3a
       0.123268306 -0.10283972 -0.10031683 0.0017130396
0003f0 99 2c cd 3b d8 67 1d be c6 b0 b9 3d 00 8d a3 3d
       0.00626142 -0.15371644 0.0906692 0.07985878

fc3.bias f4 [30]
000000 87 b2 3c bd 45 c6 71 3b a7 3b f5 bd 8b b7 07 3e
       -0.046068694 0.003689186 -0.119742684 0.1325361
000010 e3 3b 83 3c 0f e6 1a be b4 0a 3a 3e 08 da a0 3d
       0.016019767 -0.15126823 0.18168145 0.07854086
000020 52 ed 01 3d c3 44 0b be 35 68 f3 bd cd 3c 34 be
       0.031720467 -0.1360045 -0.1188511 -0.17601319
000030 09 62 c6 bd f4 5e 10 3e 39 0a c5 bc 8b 77 16 3e
       -0.096866675 0.14098722 -0.024052726 0.1469404
000040 80 43 c3 3d 57 01 14 3e 63 f1 73 3d 2d a8 dc bd
       0.09534359 0.14453636 0.059556376 -0.107742645
000050 3c 99 1b 3e 73 ee 02 be 19 11 6f 3d 03 3b f3 3c
       0.15195173 -0.12786274 0.058365915 0.029691225
000060 57 51 27 3e 8b f8 24 be 3c 50 c8 3d de fd 8c 3c
       0.16339622 -0.16110437 0.097809285 0.017210897
000070 1f 46 28 be a8 d7 88 3c
       -0.16432999 0.016704395

fc4.weight f4 [10, 30]
000000 67 dc 32 bd 94 0a 11 3e f7 a4 32 be 35 ea 07 3d
       -0.043667223 0.14164191 -0.17445742 0.03318234
000010 43 61 26 3e 90 3a 05 be 3a 7e 0e 3e c6 e9 3c bd
       0.1624804 -0.13010621 0.13915339 -0.04612138
000020 59 bf 03 3e 46 b6 e5 bc cf f8 0f 3e 4f 09 3a be
       0.12865962 -0.028041016 0.14059757 -0.18167613
000030 0b 45 d3 3c 7b 7b f5 bd b0 00 f1 3c af d8 18 be
       0.025789758 -0.11986443 0.029419273 -0.14926408
000040 7c 60 a4 bd ca dd 84 3c 99 e2 1f be 83 a9 e2 3d
       -0.080262154 0.016219039 -0.15613784 0.11067488
000050 e7 62 f6 bd 30 c5 78 bd 9a 1c 3e bd d2 c3 73 3d
       -0.12030583 -0.060734928 -0.046413995 0.05951292
000060 e6 75 c5 bd 96 c2 68 3d 5f af c7 bd e6 92 83 bc
       -0.09641628 0.056826197 -0.09750246 -0.016061258
000070 7b 53 2c be 44 35 6c bd 97 04 20 be c8 6f 16 be
       -0.1682872 -0.057667986 -0.15626751 -0.14691079
000080 df f5 17 3e 2d db 2b be 3c 5b 9d 3d b6 bb df bd
       0.14839886 -0.16782828 0.07683417 -0.10924475
000090 b7 6b 03 3e c8 43 9b bd a8 51 83 bd a6 e7 a8 3d
       0.12834059 -0.075812876 -0.06412059 0.082473084
0000a0 30 7d f2 bd a8 8b 0b be 39 a1 24 be 46 cf ee 3d
       -0.11840284 -0.13627493 -0.16077127 0.11660628
0000b0 60 d6 f8 3d 11 6e bb bd 60 d3 f5 3d cd 49 37 be
       0.12150264 -0.09151853 0.12003207 -0.17899247
0000c0 ab f6 db 3d 20 4c 48 be a3 b2 25 3e b8 3d ab bd
       0.107404076 -0.1956029 0.16181426 -0.08361381
0000d0 45 ee e8 bd ff fa 12 3c 7c c7 36 be 0f c6 da 3d
       -0.11373571 0.008970975 -0.17849535 0.10682308
0000e0 8a 31 5e bd e5 ee 9e 3d 04 ca d3 3d 74 52 89 3d
       -0.054246463 0.07760409 0.10341266 0.0670518
0000f0 cc 5e 9f bd 51 6e fa 3c 51 b6 31 be 37 f2 fd bd
       -0.07781753 0.030570181 -0.17354704 -0.123997144
000100 65 2e 40 be 61 eb 92 bc d8 f3 d4 bd 49 03 14 be
       -0.18767698 -0.017934503 -0.10398072 -0.14454378
000110 95 5e 72 bd ba b8 f4 bd df 4e a5 3d b0 b0 64 bd
       -0.05917223 -0.11949296 0.08071684 -0.055832565
000120 e9 d0 17 3e bc 5b bb 3d a7 ea 49 bd 0c d2 c5 bc
       0.14825787 0.09148356 -0.049296048 -0.02414801
000130 25 31 30 be de a9 84 3d 04 b3 d0 bc b7 a5 09 3e
       -0.17206247 0.06477712 -0.025475986 0.13442121
000140 fd 42 2f be ed 9f 38 3b 84 e9 ca bd 3c 0c ed bd
       -0.17115398 0.0028171495 -0.09907821 -0.11574599
000150 e3 9c 1a bd 6f 2e 61 3d a4 22 8d 3d ca 6f cb bd
       -0.037747275 0.054975923 0.06891373 -0.099334314
000160 b3 4e 1a be c9 c4 51 3d 91 33 08 be c9 c1 fa bb
       -0.15069084 0.05121306 -0.13300921 -0.0076524955
000170 37 ed 26 3e 29 45 2f be ee 03 c3 bd bf 2d 96 3c
       0.16301428 -0.17116226 -0.09522234 0.01833236
000180 86 68 bb bd fd ce c6 3b 8d 0c c4 3d da 71 03 bc
       -0.09150796 0.0060671554 0.09572706 -0.00802275
000190 a0 fb ce 3d b2 2d 10 be 35 03 1b be 5f 3d 29 be
       0.101065874 -0.14079931 -0.15137942 -0.16527317
0001a0 a9 3e 98 3c 7e 0a 0f be 1e cb f9 3d ba 5b 92 3d
       0.018584566 -0.13968846 0.12196945 0.07146402
0001b0 51 a9 28 3d 78 3c ca bc 5d 2d 1a be bc 3a 70 ba
       0.041177098 -0.024687037 -0.15056367 -0.00091640255
0001c0 f4 fa 2f be 0d 7f 3b be a8 65 cb bd 8a 5b c7 bd
       -0.17185575 -0.18310185 -0.09931499 -0.097342566
0001d0 05 98 16 be 93 62 76 3b be 5d 39 be bd 75 24 3e
       -0.14706428 0.0037595376 -0.18102166 0.16060539
0001e0 7a 79 e4 bd 30 af 25 bd 81 7c ab ba c7 35 1d 3e
       -0.11155982 -0.040450275 -0.001308337 0.15352546
0001f0 a2 2f 6b 3d e6 37 cb 3d bf 50 9f bd c7 1f ec bc
       0.057418473 0.09922771 -0.07779073 -0.028823746
000200 a1 50 55 bd 63 a8 d9 3d 34 d6 c2 3d 3a f8 c2 3d
       -0.052078847 0.1062782 0.09513512 0.09520002
000210 71 56 94 3d 0b 60 4f be 1c 51 e5 bd e5 db 86 3d
       0.0724305 -0.20251481 -0.11197111 0.0658491
000220 4e 55 09 3d 01 d6 2d be 17 ac 75 3d bc 1e 6d 3c
       0.03352862 -0.16976167 0.05997857 0.01447266
000230 51 79 08 3d 70 36 39 bb fe 0f 0b be 5a ac 96 3d
       0.03331882 -0.0028261207 -0.1358032 0.07357092
000240 aa 77 5a 3c 80 16 16 3e c5 d8 11 3e 05 68 fb bd
       0.013334194 0.1465702 0.14242847 -0.122756995
000250 0e 20 ec bc e3 c0 2c be 26 bc 67 3d 8c 6a 13 be
       -0.028823879 -0.16870455 0.056575917 -0.14396113
000260 05 03 d3 3d 7f 17 04 be 01 9e 34 3e c8 c0 c7 3d
       0.1030331 -0.12899588 0.17638399 0.09753567
000270 d2 b7 41 be 24 11 d7 bc a6 bc a6 3c c9 f8 4f bd
       -0.18917778 -0.02625329 0.020353626 -0.05077437
000280 26 a2 13 be 94 b0 96 bd 82 29 06 be de 41 26 bd
       -0.14417323 -0.07357898 -0.13101771 -0.04059016
000290 f8 33 49 3e 8b 73 93 bd 41 62 9d 3d e5 f3 62 ba
       0.19648731 -0.071997724 0.07684756 -0.0008657559
0002a0 e6 c6 c7 3c 64 b7 b6 3d 18 df 1c 3a 37 80 33 bc
       0.024386834 0.08921698 0.00059841713 -0.010955862
0002b0 55 46 98 bd 6c ee ec 3d 64 87 3c 3d 15 4d 58 3d
       -0.0743529 0.11568913 0.046027556 0.052807886
0002c0 fd 15 43 bc 8c fd f3 bd 2a a9 17 be 30 3e 92 3d
       -0.011907098 -0.119135946 -0.14810625 0.071407676
0002d0 ae db 12 3c 80 d4 f3 3d 2b 20 1b 3e 15 8d ac bc
       0.0089635085 0.119057655 0.1514899 -0.021063367
0002e0 94 c3 d8 3d a2 86 70 bd c6 ce 14 be 28 4d 0e 3d
       0.105841786 -0.058722146 -0.14532003 0.03474155
0002f0 94 f3 bf bd 0c 1d 08 3e 3f 03 1e 3e 31 71 c3 bd
       -0.09372631 0.1329233 0.15430926 -0.09543074
000300 83 c1 ea 3b 99 fb 37 3d 3f eb 04 be 23 b0 90 3d
       0.0071641817 0.044917677 -0.12980364 0.070648454
000310 94 97 67 3d 21 3a 0e 3d 3b 22 f7 bd 48 c9 31 3e
       0.05654104 0.034723405 -0.12067076 0.17361939
000320 7f 31 06 be 36 29 58 3d 70 59 41 3c 86 ea 26 be
       -0.13104819 0.052773677 0.011801109 -0.16300401
000330 c1 a0 e1 bc f9 57 a8 bd eb 09 ef bd a2 bf 96 bd
       -0.027542474 -0.082199045 -0.116718136 -0.0736077
000340 8b 0d d6 3d a5 78 a1 3c 58 7c bc bd 6c 9c 11 3c
       0.10451802 0.019710848 -0.09203404 0.008887392
000350 50 5d 2e bc 78 c9 11 3d 84 bd 12 3c 61 11 a1 bd
       -0.010642365 0.035592526 0.008956317 -0.07864643
000360 cf a6 99 3d 56 06 bb bc ee c6 32 3c e6 08 3f 3d
       0.07502519 -0.02283017 0.010911686 0.046639346
000370 93 37 f7 3d 25 45 17 3d 13 8d 81 3d 3b e7 1a 3c
       0.12071147 0.036931176 0.06325736 0.009454544
000380 0b c8 90 3c 20 ee 2c 3e bb 64 ce bd 45 16 c1 bd
       0.017673513 0.16887712 -0.100778066 -0.09428076
000390 e0 43 0b be 4f 1d 97 3d c9 de 09 3e 57 ee 44 be
       -0.13600111 0.07378637 0.13463892 -0.19231544
0003a0 47 b9 9d bd 48 d0 1a be 16 dd 93 bc 14 2d fb bb
       -0.077013545 -0.15118515 -0.018049758 -0.007665286
0003b0 62 f6 e4 bc 95 53 6e bc 4b 72 ff bd fd fe 11 3e
       -0.027949516 -0.014546295 -0.124729715 0.14257427
0003c0 6c 68 d4 bd 5e 50 87 bc ba b8 75 bd 46 fe 51 bd
       -0.103714794 -0.016517814 -0.059990622 -0.051267885
0003d0 9a dc 03 3e 4c 82 d2 bd 64 45 ce bc 40 bf d5 3d
       0.12877122 -0.102787584 -0.025179572 0.10436869
0003e0 f3 6c f3 3d c4 bc 9a bd c9 67 c4 3d d4 5c 05 3e
       0.11886015 -0.075555354 0.09590108 0.13023692
0003f0 4a 0a cf 3c 38 b8 c3 3d bb 04 5d 39 51 16 04 3e
       0.02527346 0.09556621 0.00021077965 0.12899138

fc4.bias f4 [10]
000000 c8 89 37 3d da 77 18 3d 78 7f 92 3c 97 c7 72 3d
       0.044809133 0.037223674 0.017883047 0.059272375
000010 65 2f 55 be 9f c6 fa 3d 64 04 1b bd fd 7c 3a bd
       -0.20818861 0.12244915 -0.037845984 -0.045529354
000020 e9 c6 07 be fc c0 02 bd
       -0.13259472 -0.031922325

fc5.weight f4 [1, 10]
000000 d6 92 f0 3b f7 59 99 bd 53 f9 45 be f4 39 0a bd
       0.007341723 -0.074878626 -0.19333391 -0.033746675
000010 46 bd cd 3d 01 0b b2 3c 52 17 a5 3d 57 6e 66 3b
       0.10045867 0.021733763 0.080610886 0.0035160983
000020 5c 74 63 be 20 28 82 be
       -0.22212356 -0.25421238

exp_avg f4 [30, 30]
000000 b1 b0 c5 b8 3c 97 87 b4 a7 92 be bb 79 0a 89 b6
       -9.426603e-05 -2.5255747e-07 -0.005815822 -4.0841373e-06
000010 c3 17 a7 b5 54 d4 da b6 96 05 b4 b6 37 a8 8e b6
       -1.2449385e-06 -6.5216245e-06 -5.3650683e-06 -4.2515126e-06
000020 81 84 fb b5 b5 11 bb b8 35 4a 65 b6 b9 a1 fb b6
       -1.8739521e-06 -8.920153e-05 -3.4166853e-06 -7.49921e-06
000030 b1 4c 13 b7 34 d5 d2 b6 20 e9 1b 33 15 03 10 bd
       -8.779739e-06 -6.283308e-06 3.6300776e-08 -0.03515919
000040 73 d9 bb bc f9 85 61 b7 e9 c9 13 b6 e9 07 0c b8
       -0.022930836 -1.3442238e-05 -2.2022234e-06 -3.3385968e-05
000050 db 9c f7 b3 53 d5 81 b6 20 8d 1e b6 5a 58 43 b8
       -1.15303656e-07 -3.869334e-06 -2.362598e-06 -4.6573907e-05
000060 5f 65 d3 b6 b7 34 8f b6 2f c1 e8 b6 89 01 49 b6
       -6.300091e-06 -4.267869e-06 -6.9366283e-06 -2.9952228e-06
000070 be 15 89 b6 a1 41 74 b6 00 00 00 00 00 00 00 00
       -4.0854493e-06 -3.6397034e-06 0.0 0.0
000080 00 00 00 00 00 00 00 00 00 00 00 00 00 00 00 00
       0.0 0.0 0.0 0.0
000090 00 00 00 00 00 00 00 00 00 00 00 00 00 00 00 00
       0.0 0.0 0.0 0.0
0000a0 00 00 00 00 00 00 00 00 00 00 00 00 00 00 00 00
       0.0 0.0 0.0 0.0
0000b0 00 00 00 00 00 00 00 00 00 00 00 00 00 00 00 00
       0.0 0.0 0.0 0.0
0000c0 00 00 00 00 00 00 00 00 00 00 00 00 00 00 00 00
       0.0 0.0 0.0 0.0
0000d0 00 00 00 00 00 00 00 00 00 00 00 00 00 00 00 00
       0.0 0.0 0.0 0.0
0000e0 00 00 00 00 00 00 00 00 00 00 00 00 00 00 00 00
       0.0 0.0 0.0 0.0
0000f0 00 00 00 00 00 00 00 00 00 00 00 00 00 00 00 00
       0.0 0.0 0.0 0.0
000100 00 00 00 00 00 00 00 00 00 00 00 00 00 00 00 00
       0.0 0.0 0.0 0.0
000110 00 00 00 00 00 00 00 00 00 00 00 00 00 00 00 00
       0.0 0.0 0.0 0.0
000120 00 00 00 00 00 00 00 00 00 00 00 00 00 00 00 00
       0.0 0.0 0.0 0.0
000130 00 00 00 00 00 00 00 00 00 00 00 00 00 00 00 00
       0.0 0.0 0.0 0.0
000140 00 00 00 00 00 00 00 00 00 00 00 00 00 00 00 00
       0.0 0.0 0.0 0.0
000150 00 00 00 00 00 00 00 00 00 00 00 00 00 00 00 00
       0.0 0.0 0.0 0.0
000160 00 00 00 00 00 00 00 00 56 95 fa 36 6b b6 fc 34
       0.0 0.0 7.4679656e-06 4.7071384e-07
000170 af d6 ad 3a 39 3b d9 34 7d 1c 0c 36 41 34 30 35
       0.0013262833 4.046249e-07 2.0878208e-06 6.564115e-07
000180 7c 84 7f 34 d1 27 b8 34 d5 6e 67 32 ae 9c 4e 37
       2.3796923e-07 3.430164e-07 1.347117e-08 1.2315037e-05
000190 76 ba 83 b1 72 12 07 b3 63 62 16 36 b5 23 27 35
       -3.8338e-09 -3.1448913e-08 2.240901e-06 6.226431e-07
0001a0 46 05 85 35 a1 ba 5f 39 4e ee 03 3c 77 35 d7 34
       9.910807e-07 0.00021336462 0.008052422 4.0085772e-07
0001b0 93 ed 2c b2 06 a2 7e 36 5f be a5 b3 5f 5b 09 35
       -1.0065736e-08 3.794326e-06 -7.7180395e-08 5.116944e-07
0001c0 a9 6e c7 b4 66 9f 51 b6 25 2e 85 35 db 5a 17 35
       -3.7147154e-07 -3.123621e-06 9.922702e-07 5.6384096e-07
0001d0 aa ad 81 b5 13 62 60 b5 f2 d3 99 b4 52 0a 8b b5
       -9.661792e-07 -8.358922e-07 -2.865268e-07 -1.0359311e-06
0001e0 ac a2 f4 37 45 16 9e 34 bf cb 03 3b 63 fc 9c 35
       2.9162817e-05 2.9445997e-07 0.0020110456 1.169636e-06
0001f0 cf 3e 2e 37 84 8d 83 35 fd 6a 2b 35 8c 55 89 35
       1.0385832e-05 9.801447e-07 6.385815e-07 1.0232193e-06
000200 b0 d9 51 35 ce 06 3c 38 88 fd 8b 35 94 57 de 35
       7.8175344e-07 4.482903e-05 1.0430094e-06 1.6565778e-06
000210 aa 5a 60 36 f7 93 82 35 38 18 57 35 69 4e 0a 3c
       3.3431375e-06 9.728818e-07 8.0128984e-07 0.008441546
000220 29 ae 1d 3b 0f b5 d9 35 eb 01 39 35 5f 1a 06 37
       0.0024060106 1.6220455e-06 6.892066e-07 7.993162e-06
000230 06 32 45 b2 c8 36 ca 35 b3 9b 2e 35 18 79 2d 37
       -1.1478283e-08 1.5066116e-06 6.5046623e-07 1.0339798e-05
000240 e5 5f f3 35 f0 62 cc 35 c1 c8 ba 36 5e f5 30 36
       1.813282e-06 1.5227979e-06 5.566603e-06 2.6368866e-06
000250 4d 54 1e 36 a4 cc 02 36 6b bb 73 b7 f2 67 1c 33
       2.3592904e-06 1.9490626e-06 -1.4527565e-05 3.6416118e-08
000260 70 40 61 ba 2c cb 43 b5 d2 60 32 b5 3c 3a 59 b5
       -0.0008592671 -7.2938815e-07 -6.645106e-07 -8.092354e-07
000270 24 c5 76 b5 b1 4d 60 b5 c8 4c ed b4 ac 43 99 b7
       -9.192902e-07 -8.355956e-07 -4.4200556e-07 -1.8270533e-05
000280 07 73 47 b5 c0 9c aa b5 32 de e4 b5 ac e0 57 b5
       -7.4300664e-07 -1.2711607e-06 -1.7051991e-06 -8.042068e-07
000290 1e 91 26 b4 2f eb c8 bb 4e 2f 7d bb a4 ff ff b5
       -1.5512748e-07 -0.0061315517 -0.0038632932 -1.9073382e-06
0002a0 39 c6 a3 b4 24 44 ba b6 1b 16 c0 31 ed ac 1f b5
       -3.0505342e-07 -5.5511646e-06 5.5904485e-09 -5.9483756e-07
0002b0 14 de 57 b4 8e 28 e3 b6 a7 1f 97 b5 af 57 4d b5
       -2.0104227e-07 -6.7698484e-06 -1.1259589e-06 -7.649605e-07
0002c0 02 a9 99 32 c7 9c 2e b5 56 b1 0c b5 c6 99 69 b4
       1.78884e-08 -6.504819e-07 -5.241212e-07 -2.1755758e-07
0002d0 ef 81 84 b7 35 8f 81 b5 22 9c 98 ba d3 3b e9 b4
       -1.5796131e-05 -9.652928e-07 -0.0011643211 -4.344316e-07
0002e0 03 45 ef b6 73 86 c8 b4 3f d5 9d b4 98 62 44 b5
       -7.130789e-06 -3.7350728e-07 -2.9398686e-07 -7.315916e-07
0002f0 26 71 09 b5 06 c1 b4 b7 4a 17 12 b5 4a ce 9c b4
       -5.120113e-07 -2.1547556e-05 -5.442313e-07 -2.920736e-07
000300 0f b5 1a b6 ff 48 8e b5 fd 7b f4 b4 80 c4 f1 ba
       -2.3053178e-06 -1.0601069e-06 -4.5538755e-07 -0.0018445402
000310 7e cc 03 bc 6a 53 bc b5 68 81 47 b4 e7 96 a2 b6
       -0.00804436 -1.4031368e-06 -1.8580397e-07 -4.8455436e-06
000320 97 71 81 33 20 78 6b b5 26 d3 56 b4 f4 e9 87 b6
       6.0276925e-08 -8.7719127e-07 -2.0007118e-07 -4.0505493e-06
000330 6a 19 da b5 49 81 5c b5 e6 fc c8 b3 7c 0f 7c b4
       -1.6249662e-06 -8.214452e-07 -9.359228e-08 -2.3474962e-07
000340 a5 ea 10 b5 76 59 58 35 fd 98 02 b7 b5 ca 60 35
       -5.3985633e-07 8.0596453e-07 -7.784224e-06 8.374148e-07
000350 e6 3f 07 bb ce fa 45 b5 10 5a 66 35 d1 af 0a 35
       -0.0020637452 -7.375319e-07 8.5812735e-07 5.166485e-07
000360 d6 68 90 b5 57 da ef b4 8e c1 9b 34 17 27 bf b7
       -1.0759347e-06 -4.4676082e-07 2.901183e-07 -2.2787177e-05
000370 8f 73 7e b5 7f b4 ca b4 03 97 8a b5 65 f5 fd b3
       -9.4790533e-07 -3.775676e-07 -1.0325751e-06 -1.18258676e-07
000380 e2 a5 0a b5 1e b8 c1 ba 22 46 91 bb 3a 6a 82 31
       -5.16504e-07 -0.0014779603 -0.0044334093 3.7955745e-09
000390 17 9d 4e 34 9e 6f 95 b6 61 c6 c7 b3 ec bc 4d b5
       1.9242394e-07 -4.45354e-06 -9.3027445e-08 -7.664337e-07
0003a0 5f 46 e2 b3 dc 7c 80 b6 df 79 09 b5 90 da 2e b5
       -1.05367455e-07 -3.829233e-06 -5.1213823e-07 -6.51381e-07
0003b0 cc 2c 41 b6 27 4e c9 b5 03 85 6d b5 5a 99 09 b6
       -2.8785316e-06 -1.4998412e-06 -8.848294e-07 -2.0503853e-06
0003c0 5c ae 70 37 f0 be 8f b4 6a 13 ef 3a 16 a9 01 35
       1.4345711e-05 -2.677475e-07 0.0018240039 4.83023e-07
0003d0 fa c3 69 b5 4b 8e 7c 35 b1 15 66 35 a7 4a 30 35
       -8.708445e-07 9.408438e-07 8.571324e-07 6.567374e-07
0003e0 a5 77 4f b4 cf d6 c0 37 32 d9 22 35 7a d3 f2 33
       -1.9321904e-07 2.2988212e-05 6.0665764e-07 1.13074705e-07
0003f0 6b 3a 8d b4 77 5e 66 34 9a e1 0e b5 52 42 23 3a
       -2.63058e-07 2.1454785e-07 -5.3227416e-07 0.0006227839

exp_avg_sq f4 [30, 30]
000000 ad cf 3c 36 07 e0 dc 30 cc bc db 3c 33 30 a9 31
       2.8135066e-06 1.6070779e-09 0.026823424 4.924027e-09
000010 ec dd c3 34 cd 42 0a 32 04 b1 65 32 de 1d d4 31
       3.648305e-07 8.047846e-09 1.3369803e-08 6.1734076e-09
000020 cc 10 a0 30 aa 68 1c 37 a5 2b e7 31 4b b1 49 31
       1.1646306e-09 9.322694e-06 6.7279466e-09 2.935013e-09
000030 1e 6e 5b 33 2a 07 db 31 fe 69 71 31 86 5c c4 3d
       5.1090062e-08 6.3745533e-09 3.5130365e-09 0.0958796
000040 7b a7 00 3f 35 74 15 33 2b 7c 30 30 f7 ff f7 34
       0.50255555 3.4797456e-08 6.420488e-10 4.6193574e-07
000050 73 47 21 2f 5f 8b f9 31 2b 01 08 31 6a a1 8d 34
       1.4668249e-10 7.2626984e-09 1.9791269e-09 2.638074e-07
000060 31 b6 83 32 3d 11 03 32 de 7c d5 33 d4 b0 fd 32
       1.5333258e-08 7.629123e-09 9.9412986e-08 2.9533489e-08
000070 b5 87 cc 32 74 72 1b 33 00 00 00 00 00 00 00 00
       2.3810438e-08 3.6192844e-08 0.0 0.0
000080 00 00 00 00 00 00 00 00 00 00 00 00 00 00 00 00
       0.0 0.0 0.0 0.0
000090 00 00 00 00 00 00 00 00 00 00 00 00 00 00 00 00
       0.0 0.0 0.0 0.0
0000a0 00 00 00 00 00 00 00 00 00 00 00 00 00 00 00 00
       0.0 0.0 0.0 0.0
0000b0 00 00 00 00 00 00 00 00 00 00 00 00 00 00 00 00
       0.0 0.0 0.0 0.0
0000c0 00 00 00 00 00 00 00 00 00 00 00 00 00 00 00 00
       0.0 0.0 0.0 0.0
0000d0 00 00 00 00 00 00 00 00 00 00 00 00 00 00 00 00
       0.0 0.0 0.0 0.0
0000e0 00 00 00 00 00 00 00 00 00 00 00 00 00 00 00 00
       0.0 0.0 0.0 0.0
0000f0 00 00 00 00 00 00 00 00 00 00 00 00 00 00 00 00
       0.0 0.0 0.0 0.0
000100 00 00 00 00 00 00 00 00 00 00 00 00 00 00 00 00
       0.0 0.0 0.0 0.0
000110 00 00 00 00 00 00 00 00 00 00 00 00 00 00 00 00
       0.0 0.0 0.0 0.0
000120 00 00 00 00 00 00 00 00 00 00 00 00 00 00 00 00
       0.0 0.0 0.0 0.0
000130 00 00 00 00 00 00 00 00 00 00 00 00 00 00 00 00
       0.0 0.0 0.0 0.0
000140 00 00 00 00 00 00 00 00 00 00 00 00 00 00 00 00
       0.0 0.0 0.0 0.0
000150 00 00 00 00 00 00 00 00 00 00 00 00 00 00 00 00
       0.0 0.0 0.0 0.0
000160 00 00 00 00 00 00 00 00 0e 0a 52 36 35 be ec 30
       0.0 0.0 3.129829e-06 1.722532e-09
000170 bd 16 11 3d 78 61 e3 31 f7 c4 f9 34 07 6e 24 32
       0.035422076 6.6176504e-09 4.6523175e-07 9.571074e-09
000180 1f af 77 32 2c a4 1f 32 2f 12 b5 30 85 e9 36 37
       1.441711e-08 9.2923464e-09 1.3174651e-09 1.0902416e-05
000190 a4 59 08 32 45 57 cf 30 95 b7 6e 33 73 45 f8 31
       7.936624e-09 1.5086036e-09 5.558066e-08 7.2256454e-09
0001a0 99 38 ba 31 cb 77 64 3d e0 57 00 3f ea e0 f4 32
       5.419747e-09 0.055778306 0.50134087 2.8507618e-08
0001b0 36 3c 8b 30 37 28 2e 35 10 92 49 2f 5b d3 ef 31
       1.0130694e-09 6.487857e-07 1.8332735e-10 6.979844e-09
0001c0 6f 4e 09 31 be 85 4f 34 67 25 99 32 42 71 19 32
       1.9980708e-09 1.9327032e-07 1.7828553e-08 8.931524e-09
0001d0 86 6c 9c 33 72 70 fe 32 b7 74 64 32 a6 48 e8 32
       7.2840564e-08 2.9620626e-08 1.3297885e-08 2.7041391e-08
0001e0 40 d0 dc 35 6a f8 13 30 39 84 6a 3c f9 e6 25 31
       1.6451886e-06 5.3831306e-10 0.014313751 2.4141953e-09
0001f0 ee c2 29 34 88 34 91 31 32 f1 d8 31 74 90 87 31
       1.5810267e-07 4.2260275e-09 6.313848e-09 3.9454395e-09
000200 c5 db 0d 30 6e f3 9d 36 c6 f9 60 31 ec e7 8e 31
       5.160781e-10 4.7073036e-06 3.273827e-09 4.1591104e-09
000210 bd c2 f2 32 3e d2 71 31 be 2f 08 31 e4 e8 d2 3d
       2.8261065e-08 3.5189625e-09 1.9817743e-09 0.102983266
000220 b2 39 34 3e e5 cd 9f 32 50 81 dd 2f a8 b8 86 34
       0.17600134 1.8603666e-08 4.0291548e-10 2.50938e-07
000230 ee 16 1a 2f 82 7a 9d 31 3f 1f 72 30 25 13 98 34
       1.4014365e-10 4.583229e-09 8.808349e-10 2.8326136e-07
000240 90 d5 06 32 97 c4 7c 31 59 e7 30 34 8e 9f 28 33
       7.848385e-09 3.6782575e-09 1.6475441e-07 3.9260662e-08
000250 cb be f0 32 85 f8 13 33 a2 df 17 36 0b 41 79 30
       2.802644e-08 3.4452132e-08 2.2630925e-06 9.0678104e-10
000260 4e de 54 3c 5f 0b 3a 31 43 33 2d 34 2d 7f f6 31
       0.012992455 2.7073026e-09 1.613053e-07 7.1740005e-09
000270 1a 3f d5 31 ce c4 64 31 e7 9a 51 30 9a e8 d5 36
       6.2062897e-09 3.3290237e-09 7.6253887e-10 6.374973e-06
000280 34 c6 8f 31 5f 62 f3 31 0c b9 cb 32 8e 43 4a 31
       4.184381e-09 7.0834143e-09 2.371646e-08 2.943327e-09
000290 8d 0d 0d 31 3a 96 35 3e c1 b9 2e 3e a8 1c f8 32
       2.0525903e-09 0.17733088 0.17063047 2.8884031e-08
0002a0 42 be bf 2f 3d 05 9e 34 7c c8 60 2f 50 3d ee 31
       3.4877884e-10 2.9433605e-07 2.0443908e-10 6.933682e-09
0002b0 c8 3c a6 30 69 c7 01 35 74 74 26 32 fa dc 7c 31
       1.2095365e-09 4.8346425e-07 9.68895e-09 3.6796437e-09
0002c0 9d 37 a5 34 1c a4 85 33 d9 90 44 33 6f cf 75 33
       3.077411e-07 6.2231464e-08 4.5766544e-08 5.7232167e-08
0002d0 23 a6 f3 35 58 7f 9d 30 8a 89 86 3c 96 60 83 31
       1.8153263e-06 1.1459447e-09 0.016423006 3.8235823e-09
0002e0 ee f3 8e 34 ba 4f ea 31 a7 6e 1d 32 c7 9b 94 31
       2.6627043e-07 6.81936e-09 9.163762e-09 4.3250767e-09
0002f0 0f 3e 55 30 fe 9f da 36 98 20 89 31 6d 3d d4 30
       7.757714e-10 6.515532e-06 3.9909303e-09 1.5442488e-09
000300 38 64 11 33 a4 b9 c1 31 e5 b1 30 31 a3 92 58 3d
       3.385159e-08 5.638144e-09 2.5712492e-09 0.05287422
000310 9c 7d f6 3e 08 5b 40 32 45 d7 0b 30 5b 1f be 34
       0.48142707 1.1196569e-08 5.087382e-10 3.5413072e-07
000320 42 93 9c 2e 6d 72 c3 31 0d 90 f2 30 68 48 17 34
       7.120217e-11 5.6882556e-09 1.7648759e-09 1.4089312e-07
000330 35 f7 57 32 59 e9 a3 31 27 09 7d 33 68 cc c0 32
       1.25708555e-08 4.770453e-09 5.8914477e-08 2.2444695e-08
000340 57 5c 3d 32 d0 cb b7 32 b4 9a 8b 36 e4 1e 0f 31
       1.1022244e-08 2.1396687e-08 4.1605326e-06 2.0826798e-09
000350 fa 50 11 3d f2 08 0b 32 15 de 04 35 51 c9 62 32
       0.035477616 8.092899e-09 4.9497004e-07 1.3200705e-08
000360 af d0 b6 32 5c d0 18 32 97 51 d6 30 7d 9d 79 37
       2.1282487e-08 8.89494e-09 1.5593739e-09 1.4878225e-05
000370 e1 c7 1d 32 f0 08 ac 31 c9 9a b0 33 14 de 51 32
       9.18405e-09 5.006875e-09 8.223794e-08 1.2215896e-08
000380 1b f6 d1 31 1a 44 1a 3e 5b b0 63 3f 6a 86 18 33
       6.1106795e-09 0.15065041 0.8894097 3.5512507e-08
000390 44 53 57 30 86 e0 39 35 c4 e0 2c 2f f8 06 2b 32
       7.833487e-10 6.9244595e-07 1.5723162e-10 9.9550945e-09
0003a0 76 af 58 31 ad 1c 03 35 c7 18 e4 32 dd 6b 47 32
       3.1531875e-09 4.884303e-07 2.655396e-08 1.160785e-08
0003b0 87 dd 81 34 e3 e3 8a 33 3d e2 29 33 21 d4 85 33
       2.4189305e-07 6.467578e-08 3.955414e-08 6.231881e-08
0003c0 af f4 19 36 c1 33 95 30 29 0e 02 3d 9f 8b ab 31
       2.2941201e-06 1.0855886e-09 0.031751785 4.992628e-09
0003d0 6d 53 02 35 e0 de e7 31 47 95 5b 32 83 c0 f3 31
       4.8550174e-07 6.748323e-09 1.27814195e-08 7.094117e-09
0003e0 b1 68 60 30 6c 28 11 37 c2 2a e4 31 0b 5d 20 30
       8.16395e-10 8.652085e-06 6.6405343e-09 5.8339883e-10
0003f0 ad c8 57 33 ff f3 d7 31 66 32 7b 31 e5 2a d8 3c
       5.0241102e-08 6.2850627e-09 3.6553955e-09 0.026387641

exp_avg f4 [30]
000000 ba 8a 01 b6 00 00 00 00 00 00 00 00 cb 56 c8 34
       -1.9303247e-06 0.0 0.0 3.7316053e-07
000010 21 99 35 35 d3 59 b2 b4 b0 46 eb b4 d1 a9 87 b4
       6.7650586e-07 -3.322044e-07 -4.3823593e-07 -2.5269267e-07
000020 30 15 00 34 b9 83 be 8e 00 00 00 00 60 01 37 36
       1.1928637e-07 -4.696546e-30 0.0 2.7269925e-06
000030 00 00 00 00 a9 d3 33 b4 c5 40 43 34 3b 8f 9a b5
       0.0 -1.6747676e-07 1.8184353e-07 -1.151558e-06
000040 0f 1a 0b b6 0f 8e 1b 36 13 49 31 0e 10 3e 39 32
       -2.0727782e-06 2.3179489e-06 2.1852118e-30 1.0782529e-08
000050 9e 1e 4c b4 4d ec 6d af 0f be 4c 34 ed 8f 23 b4
       -1.9010119e-07 -2.1638975e-10 1.9068123e-07 -1.5232918e-07
000060 60 2c 5b b6 d4 42 9a b1 6a 80 12 36 00 00 00 00
       -3.2659373e-06 -4.4895874e-09 2.1830442e-06 0.0
000070 e2 c3 f6 34 45 68 2c b5
       4.5963594e-07 -6.4226725e-07

exp_avg_sq f4 [30]
000000 ab f0 12 31 00 00 00 00 00 00 00 00 25 86 42 31
       2.13826e-09 0.0 0.0 2.8306968e-09
000010 96 21 8d 30 a3 37 9e 30 3a 4a cb 30 7d c0 56 31
       1.0268646e-09 1.1511826e-09 1.479129e-09 3.1250516e-09
000020 6b c0 16 31 e0 95 5b 2d 00 00 00 00 ce cd 0c 30
       2.193725e-09 1.2481988e-11 0.0 5.122417e-10
000030 00 00 00 00 8b d1 c4 30 a6 ca 01 31 67 8c 08 32
       0.0 1.4320433e-09 1.8887163e-09 7.948166e-09
000040 f5 3c e8 30 c9 66 69 30 7a 7f 3c 2d e2 3a 63 30
       1.6897547e-09 8.491097e-10 1.0714868e-11 8.2665796e-10
000050 9a 8e a3 30 f1 1d 04 2d 8f 27 38 31 b0 0a 29 32
       1.1900341e-09 7.50998e-12 2.679801e-09 9.839525e-09
000060 b6 a7 16 2f 96 5b 18 2f 54 62 fa 31 00 00 00 00
       1.3702003e-10 1.3856857e-10 7.2871362e-09 0.0
000070 04 6b 16 2f 51 14 3f 2f
       1.368044e-10 1.7378567e-10
