ch-04/logs/lightning_logs/version_12/checkpoints/epoch=799-step=28000.ckpt (torch, 48200 bytes, 27 tensors)

fc1.weight f4 [30, 30]
000000 88 d8 38 3e 34 62 8e bf 36 5f 50 bc 21 5b 75 3d
       0.1805135 -1.1123719 -0.012718013 0.05990136
000010 8e cd 8e 3e 7d 6b ac be 5d 63 6b bf a8 72 d2 3f
       0.278912 -0.33675757 -0.9194849 1.644124
000020 d2 a8 df be 43 94 d6 be 47 1e c5 3f 7c bb c4 3f
       -0.43683487 -0.4190999 1.5399865 1.5369716
000030 71 54 20 3c 6c f0 3c 40 42 af 66 c0 7b 23 8f bd
       0.009785757 2.9521742 -3.604447 -0.06989189
000040 fa 05 b2 3b 62 0d 3a c0 7c 92 fc c0 78 4b 90 bf
       0.0054328414 -2.9070668 -7.8928814 -1.1273031
000050 49 30 76 c0 aa 42 2d 3f cb d1 58 40 94 71 45 3f
       -3.846697 0.67679846 3.3878047 0.7712643
000060 33 38 49 3e 84 13 1e 3e 1f 8b 25 40 53 b6 ad 3f
       0.19650345 0.15437132 2.5866163 1.3571266
000070 6a 43 a4 bf 4b 91 b5 3f 57 5b 34 3f 04 cc 2d bf
       -1.2833073 1.4184965 0.70451874 -0.6788943
000080 95 4b f1 3d 9b ef 1c 3f 99 00 ed be 27 84 18 3e
       0.11781994 0.6130311 -0.46289518 0.14894162
000090 a4 4f 50 3f f2 b4 de bf 1e 62 53 3f c5 40 2e bf
       0.8137152 -1.739897 0.8257159 -0.6806758
0000a0 0a a6 34 3f 19 24 06 c0 7f 9d e4 bf 63 6c 6b 3f
       0.70565856 -2.0959532 -1.7860564 0.9196226
0000b0 78 4c 47 bf ab bd e1 bd b7 e2 c2 bb 54 3c 07 c0
       -0.7785106 -0.110225044 -0.0059474367 -2.1130571
0000c0 2c 5f 07 40 0b 66 f9 be bc 5e 78 c0 7d 88 57 3f
       2.1151838 -0.48710665 -3.8807821 0.8419264
0000d0 9c f9 97 bf c0 30 bc 3f 95 50 3e 3f 80 b3 b0 3f
       -1.187305 1.4702377 0.7434171 1.3804779
0000e0 e1 1b 7c 3f 62 77 02 40 cb d5 c2 40 b4 9b b2 3f
       0.9848004 2.0385365 6.088598 1.3953767
0000f0 d5 57 3c 3c bd 35 ff bd cd 97 66 3d c6 c4 80 bd
       0.01149555 -0.12461422 0.056297112 -0.062875316
000100 39 25 65 3d 80 cd 1b bd 4c 0f 1b 3e 4a 9e dd bd
       0.0559437 -0.038037777 0.15142554 -0.10821207
000110 15 00 df bd 87 03 df bd fc 27 28 3e 90 36 79 3d
       -0.108886875 -0.10889345 0.16421503 0.06084305
000120 05 e6 33 3e 52 4a 1a be e9 6f 39 be 80 44 12 be
       0.17568214 -0.15067413 -0.18109097 -0.14283943
000130 c7 86 fb bd 08 73 97 3d 8b e3 85 3d a5 58 1b 3e
       -0.12281566 0.07394987 0.06537541 0.15170534
000140 fd 18 c1 bd 72 e6 fe bd b6 63 c6 3d 0a 23 97 bd
       -0.09428594 -0.12446298 0.09686987 -0.0737973
000150 a1 ef e2 3d 86 75 31 bd 11 e5 d5 3d 41 42 11 be
       0.11080862 -0.04332497 0.104440816 -0.1418543
000160 cf b1 bc bd 6f fe 63 3d 72 5b f2 3c 0b aa 3e bd
       -0.09213602 0.05566257 0.02958462 -0.046548884
000170 40 6b cc 3d 54 bb eb 3d e7 cd 10 be 40 13 da bd
       0.09981394 0.115103394 -0.14141046 -0.10648203
000180 a5 f5 21 3e a7 a0 90 bd 6f 03 97 bd 7a 20 3e be
       0.15816362 -0.07061892 -0.07373702 -0.18567076
000190 6f 95 e8 bd 24 cf 3a 3d 2e 9f 07 bd ef ef 10 be
       -0.11356627 0.0456077 -0.03311079 -0.14154027
0001a0 59 fb 9a bb 79 ef 08 be 93 d7 27 be 79 5b e0 bd
       -0.00472967 -0.13372602 -0.16390829 -0.10954947
0001b0 9c da 2c be 69 45 00 be 02 e2 3a 3e 03 ab d0 3c
       -0.16880268 -0.12526478 0.18250278 0.02547217
0001c0 fe 72 66 3d 99 99 37 be 3f 04 04 be 71 ea 8e bd
       0.05626201 -0.17929687 -0.12892245 -0.0697831
0001d0 48 e0 e9 3c ac 81 24 be cb 1b a1 bd 6d d9 df bd
       0.028549328 -0.16065091 -0.07866629 -0.109301426
0001e0 6b a2 04 3a 43 22 8b bd bb 48 4f bc b3 5f fd bd
       0.00050596026 -0.06793644 -0.012651618 -0.12371769
0001f0 5f 53 00 be 11 24 da bd 6a fa 7f bd 8f 8f 13 be
       -0.12531804 -0.1065141 -0.062494673 -0.14410232
000200 c7 c1 1c 3e 88 6a 14 bd 37 db 20 3e 2e 02 69 3d
       0.15308295 -0.03623441 0.15708624 0.056886844
000210 52 50 1e be 4f 61 01 3e 86 c2 4d bd 87 54 8f bd
       -0.15460327 0.12634777 -0.05023434 -0.06998544
000220 c7 2f 1b be 40 dd 39 be da f5 55 3d 88 5b 23 bd
       -0.15154944 -0.18150806 0.052236415 -0.039882213
000230 93 92 91 3d 8d 6d 19 be 33 cd 0a 3e 58 3c 09 be
       0.07108035 -0.14983197 0.1355484 -0.13401926
000240 16 21 01 bd 9f 32 1c 3d 5f 08 c1 3d 76 ee 16 3e
       -0.031525694 0.038134214 0.09425425 0.14739403
000250 2c 4f 2a 3e d4 3d 14 be e9 33 3c 3d 48 d4 a0 bd
       0.16631764 -0.1447671 0.045947943 -0.078529894
000260 78 e6 a3 bc 48 ef 0b be 5b 4a 2a 3e 67 37 09 be
       -0.020007357 -0.13665497 0.16629927 -0.1340004
000270 73 d6 c7 3d 4f 68 83 3d 82 02 73 3d 70 27 ca bd
       0.097577 0.0641638 0.059328564 -0.09870803
000280 15 ef 29 3e a8 55 24 3d 74 66 c0 3c 7f c1 24 be
       0.16595109 0.04012075 0.023486353 -0.16089438
000290 c3 f6 9c 3d c2 60 e0 bc 52 4c ab bd ce 95 20 3e
       0.076642536 -0.027389888 -0.08364166 0.15682146
0002a0 f7 b9 26 3d 6c e0 ce bd 5a 40 bd bd f9 d9 0e bc
       0.040704694 -0.10101399 -0.0924079 -0.008718961
0002b0 27 c7 d0 3d 23 18 3f bd 42 58 d5 bd 21 0b 80 bd
       0.10194235 -0.046653878 -0.104172245 -0.06252123
0002c0 8b ab 0b be 61 59 85 3d 21 b6 10 3e 05 02 30 be
       -0.13639657 0.06511188 0.14131977 -0.1718827
0002d0 88 ff 10 3f 6b 56 cb 3f 67 1e 18 3e e5 b3 14 40
       0.5663991 1.5885748 0.14855348 2.32348
0002e0 11 d4 7e 3d bb 99 8b bf 3e 50 28 3e 64 23 c7 bd
       0.06221396 -1.090629 0.1643686 -0.09723547
0002f0 b3 87 de 3f 5b e6 75 3f 81 d6 04 bf ff fa b2 bf
       1.7385162 0.9605462 -0.51889807 -1.3982848
000300 a5 21 03 be 76 a3 2c c0 1a 78 bd 3f 6d 20 65 be
       -0.12805803 -2.6974769 1.4802277 -0.2237565
000310 fe 76 58 bd 81 88 42 40 32 95 aa 40 3b ae 91 3f
       -0.052847855 3.0395815 5.3307123 1.1381296
000320 3d b9 97 40 26 15 3a bf df c6 0b bf b9 4e 78 3e
       4.741362 -0.7268852 -0.5460033 0.2424878
000330 8b b6 d3 3f cc d9 bc 3e 79 1a 8e bf 42 e7 8c bf
       1.6540083 0.36884916 -1.1101829 -1.1008074
000340 c0 bd 96 3f 5d e1 35 bf e5 f6 ae bf bf da 10 3f
       1.1776657 -0.71047 -1.3669096 0.5658378
000350 83 5d f2 be a9 75 c1 bf f5 bf 32 40 cb ab fb 3d
       -0.4733697 -1.5114032 2.7929661 0.12288626
000360 3d 9a 08 be 3f 98 a2 bf 85 9c 8e bf a4 b3 4e bf
       -0.13340087 -1.2702712 -1.1141516 -0.8074286
000370 fc fd fe be 69 b8 d7 bd 4a f5 8f be 48 39 e2 be
       -0.4980315 -0.1053322 -0.28116828 -0.44184327
000380 ef 14 60 bd 75 13 23 be 8c 37 9e 3d 09 65 61 be
       -0.054707464 -0.15925391 0.077254385 -0.22011198
000390 de 45 4e 3c 3e 8e 06 bc 94 e3 fd 3f 10 52 25 bf
       0.0125899 -0.008212624 1.9835076 -0.6457834
0003a0 67 6e ad 3f 9d b2 b9 bf 18 7e 80 bd 6e 0e fc bf
       1.3549317 -1.4507633 -0.062740505 -1.9691904
0003b0 3f 07 fe be 3b e9 63 bf 7d da 18 c0 10 59 87 bf
       -0.49614903 -0.89027756 -2.3883355 -1.0574055
0003c0 5b 0a 38 3e b9 48 a3 40 b8 da 0b be 06 fc 8f bf
       0.179727 5.1026273 -0.13657653 -1.1248786
0003d0 7a b5 72 3f 52 e3 9b 3e c3 ad 5d 40 e0 ba 2c bf
       0.9480816 0.3044687 3.4637306 -0.6747265
0003e0 53 3f b5 be ca 86 94 3f 8d f4 06 be 87 35 8c bf
       -0.35399875 1.1603634 -0.13179226 -1.0953835
0003f0 af 74 e9 3f 15 af c5 be c5 9a 4c 40 a0 6b 6d be
       1.8238734 -0.3861014 3.1969464 -0.23185587

fc1.bias f4 [30]
000000 a7 c0 3a bf 78 01 16 3f 12 d1 28 3e 7e 17 0a bc
       -0.72950214 0.5859599 0.16486004 -0.008428453
000010 76 d0 16 3d d2 a8 81 3d 8c 8e 1b 3f 4a be 41 be
       0.036819898 0.06331028 0.60764384 -0.18920246
000020 38 bd 01 3f 49 0f f1 bd 2c 09 ef 3e ec db 9f 3e
       0.5067935 -0.117704935 0.46686685 0.31222475
000030 8e e0 03 3e 08 a7 a1 3d 62 c7 94 3e 84 bc 97 bd
       0.1287863 0.07893187 0.29058367 -0.074090034
000040 90 89 32 3c 4d 62 93 3f 7e f2 ee 3e 19 a7 1c bf
       0.010897055 1.1514374 0.46669382 -0.6119247
000050 dc d9 92 3f 43 96 a2 bf c6 34 b4 bf de 31 a3 3f
       1.1472735 -1.2702106 -1.4078605 1.2749593
000060 87 fb fe bc 05 cf 36 be 39 b5 6b bd 1e 8e 16 be
       -0.031125797 -0.17852409 -0.057545874 -0.14702651
000070 d9 8f 62 3f 15 77 5a bf
       0.88500744 -0.85337955

fc2.weight f4 [30, 30]
000000 89 31 41 3e e1 f2 95 bd 0e c0 05 be ea 41 d1 bd
       0.18866552 -0.07321716 -0.13061544 -0.1021765
000010 b6 54 4f bd b6 6b b1 bd f5 dc 0b bf bc 0f 11 be
       -0.050617896 -0.08663122 -0.5463403 -0.14166158
000020 7e 63 31 bd 2f 6f 49 bd aa ba 75 be d2 53 1b be
       -0.043307774 -0.0491783 -0.23996988 -0.15168694
000030 c2 2c a7 bd 26 5b 73 bd 3b e3 da be 5e 1a 21 3d
       -0.08162834 -0.059413098 -0.42751488 0.039331786
000040 f7 7e 06 be 42 b5 0d be c8 e3 20 be 1d fb f0 3e
       -0.1313437 -0.13838676 -0.15711892 0.47066584
000050 ba cd f7 bd bc c9 fc 3c 41 d3 85 3d bd 78 14 be
       -0.12099786 0.030857913 0.06534434 -0.14499183
000060 e3 63 98 3c 67 07 23 be eb 10 06 be 7a 2b 37 bd
       0.018602317 -0.15920793 -0.13092391 -0.044719197
000070 72 21 08 bc 2d 91 1f 3f b4 33 1d bf 70 31 0d 3e
       -0.008308755 0.62330896 -0.6140702 0.1378839
000080 08 34 11 be 01 d9 23 bd 06 a2 4d bd 32 d7 21 3e
       -0.14180005 -0.040001873 -0.050203346 0.15804747
000090 1e 9d e0 3b 1f 26 56 be 02 c1 3c be f8 de 57 bd
       0.0068546673 -0.2091298 -0.18433002 -0.052702874
0000a0 3d c4 18 be b9 96 03 be 85 f6 02 3d 04 be 91 bd
       -0.14918609 -0.12850465 0.03197338 -0.07116321
0000b0 12 aa 22 3e 36 ed d7 bc 01 31 e1 bd 52 5c c2 bd
       0.15885189 -0.026358228 -0.10995675 -0.09490265
0000c0 ce bc 7f 3d 82 4a 88 bc c3 85 9f be 0a 11 2b be
       0.062435918 -0.01663709 -0.3115674 -0.16705719
0000d0 8d f2 1b be f5 78 f4 bc 19 68 2e be f0 a4 21 3d
       -0.15229245 -0.029842833 -0.17031898 0.039463937
0000e0 ba fe fe bd 97 91 84 bd 90 eb 10 3e 3e 73 48 be
       -0.12450929 -0.064730816 0.1415236 -0.19575211
0000f0 52 64 c6 bb 24 96 e5 3c 83 5f fb bc 7d e8 13 be
       -0.0060544396 0.028025694 -0.030685192 -0.14444156
000100 17 97 15 3e ff 31 bc bd f6 fa 36 be 1c 79 bc be
       0.14608417 -0.091892235 -0.17869172 -0.3681115
000110 c4 72 95 3c 9d d0 25 be b2 8d 4d be ce e6 c2 bd
       0.018243201 -0.16192861 -0.20073584 -0.09516679
000120 47 d3 e0 bd 5f 87 57 3d 6d 0d 09 bf 97 ce ac bd
       -0.10977798 0.052619334 -0.5353611 -0.084378414
000130 6a 4a ef bd 28 e0 84 bb 29 9a fb be 69 10 40 be
       -0.11684115 -0.004055042 -0.49141052 -0.1875626
000140 9d 6c 44 3e b9 7d 14 bf 99 bf db be e1 6f 3f 3c
       0.19182058 -0.5800434 -0.42919615 0.011684389
000150 0e 7d 96 be 26 27 57 bc 7a 53 03 be 4c 97 a9 bd
       -0.29392284 -0.013131892 -0.12824813 -0.08280811
000160 fa 92 ce 3c 94 56 3c 3f 7e b4 f0 be e5 91 38 bd
       0.025216568 0.7356961 -0.47012705 -0.04506101
000170 6f b3 20 be a1 9d ec bd 36 43 d0 3d 26 54 df bc
       -0.15693448 -0.11553503 0.101690695 -0.027261805
000180 f1 89 7d 3e c4 bd 47 be 10 13 27 3b e1 29 e2 bd
       0.24759652 -0.19505984 0.002549354 -0.11043144
000190 e4 7f 6f 3e b6 5b 95 bd 8d c1 16 bd 77 35 22 be
       0.2338863 -0.07292883 -0.03680568 -0.15840708
0001a0 85 68 45 3d d0 82 31 3e bf 2a f7 3d b3 2f dc bd
       0.04819538 0.17335057 0.120687 -0.107512854
0001b0 40 d5 af bd 13 e0 f5 bc 15 92 09 be 3a 30 35 bf
       -0.08585596 -0.030014073 -0.13434632 -0.7077671
0001c0 c6 be 60 be 1d 86 72 bd 79 c0 5e be d9 c1 a2 be
       -0.21947774 -0.05920993 -0.2175311 -0.3178852
0001d0 e1 9d f6 3c c8 b5 e7 3c 21 7e 68 be 02 4b a9 be
       0.03010458 0.028284922 -0.22704364 -0.3306504
0001e0 9a 6f 0a 3e a0 2c 59 3d 43 fd e4 bd 22 e2 ae bd
       0.13519135 0.053021073 -0.11181118 -0.08539225
0001f0 18 0b 38 3e 1b 85 13 37 30 1c 55 be da 21 fb bd
       0.17972982 8.792874e-06 -0.20811534 -0.12262316
000200 b8 cc 21 be ab 75 1d be b5 69 7a be 06 fe 4b 3d
       -0.1580075 -0.15376918 -0.24454387 0.049802803
000210 8a 4e 16 3e 83 69 32 3e a4 77 e6 bd 38 3c ca 3d
       0.14678398 0.17423062 -0.112532884 0.09874767
000220 a5 c0 74 be d4 bf b7 bb c4 26 e8 bd 12 a0 21 3d
       -0.23901613 -0.0056075845 -0.11335519 0.039459296
000230 90 fa 49 be dc ac 98 bd b0 ca 0d 3d 05 80 3c bd
       -0.19724488 -0.07454845 0.034617126 -0.046020526
000240 2c cc 19 bf c0 64 56 be 20 5a 70 bd 8c d6 37 be
       -0.60077167 -0.2093687 -0.0586797 -0.17952937
000250 82 73 f2 be 43 c4 a0 be 7b cb 67 bd 9f e2 83 be
       -0.4735375 -0.31399736 -0.05659054 -0.25758836
000260 6e c6 ee bd 4c 34 20 be 63 c8 42 3c 3b a9 f2 3d
       -0.11658941 -0.1564495 0.011888596 0.118486844
000270 0e 27 f7 3e 57 59 48 3e b9 84 20 be 79 74 28 be
       0.48271984 0.1956533 -0.1567563 -0.16450681
000280 8a e2 ca 3c d7 ca 86 3d 34 a2 11 be 95 d2 95 3d
       0.024766225 0.065816574 -0.14222032 0.07315556
000290 20 07 bb 3d cf 33 35 3c 4e 6d d2 bd f0 47 85 3e
       0.09132218 0.011059715 -0.102747545 0.26031446
0002a0 c2 55 7b 3e 7e 7c 8f 3d 6e 8d 61 be 9a 15 37 be
       0.24544433 0.07006167 -0.22026607 -0.17879334
0002b0 d1 d4 03 bf b5 65 1c 3d fd 6a d0 3d 3f fd b3 3d
       -0.5149661 0.038182933 0.101766564 0.08788537
0002c0 d4 be 15 3d 0e 4e 59 3e d1 20 0f be 9c c0 8c 3e
       0.03655894 0.21221182 -0.13977362 0.274907
0002d0 fc d0 24 be 72 50 98 be 7a a8 8f bd dc 2c 0d 3e
       -0.16095346 -0.29748875 -0.07014556 0.13786644
0002e0 1c e1 44 bd 08 0e 6b 3d 26 6c b2 bd 6b c7 3d 3c
       -0.048066244 0.057386428 -0.08712034 0.0115831895
0002f0 6e cd 8d 3d e1 44 35 3d fe 54 81 bf 37 0e d8 bd
       0.06923948 0.04425514 -1.0104063 -0.10549586
000300 0e e8 f3 ba 6a fb e5 bd c4 5d 98 be 00 a9 33 be
       -0.0018608586 -0.11229594 -0.29759037 -0.17544937
000310 d2 3d a3 3d f9 61 0e be 28 88 eb 3c e8 3e 89 be
       0.07970776 -0.13904561 0.028751448 -0.26805806
000320 72 9d e8 3d 1e ca 36 3c 61 9c e3 bc 7a c5 6d be
       0.11358155 0.011156587 -0.027784528 -0.23219863
000330 b7 2a 07 3e 22 81 41 ba 84 a0 53 bc bc 36 a8 bd
       0.13199888 -0.0007381608 -0.012916688 -0.08213565
000340 59 be 01 bf 48 0c 1e bf 74 58 ce bd e4 f7 70 3d
       -0.5068107 -0.6173749 -0.10075465 0.058830157
000350 4d 41 2c 3d 0c cd 1c be 4c eb b2 3b 0c 4d a6 bd
       0.042054463 -0.15312594 0.0054601785 -0.08120164
000360 fb 15 b6 3c de ce e2 bd a4 50 56 3d e4 0e 10 3d
       0.022227278 -0.11074613 0.052323 0.03517045
000370 6a 54 0c bf 38 3d 6e 3d c5 94 86 3d c2 c4 0a 3d
       -0.54816306 0.05816385 0.06571344 0.03387905
000380 a1 b6 b9 bd e9 8c e1 3c 07 d0 0c 3e 94 9e 94 3d
       -0.09068037 0.027533012 0.13751231 0.07256809
000390 fc d6 20 bf d5 6b bd 3d fd 1b 35 be 0d 88 1f bc
       -0.6282804 0.09249083 -0.17686458 -0.009737027
0003a0 91 e7 90 be a1 b8 22 3d 31 35 8d bf 30 44 19 3e
       -0.2830167 0.039726857 -1.1031858 0.14967418
0003b0 9c f3 fd bd 7a ab 02 bd 83 3f 39 bc 52 57 eb bd
       -0.123999804 -0.031901814 -0.011306646 -0.114912644
0003c0 88 8f d7 bc b2 c4 af be bc 46 ec bc d1 ec 6b 3c
       -0.026313558 -0.34329754 -0.028842323 0.014399723
0003d0 b8 6a 38 3e 45 3f d9 3d 51 de 8a 3d a8 73 b1 3d
       0.1800946 0.10607771 0.06780685 0.08664638
0003e0 f5 b4 17 bd 04 7e 8c 3b b8 a1 01 3d d6 ec 72 3e
       -0.03703781 0.004287483 0.031648368 0.23723158
0003f0 fe f4 11 be 8a 9a 16 be 66 a7 c1 bd 0b 4b 92 bd
       -0.14253613 -0.1470739 -0.09455757 -0.071432196

fc2.bias f4 [30]
000000 e9 1f b5 bf df de e3 bd e1 7a 64 3f 6e c9 68 3f
       -1.4150363 -0.11126494 0.8925 0.9093236
000010 44 36 96 3f 72 cd 10 3f 8a 06 5f bf 90 9e 03 bf
       1.173531 0.56563485 -0.8711935 -0.5141382
000020 a7 6d d9 3e 22 56 2a bf b4 7b 56 3f 7d 21 aa 3e
       0.4246647 -0.6653768 0.83782506 0.33228675
000030 94 b6 fa 3e 6f 12 1d bf da 60 f7 be c1 1c f4 3e
       0.4896742 -0.6135625 -0.4831608 0.47678187
000040 34 42 a2 be 40 ef b8 be c6 c3 1e 3f 6d 56 47 be
       -0.31691134 -0.36120033 0.62017477 -0.19466563
000050 ff db 7d bf ba 31 bf be 67 fd 61 3f 91 f6 5c 3f
       -0.9916381 -0.37342626 0.88277286 0.8631373
000060 18 b1 97 bc 40 c5 ce bf 76 d1 d3 be dc da 0e bf
       -0.018517062 -1.6153946 -0.41370744 -0.558027
000070 3f 2d 0a bd a3 ee a1 bf
       -0.033734556 -1.2650951

fc3.weight f4 [30, 30]
000000 63 41 c1 3d aa a0 85 be 91 dd 85 3d 37 e8 b8 3b
       0.094363 -0.2609914 0.06536401 0.0056429165
000010 5c 15 0e be cc 38 19 be 65 6a f8 be cf 90 95 bd
       -0.13875335 -0.14963073 -0.48518673 -0.07303011
000020 7e 28 ed 3d e2 89 06 bd 17 20 31 3e 2c b0 a8 bd
       0.11579989 -0.03284634 0.17297398 -0.08236727
000030 a5 bb b9 3d b0 31 c9 bd d6 35 c9 be 2c d8 fd be
       0.090689935 -0.0982393 -0.39298886 -0.4957899
000040 68 62 f0 bc cc 0f 6f 3d bf dc 4d 3c cb b2 e7 bd
       -0.029343799 0.058364674 0.012564837 -0.11313399
000050 2f da 77 be 23 43 aa bc 47 bc ab 3e ca 29 2c be
       -0.24204324 -0.020783966 0.33542082 -0.16812816
000060 01 14 6d bd 5b 15 8a bc 17 22 72 3c 31 b0 83 bd
       -0.057880405 -0.016855886 0.014778635 -0.0643009
000070 40 c2 f0 bc f3 b3 63 3e 9d 55 2e be 36 fb 25 3e
       -0.0293895 0.22236614 -0.17024846 0.1620911
000080 29 81 b2 bd 5c 82 11 3e 89 16 50 bf d3 b6 a3 3d
       -0.087160416 0.14209884 -0.81284386 0.07993855
000090 0f 63 dc 3d c2 42 16 bf df 23 30 3d 97 57 be be
       0.107610814 -0.58695614 0.04300296 -0.371762
0000a0 e3 79 b4 be b7 cb 3e bf 6f 44 bf bc df a7 18 be
       -0.35249242 -0.74529594 -0.023348061 -0.14907788
0000b0 ea 16 be bd 73 c1 58 3c 70 58 36 bf d6 ea 24 3e
       -0.09281714 0.013229716 -0.71228695 0.16105208
0000c0 c9 64 f1 be 34 70 f4 bc 4b 6f e0 be bf ff e1 be
       -0.47147205 -0.029838659 -0.4383491 -0.4414043
0000d0 67 c1 04 3e f4 82 d1 3c 64 40 b0 be 83 72 8b be
       0.12964402 0.025575139 -0.34424126 -0.27235803
0000e0 02 94 60 3d 06 56 82 bd 5d e3 4c 3d d1 1c ae be
       0.05482865 -0.06364064 0.050021518 -0.3400636
0000f0 4f 61 18 bb 14 ca dc be a9 07 03 3d f0 e4 b0 be
       -0.002325136 -0.43122923 0.031989727 -0.34549665
000100 9d 71 88 3e cb be 3f be 1f 41 68 3d 40 13 b6 be
       0.2664918 -0.18725125 0.05670273 -0.35561562
000110 a0 f3 ae 3e dd 69 de 3d 74 92 5d 3d 44 70 62 be
       0.34170246 0.108600356 0.054094747 -0.22113138
000120 cc 82 34 be 7e d1 f2 3d 23 e5 b5 bd a2 5c 77 bd
       -0.1762802 0.11856364 -0.08881595 -0.060391076
000130 a4 f7 09 3e d6 a4 5b 3e e4 98 9c 3e c9 79 4b be
       0.13473374 0.21449599 0.30585396 -0.19870676
000140 d1 23 95 bc 6e a6 6a 3e a6 d9 5c 3e 70 1f 0b bf
       -0.018205555 0.2291505 0.21567401 -0.54344845
000150 15 c6 2c 3c d4 53 32 3d c2 a1 a7 bd 01 28 c6 bd
       0.010545273 0.043536976 -0.0818515 -0.09675599
000160 40 b8 f4 3d 35 e0 a1 be 00 36 22 bf 37 b5 91 be
       0.119492054 -0.3161637 -0.6336365 -0.28458568
000170 54 dc a0 bd 16 6b e2 bd 2d 3b 46 be 83 28 00 bf
       -0.07854524 -0.11055581 -0.19358511 -0.50061816
000180 6b 19 d5 bd 94 6d 0d be 15 cd 2d be 58 7d ee be
       -0.10405239 -0.13811332 -0.16972764 -0.46580005
000190 f4 c1 11 3e cd ac 4c 3e 20 4a 01 be 14 d8 3b bd
       0.14234143 0.19987793 -0.12625933 -0.045860365
0001a0 ee 5f 0a 3d 11 25 60 be fe 6f eb be aa 51 8e bd
       0.033782892 -0.2188914 -0.4598388 -0.0694917
0001b0 c1 a7 ab 3d f4 61 57 bd b1 75 f5 3d 2b 1c 5f 3e
       0.08381606 -0.05258365 0.119853385 0.21788089
0001c0 3e 9b 0a bf 4a 82 9c be 81 07 f0 be f0 fd f5 3d
       -0.5414313 -0.30568153 -0.46880725 0.12011325
0001d0 dc 17 5f bd 36 ec aa be 55 d3 fb bc 46 8d e7 bd
       -0.054466113 -0.3338334 -0.03074042 -0.11306243
0001e0 f3 56 52 be 07 4b a7 3d 79 7c 16 3e 80 9e 8e 3e
       -0.20540981 0.08168607 0.1469592 0.278553
0001f0 db a7 b6 bd 57 70 13 be 4e 33 f4 be d1 a4 31 be
       -0.08918735 -0.14398323 -0.47695392 -0.17348029
000200 e4 49 c0 bd c6 ef da be e1 07 3c bd 73 ed 34 3d
       -0.093890935 -0.42761058 -0.04590595 0.04417176
000210 14 ac f9 3d f6 f0 17 3e b4 fb 2b bf a5 c3 c6 be
       0.121910244 0.14838013 -0.67180943 -0.3882114
000220 bb 7f 5a be e7 4a 38 3e b4 c7 f6 be 2b be d4 ba
       -0.21337788 0.17997323 -0.48199236 -0.0016230991
000230 fb ac ef be 7c 6b 20 bf 0c cb cf 3d e6 07 df 3e
       -0.4681166 -0.6266401 0.1014615 0.43560714
000240 66 45 b8 be d8 73 8d be 9a 12 bd 3d 87 1d 44 be
       -0.35990447 -0.27627444 0.092320636 -0.19151889
000250 90 67 ae be ce 43 a1 be 72 c4 09 be 75 d7 09 be
       -0.34063387 -0.31497043 -0.13453844 -0.13461097
000260 45 8a 8d be f3 a4 8e be e7 52 92 be 5f 57 b0 be
       -0.27644554 -0.2786022 -0.28578874 -0.3444166
000270 3f 72 9b 3e 35 9e bc bd c2 48 68 be 8c c8 86 bb
       0.303606 -0.09209863 -0.22684005 -0.0041132625
000280 72 ea 33 bc 2c bc 25 be 19 f8 39 be a8 57 a6 be
       -0.010981189 -0.16185063 -0.18161048 -0.3248875
000290 55 a1 0b 3e f2 4a a5 bd 5a d0 31 be 25 04 d8 bc
       0.13635762 -0.08070935 -0.17364636 -0.026369164
0002a0 55 7d 8d 3d b7 a6 a3 3d 1c 7c 06 be c6 10 23 be
       0.06908671 0.07990783 -0.13133281 -0.15924367
0002b0 7f 8c 32 be 11 48 48 be 63 ad 2b bc 24 e4 1f be
       -0.17436408 -0.19558741 -0.01047835 -0.15614372
0002c0 ca 6a 93 be 1d dc 7d be f8 e1 11 bd f2 9b 28 3e
       -0.2879241 -0.24790998 -0.03561589 0.16465738
0002d0 18 eb 8b be 40 df 87 3d 3c 95 99 bd a4 ac dd be
       -0.273278 0.066343784 -0.07499167 -0.43295777
0002e0 b9 14 96 be 62 07 4f 3e ab dd d8 bd 29 c4 87 3d
       -0.29312685 0.2021766 -0.10589155 0.066292115
0002f0 1e a8 81 bd 58 fe 11 bd ac 04 ac bb 1b c3 15 3b
       -0.06330894 -0.03564295 -0.0052495804 0.0022851888
000300 51 5e b0 bd 42 3d 1f be 73 0e 5e be 4c 2f df bd
       -0.086117394 -0.15550712 -0.216852 -0.10897693
000310 9e 44 44 3e 7a c6 9f 3e bc de ea bd e4 6b e2 bd
       0.191668 0.31206113 -0.114682645 -0.11055735
000320 ca 23 aa 3d d7 fd 61 bc c7 10 8b bd f2 6b e3 be
       0.083076075 -0.01379343 -0.067903094 -0.44418293
000330 d1 79 43 3c 40 22 a4 3d 39 5e bc 3d 15 d3 ed be
       0.011930899 0.08014345 0.09197659 -0.46450105
000340 00 29 c5 be a0 94 19 3e 29 fe 3a be a5 45 4e 3e
       -0.38507843 0.14998102 -0.18261017 0.20143755
000350 c8 2d eb be e3 1e 3d 3e 8e f7 ba be d3 35 ef 3d
       -0.45933366 0.18468814 -0.36516994 0.11680188
000360 82 6f 51 bd 34 03 81 be ce ec 1d be aa 41 2b be
       -0.051131733 -0.25197756 -0.15422365 -0.16724268
000370 f8 41 06 bf 1c ad 9a bd 3d f8 7d be d5 8f 64 be
       -0.5244441 -0.07552549 -0.24801727 -0.22320493
000380 c4 b3 52 3d 2c 67 93 3d ab 05 bc be 93 ba 74 bd
       0.05144097 0.07197413 -0.36723074 -0.059748244
000390 20 7b c5 3d 98 27 e0 bc be 46 38 bc d6 23 87 be
       0.09642625 -0.02736263 -0.011247335 -0.26394528
0003a0 f3 3e 6a 3d 3d 65 24 3f bb b6 a4 be b3 8e 81 bd
       0.05718894 0.6421698 -0.32170662 -0.06326046
0003b0 dc 9b 6a 3c c9 ba 09 bd 62 e2 30 bd d9 cf 5f be
       0.014319386 -0.033625398 -0.043184645 -0.21856631
0003c0 dc 73 da 3d a5 be 00 bd 56 d4 bb bd 13 fc ee be
       0.1066663 -0.031431813 -0.09171359 -0.46676692
0003d0 75 fa 8a be cc d5 a2 be 22 b5 96 bd bf d2 e8 3d
       -0.2714421 -0.3180374 -0.07358767 0.113683216
0003e0 0a 08 aa 3c cb b0 0b be 21 0f c1 be 0d db 70 bc
       0.020755786 -0.1364166 -0.37706855 -0.014700663
0003f0 2f 64 18 3e 7f 7b 25 3e 16 90 90 3e 96 a8 c9 be
       0.14881967 0.16160391 0.2823493 -0.39386433

fc3.bias f4 [30]
000000 dd ca 90 3f c1 38 5e 3f 13 5f 0f bf 1c b7 b4 3e
       1.1311909 0.8680535 -0.56004447 0.3529595
000010 c5 57 8f 3f f6 de 25 be 24 63 5b 3e 9d d0 8b 3e
       1.119866 -0.16198334 0.21424538 0.27307597
000020 35 5a d3 3f 0a 9c 6c bf 9b 04 ce 3e fe 3d 83 be
       1.6511904 -0.92425597 0.4023789 -0.25633234
000030 1f 5e 55 bf 16 7e 38 3f d0 54 d4 bb df f6 26 3f
       -0.8334674 0.7206739 -0.006479837 0.65220445
000040 91 04 b4 3e e0 8e 98 be 51 a1 37 bf d5 25 e5 3e
       0.35159734 -0.29796505 -0.71730524 0.44755426
000050 f9 bf d5 3f 0b 3f 64 bf 6e 3f a4 3f a3 a7 aa 3e
       1.669921 -0.89158696 1.2831857 0.33331022
000060 54 d5 7a bf 6f 6e 97 bf 75 93 f1 be 22 52 1e be
       -0.9798176 -1.1830577 -0.47182813 -0.15461019
000070 f6 ef 04 c0 6d b3 6f 3e
       -2.077146 0.23408289

fc4.weight f4 [10, 30]
000000 be 0d 52 be 60 0c cd 3e c7 bd ff bd fa c6 bf be
       -0.20513055 0.40048504 -0.12487369 -0.37456495
000010 0d 47 a4 3e 9e c6 b9 3c 30 db a1 bb 15 b5 da 3d
       0.32085457 0.022677716 -0.0049394593 0.1067907
000020 70 99 d0 3d 4a 1b 00 3e f5 16 9d be 57 23 31 3e
       0.10185516 0.1251041 -0.30681577 0.17298637
000030 4b 98 df bb 5a 27 83 bd 6a 7f 37 be 95 9e 43 be
       -0.0068235747 -0.0640399 -0.17919698 -0.19103463
000040 bb dd 01 3e af 8b 5d bd 5e 55 bd 3e 38 47 a2 3c
       0.1268224 -0.05408829 0.36979192 0.01980935
000050 46 9c 95 bc 58 02 37 3d fa 53 ef bd c6 53 ca bc
       -0.018262994 0.04467997 -0.11685939 -0.02469815
000060 99 97 0d be 0b 41 65 3d 80 98 8f 3e ac 69 0d be
       -0.13827361 0.055970233 0.28046036 -0.13809842
000070 e4 84 ef bd b7 66 c8 3c ff 04 42 3d 8b ff bc 3e
       -0.11695269 0.02446304 0.047368046 0.36913714
000080 f3 19 0f be 7d c4 a6 3e ce 6e 96 3d 50 4a dc bc
       -0.13974743 0.32571784 0.07345353 -0.026890904
000090 1e de cd 3d c7 74 47 3d 7d a0 17 3e 20 4d 89 be
       0.10052131 0.048695352 0.14807315 -0.26816654
0000a0 41 a3 59 bc e6 e8 9a be 7f 4e a0 be d8 c2 06 3e
       -0.013283552 -0.30255812 -0.31309888 0.13160264
0000b0 6b 0e 1b be 61 4c 5a be 81 d7 ef 3d 88 95 53 be
       -0.15142219 -0.21318199 0.11711026 -0.2066251
0000c0 4b cb 02 bc 38 ea eb 3d 33 c9 31 3e 2c 7e 10 3e
       -0.007983039 0.11519283 0.17361908 0.14110631
0000d0 6f 80 66 3d eb ad 27 be 31 cd 87 bd c8 88 43 bd
       0.056274828 -0.16374938 -0.06630934 -0.047737867
0000e0 ad aa 37 3e ff a2 eb 3b 44 08 a7 bd 94 dc 44 3e
       0.17936201 0.0071910615 -0.081558734 0.19224769
0000f0 af f2 28 be 83 20 6f 3d 4d fa a0 3c 4d 62 06 be
       -0.16498826 0.058380615 0.019650603 -0.13123436
000100 0b 5a aa be d4 1c 22 bd 84 8e e3 3d 54 94 8b be
       -0.33271822 -0.039578274 0.11111167 -0.27261603
000110 b3 3d f7 bd 8d 24 f3 bd ce 5f 5c bd dc 00 97 be
       -0.12072315 -0.11872206 -0.053802304 -0.29492843
000120 4e 6b a0 3e 46 8e 21 be 58 51 a7 be c4 bd 21 be
       0.31331867 -0.1577693 -0.32679248 -0.15795046
000130 85 db 2d 3e 9d 7d 88 3c db 35 eb 3d 5d 05 31 be
       0.16978271 0.01666146 0.114848815 -0.17287202
000140 69 d0 f7 bd 1c 69 b4 bd bf a4 95 bd d0 e4 d0 bc
       -0.12100298 -0.088091105 -0.073068134 -0.025499731
000150 a3 5a 04 bc 57 6d 0a be dd 70 dc 3d ac ca 39 3d
       -0.00807825 -0.13518272 0.107637145 0.0453593
000160 7a 80 40 be 7e 48 5b 3d 0e e1 fb 3d f4 20 c4 be
       -0.1879901 0.05353593 0.12298785 -0.3830639
000170 69 ab 12 3e 9d de 87 3d 14 14 ca be b2 94 41 3e
       0.143232 0.06634257 -0.39468443 0.18904379
000180 84 ef 10 3e 83 ca 8d be 54 b5 19 3e d5 b0 dd 3c
       0.14153868 -0.27693567 0.15010577 0.02706186
000190 cf 2f 03 3d 7e 51 e7 3d 01 69 0d 3e 08 5a 39 be
       0.032028016 0.1129484 0.13809587 -0.1810075
0001a0 0d b0 a7 3e 4c e8 08 3e 89 e6 40 3e 4f 67 2e 3e
       0.32751504 0.13369864 0.18837942 0.17031597
0001b0 32 ad 9d bd 95 88 8d bd 18 d1 49 be db f7 2e bd
       -0.0769905 -0.069108166 -0.19708669 -0.042716842
0001c0 4b bb db be df 79 68 3e a2 27 4f bd 2a 56 98 bd
       -0.4291633 0.2270274 -0.050574906 -0.074383095
0001d0 09 52 4c be a2 dc 35 3e 21 ba 16 3e 75 cb 58 3e
       -0.19953169 0.17759946 0.1471944 0.21171363
0001e0 1b ed fa bd 7d f8 b0 bd f9 5d c3 ba c7 19 32 be
       -0.122522555 -0.086411454 -0.0014905325 -0.17392646
0001f0 bc e8 b6 be ae 6b 8f 3d 82 ff 1e be ed 10 ef 3c
       -0.35724437 0.0700296 -0.15527156 0.029182876
000200 f2 ec 27 3e f1 da e0 bc 7a 81 99 3c e6 65 4b be
       0.16398981 -0.02744815 0.018738497 -0.1986309
000210 ca fa 01 bd 6e 92 17 3e 66 01 cb be 48 15 8f be
       -0.03173331 0.14801952 -0.39649504 -0.27945924
000220 10 c3 17 bc 75 49 6f bd 1f 22 a0 3e d3 77 af bd
       -0.009262815 -0.058419663 0.31276032 -0.085677765
000230 20 87 e6 be 98 44 98 bd 9f 3a ed be 63 dd ac bd
       -0.45024967 -0.07434958 -0.46333787 -0.08440664
000240 02 a5 a9 be 2d 68 24 3d 28 87 14 3e ca e1 9b 3b
       -0.33133703 0.040138412 0.14504683 0.0047571408
000250 f2 81 3f be 91 1e a0 bd 49 94 7e bd 49 fb c8 3e
       -0.18701914 -0.0781833 -0.062153134 0.39254215
000260 9e d9 8e be 80 e1 ee bb 5a 68 06 3e 1b 90 15 3e
       -0.27900404 -0.0072900653 0.13125744 0.14605753
000270 16 f9 71 3c ac 38 97 3e 8c 8e 13 be f9 07 8e 3d
       0.014768859 0.29535425 -0.14409846 0.069351144
000280 b2 ef c1 3d c7 6c 32 be f2 29 d4 3c ea f1 ed 3d
       0.094695464 -0.17424308 0.025898907 0.11618407
000290 51 19 ca 3d 10 82 b1 3d 98 e0 2f be ba 4d ec bd
       0.0986811 0.086673856 -0.1717552 -0.11538263
0002a0 80 7f 6b 3e 31 eb 5a be 0d ab be bd 0f 10 97 be
       0.22997856 -0.21378781 -0.09309969 -0.2950444
0002b0 aa 63 ca bd 0e bd 74 3e 72 97 30 be 0e 70 97 be
       -0.09882291 0.23900244 -0.17245272 -0.29577678
0002c0 b5 58 63 bd 84 6d c1 3d d3 a5 36 be a2 37 cc bd
       -0.05550452 0.094447166 -0.17836694 -0.099715486
0002d0 ed a1 1b 3e 06 72 37 be ee 43 26 3d c2 e4 a2 bc
       0.15198489 -0.1791459 0.040592127 -0.01988447
0002e0 5c 3d da be 6e bd 90 3d a1 f3 96 bc f3 ea e7 bd
       -0.42624938 0.07067381 -0.018426718 -0.1132411
0002f0 46 e5 7f 3e 51 a3 25 ba e6 29 97 3e c3 8e 5d 3d
       0.24989805 -0.00063185865 0.29524153 0.054091226
000300 c5 e3 2d 3e 82 6a a0 bc 2a ee 3d bd 9c 4a b6 3e
       0.16981418 -0.019582037 -0.04636971 0.35603797
000310 30 86 03 3e ef 8f 4f 3d 6f b3 cc be 36 fd dd bd
       0.12844157 0.050674375 -0.39980647 -0.10839312
000320 ac 1d 90 be b8 85 63 be e4 74 79 3d e7 12 32 3e
       -0.28147638 -0.22218978 0.06090249 0.17390023
000330 4c 42 c0 3d f0 21 04 bf 78 eb 28 be 0b 20 8b 3e
       0.09387645 -0.51614285 -0.16496074 0.27172884
000340 29 0a 91 bd 5a 03 84 3d 6d 80 6f 3d d5 34 4b 3e
       -0.07082016 0.06445952 0.058472086 0.19844373
000350 f0 2a 1e bd 68 09 66 be bb 77 e5 bc f1 f3 0d be
       -0.038615167 -0.22464526 -0.028011193 -0.13862588
000360 d1 66 c6 3c 18 11 ef 3d 73 ce 97 3d 1b f8 52 bd
       0.024218949 0.11673182 0.07412424 -0.051506143
000370 cb 9a 1c be 7d ff 98 bd c8 42 20 3d a4 99 76 3c
       -0.15293424 -0.074706055 0.039126188 0.015051279
000380 be 01 04 bd b1 d4 27 bf ef 1c 44 3d 7d 67 95 bd
       -0.032228224 -0.65558916 0.047879156 -0.072951294
000390 4b fa a5 be d8 69 d9 bd 46 44 c6 be cf 65 aa bd
       -0.3241752 -0.10615891 -0.38723963 -0.083202
0003a0 38 94 d5 be fa ff 80 3c 5d bd 94 bd 26 7d d2 bd
       -0.41714644 0.01574706 -0.07262681 -0.102777764
0003b0 c5 7e 03 be 82 1f 6d bc 28 9e db bd 8f 83 3d 3c
       -0.12841327 -0.014472844 -0.10723525 0.011567011
0003c0 34 8a 94 3e 86 8d d4 be 1c 2a 14 3e 5e e9 fd be
       0.2901169 -0.41514224 0.14469188 -0.49592108
0003d0 59 29 a2 bd 95 fc 26 be 2f 2b cf 3d 33 50 83 be
       -0.07918043 -0.1630729 0.101156585 -0.25647125
0003e0 ec 63 13 be 65 b9 92 be 5e 71 27 3e d0 2c 0a be
       -0.14393586 -0.2865707 0.1635184 -0.13493657
0003f0 07 6e 95 be 15 74 b9 3d 2b 83 8b 3c ab a7 8b 3e
       -0.29185507 0.09055344 0.01703032 0.27276358

fc4.bias f4 [10]
000000 49 82 b5 3f 77 25 aa 3f 94 55 6c be 84 5a 0f bf
       1.4180385 1.3292683 -0.2307952 -0.5599749
000010 73 d1 8e 3f 45 4c 24 3e 5b 7b 16 bf 00 a7 d7 3f
       1.1157669 0.1604472 -0.58781976 1.6847839
000020 cf e2 a8 3e ce 22 30 3f
       0.3298554 0.6880311

fc5.weight f4 [1, 10]
000000 56 7f 86 3d d3 64 2e 3e 83 bd 3a be 87 6b da bd
       0.06567256 0.17030649 -0.18236355 -0.106650405
000010 c4 ab 90 3e 78 18 e5 3d dc 62 14 be 62 fd 19 3f
       0.28256047 0.11186308 -0.14490837 0.60152256
000020 49 c8 f3 bd a0 a8 9e be
       -0.11903436 -0.30988026

exp_avg f4 [30, 30]
000000 04 00 00 00 04 00 00 00 04 00 00 00 04 00 00 00
       6e-45 6e-45 6e-45 6e-45
000010 04 00 00 00 04 00 00 00 04 00 00 00 04 00 00 00
       6e-45 6e-45 6e-45 6e-45
000020 04 00 00 00 04 00 00 00 04 00 00 00 04 00 00 80
       6e-45 6e-45 6e-45 -6e-45
000030 04 00 00 00 04 00 00 00 04 00 00 00 04 00 00 00
       6e-45 6e-45 6e-45 6e-45
000040 04 00 00 00 04 00 00 00 04 00 00 00 04 00 00 00
       6e-45 6e-45 6e-45 6e-45
000050 04 00 00 00 04 00 00 00 04 00 00 00 04 00 00 00
       6e-45 6e-45 6e-45 6e-45
000060 04 00 00 00 04 00 00 00 04 00 00 00 04 00 00 00
       6e-45 6e-45 6e-45 6e-45
000070 04 00 00 00 04 00 00 00 2e ec 18 3b 39 5e 8d 38
       6e-45 6e-45 0.0023334133 6.740954e-05
000080 38 79 73 3e f1 25 57 39 44 42 f5 3a df 4e 13 39
       0.2377671 0.00020518132 0.0018711765 0.00014048394
000090 8f 55 d2 38 c2 0c 0c 39 61 1a 22 38 1a ac ee 3b
       0.00010029517 0.00013356193 3.8648377e-05 0.0072836997
0000a0 da 5e 51 39 98 70 b7 38 75 3e ec 39 8c 7c 70 39
       0.00019967128 8.747092e-05 0.00045059962 0.00022934581
0000b0 30 cd 3f 39 30 e6 9f 3e fb 07 58 be 2e 40 46 b9
       0.00018291618 0.31230307 -0.21096794 -0.0001890666
0000c0 2d bd d9 b7 eb 2f 25 3a 70 d1 21 38 bc cc 08 37
       -2.5956508e-05 0.0006301391 3.8580445e-05 8.1539e-06
0000d0 03 99 69 38 7b 3b 6b 3a 96 11 01 39 43 aa a2 38
       5.5694032e-05 0.0008973402 0.0001230895 7.756476e-05
0000e0 91 9e aa 3a 24 14 04 3a b1 29 10 3a 99 81 32 3a
       0.0013017227 0.00050384016 0.00054993766 0.00068094727
0000f0 00 00 00 00 00 00 00 00 00 00 00 00 00 00 00 00
       0.0 0.0 0.0 0.0
000100 00 00 00 00 00 00 00 00 00 00 00 00 00 00 00 00
       0.0 0.0 0.0 0.0
000110 00 00 00 00 00 00 00 00 00 00 00 00 00 00 00 00
       0.0 0.0 0.0 0.0
000120 00 00 00 00 00 00 00 00 00 00 00 00 00 00 00 00
       0.0 0.0 0.0 0.0
000130 00 00 00 00 00 00 00 00 00 00 00 00 00 00 00 00
       0.0 0.0 0.0 0.0
000140 00 00 00 00 00 00 00 00 00 00 00 00 00 00 00 00
       0.0 0.0 0.0 0.0
000150 00 00 00 00 00 00 00 00 00 00 00 00 00 00 00 00
       0.0 0.0 0.0 0.0
000160 00 00 00 00 00 00 00 00 04 00 00 00 00 00 00 00
       0.0 0.0 6e-45 0.0
000170 04 00 00 00 04 00 00 00 04 00 00 00 04 00 00 00
       6e-45 6e-45 6e-45 6e-45
000180 04 00 00 00 04 00 00 00 04 00 00 00 04 00 00 00
       6e-45 6e-45 6e-45 6e-45
000190 04 00 00 00 00 00 00 00 04 00 00 00 04 00 00 00
       6e-45 0.0 6e-45 6e-45
0001a0 04 00 00 00 04 00 00 00 04 00 00 00 04 00 00 00
       6e-45 6e-45 6e-45 6e-45
0001b0 04 00 00 00 04 00 00 00 00 00 00 00 04 00 00 00
       6e-45 6e-45 0.0 6e-45
0001c0 00 00 00 00 04 00 00 00 04 00 00 00 04 00 00 00
       0.0 6e-45 6e-45 6e-45
0001d0 00 00 00 00 00 00 00 00 00 00 00 00 00 00 00 00
       0.0 0.0 0.0 0.0
0001e0 00 00 00 00 00 00 00 00 00 00 00 00 00 00 00 00
       0.0 0.0 0.0 0.0
0001f0 00 00 00 00 00 00 00 00 00 00 00 00 00 00 00 00
       0.0 0.0 0.0 0.0
000200 00 00 00 00 00 00 00 00 00 00 00 00 00 00 00 00
       0.0 0.0 0.0 0.0
000210 00 00 00 00 00 00 00 00 00 00 00 00 00 00 00 00
       0.0 0.0 0.0 0.0
000220 00 00 00 00 00 00 00 00 00 00 00 00 00 00 00 00
       0.0 0.0 0.0 0.0
000230 00 00 00 00 00 00 00 00 00 00 00 00 00 00 00 00
       0.0 0.0 0.0 0.0
000240 00 00 00 00 00 00 00 00 00 00 00 00 00 00 00 00
       0.0 0.0 0.0 0.0
000250 00 00 00 00 00 00 00 00 00 00 00 00 00 00 00 00
       0.0 0.0 0.0 0.0
000260 00 00 00 00 00 00 00 00 00 00 00 00 00 00 00 00
       0.0 0.0 0.0 0.0
000270 00 00 00 00 00 00 00 00 00 00 00 00 00 00 00 00
       0.0 0.0 0.0 0.0
000280 00 00 00 00 00 00 00 00 00 00 00 00 00 00 00 00
       0.0 0.0 0.0 0.0
000290 00 00 00 00 00 00 00 00 00 00 00 00 00 00 00 00
       0.0 0.0 0.0 0.0
0002a0 00 00 00 00 00 00 00 00 00 00 00 00 00 00 00 00
       0.0 0.0 0.0 0.0
0002b0 00 00 00 00 00 00 00 00 00 00 00 00 00 00 00 00
       0.0 0.0 0.0 0.0
0002c0 00 00 00 00 00 00 00 00 00 00 00 00 00 00 00 00
       0.0 0.0 0.0 0.0
0002d0 6a fd 1f 3a b9 60 a5 37 da 9a 84 3e 84 60 74 b7
       0.000610313 1.9714573e-05 0.25899392 -1.4566005e-05
0002e0 fe 9f ed b7 ec f7 36 39 75 e5 22 39 8a 5e 9e 37
       -2.8327104e-05 0.0001744923 0.00015535003 1.8879091e-05
0002f0 9e d7 35 35 61 36 1d 3b be d0 92 38 2d 42 e6 35
       6.774152e-07 0.0023988711 7.000704e-05 1.7155595e-06
000300 c8 9e bd 39 db 29 f8 38 a1 ec bd 38 1f 63 c8 3d
       0.0003616719 0.00011833358 9.056298e-05 0.09784531
000310 f1 34 f2 3d 98 87 36 38 fe 1a 1a b8 95 89 2d 3a
       0.11826504 4.3518463e-05 -3.67416e-05 0.00066199276
000320 94 9f 46 b6 24 f9 e2 38 5a 3c ba b8 6c 46 1b ba
       -2.9597186e-06 0.00010822926 -8.8804125e-05 -0.00059232744
000330 da 5b 18 39 8b 21 e3 38 dd a3 14 ba 8f 24 33 b9
       0.00014530067 0.00010830451 -0.00056701695 -0.0001708439
000340 d4 10 09 b8 5a 70 4c b9 04 9a 54 3a 71 3d 29 37
       -3.2679018e-05 -0.0001949681 0.00081101083 1.008749e-05
000350 67 2f c2 3b 5c cd 9b 37 69 3d 93 39 bb 85 8a 37
       0.005926061 1.8573068e-05 0.0002808378 1.6513155e-05
000360 72 6a a1 38 ed 67 7f 37 ee 8f 7e 36 55 30 9c 3a
       7.696905e-05 1.52233815e-05 3.7932728e-06 0.001191626
000370 c3 d7 b7 37 24 bc 9f 37 c6 fb 05 b8 d1 34 26 35
       2.1915772e-05 1.9041887e-05 -3.1944153e-05 6.1916677e-07
000380 ec 35 76 37 b3 4f ba 3d 7c 11 ac 3e e0 5e 56 38
       1.4675297e-05 0.09097233 0.3360709 5.1109935e-05
000390 9e 7a 24 37 82 62 ba 38 5e f3 17 b7 83 c6 27 37
       9.803711e-06 8.88752e-05 -9.056965e-06 1.0000195e-05
0003a0 6e 7f 95 b6 a8 2e 6c 39 d1 f9 5f 38 b8 5e ff 37
       -4.455381e-06 0.00022524095 5.3400003e-05 3.0442476e-05
0003b0 76 ed e3 38 20 c8 86 38 f7 e4 1d 38 8d 48 87 38
       0.00010868434 6.426894e-05 3.7644957e-05 6.450815e-05
0003c0 a2 16 1b 3b 4f 67 fb b8 ef bc 1c 3e 69 31 32 39
       0.0023664613 -0.000119878554 0.15306447 0.0001699381
0003d0 4d fa 23 3b 77 1e f0 b6 1c c0 0d 38 7b f9 73 38
       0.0025021017 -7.156104e-06 3.3795935e-05 5.816806e-05
0003e0 1f a1 2d 38 5a 9f 91 3b 63 22 38 39 63 3e c0 b7
       4.139647e-05 0.004444045 0.00017560417 -2.2917235e-05
0003f0 65 1e 99 39 14 5e 5e 38 6c db 31 b8 87 3a 04 3e
       0.0002920508 5.301654e-05 -4.240444e-05 0.12912951

exp_avg_sq f4 [30, 30]
000000 03 fd 24 32 72 31 e2 2c a2 2d 1d 39 ec ea c2 2d
       9.603585e-09 6.428796e-12 0.00014989686 2.2159573e-11
000010 c9 43 b5 30 35 44 0a 2e ca 85 82 2e 58 15 0e 2e
       1.3188749e-09 3.1438147e-11 5.935481e-11 3.230602e-11
000020 19 32 aa 2c 60 41 06 33 26 e1 f3 2d 4e 67 86 2c
       4.8372526e-12 3.1258764e-08 2.7725888e-11 3.819978e-12
000030 d0 9d 40 2f 99 83 dc 2d 1d 3c 75 2d 9f 51 06 39
       1.7518365e-10 2.5069545e-11 1.39399855e-11 0.00012809642
000040 98 3f 37 3a 4d 52 f1 2e 44 ff 66 2c 77 b0 f5 30
       0.0006990372 1.0974031e-10 3.2826667e-12 1.787625e-09
000050 76 4c ac 2b 3f a7 fa 2d 8f 29 17 2d 12 a0 46 30
       1.2242557e-12 2.8495982e-11 8.592584e-12 7.2259454e-10
000060 d5 2a 85 2e be f2 cd 2d 33 a4 a4 2f 6a cf 19 2f
       6.055748e-11 2.3413601e-11 2.9948097e-10 1.3988957e-10
000070 12 bd e6 2e 54 f9 16 2f ab 92 3a 39 e0 1c e2 33
       1.0492775e-10 1.3731e-10 0.0001779298 1.05291974e-07
000080 8a ae 30 40 bd 1f f1 34 f7 57 91 37 59 bf 27 35
       2.760653 4.491284e-07 1.7326309e-05 6.2490795e-07
000090 7b b0 b0 35 be 53 08 35 66 9e e6 33 5b 9a 2f 3a
       1.3164384e-06 5.078581e-07 1.0739022e-07 0.0006698721
0000a0 ad d3 01 35 2f f8 9e 33 a9 4b 73 36 9a fb 01 35
       4.8364274e-07 7.402593e-08 3.6253862e-06 4.8422373e-07
0000b0 57 f0 88 34 c0 7a 1b 40 29 e5 67 41 9f e4 08 36
       2.5506844e-07 2.429367 14.493447 2.0398654e-06
0000c0 86 d5 1a 33 b1 92 22 38 26 90 fe 32 40 fd fc 34
       3.6050118e-08 3.8760427e-05 2.9635043e-08 4.712292e-07
0000d0 df b0 72 34 80 6c 25 37 fb b5 87 35 05 a9 0a 35
       2.2602352e-07 9.8600285e-06 1.0111247e-06 5.165496e-07
0000e0 c1 0c a8 36 21 6f 17 36 75 a5 b1 35 37 c1 30 36
       5.008275e-06 2.256544e-06 1.3235682e-06 2.633851e-06
0000f0 00 00 00 00 00 00 00 00 00 00 00 00 00 00 00 00
       0.0 0.0 0.0 0.0
000100 00 00 00 00 00 00 00 00 00 00 00 00 00 00 00 00
       0.0 0.0 0.0 0.0
000110 00 00 00 00 00 00 00 00 00 00 00 00 00 00 00 00
       0.0 0.0 0.0 0.0
000120 00 00 00 00 00 00 00 00 00 00 00 00 00 00 00 00
       0.0 0.0 0.0 0.0
000130 00 00 00 00 00 00 00 00 00 00 00 00 00 00 00 00
       0.0 0.0 0.0 0.0
000140 00 00 00 00 00 00 00 00 00 00 00 00 00 00 00 00
       0.0 0.0 0.0 0.0
000150 00 00 00 00 00 00 00 00 00 00 00 00 00 00 00 00
       0.0 0.0 0.0 0.0
000160 00 00 00 00 00 00 00 00 58 cf d7 1f 00 00 00 00
       0.0 0.0 9.1399063e-20 0.0
000170 68 cb 34 27 73 0a 99 1b 65 2b 2c 1c 73 0a 99 1a
       2.5090285e-15 2.531848e-22 5.696611e-22 6.32962e-23
000180 73 0a 99 1c 65 2b 2c 1c 73 0a 99 1a 35 1f 1e 21
       1.0127392e-21 5.696611e-22 6.32962e-23 5.3573784e-19
000190 73 0a 99 1a 00 00 00 00 73 0a 99 1b 73 0a 99 1b
       6.32962e-23 0.0 2.531848e-22 2.531848e-22
0001a0 73 0a 99 1b a1 61 9f 25 e9 77 d1 25 65 2b 2c 1d
       2.531848e-22 2.764826e-16 3.6336975e-16 2.2786445e-21
0001b0 73 0a 99 1a 45 82 86 1e 00 00 00 00 73 0a 99 1a
       6.32962e-23 1.424168e-20 0.0 6.32962e-23
0001c0 00 00 00 00 52 57 6a 1d 65 2b 2c 1c 73 0a 99 1b
       0.0 3.1014786e-21 5.696611e-22 2.531848e-22
0001d0 00 00 00 00 00 00 00 00 00 00 00 00 00 00 00 00
       0.0 0.0 0.0 0.0
0001e0 00 00 00 00 00 00 00 00 00 00 00 00 00 00 00 00
       0.0 0.0 0.0 0.0
0001f0 00 00 00 00 00 00 00 00 00 00 00 00 00 00 00 00
       0.0 0.0 0.0 0.0
000200 00 00 00 00 00 00 00 00 00 00 00 00 00 00 00 00
       0.0 0.0 0.0 0.0
000210 00 00 00 00 00 00 00 00 00 00 00 00 00 00 00 00
       0.0 0.0 0.0 0.0
000220 00 00 00 00 00 00 00 00 00 00 00 00 00 00 00 00
       0.0 0.0 0.0 0.0
000230 00 00 00 00 00 00 00 00 00 00 00 00 00 00 00 00
       0.0 0.0 0.0 0.0
000240 00 00 00 00 00 00 00 00 00 00 00 00 00 00 00 00
       0.0 0.0 0.0 0.0
000250 00 00 00 00 00 00 00 00 00 00 00 00 00 00 00 00
       0.0 0.0 0.0 0.0
000260 00 00 00 00 00 00 00 00 00 00 00 00 00 00 00 00
       0.0 0.0 0.0 0.0
000270 00 00 00 00 00 00 00 00 00 00 00 00 00 00 00 00
       0.0 0.0 0.0 0.0
000280 00 00 00 00 00 00 00 00 00 00 00 00 00 00 00 00
       0.0 0.0 0.0 0.0
000290 00 00 00 00 00 00 00 00 00 00 00 00 00 00 00 00
       0.0 0.0 0.0 0.0
0002a0 00 00 00 00 00 00 00 00 00 00 00 00 00 00 00 00
       0.0 0.0 0.0 0.0
0002b0 00 00 00 00 00 00 00 00 00 00 00 00 00 00 00 00
       0.0 0.0 0.0 0.0
0002c0 00 00 00 00 00 00 00 00 00 00 00 00 00 00 00 00
       0.0 0.0 0.0 0.0
0002d0 45 36 88 38 f0 40 df 32 70 b1 b3 3f 75 88 ef 33
       6.495094e-05 2.5990147e-08 1.4038525 1.1154126e-07
0002e0 b1 db aa 36 57 c6 7f 34 e4 e0 4d 35 25 50 89 34
       5.0919703e-06 2.3820881e-07 7.669571e-07 2.557655e-07
0002f0 f9 06 16 33 4c 68 74 39 f7 c5 5e 34 1f e8 79 32
       3.4930938e-08 0.00023308507 2.074738e-07 1.4546486e-08
000300 43 65 03 36 55 35 8e 34 cc 2b a2 33 f1 1f 9d 3e
       1.9579463e-06 2.6488365e-07 7.5516795e-08 0.30688432
000310 25 37 92 3f 50 2f bd 34 a7 cd 1e 32 ab 1a 4c 37
       1.1423079 3.5238418e-07 9.24357e-09 1.2165557e-05
000320 35 98 45 31 86 b1 76 34 e8 c7 68 33 c2 0f e1 36
       2.8753793e-09 2.2975118e-07 5.4198523e-08 6.707357e-06
000330 e9 02 59 35 95 78 84 34 9d eb 2f 35 55 dd 24 34
       8.0843034e-07 2.467465e-07 6.553544e-07 1.535421e-07
000340 0b 05 80 33 a6 00 52 34 41 7f 00 37 e0 05 fd 31
       5.961382e-08 1.955801e-07 7.659023e-06 7.363937e-09
000350 98 c0 19 3c 26 6e 77 32 43 03 dc 35 26 e1 d5 32
       0.009384297 1.4402337e-08 1.6392227e-06 2.489885e-08
000360 27 b0 83 33 60 36 b0 32 a7 7d 52 31 61 92 e5 37
       6.132205e-08 2.0513824e-08 3.0630447e-09 2.736709e-05
000370 44 0a e5 32 34 88 e4 31 61 19 76 34 38 c6 ca 32
       2.6663777e-08 6.651158e-09 2.2919768e-07 2.3606034e-08
000380 29 78 9e 32 ec d5 27 3e e8 81 3b 40 1c 83 be 33
       1.8448263e-08 0.16390198 2.9298038 8.871413e-08
000390 eb bb 93 30 6c 6a dc 35 9d 88 8c 30 9a 18 fd 32
       1.0749067e-09 1.642225e-06 1.0225168e-09 2.9464264e-08
0003a0 cc 51 f5 31 0b 9a 22 35 3a 87 8d 33 46 81 c3 32
       7.1397377e-09 6.0573865e-07 6.590422e-08 2.2759775e-08
0003b0 c4 ac 83 34 13 3c a6 33 ab 58 c4 32 30 28 0d 34
       2.4526355e-07 7.740905e-08 2.2857725e-08 1.3146268e-07
0003c0 18 5b bb 38 ab 49 99 33 31 3a e8 3e 16 05 4b 34
       8.9338224e-05 7.138018e-08 0.45356897 1.8907699e-07
0003d0 cd 92 9e 37 42 57 82 34 0d e1 ea 34 bc de 87 34
       1.8903427e-05 2.4277875e-07 4.3749642e-07 2.530777e-07
0003e0 39 f7 2b 33 73 45 99 39 17 bf 37 34 82 d3 80 33
       4.0038888e-08 0.00029234178 1.7112721e-07 5.9989375e-08
0003f0 71 04 02 36 46 4b b1 34 2c fd e2 33 1e 2a c9 3f
       1.9374095e-06 3.3023588e-07 1.0569997e-07 1.5715978

exp_avg f4 [30]
000000 04 00 00 00 17 b8 43 38 00 00 00 00 04 00 00 00
       6e-45 4.666307e-05 0.0 6e-45
000010 00 00 00 00 00 00 00 00 fe 98 31 38 bc 94 77 37
       0.0 0.0 4.2342574e-05 1.4756977e-05
000020 e9 ff 93 38 04 00 00 00 0a 32 7f b9 04 00 00 00
       7.057173e-05 6e-45 -0.00024337336 6e-45
000030 04 00 00 00 04 00 00 00 83 84 d8 36 00 00 00 00
       6e-45 6e-45 6.452728e-06 0.0
000040 04 00 00 00 5a a6 31 38 26 c7 89 b6 b0 b9 54 b6
       6e-45 4.2355015e-05 -4.106102e-06 -3.1698546e-06
000050 ae 34 fa 36 d8 ac e5 b9 28 53 07 b8 e8 bf 85 39
       7.4567133e-06 -0.00043807062 -3.2263953e-05 0.00025510718
000060 e2 c6 e9 b8 25 dc ad 36 00 00 00 00 fd 74 1b b5
       -0.000111473506 5.18143e-06 0.0 -5.791224e-07
000070 3f 18 ff 37 90 2f 2f ba
       3.040966e-05 -0.00066828076

exp_avg_sq f4 [30]
000000 3f fa fb 2c e8 3f 19 34 00 00 00 00 73 0a 99 1a
       7.161632e-12 1.4272484e-07 0.0 6.32962e-23
000010 00 00 00 00 00 00 00 00 46 98 5e 33 74 91 f3 31
       0.0 0.0 5.1826895e-08 7.088767e-09
000020 08 89 8e 33 e0 75 25 1a bd 3a c1 35 21 ce e8 27
       6.637316e-08 3.421642e-23 1.4396716e-06 6.461642e-15
000030 60 ff 87 1b 2c 3f 4d 19 da 80 8a 31 00 00 00 00
       2.249891e-22 1.0611009e-23 4.0309773e-09 0.0
000040 bb 03 23 24 59 82 ee 32 0d b5 a7 31 fe 04 18 31
       3.534815e-17 2.7766122e-08 4.8809228e-09 2.2121749e-09
000050 17 ed 83 33 c8 58 a2 35 ce ad ff 33 47 85 53 33
       6.143289e-08 1.2095779e-06 1.1905978e-07 4.924848e-08
000060 38 6d 15 34 17 e8 0c 33 00 00 00 00 36 52 77 31
       1.391644e-07 3.2807375e-08 0.0 3.5989962e-09
000070 0f ca a2 33 c8 9e 92 37
       7.580467e-08 1.7478495e-05
