ch-04/lightning_logs/version_17/checkpoints/epoch=2-step=705.ckpt (torch, 98899 bytes, 6 tensors)

l1.weight f4 [10, 784]
000000 6e 4f 50 bb 2e 53 10 bd 25 d5 85 3b 8a 06 08 3d
       -0.0031785625 -0.035235576 0.0040842467 0.03320936
000010 38 7a fe bb 38 21 6e bc 88 2b 12 bd 08 12 f2 bc
       -0.0077660345 -0.014534287 -0.035686046 -0.029549614
000020 6a c1 d5 bc 51 9e f0 3c 01 99 fd bb 2e bf ec 3b
       -0.026093204 0.029372366 -0.0077391868 0.007224939
000030 23 a3 9d 3c ea 4e 66 3c 11 43 fd bc 6a 9d fb 3c
       0.019242829 0.0140569005 -0.030915769 0.03071471
000040 1d a2 0e bd 57 52 18 bc e5 79 fb 3b b7 a1 a8 39
       -0.034822572 -0.009296975 0.007674443 0.00032163944
000050 0e 6c 78 3c aa f5 4a bc 3a 56 c4 bc af f2 04 bd
       0.015162481 -0.012387672 -0.023966897 -0.032458004
000060 aa 1c 0e 3c f3 b1 7d bc ae eb ac 3b d0 39 89 3c
       0.008673826 -0.015484321 0.0052771186 0.0167512
000070 c5 ed 35 bc 9c 77 0b 3c 8a 9d 39 bc 18 81 0f 3d
       -0.011104052 0.008512404 -0.011329064 0.035035223
000080 b1 76 c9 3c a1 11 da bc cc 98 db 3c 0e b8 b0 3c
       0.02459273 -0.026619734 0.026806258 0.02157214
000090 fe aa a9 3c 97 ad 31 bc 0e 7b aa 3c 87 48 c7 bc
       0.020711418 -0.01084461 0.02081063 -0.024326576
0000a0 93 4e 9b bc 85 03 56 3c a7 57 a5 bc 5e 4a ff 3c
       -0.018958366 0.013062363 -0.020183397 0.03116339
0000b0 6c 74 ce 3c de b8 a7 3c b8 b8 e0 3b 53 8d bb bb
       0.025201999 0.020473894 0.0068579577 -0.0057236343
0000c0 dc b6 43 36 2e 39 d3 3b 93 a0 e5 39 ac 35 98 3c
       2.9163702e-06 0.0064460253 0.0004379792 0.01858028
0000d0 c7 43 c5 3c 5c da 6f 3c c1 32 ac bb 30 dd 91 bc
       0.02408017 0.014639463 -0.005255074 -0.017805666
0000e0 b7 ad c1 3a f1 bf c7 bc 55 0d f5 bc ee 7a 44 bb
       0.0014776503 -0.024383517 -0.029913584 -0.0029980498
0000f0 17 1e 54 bc bc 10 b5 bc ac 24 96 bc 3c 16 67 bc
       -0.012946627 -0.022102706 -0.018328033 -0.014104422
000100 6a 86 85 bc e3 28 b6 3c 55 c7 89 3c b7 95 d0 bb
       -0.016299445 0.022236293 0.016818682 -0.0063655037
000110 6e 15 4b bc b7 5a cd ba 3c 9f ee bc 7e 82 aa 3c
       -0.012395246 -0.0015667294 -0.029128663 0.020814177
000120 6a 83 7a bc a5 00 02 3c 71 5d f3 3c f5 53 a5 bc
       -0.015290121 0.007934724 0.029707642 -0.020181635
000130 98 bb 6d bc 65 f1 19 bc 53 37 0d bc 81 a5 dc 3c
       -0.014510058 -0.009395932 -0.008619147 0.026934387
000140 fc 07 4a 3c d8 2e 5c bc 1a 98 a7 bc 13 4c 06 bb
       0.012331005 -0.013438903 -0.02045827 -0.002049212
000150 c3 ad d1 3c 43 b6 f4 3c 0e db 45 3c 87 38 91 3c
       0.025595551 0.029872065 0.0120761525 0.01772715
000160 8e fc 4a bc d3 86 0b bd 5c f8 39 3b 6e 93 cf b9
       -0.012389315 -0.034064125 0.0028376793 -0.0003959196
000170 75 78 8a bc 7a bb 01 3d 25 95 a5 3c a6 2a fe bd
       -0.016903142 0.031672932 0.02021272 -0.12410478
000180 58 25 d8 bd a9 dd fe bd c8 13 cd bd 26 c3 06 be
       -0.10553998 -0.12444622 -0.100135386 -0.1316038
000190 9f 02 0b bd ff 7e 05 3d bc f6 fb bc 91 3f d6 bd
       -0.033938047 0.032591816 -0.0307573 -0.10461343
0001a0 dd 18 cc bd c6 80 df bd 9c 3b 24 bc 3a 18 9d bc
       -0.0996568 -0.109132335 -0.010023978 -0.019176591
0001b0 73 10 71 3c 51 78 e8 3c 5a 7e e4 bc 8a 00 90 bc
       0.014713394 0.028377684 -0.02789228 -0.017578382
0001c0 55 bd d5 3c 71 08 c2 3c 01 20 33 3a a3 f1 94 3c
       0.026091257 0.023685666 0.0006833077 0.018181628
0001d0 93 37 f6 ba 83 b3 02 bd 0c a2 8b 3c dc 20 12 3d
       -0.0018784873 -0.031909477 0.017045043 0.03567587
0001e0 5a 1a aa 3c 85 87 ff 3c 61 f5 f2 bd 0a 03 08 be
       0.020764519 0.03119255 -0.118632086 -0.1328241
0001f0 2a 53 b7 bd 43 37 1b be 38 36 14 be ba 85 06 be
       -0.08951409 -0.151578 -0.14473808 -0.1313695
000200 14 99 f9 bd 90 f3 12 be 9f 69 1b be a3 49 c3 bd
       -0.121874005 -0.14350724 -0.1517701 -0.095355295
000210 67 bd 07 be 88 ab 16 be 5d df 12 be cd b1 00 be
       -0.13255845 -0.14713871 -0.14343019 -0.12567826
000220 4a f1 28 bc 65 a5 a6 bb 15 b7 f2 3c ac f2 dc 3c
       -0.010311434 -0.0050856345 0.029628316 0.026971184
000230 e1 44 b9 bc ae c1 a9 3c d7 60 20 3c 73 86 71 bc
       -0.022615852 0.020722236 0.009788713 -0.014741528
000240 21 95 cc 3c 64 12 0d bd 8e 65 ab 3c 5e 3e d5 bc
       0.024973454 -0.034441367 0.020922448 -0.026030716
000250 0e ef 1a be ae 58 c4 bd b1 ec d5 bd 09 0b 0a be
       -0.15130255 -0.09587227 -0.10445536 -0.13480772
000260 ab 41 12 be 2e 9c ad bd 4a 39 0c be fe ea 0e be
       -0.14282863 -0.084770545 -0.13693729 -0.1395683
000270 88 52 ce bd ec 0b 18 be 42 ca c5 bd 81 e6 02 be
       -0.10074335 -0.14848298 -0.09657718 -0.12783243
000280 44 4b 07 be 7e 8c 09 be 40 09 07 be 1d 4a 0d be
       -0.13212305 -0.134325 -0.13187122 -0.13797803
000290 5f 1d 04 bd 81 d6 57 bb 33 fa 08 3c dc e3 e9 3a
       -0.032254573 -0.003293425 0.008360433 0.0017844397
0002a0 6a b7 9b 3c 8a 40 6f bc 45 4d 58 bc 8c 05 04 be
       0.019008357 -0.01460279 -0.013202016 -0.12892741
0002b0 f1 14 14 be 0c 6b 19 be 0d 80 f2 bd 50 db 15 be
       -0.14461114 -0.14982241 -0.1184083 -0.14634442
0002c0 18 0c 16 be 90 13 c4 bd 90 77 e6 bd 16 0d 15 be
       -0.14653051 -0.09574044 -0.112532735 -0.14555773
0002d0 ed 56 ef bd 8e 1f d9 bd a1 08 00 be 89 20 15 be
       -0.11686502 -0.10601722 -0.12503292 -0.14563192
0002e0 6d 22 bc bd e6 5c da bd e1 92 00 be 55 31 15 be
       -0.09186254 -0.1066225 -0.1255603 -0.145696
0002f0 1b 11 15 be 34 c7 b4 bd a6 f0 b9 bd 7e 70 b6 bd
       -0.14557306 -0.088270575 -0.09079103 -0.08908175
000300 a0 21 f6 bd 48 1f 1e be e5 ca 02 bd d5 3b 85 bc
       -0.12018132 -0.1544162 -0.031931777 -0.016263882
000310 5c 54 5a bc dc 6e 21 b9 83 90 f8 3c 45 db 13 be
       -0.013325777 -0.00015395455 0.030342346 -0.14439113
000320 0b b1 16 be 3e b5 c8 bd 27 e3 b1 bd ac 1e cd bd
       -0.14715974 -0.09800194 -0.08685904 -0.10015616
000330 2a 8a 18 be 6c 9c 10 be 8e ff b4 bd 2b 04 07 be
       -0.14896455 -0.1412217 -0.08837806 -0.13185184
000340 38 1d e5 bd ed c3 09 be 46 2c b5 bd 0c f9 00 be
       -0.11187214 -0.13453646 -0.08846335 -0.12595004
000350 c0 82 e3 bd a4 7c f8 bd d7 b0 07 be b3 cd f7 bd
       -0.11108923 -0.12133148 -0.13251053 -0.12099781
000360 22 e1 07 be fb f0 df bd 5a b3 fe bd 23 e4 bc bd
       -0.13269475 -0.10934635 -0.12436552 -0.09223201
000370 61 72 17 be 7a 27 00 be 6e 7f 1e 3c ae a1 a5 3c
       -0.14789726 -0.12515059 0.009673936 0.020218696
000380 8c a2 f9 3c ba b3 a2 bc b8 70 0e bd ae 34 d5 bd
       0.030473016 -0.01986109 -0.034775466 -0.104104385
000390 b8 1a 15 be a2 f8 1d be 4d c5 1d be d2 2a 19 be
       -0.14560974 -0.15426877 -0.15407296 -0.14957741
0003a0 06 db ea bd 1e 8f b3 bd f8 9c 06 be bd d4 e2 bd
       -0.11467557 -0.08767532 -0.13145816 -0.11075733
0003b0 55 e2 e8 bd 47 a2 ad bd 44 a0 f0 bd c5 d7 19 be
       -0.113712944 -0.084782176 -0.11749318 -0.15023716
0003c0 e2 1d f1 bd b3 32 11 be 55 0f 18 be 87 13 0a be
       -0.11773278 -0.14179496 -0.14849599 -0.13484012
0003d0 34 ab db bd b1 a7 f1 bd 9c b3 ca bd cb a9 dd bd
       -0.10726014 -0.11799563 -0.09897539 -0.10823401
0003e0 99 5c cf bd 57 0b c7 bd 4a 16 4d 3b 93 a4 f9 b7
       -0.101250835 -0.0971896 0.0031293803 -2.9759749e-05
0003f0 ee 36 59 bc e1 55 e3 bc b3 9f 13 3c 8e 92 b7 bd
       -0.013257725 -0.027750911 0.009010243 -0.089635

l1.bias f4 [10]
000000 d8 d5 d7 bd 70 84 4f 3f 0b a9 2d 3f ff c6 9f be
       -0.10538834 0.8106146 0.67836064 -0.3120651
000010 72 03 cf 3e e7 1c de 3f 46 2a 6f bd 88 1a 80 3f
       0.40432316 1.735257 -0.058389924 1.0008097
000020 4f 56 e3 bd d9 8f b0 bc
       -0.111004464 -0.021552967

exp_avg f4 [10, 784]
000000 00 00 00 00 00 00 00 00 00 00 00 00 00 00 00 00
       0.0 0.0 0.0 0.0
000010 00 00 00 00 00 00 00 00 00 00 00 00 00 00 00 00
       0.0 0.0 0.0 0.0
000020 00 00 00 00 00 00 00 00 00 00 00 00 00 00 00 00
       0.0 0.0 0.0 0.0
000030 00 00 00 00 00 00 00 00 00 00 00 00 00 00 00 00
       0.0 0.0 0.0 0.0
000040 00 00 00 00 00 00 00 00 00 00 00 00 00 00 00 00
       0.0 0.0 0.0 0.0
000050 00 00 00 00 00 00 00 00 00 00 00 00 00 00 00 00
       0.0 0.0 0.0 0.0
000060 00 00 00 00 00 00 00 00 00 00 00 00 00 00 00 00
       0.0 0.0 0.0 0.0
000070 00 00 00 00 00 00 00 00 00 00 00 00 00 00 00 00
       0.0 0.0 0.0 0.0
000080 00 00 00 00 00 00 00 00 00 00 00 00 00 00 00 00
       0.0 0.0 0.0 0.0
000090 00 00 00 00 00 00 00 00 00 00 00 00 00 00 00 00
       0.0 0.0 0.0 0.0
0000a0 00 00 00 00 00 00 00 00 00 00 00 00 00 00 00 00
       0.0 0.0 0.0 0.0
0000b0 00 00 00 00 00 00 00 00 00 00 00 00 00 00 00 00
       0.0 0.0 0.0 0.0
0000c0 00 00 00 00 00 00 00 00 00 00 00 00 00 00 00 00
       0.0 0.0 0.0 0.0
0000d0 00 00 00 00 00 00 00 00 00 00 00 00 00 00 00 00
       0.0 0.0 0.0 0.0
0000e0 00 00 00 00 00 00 00 00 00 00 00 00 00 00 00 00
       0.0 0.0 0.0 0.0
0000f0 00 00 00 00 00 00 00 00 00 00 00 00 00 00 00 00
       0.0 0.0 0.0 0.0
000100 00 00 00 00 00 00 00 00 00 00 00 00 00 00 00 00
       0.0 0.0 0.0 0.0
000110 00 00 00 00 00 00 00 00 00 00 00 00 00 00 00 00
       0.0 0.0 0.0 0.0
000120 00 00 00 00 00 00 00 00 00 00 00 00 00 00 00 00
       0.0 0.0 0.0 0.0
000130 00 00 00 00 00 00 00 00 00 00 00 00 00 00 00 00
       0.0 0.0 0.0 0.0
000140 00 00 00 00 00 00 00 00 00 00 00 00 00 00 00 00
       0.0 0.0 0.0 0.0
000150 00 00 00 00 00 00 00 00 00 00 00 00 00 00 00 00
       0.0 0.0 0.0 0.0
000160 00 00 00 00 00 00 00 00 00 00 00 00 00 00 00 00
       0.0 0.0 0.0 0.0
000170 00 00 00 00 00 00 00 00 00 00 00 00 96 b0 3a 01
       0.0 0.0 0.0 3.42895e-38
000180 ad 0a 5f 02 c3 ef e0 02 53 a8 1a 03 c9 a7 7d 02
       1.6386516e-37 3.3051458e-37 4.544976e-37 1.8635656e-37
000190 00 00 00 00 00 00 00 00 00 00 00 00 2a 79 13 02
       0.0 0.0 0.0 1.0834627e-37
0001a0 c2 0e 5c 02 b6 e5 92 02 00 00 00 00 00 00 00 00
       1.6167283e-37 2.158462e-37 0.0 0.0
0001b0 00 00 00 00 00 00 00 00 00 00 00 00 00 00 00 00
       0.0 0.0 0.0 0.0
0001c0 00 00 00 00 00 00 00 00 00 00 00 00 00 00 00 00
       0.0 0.0 0.0 0.0
0001d0 00 00 00 00 00 00 00 00 00 00 00 00 00 00 00 00
       0.0 0.0 0.0 0.0
0001e0 00 00 00 00 00 00 00 00 13 4b 7f 00 c9 ab 1c 03
       0.0 0.0 1.169004e-38 4.604148e-37
0001f0 64 66 11 04 7f d9 36 04 37 60 12 04 0c 54 a6 03
       1.7091684e-36 2.1493866e-36 1.7206397e-36 9.775899e-37
000200 d1 a4 68 03 49 af 29 03 91 b7 18 03 3b 4d 1a 03
       6.8367872e-37 4.9865854e-37 4.487951e-37 4.534519e-37
000210 ab df 0c 03 0e 5b a4 02 0f 07 9b 01 f2 81 46 00
       4.139906e-37 2.4149897e-37 5.6948136e-38 6.4751e-39
000220 00 00 00 00 00 00 00 00 00 00 00 00 00 00 00 00
       0.0 0.0 0.0 0.0
000230 00 00 00 00 00 00 00 00 00 00 00 00 00 00 00 00
       0.0 0.0 0.0 0.0
000240 00 00 00 00 00 00 00 00 00 00 00 00 00 00 00 00
       0.0 0.0 0.0 0.0
000250 3a 44 7f 02 67 0c 60 03 2d 0b 96 03 70 ae 22 04
       1.8754021e-37 6.584192e-37 8.8187735e-37 1.9123106e-36
000260 57 1d 96 04 a2 7e c5 04 d1 1d a6 04 65 ee 64 04
       3.5291775e-36 4.643077e-36 3.9053794e-36 2.6910737e-36
000270 5d 38 5a 04 f7 7c 31 04 3f 1b 04 04 23 72 8c 03
       2.5651658e-36 2.0863631e-36 1.5529036e-36 8.254665e-37
000280 78 03 70 03 99 7b 80 03 07 e9 82 03 20 a7 0c 03
       7.0533643e-37 7.5515405e-37 7.694214e-37 4.1334152e-37
000290 00 00 00 00 00 00 00 00 00 00 00 00 00 00 00 00
       0.0 0.0 0.0 0.0
0002a0 00 00 00 00 00 00 00 00 00 00 00 00 87 68 45 00
       0.0 0.0 0.0 6.374147e-39
0002b0 87 68 45 00 7b df be 01 73 15 bc 02 18 75 ee 02
       6.374147e-39 7.0115656e-38 2.7636428e-37 3.5038165e-37
0002c0 06 9a 9e 03 95 81 ef 03 5b b1 4b 04 62 d3 9c 04
       9.321767e-37 1.4076908e-36 2.3943973e-36 3.6869548e-36
0002d0 5a 33 d3 04 ed e1 02 05 86 e2 f9 04 fe 80 b4 04
       4.965302e-36 6.1540666e-36 5.8747648e-36 4.2436257e-36
0002e0 df ba 93 04 35 1d 69 04 60 fb 5d 04 e4 1d 09 04
       3.4731148e-36 2.740243e-36 2.609385e-36 1.6117998e-36
0002f0 5e 13 00 04 43 99 29 04 34 f4 0b 04 2e ae 9b 03
       1.505522e-36 1.9936229e-36 1.6451504e-36 9.150071e-37
000300 04 32 e2 02 b8 8a a6 01 00 00 00 00 00 00 00 00
       3.3236423e-37 6.117782e-38 0.0 0.0
000310 00 00 00 00 00 00 00 00 00 00 00 00 40 37 ac 02
       0.0 0.0 0.0 2.530484e-37
000320 9e 34 a0 02 b6 bb a3 02 9b 58 17 03 43 1d 81 03
       2.3540088e-37 2.4058438e-37 4.4476626e-37 7.588657e-37
000330 c3 4d 0f 04 95 3a 66 04 41 f5 ac 04 a2 33 da 04
       1.6845276e-36 2.706327e-36 4.0662236e-36 5.129897e-36
000340 b7 8e 04 05 91 d9 1c 05 3d 06 22 05 cd d3 f5 04
       6.232823e-36 7.3750454e-36 7.618349e-36 5.779373e-36
000350 6d f5 cb 04 fe ed a2 04 8f d0 73 04 43 8b 32 04
       4.795046e-36 3.830458e-36 2.8660278e-36 2.0987745e-36
000360 14 80 4d 04 63 eb 70 04 35 93 51 04 3e bd e8 03
       2.4156445e-36 2.8319949e-36 2.4635426e-36 1.3679182e-36
000370 fe d3 5c 03 4a dc 1e 03 00 00 00 00 00 00 00 00
       6.4895544e-37 4.6684906e-37 0.0 0.0
000380 00 00 00 00 00 00 00 00 00 00 00 00 fa cc 03 03
       0.0 0.0 0.0 3.873274e-37
000390 3c 56 0d 03 d1 a2 20 03 d5 22 54 03 8d db e0 03
       4.153517e-37 4.720668e-37 6.2341186e-37 1.3215943e-36
0003a0 ff d6 50 04 95 a5 9c 04 6d bc d6 04 b8 3a f7 04
       2.4549004e-36 3.6827487e-36 5.04842e-36 5.8123346e-36
0003b0 09 03 0a 05 23 d4 1d 05 9e 7b 2a 05 49 07 12 05
       6.489286e-36 7.421068e-36 8.0160665e-36 6.866225e-36
0003c0 fd a0 03 05 23 01 dd 04 f9 c8 b6 04 58 d9 a0 04
       6.189159e-36 5.1957894e-36 4.297256e-36 3.7815418e-36
0003d0 a6 ad ae 04 7f 21 a6 04 6d b9 69 04 b1 e6 25 04
       4.1066674e-36 3.9057174e-36 2.7474162e-36 1.9501585e-36
0003e0 88 67 b0 03 ce 0f a8 03 00 00 00 00 00 00 00 00
       1.036812e-36 9.877781e-37 0.0 0.0
0003f0 00 00 00 00 00 00 00 00 00 00 00 00 db 88 fd 02
       0.0 0.0 0.0 3.725356e-37

exp_avg_sq f4 [10, 784]
000000 00 00 00 00 00 00 00 00 00 00 00 00 00 00 00 00
       0.0 0.0 0.0 0.0
000010 00 00 00 00 00 00 00 00 00 00 00 00 00 00 00 00
       0.0 0.0 0.0 0.0
000020 00 00 00 00 00 00 00 00 00 00 00 00 00 00 00 00
       0.0 0.0 0.0 0.0
000030 00 00 00 00 00 00 00 00 00 00 00 00 00 00 00 00
       0.0 0.0 0.0 0.0
000040 00 00 00 00 00 00 00 00 00 00 00 00 00 00 00 00
       0.0 0.0 0.0 0.0
000050 00 00 00 00 00 00 00 00 00 00 00 00 00 00 00 00
       0.0 0.0 0.0 0.0
000060 00 00 00 00 00 00 00 00 00 00 00 00 00 00 00 00
       0.0 0.0 0.0 0.0
000070 00 00 00 00 00 00 00 00 00 00 00 00 00 00 00 00
       0.0 0.0 0.0 0.0
000080 00 00 00 00 00 00 00 00 00 00 00 00 00 00 00 00
       0.0 0.0 0.0 0.0
000090 00 00 00 00 00 00 00 00 00 00 00 00 00 00 00 00
       0.0 0.0 0.0 0.0
0000a0 00 00 00 00 00 00 00 00 00 00 00 00 00 00 00 00
       0.0 0.0 0.0 0.0
0000b0 00 00 00 00 00 00 00 00 00 00 00 00 00 00 00 00
       0.0 0.0 0.0 0.0
0000c0 00 00 00 00 00 00 00 00 00 00 00 00 00 00 00 00
       0.0 0.0 0.0 0.0
0000d0 00 00 00 00 00 00 00 00 00 00 00 00 00 00 00 00
       0.0 0.0 0.0 0.0
0000e0 00 00 00 00 00 00 00 00 00 00 00 00 00 00 00 00
       0.0 0.0 0.0 0.0
0000f0 00 00 00 00 00 00 00 00 00 00 00 00 00 00 00 00
       0.0 0.0 0.0 0.0
000100 00 00 00 00 00 00 00 00 00 00 00 00 00 00 00 00
       0.0 0.0 0.0 0.0
000110 00 00 00 00 00 00 00 00 00 00 00 00 00 00 00 00
       0.0 0.0 0.0 0.0
000120 00 00 00 00 00 00 00 00 00 00 00 00 00 00 00 00
       0.0 0.0 0.0 0.0
000130 00 00 00 00 00 00 00 00 00 00 00 00 00 00 00 00
       0.0 0.0 0.0 0.0
000140 00 00 00 00 00 00 00 00 00 00 00 00 00 00 00 00
       0.0 0.0 0.0 0.0
000150 00 00 00 00 00 00 00 00 00 00 00 00 00 00 00 00
       0.0 0.0 0.0 0.0
000160 00 00 00 00 00 00 00 00 00 00 00 00 00 00 00 00
       0.0 0.0 0.0 0.0
000170 00 00 00 00 00 00 00 00 00 00 00 00 d5 79 da 2b
       0.0 0.0 0.0 1.5523647e-12
000180 c9 eb 1b 2e bb 94 1e 2f 4c ef 95 2f 05 a9 49 2e
       3.545234e-11 1.4422856e-10 2.7272973e-10 4.5852228e-11
000190 00 00 00 00 00 00 00 00 00 00 00 00 30 54 88 2d
       0.0 0.0 0.0 1.5498797e-11
0001a0 c9 c6 17 2e 19 44 87 2e 00 00 00 00 00 00 00 00
       3.450998e-11 6.151186e-11 0.0 0.0
0001b0 00 00 00 00 00 00 00 00 00 00 00 00 00 00 00 00
       0.0 0.0 0.0 0.0
0001c0 00 00 00 00 00 00 00 00 00 00 00 00 00 00 00 00
       0.0 0.0 0.0 0.0
0001d0 00 00 00 00 00 00 00 00 00 00 00 00 00 00 00 00
       0.0 0.0 0.0 0.0
0001e0 00 00 00 00 00 00 00 00 91 24 4b 2a 4a dd 99 2f
       0.0 0.0 1.8042708e-13 2.7987773e-10
0001f0 ba 85 84 31 83 94 d1 31 a8 4e 86 31 f0 6a ad 30
       3.8569086e-09 6.0995844e-09 3.9088555e-09 1.26178e-09
000200 77 a2 29 30 ce 7c b4 2f 19 32 92 2f e9 3e 95 2f
       6.171272e-10 3.2830488e-10 2.6592842e-10 2.7147642e-10
000210 f9 cc 78 2f 14 54 a9 2e 53 a7 96 2c e2 4c 79 29
       2.262829e-10 7.7001655e-11 4.281833e-12 5.5355792e-14
000220 00 00 00 00 00 00 00 00 00 00 00 00 00 00 00 00
       0.0 0.0 0.0 0.0
000230 00 00 00 00 00 00 00 00 00 00 00 00 00 00 00 00
       0.0 0.0 0.0 0.0
000240 00 00 00 00 00 00 00 00 00 00 00 00 00 00 00 00
       0.0 0.0 0.0 0.0
000250 d7 3a 4c 2e cb 54 1d 30 67 1f 8d 30 64 e5 a5 31
       4.643649e-11 5.7236765e-10 1.0268025e-09 4.8282107e-09
000260 7f 41 8d 32 eb 7e f4 32 d8 f9 ac 32 5f 43 24 32
       1.6444345e-08 2.8463054e-08 2.0137051e-08 9.561375e-09
000270 94 40 15 32 32 78 c5 31 d4 cb 5a 31 88 4a 77 30
       8.687625e-09 5.7471192e-09 3.1839038e-09 8.996399e-10
000280 60 8d 34 30 1e f5 4e 30 0c da 56 30 6a 05 78 2f
       6.5684524e-10 7.5290696e-10 7.816261e-10 2.2557392e-10
000290 00 00 00 00 00 00 00 00 00 00 00 00 00 00 00 00
       0.0 0.0 0.0 0.0
0002a0 00 00 00 00 00 00 00 00 00 00 00 00 44 96 71 29
       0.0 0.0 0.0 5.3643084e-14
0002b0 44 96 71 29 2e 60 e4 2c 0d c0 dd 2e 10 38 32 2f
       5.3643084e-14 6.490828e-12 1.00840315e-10 1.6208923e-10
0002c0 25 ae 9d 30 34 ca 33 31 bf 0a 02 32 21 2b 9a 32
       1.1472748e-09 2.6162867e-09 7.569439e-09 1.7947572e-08
0002d0 f9 cd 0b 33 ba c2 56 33 79 b5 43 33 b8 3c cc 32
       3.255079e-08 5.000286e-08 4.5567024e-08 2.3776337e-08
0002e0 d0 cd 88 32 23 52 2a 32 37 71 1a 32 e9 b4 6b 31
       1.5926076e-08 9.913978e-09 8.989722e-09 3.4299836e-09
0002f0 d0 a5 4d 31 f1 4d b4 31 b4 8f 75 31 db ec 97 30
       2.992568e-09 5.2475504e-09 3.5733878e-09 1.1054014e-09
000300 77 5c 20 2f 12 dd ad 2c 00 00 00 00 00 00 00 00
       1.4584765e-10 4.9414995e-12 0.0 0.0
000310 00 00 00 00 00 00 00 00 00 00 00 00 75 e9 b9 2e
       0.0 0.0 0.0 8.454296e-11
000320 a0 e2 a0 2e 7c 0c a8 2e 4d 95 8f 2f 3e ff 50 30
       7.316214e-11 7.641973e-11 2.6117633e-10 7.603268e-10
000330 a6 ba 80 31 8b 21 26 32 92 84 bb 32 2e 3a 15 33
       3.7465098e-09 9.6700985e-09 2.1829951e-08 3.474468e-08
000340 e5 4a 5c 33 4a 37 9a 33 38 8f a4 33 c5 67 3d 33
       5.1290858e-08 7.181241e-08 7.6628965e-08 4.409937e-08
000350 a5 61 02 33 38 67 a6 32 eb 50 3a 32 5a d3 c7 31
       3.035679e-08 1.9371882e-08 1.08450235e-08 5.81569e-09
000360 30 5c 04 32 ec ea 35 32 2d a9 09 32 09 c6 29 31
       7.704372e-09 1.0589002e-08 8.012916e-09 2.4705307e-09
000370 53 d7 18 30 02 32 9e 2f 00 00 00 00 00 00 00 00
       5.560327e-10 2.8775565e-10 0.0 0.0
000380 00 00 00 00 00 00 00 00 00 00 00 00 d9 c8 59 2f
       0.0 0.0 0.0 1.980739e-10
000390 5f 70 7a 2f 40 c0 a1 2f b1 0b 0d 30 2c 78 1e 31
       2.277729e-10 2.942233e-10 5.1312116e-10 2.3060336e-09
0003a0 53 b2 08 32 2d d1 99 32 50 86 10 33 61 92 3f 33
       7.956788e-09 1.7906666e-08 3.364977e-08 4.4603784e-08
0003b0 6d cb 6e 33 80 25 9c 33 80 30 b6 33 b1 ab 85 33
       5.5598708e-08 7.271137e-08 8.4838575e-08 6.2245256e-08
0003c0 6a 37 59 33 ce 15 19 33 6c 6e d1 32 3d 2e a2 32
       5.057465e-08 3.564292e-08 2.4381016e-08 1.8880309e-08
0003d0 46 44 bf 32 9e 01 ad 32 df 36 2b 32 46 87 ac 31
       2.2266374e-08 2.0140586e-08 9.965986e-09 5.0212376e-09
0003e0 ed 10 c3 30 2b 0d b1 30 00 00 00 00 00 00 00 00
       1.4192928e-09 1.2882188e-09 0.0 0.0
0003f0 00 00 00 00 00 00 00 00 00 00 00 00 ce 77 49 2f
       0.0 0.0 0.0 1.8323407e-10

exp_avg f4 [10]
000000 a2 00 a3 05 d7 ba b4 ba ee de 63 3b b6 f1 c7 ba
       1.5328679e-35 -0.0013788593 0.0034770328 -0.0015254531
000010 a5 eb 8d ba ff 23 b9 38 77 61 ba 37 f7 5c 73 3b
       -0.0010827674 8.828192e-05 2.2218313e-05 0.0037134269
000020 25 88 ad 05 d9 37 30 bb
       1.6318853e-35 -0.0026888757

exp_avg_sq f4 [10]
000000 50 8d a6 34 21 18 c7 37 cf 02 3c 38 9c 8c 6c 38
       3.1022728e-07 2.3733885e-05 4.482531e-05 5.6397737e-05
000010 fe 61 7a 38 e0 ef 4e 38 6b d4 c7 37 5b 3e 39 38
       5.9695907e-05 4.933763e-05 2.3821563e-05 4.416551e-05
000020 c0 c3 bc 34 27 69 c0 38
       3.5160156e-07 9.1748596e-05
