ch-04/.lr_find_1f715552-1e7b-4101-84f2-b117aae6f63b.ckpt (torch, 17796 bytes, 9 tensors)

fc1.weight f4 [30, 30]
00000000: ae23 3a3c c8e9 04bd 8ff9 b43d 58ee cebd
00000010: dfbb 54bd 9b46 39be ff99 183e 75b6 0cbd
00000020: 3061 13be a557 10bc 37b9 aeb9 18b1 4f3d
00000030: ee29 a4bc d636 eb3d 2d02 81bd e2d4 5fbd
00000040: e895 31bd 4c82 053d fcca 153e d0a3 09bc
00000050: 6ed9 0f3e d3dc 123e 5ead c2bd a281 80bc
00000060: 2d82 b0bd a389 9b3d b374 83bd a41f 643d
00000070: b7b6 323c d375 f5bd f960 fbbd c39a 36be
00000080: cf28 d1bd 68e8 503d 483f 363c 269c 0c3e
00000090: a164 24be 69d2 aebb 50a2 27be 7e14 8c3a
000000a0: d43a 883d 25b5 27be 521c 253e 7144 68bd
000000b0: 56a6 253e cd0b fbbc 3420 d43d 11f5 293e
000000c0: a521 88bd 39c9 35bd b920 c43d 0d0f 20be
000000d0: 3554 dd3d eadb eabd 4aa3 2d3e 860c f5bd
000000e0: 79de 99bd fa80 0b3e dbcb a2bd e23f 203e
000000f0: 1da1 003e 41e1 2a3e 8b36 35be 851a 063b
00000100: 2bf8 75bd 6622 323d 4c29 0dbe f652 993d
00000110: 7db5 0dbc 72be b0bd af2f 28be d994 c33d
00000120: 1852 87bd 4cf3 093e 981f 053d 8271 633d
00000130: 23d6 e2bc da2e cfbc 000b 7ebd a5e2 21be
00000140: ba13 eb3d b877 ebbd 0fee d93d 593a 7cbd
00000150: 863e ea3d b439 203e d4af e4bd d35f 1a3e
00000160: 79cf 913b 4bd2 0ebe 9ea2 983d 3eb9 d33d
00000170: cacd 243e 99f7 31be 6fd0 283e 90bb 0d3e
00000180: 8beb 373e c8c8 cb3d 73c3 b5bd b5d3 0d3e
00000190: bbdc 2a3e 00f9 8ebd a87a f4bc 8f4c 123e
000001a0: 0d7f 163e 4f00 f73d a53b 0f3e 1927 c0bd
000001b0: c802 01bd 9161 95bd 1656 c23d f15d 3a3d
000001c0: 2a6a 10be ecde bbbc 4674 18be 89f2 2fbe
000001d0: 2c6f 2a3e e715 bcbd 54e3 a63d 3a86 26bd
000001e0: 0d6f 17bd f74b f7b8 e7cf 113e eae6 cebc
000001f0: 1bb3 1a3e 5fc7 da3d e040 003e d38e 29be
00000200: e8d6 aebd 4c51 18be 4cd4 1ebd 08e4 1abd
00000210: edf5 173d cf81 273e d9d9 a73d 4118 02be
00000220: 137f eabd e62b 0d3e 01e2 943c 8a43 533d
00000230: b391 c3bd 9e64 b6bc bde8 543d d75e f5bd
00000240: b409 f43d 3856 ba3d 170e dabd 8a55 99bd
00000250: 6ad0 2fbd 0ec3 e83c 8b28 89bd 96d8 323e
00000260: e513 34be b855 d3bd def4 e2bd 6832 4a3d
00000270: 2b3e d43c d318 55bd 1f8f 1f3e ec63 21be
00000280: 0ac9 833d e2be cdbd 3149 2abd e609 34be
00000290: 5f90 0bbe 669f 1ebe c620 a33d 0868 8cbd
000002a0: f697 c33d 23a4 cabd c648 39bd 300b b53c
000002b0: aea7 1c3e 788c 49bd d0c3 d83d b74d 4e3d
000002c0: 096a e33d 0834 ec3d 4bbd 973d 1781 61bd
000002d0: 9be3 51bd 7c90 913d 43cc cb3d e1a7 1fbc
000002e0: d06e bb3d dbf3 e0bd 2dc2 d23d c989 b7bc
000002f0: 68a8 00be 87ad b5bd 27c7 0ebe 5cd9 163d
00000300: a3c0 ddbd 4226 56bd 666b 3bbc 7825 e4bd
00000310: 7b9e 993b 08d1 bdbc 05de 6c3d f40e 073e
00000320: 17b8 e1bd 596f cc3d 1781 7dbb 11b6 d5bd
00000330: 0193 a9bd 7c59 3e3d fdb4 1b3d 353d c1bb
00000340: 7f26 babd eb8f bc3d 19e9 dd3c e6be 35be
00000350: 1329 04bd d9e4 4abd 428d 9fbd 7a68 cfbd
00000360: 9bab 17be 3822 383e b0c4 2abe 3fca 2d3e
00000370: 80f7 12be 666f 35bd e32d 99bd e722 c8bd
00000380: 60f0 843d a6b7 d83d 969f f5bd 3b26 aebd
00000390: d0da be3d bcc9 b4bc ba21 363d 3a80 c33d
000003a0: ae35 8abd ea82 cfbd c6a2 893d baec 88bd
000003b0: 2de4 f8bd 669b bcbd 23db adbd ce27 3a3e
000003c0: f0d2 0f3d 9d08 a13d 0ee7 c83c 4012 fcbd
000003d0: 1eea 063e 237f e8bc 7da2 41bd 6c5c 183e
000003e0: 8679 bebd 15da 173d 550a 1fbe de99 bf3d
000003f0: a285 943d b2bb 19be b1b1 d03d 4c98 a43c
0.011361046 -0.032449514 0.08836662 -0.10104054 -0.05193698 -0.1809334 0.14902495 -0.034353692
-0.14392543 -0.008809959 -0.00033325862 0.050706 -0.020039525 0.114850685 -0.06299243 -0.05464638
-0.043355852 0.032594964 0.14628214 -0.008400872 0.14047787 0.1434205 -0.095057234 -0.015686814
-0.08618579 0.075946115 -0.06418743 0.055694237 0.01090782 -0.11985364 -0.122743554 -0.17832474
-0.10212862 0.05100289 0.011123486 0.13731441 -0.16054012 -0.0053351414 -0.16370511 0.001068726
0.066518456 -0.16377695 0.16124085 -0.056705896 0.16176733 -0.030645275 0.10357705 0.16597392
-0.06647042 -0.044381354 0.09576554 -0.15630741 0.10807077 -0.114677265 0.16956821 -0.11965279
-0.075131364 0.1362342 -0.079490386 0.1564937 0.1256146 0.1668749 -0.17696588 0.0020462584
-0.060051125 0.043489836 -0.13785285 0.07486527 -0.008649227 -0.086300746 -0.1642444 0.09549875
-0.06607455 0.13471717 0.032500833 0.05552817 -0.027689999 -0.025290895 -0.06202221 -0.15809114
0.11478372 -0.11497444 0.10641109 -0.061579082 0.11437707 0.15647012 -0.11166349 0.15075617
0.0044497815 -0.13947408 0.07452892 0.103380665 0.16094127 -0.17379607 0.16485761 0.1384108
0.17960946 0.09950405 -0.088751696 0.13850291 0.16685764 -0.06981087 -0.029843643 0.14287017
0.14696904 0.12060606 0.13987596 -0.09382457 -0.031496793 -0.07294 0.09489076 0.045499746
-0.14102998 -0.022933446 -0.14888105 -0.17182364 0.16643971 -0.09183865 0.08148828 -0.040655352
-0.03697114 -0.00011792027 0.14239465 -0.025256593 0.15107386 0.10682558 0.12524748 -0.1655839
-0.08537084 -0.14874762 -0.03877668 -0.037815124 0.037099767 0.16358112 0.08195848 -0.12704565
-0.11450019 0.13786277 0.018174173 0.051578082 -0.09549274 -0.022264775 0.05197977 -0.1198098
0.11915913 0.09098476 -0.10647219 -0.074870184 -0.04292337 0.028413322 -0.06697186 0.17465433
-0.17585714 -0.10319084 -0.11081861 0.049364477 0.02590855 -0.052025627 0.1558194 -0.15760773
0.064348295 -0.10046174 -0.041573707 -0.17581901 -0.13629292 -0.15490493 0.079652354 -0.0685578
0.095504686 -0.09894588 -0.045235418 0.022100061 0.1529834 -0.049206227 0.10584223 0.050367083
0.11104209 0.11533362 0.07409152 -0.05505475 -0.051242452 0.07107636 0.09951069 -0.009744615
0.09151995 -0.10984012 0.10290942 -0.022404568 -0.12564242 -0.08870988 -0.13943158 0.036828384
-0.10827758 -0.05228258 -0.01143918 -0.11139959 0.004688082 -0.023170963 0.05782892 0.13189298
-0.110214405 0.099821754 -0.003868168 -0.10435117 -0.08279992 0.046472058 0.0380144 -0.005897189
-0.09089374 0.09207138 0.027088689 -0.17748603 -0.032265734 -0.049534652 -0.07790615 -0.10127349
-0.14811556 0.17981803 -0.16676593 0.16971682 -0.14352226 -0.04429569 -0.07479455 -0.09772282
0.064911604 0.10581903 -0.11993329 -0.08503386 0.09319079 -0.02206885 0.044465758 0.09545942
-0.0674852 -0.10132392 0.067205 -0.06685777 -0.12152896 -0.092093274 -0.08489063 0.18179247
0.035113275 0.07862971 0.024524238 -0.123081684 0.13175246 -0.028380936 -0.0472741 0.14879006
-0.093005225 0.037073214 -0.15531285 0.0935552 0.07252051 -0.15013006 0.10190142 0.020092152

fc1.bias f4 [30]
00000000: afa3 dc3d 9f13 09be 55eb aebd 17b1 fc3d
00000010: 50c2 563d 3bcb ae3d f256 2ebe dbf9 ed3d
00000020: 1c1c 23bd c32a 1d3d e21d 173e 874a 2cbe
00000030: 1af6 553d 3303 29be 2469 0a3e ae95 5b3d
00000040: 816b a63c 1ecb 95bd 5dfa 8c3d a514 c2bd
00000050: c3f3 0e3d a500 1d3e 5d54 0cbe 525f 55bd
00000060: eeaa 2e3d 5ace 013d 268b 243b 8ad7 203e
00000070: 0c55 42bd 19e7 403d
0.10773408 -0.13386391 -0.0854098 0.12338465 0.052431405 0.08534857 -0.17025355 0.11619922
-0.03982173 0.03837086 0.14757493 -0.16825305 0.052236654 -0.16505127 0.1351667 0.053609543
0.020314934 -0.07314132 0.068836905 -0.09476594 0.034900438 0.15332277 -0.13704057 -0.052092858
0.04264348 0.031690933 0.0025107353 0.15707222 -0.04744439 0.047095392

fc2.weight f4 [30, 30]
00000000: dd28 c63d 34ff 10bd 8853 f43d a933 f43d
00000010: ba80 a63d ec71 36bd 4964 223e fe0d d8bd
00000020: 7020 673d e027 163d 69f5 033e c33d 19be
00000030: 625f 023d 1155 d7bd 672f c63d 1f66 803d
00000040: 246e 11be 5646 3bbc 2931 513d 6748 9f3d
00000050: b252 263e b8eb a73d 179e 0e3d 1875 c73d
00000060: f9e7 30be 2d4c f93d 80d9 afbc dc9e d33d
00000070: 2b26 563d 38bf 1dbc a999 033e 84f9 d9bd
00000080: 30e3 523d f3e9 a33d 8f11 85bd b774 873d
00000090: 7fed 38be e8d9 bcbd 42cc b53d bab8 c03d
000000a0: 3f9b 2bbe 2566 813d 2ba2 8c3c 007f 363e
000000b0: a05a 36be 923b 32bd b4c2 d3bd 7084 e3bd
000000c0: 8a47 f4bc a3d3 2bbe 9878 123e 534a 84bd
000000d0: 0b04 833d 5b05 dcbd c808 813a 2072 04be
000000e0: 3f7a 163e a0ac 1d3e 4830 133e 9ce5 82bd
000000f0: cbb7 e83d c333 1cbe e190 ab3d f89c b8bc
00000100: efec 1abe ae0a 16be 85f3 2ebe b522 0c3d
00000110: 453d 87bd d035 acbd a1fb 313e 0cd8 63bd
00000120: 2e3d 7c3d 1fa6 03bd 9b7f e13d 9029 5f3d
00000130: 86c8 ec3d 4a45 433d 38e6 23bd be3c 253e
00000140: c940 55bc 05d7 dfbd 88b7 683d b57d b5bc
00000150: 03a7 0abe 15a7 c33c 99c1 2dbd 4fe7 94bd
00000160: 9a74 b2bd 3f1f 9fbd 9a6b 97bd ecf5 923c
00000170: b99c 343e b529 dbbd f56f aebd 93a6 fabd
00000180: 5f03 e3bb 3cbb 513c 4953 00be a6ca aa3d
00000190: baac 27be 180a 2d3e 51bb 0c3d 4abd 96bc
000001a0: 92e2 85bd ece2 a73d 8685 083e 4a92 f4bd
000001b0: a272 3bbd f4a0 093e b925 0cbd c8a9 09be
000001c0: 3653 70bd 28a8 ce3b d59b 0bbd c31e 00be
000001d0: bd40 eabd 0134 4a3d 2947 003e ea13 2a3e
000001e0: 570d a9bc 23dd 8f3d ff7b 14be d03e c73d
000001f0: 62a5 323e 7cb6 c23d 68d6 93bd c36d 183e
00000200: d30f 31be 0579 b3bc eb4a 39bd 787b 3abe
00000210: c64e d5bd a636 08be 4afe 483d 36d1 78bc
00000220: 56ba ab3d f139 28bd 5a37 1a3e c368 a93c
00000230: c2f9 1a3e 37d1 173e 608c 1ebe be1b fbbd
00000240: 9837 e13d 78a1 303e d791 1fbe 171f 2f3b
00000250: 2cc1 8fbd 1903 303e 0b4f 1b3e 2a11 083e
00000260: e437 c93d 154b 8cbc e982 2c3e ddf8 aebd
00000270: a1d7 133c e6c3 44bd ad62 08be 1d31 b1bd
00000280: 3a51 353d 8071 85bc beb2 f7bd ca24 bebc
00000290: 5727 013d d3cd 02be 9ed1 e13d 9cf2 1ebe
000002a0: 6df3 e43a 2cef 18be a096 28be adca b9bc
000002b0: 35ad 293e d1bc 303e 1d63 863d cce8 103e
000002c0: 0366 ccbd 8082 d23d e725 e43d 7eac 32be
000002d0: 2c45 0fbe c889 a13d f634 8a3c f017 fdbd
000002e0: fc87 13be 581e 073e f862 a33c d6d7 d3b9
000002f0: aebb 34be ab08 243e 9c2d f7bd 499c a63d
00000300: 81d7 b3bc 78f2 c23b 3898 b73d 5536 47bd
00000310: 88cc 51bd cd09 153e ba42 0fbe e064 a63d
00000320: cefd 40bd 20df 79bd 954d fa3d b580 fc3c
00000330: 0e0f 2ebe 7411 273e 4489 b9bd e79e 213e
00000340: 3fb3 6abd 134a 363e f89b 5c3d d180 10bc
00000350: 0bbc 8e3d 7c0a babb 4874 b9bd 8288 cc3d
00000360: d486 f23d 715f bbbc beda 2f3e 02f7 3d3c
00000370: b8be c5bd 57c3 cbbd 2f94 fb3d 9077 97bd
00000380: 5e2a ec3d 9a9b 35be 2f15 ce3b 292d 01be
00000390: a2a2 843d c5d4 173e 8823 933d 968f 80bd
000003a0: a962 2fbe d828 b1bd 1f8a dcbd 0b87 323e
000003b0: e509 c9bd 0793 903d f514 163e 4bcd 863d
000003c0: 0f0e 24be 3de6 a9bc e5f3 5dbd 7fea f03d
000003d0: 394c 8cbc 3fc6 1dbc 864f 263e 23f4 313d
000003e0: 1c54 ad3d 3bbb 70bd 5687 f43d bb0b d73c
000003f0: c837 16bd 961d 103d 5229 13be d3fa db3b
0.09675763 -0.03539963 0.11929995 0.11923916 0.081300214 -0.044542238 0.15858568 -0.10549544
0.05642742 0.03665912 0.12886585 -0.14964966 0.031829245 -0.10514272 0.0967701 0.06269478
-0.14202172 -0.011430344 0.051072273 0.077774815 0.16242483 0.08199257 0.034818735 0.09739131
-0.1727599 0.121727325 -0.021466017 0.103330344 0.052282494 -0.00962811 0.12851585 -0.106432945
0.051486194 0.08003607 -0.0649749 0.066140585 -0.18059348 -0.0922125 0.0887685 0.09410234
-0.1675844 0.06318311 0.017167171 0.17821884 -0.17808008 -0.043513842 -0.10339871 -0.11109245
-0.029819269 -0.16779952 0.14303815 -0.06459489 0.063972555 -0.10743209 0.0009844536 -0.1293416
0.1469507 0.15397882 0.14373887 -0.06391451 0.11363181 -0.1525412 0.08377243 -0.022535786
-0.15129445 -0.14652511 -0.17085083 0.034212787 -0.06603483 -0.084087014 0.17381145 -0.05562596
0.061581783 -0.032140847 0.11010667 0.054482996 0.11561684 0.0476735 -0.040014476 0.16136453
-0.013015934 -0.109296836 0.056815654 -0.022154668 -0.13540272 0.023883382 -0.042420957 -0.07270681
-0.08713646 -0.077696316 -0.0739357 0.01793953 0.1763791 -0.10701314 -0.08517448 -0.12238803
-0.006927892 0.012800988 -0.12531771 0.08339433 -0.16374484 0.16898382 0.034358326 -0.018400807
-0.065373555 0.08197579 0.13332185 -0.11941965 -0.04576362 0.13440305 -0.034215663 -0.13443673
-0.058673106 0.006306667 -0.03408416 -0.12511735 -0.11438129 0.049366 0.12527145 0.16609159
-0.020636244 0.070246 -0.14500426 0.097287774 0.17445901 0.095074624 -0.07218629 0.14885621
-0.17291193 -0.021908293 -0.045237463 -0.18211162 -0.104154155 -0.13302097 0.049070634 -0.0151865985
0.0838515 -0.041070882 0.15060177 0.020679837 0.15134338 0.14825903 -0.15483236 -0.12261151
0.10996932 0.17249095 -0.15582977 0.0026721412 -0.070192665 0.17188682 0.15166871 0.13287798
0.098251134 -0.017125646 0.16846813 -0.08543561 0.009023578 -0.048038386 -0.13318892 -0.08651946
0.044266917 -0.016289473 -0.12094639 -0.023210902 0.031531658 -0.12773828 0.110263094 -0.15522236
0.0017467566 -0.14934987 -0.16463709 -0.022679651 0.1656998 0.17259528 0.06561873 0.14151305
-0.09980395 0.10278797 0.11140042 -0.17448613 -0.1399123 0.07887608 0.016870957 -0.12358081
-0.14407343 0.13195169 0.019944653 -0.00040405866 -0.17649719 0.16018932 -0.12069246 0.08135278
-0.021953346 0.0059493147 0.0896458 -0.0486358 -0.051220447 0.1455452 -0.13990298 0.08124709
-0.047117047 -0.061003804 0.12221829 0.030823091 -0.1699793 0.16315252 -0.090593845 0.15783273
-0.05729985 0.17801695 0.05385968 -0.008819775 0.0696946 -0.0056775194 -0.09055382 0.09986974
0.11842123 -0.022872658 0.17173287 0.011594536 -0.09655517 -0.099493675 0.12284123 -0.073958516
0.115315184 -0.17735139 0.0062891464 -0.12614883 0.06476332 0.14827259 0.071845114 -0.06277387
-0.1712748 -0.086503685 -0.10768532 0.17434327 -0.0981634 0.07059293 0.14656432 0.06582125
-0.16020988 -0.020739669 -0.054187674 0.117634766 -0.01712619 -0.009629785 0.16241273 0.043445718
0.08463308 -0.058772307 0.11939876 0.02625071 -0.03667429 0.035184465 -0.14371231 0.00671325

fc2.bias f4 [30]
00000000: b1d3 103e b4e7 d93d 091b e93d 9096 ef3d
00000010: 1827 3bbd 75d9 093e ef1c a8bb 8185 8c3c
00000020: 2e51 46bd 169e 9e3d 9af9 a63d 0f8a 9ebc
00000030: ad95 243e 14ad 41bd 0e48 3d3d f9cd 293e
00000040: 00ab d23d 2628 88bd 0360 a9bd 9b53 103d
00000050: 585d b5ba 2a86 523c 55dc f03d 67b3 823d
00000060: c9b4 d1bd a0a4 18be 60c0 303e e8a7 a4bc
00000070: c74e 93bd d64f 09be
0.14143254 0.10639897 0.1138211 0.116986394 -0.04569158 0.1346186 -0.0051304023 0.017153503
-0.048417263 0.07744996 0.081530765 -0.01935294 0.16072722 -0.0472842 0.046211295 0.16582479
0.10286522 -0.06648283 -0.08270266 0.035235982 -0.0013837023 0.01284937 0.11760775 0.063818745
-0.1023956 -0.1490655 0.17260885 -0.020099595 -0.0719276 -0.13409361

fc3.weight f4 [30, 30]
00000000: a587 333e 96ad bc3d 3c09 edbd b777 21be
00000010: a669 223e 15fc a03d 11b2 dbbc 6260 1bbe
00000020: 5da1 e23d bbd1 fdbd ccbd b73d 2391 31be
00000030: 15b1 26be fd59 33be c97b 293e e7e4 293e
00000040: c686 1fbe fc85 103e 0646 e3bd 80bf 2dbe
00000050: f5f2 b33d e0f4 d33d 94f1 d33d b63d 033d
00000060: 4f6c 333e ec0d 21be fe84 ac3d 5df9 6cbd
00000070: 27bc 133c f8f0 003e 4be1 05be 39dc a33d
00000080: bf5e 15bd 97da f13d ce19 9dbb f882 b93d
00000090: fc61 333e 5a81 85bd 0c29 38be e559 303e
000000a0: 53dc cdbd 52e6 2a3d d58c e83d 0844 e8bc
000000b0: cb1c 123e af50 f23d df8e 16bd 0012 443d
000000c0: f0b0 623c 9ee5 363e 616f 013e 7b0a f9bd
000000d0: c31b 903c 42ac c93d b7ed 0e3e c154 7f3d
000000e0: ace1 9e3d cc12 0abd 02c3 813b a164 01be
000000f0: eae8 193e 6a37 133e 9ce4 cdbd ad0f 20be
00000100: 34c9 113e 7eb3 25be 41cc ef3d 411a 36be
00000110: e429 bfbd f14f 9ebd c2b3 2f3e 0e16 fdbc
00000120: 0944 213e 4046 593d a71e 353e e2a8 f73d
00000130: 33b0 093e 56ff 223e 08f2 5cbd 589c 4dbd
00000140: 8ff4 703d 89b2 243e 439a 89bd f00f 13be
00000150: 983f 12be 53bf acbd 41a7 ee3c be13 adbc
00000160: ed6d 47bd 95cd aebd 1f83 423d b3ff 19be
00000170: 78ee 373e e6a0 e7bc ef88 0b3d a459 763d
00000180: 617c 91bd 508b 133e bd5c b1ba 6563 753c
00000190: 8cf9 31be 5621 b93c 864c 803d 336a d03c
000001a0: ac39 94bc 522b 0d3e e8ce 133e 48b6 003e
000001b0: 28cb 01bd bc2e 013d 3d89 02be 8ff6 0bbe
000001c0: 46b3 02bd fc2c a73c 63c9 d9bd 0d0d 1cbe
000001d0: 6119 aa3d ffb4 883d 720b f7bd 92d0 f83d
000001e0: 21be 0bbe b86c 0d3e 71a3 c63d 64bd 7cbd
000001f0: 27fe 313e 20f1 d1bd b7cc aabd e502 153e
00000200: 51b3 40bd ca04 97bd e96c e73c 5bba fcbc
00000210: ac8f eb3d dda2 183e a152 a63d fdba 213d
00000220: abdd 3b3d 62c2 9b3b eba4 af3c 3735 633b
00000230: f0f7 fe3d 3919 d13d a260 96bc f032 8d3d
00000240: 766f 253c 5422 843d b57d 193e 8466 febd
00000250: 898b d43c fd93 1bbd 69c5 36be 67ab 35be
00000260: a4d6 c3bc e8ce 053e 588d f6bd 1098 733d
00000270: 1781 d73d bf44 08be 0895 a03d c023 0d3d
00000280: fc34 2abe f40c 66bb 0c84 2fbe c274 233e
00000290: e23e af3d 0b45 8f3d e987 0f3e 2efa 0e3e
000002a0: c999 393e f444 9a3d 69fa 06be c5a6 2d3e
000002b0: f5bb 4f3d 6265 93bd 2c28 8bbd 03f1 2e3e
000002c0: 821f 263d 52e3 073e 354a 693c 91b2 2c3e
000002d0: 37cd 08be 353b 323d cc71 323d 60ff 09bb
000002e0: ac4f 263e 022c 163d 7f0a 223c fc34 ff3d
000002f0: b226 6cbc 2645 41bc 3923 1abe 1cc9 9cba
00000300: 6688 aebd 027d d83d dba3 223e b96a 2ebe
00000310: 4b93 d8bd dbfe 333e 0d98 9fbd 4a44 263e
00000320: f811 383e 778b 3bbd dd56 17be 8af6 ba3d
00000330: 5ef8 a93d ef77 223e 4e04 d83c 8e50 cb3d
00000340: ac4d 20be ba1f ce3c 9301 303d 245a ea3d
00000350: a627 c8bd 83bc b2bc 4be0 debd b0a5 fbbd
00000360: f2a7 9b3d 5012 e43c 8492 943d f53a 88bb
00000370: 9cf7 92bb 3bb6 e5bb 22f9 c93d d35c 01be
00000380: 4b34 213d 4e07 cd3d 89dd d83d bd6e b3bd
00000390: 82c6 103e b232 f9bd d6f8 c23d 2bee 183e
000003a0: abf5 bf3b 621a 653d 781b 31be 89e7 93bd
000003b0: 2fe8 92bd fb0f 2ebe 995c 1ebd 7f84 023e
000003c0: 60cd 8ebc e4be 383e 074b 28be 281f 953d
000003d0: aca9 213e a7b6 353e c10b 91bd 17ce 28be
000003e0: c86d 89bd 8e97 0a3e 3b0b 833c 49b1 323e
000003f0: dc82 08be 0f23 eabd da8e be3d e834 803d
0.17532213 0.092127964 -0.11574027 -0.15768324 0.15860614 0.07860581 -0.026818307 -0.15173486
0.11065934 -0.123935185 0.08971748 -0.17340522 -0.16278489 -0.17514797 0.16551127 0.16591226
-0.15578756 0.14113611 -0.1109734 -0.16967583 0.08786575 0.103494406 0.10348812 0.032041274
0.17521785 -0.15727967 0.08423804 -0.057855 0.009017027 0.12591922 -0.13074224 0.080009885
-0.03646731 0.11809271 -0.004794336 0.090581834 0.17517847 -0.065188125 -0.17984408 0.17221792
-0.10051789 0.041723557 0.113549866 -0.028352752 0.14268796 0.118317954 -0.036757346 0.04786873
0.0138361305 0.1786103 0.12640144 -0.12160202 0.017591363 0.09847309 0.13957869 0.062336687
0.07757887 -0.033709332 0.0039600143 -0.12636043 0.15030256 0.14376608 -0.100533694 -0.1563098
0.14236909 -0.16181752 0.1170888 -0.17783453 -0.09334162 -0.07730091 0.17158416 -0.030894306
0.1574861 0.05304551 0.17687474 0.12092759 0.13446121 0.15917715 -0.053941756 -0.05019793
0.05882698 0.16083731 -0.06718876 -0.14361548 -0.14282072 -0.0843493 0.029132487 -0.021127578
-0.048688818 -0.085353054 0.047488328 -0.15038948 0.17962062 -0.028274965 0.034066137 0.06014408
-0.071038015 0.14408612 -0.0013531666 0.014977311 -0.17380351 0.022598904 0.06264596 0.025441265
-0.018093906 0.13786057 0.14434397 0.12569535 -0.031687886 0.03153871 -0.12747665 -0.13668273
-0.03190925 0.020407192 -0.106341146 -0.15239353 0.08305622 0.06675147 -0.1206273 0.12149157
-0.13646747 0.13811004 0.09699143 -0.061704054 0.17382108 -0.10251069 -0.083398275 0.14551885
-0.04704601 -0.0737396 0.028250175 -0.03085058 0.115020126 0.14905877 0.08121229 0.039484967
0.045865696 0.004753397 0.021440944 0.003466917 0.12449634 0.10209889 -0.018356625 0.06894481
0.010097375 0.0645186 0.1498936 -0.12421897 0.025945442 -0.03798293 -0.17848743 -0.17741166
-0.02390606 0.1306721 -0.12038678 0.05947119 0.10522669 -0.13307475 0.078409255 0.034457922
-0.16621774 -0.0035102936 -0.17140216 0.15962508 0.08556916 0.06995591 0.1401669 0.13962623
0.1812507 0.07532683 -0.13181461 0.16958149 0.05071636 -0.071970716 -0.067947716 0.17084126
0.040557392 0.1327031 0.014238884 0.16864993 -0.13359533 0.043513495 0.043565556 -0.0021056756
0.1624133 0.036663063 0.009890198 0.12461278 -0.014413523 -0.011796271 -0.15052499 -0.0011961791
-0.0852211 0.10570718 0.15882818 -0.17032899 -0.10574969 0.17577688 -0.07792673 0.16236988
0.17975605 -0.0457873 -0.1477923 0.09129055 0.082993254 0.15866064 0.02636924 0.09927474
-0.1565463 0.025161613 0.04297025 0.11442974 -0.09773187 -0.021818405 -0.10882624 -0.12287462
0.076003924 0.027840763 0.07254508 -0.004157419 -0.0044850837 -0.007010249 0.098619714 -0.12633066
0.03935651 0.10011159 0.105891295 -0.08761356 0.14138225 -0.121678725 0.09520118 0.14934604
0.0058581433 0.055933364 -0.17295635 -0.07221896 -0.07173192 -0.16998284 -0.038662527 0.12745856
-0.017431915 0.18041569 -0.1643487 0.07281333 0.15787381 0.17745458 -0.0708232 -0.16484867
-0.06710392 0.13534376 0.015996566 0.17450441 -0.13331169 -0.11432468 0.093045905 0.06260091

fc3.bias f4 [30]
00000000: e9fb 093e f58b ff3d 61bb de3a 7d08 a2bc
00000010: ffdd f23d 5cff c83d b8c1 0d3e 0fa6 063e
00000020: e744 54bd 4459 1e3e d34f 123d 5321 3a3e
00000030: b2fc 393e 97cb 1c3e 2fe6 f83d 04cb 123e
00000040: bbbe afbd e58f 91bd ed47 2ebd ff60 bfbd
00000050: b25b 093e 4ed1 8b3c 5e67 3dbd 6786 a7bd
00000060: 1273 26be e1a0 563c 6457 243e 9fdb f53d
00000070: cb2d 143e 8778 ff3d
0.13475002 0.124778666 0.0016993099 -0.019779438 0.11858749 0.09814331 0.13843429 0.13149284
-0.051823523 0.1546374 0.035720658 0.18176775 0.18162802 0.15312038 0.12153279 0.14335257
-0.08581301 -0.07107524 -0.042549063 -0.093446724 0.13413885 0.017067578 -0.046241157 -0.08179932
-0.16254833 0.01309988 0.16048962 0.1200478 0.14470594 0.12474161

fc4.weight f4 [10, 30]
00000000: 8757 9d3d cd46 acbb 2b4e 0abe 2975 093e
00000010: e18e 03be 99d8 e0bd 030a 963d ae59 cd3d
00000020: 4994 c2bd 5da2 ec3d 54f7 2ebe 0b35 323d
00000030: d811 a53d 8ae7 0a3d 2067 d2bd f484 fcbd
00000040: 676c 153e f6bf 243d 8da2 a0bd 0c13 343e
00000050: 3218 1cbd 9749 0abd 287c 403d 7ba6 1b3e
00000060: 6872 a6bd f549 713a b8dd a7bd 3c5c a9bd
00000070: 1ee0 cbbc cb39 45b9 cd7d c83d 0fa5 0bbe
00000080: a3fb d83d 2f10 123e 4a81 aabc 1dfa 85bc
00000090: bd6a 383d 7029 2bbe d390 093e e7d1 02bd
000000a0: df9a f03b cc44 b13d ceb1 9b3d af02 adbd
000000b0: 7b52 09be 8e5b 34be 1b1d 1cbe ce34 1dbd
000000c0: 6623 11be 1605 97bc 1c8b c5bd fdde d33d
000000d0: 69c2 ff3d 6e2a 1e3e 9631 f5bd e6ef 03be
000000e0: 7fb5 813d 30c6 2abd abc8 0d3e 4a83 2bbe
000000f0: ff5e 2d3e 15ad 01be 40ec 15be da99 9ebc
00000100: 17a5 a5bd 06b6 ebbd 2978 d53d ec63 103e
00000110: c52d d03d 578f b63c a639 d7bc f702 ccbd
00000120: 3031 323e 27a7 cbbd 31eb 23be 1b9e 1e3e
00000130: 5d3e 71bc 4a3d fb3d 3a36 78bd 569d 113e
00000140: 08d6 03be 9b03 e13d 9882 113e df47 27bb
00000150: 0ff7 f73d c54b d43b 462c 2bbe 08cf a33d
00000160: eb56 11be 1e03 bc3b f32b 28be ae06 b2bd
00000170: cbd2 5ebd 174f 91bd 8529 38be 87b7 b9bd
00000180: 883a 2dbe 474c 1cbe 9a85 3abe f265 d7bd
00000190: 4693 27bd 8f6c 283e a886 03be 092b 0ebe
000001a0: 9f31 18be 89e7 2e3e 6445 bfbc 3bf7 46bd
000001b0: 5503 cd3d eeec dcbd 30a3 45bd ef5b 2b3e
000001c0: 9626 c73d 1807 11be b788 4dbd 48df 923c
000001d0: be18 873d 6906 acbd ace7 023e a01d 3b3b
000001e0: 79a5 21be e562 483d 2e7d 35be 9340 503c
000001f0: 9fe7 38be 1350 55bd 59cc 2dbd bfef 27be
00000200: ee85 53bd 6be6 c83b e8aa d2bd a240 d43c
00000210: 1173 c53d 6f84 b03c 2482 37be f33b 17ba
00000220: 4f3b afbd 1829 553d be01 16be ed52 01be
00000230: 139b c6bb 189d d73d b0c8 47bd d8bc 1dbc
00000240: f81e 94bc 8048 12be f7a9 6cbc da60 a8bb
00000250: 7990 f73c a75a a73d acb5 5e3d 1385 d03d
00000260: 9490 0ebd b986 a1bd dec5 1e3e 7f10 153e
00000270: 89dc cb3d d030 083e a621 b73d a043 253e
00000280: faa1 223e c201 18be 672e 30be 7efe c1bd
00000290: 81f1 0e3e 87ce 283e 0822 433c 193b 0abe
000002a0: f0bc afbd 41c0 b13d 0c26 2e3e 4bd8 103d
000002b0: 50e9 f5bd 2c62 313e 6d2a 243e 8208 a4bd
000002c0: d709 cabd 19f7 d63d b519 07be 3e0e 1c3e
000002d0: d2f5 16bd 5bd9 22bb a6c1 c7bd 8ad3 38be
000002e0: 0e31 293d 2938 85bd c53d dbbd 5c06 153e
000002f0: 1dac 0a3d fd83 48bd 7868 2cbe 387d d2bd
00000300: db1b 74bd eb2e 9d3d 1565 2abe dcf2 d73d
00000310: d90e 2a3e 8969 673d ab9f 39be b520 c33c
00000320: abe4 96bd 378e 6c3d 0ea1 dfbb d5f2 b63d
00000330: fc5e 73bc 3de3 063d 5cf8 943d df83 0abe
00000340: fe6c f93c 7399 263e 408b 023e eb31 3a3c
00000350: 7281 03bd 989b 9a3d 3867 24be ab3c 61bd
00000360: e228 223e 5979 c03c bacb 1abb d827 13be
00000370: b657 f2bd dad7 ce3c 8088 0cbe e53f 58bd
00000380: 0e33 b8bd 2f76 663d 7a7c e43c 1783 34be
00000390: c2d2 763d 43d9 86bc 4025 b5bd 74b9 093e
000003a0: 1129 f6bd 4d87 2abe fd0f a33c e1f1 cabd
000003b0: f0d7 97bd 2d80 23be a6da 39bd e888 143e
000003c0: 5da0 29be 20d7 fcbd 17a6 23bd b5f5 13be
000003d0: 86fb 0b3d 479b 14bd 866d 0d3e b7cd 39be
000003e0: db48 c83b 03e2 a43d 2228 c23c e2a7 4bbd
000003f0: 8154 2f3e c81e 11be 1621 2e3e 0698 4b3d
0.0768271 -0.0052574635 -0.13506381 0.134236 -0.12847473 -0.10978813 0.07326128 0.10026871
-0.095009394 0.11554406 -0.17086536 0.043507617 0.08060044 0.03391222 -0.10273576 -0.12330046
0.14592133 0.04022213 -0.07843504 0.17585391 -0.038109012 -0.033761587 0.046993405 0.15200226
-0.0812729 0.0009204441 -0.08196586 -0.082695454 -0.02488714 -0.00018808914 0.097896196 -0.13637184
0.10594871 0.14263986 -0.020813603 -0.016354615 0.04502367 -0.16715026 0.13434152 -0.03193846
0.007342681 0.086557 0.07602273 -0.084477775 -0.1341037 -0.1761305 -0.15245478 -0.038380437
-0.1417366 -0.018435042 -0.09645674 0.10345266 0.12488253 0.15445873 -0.119723484 -0.12884483
0.06333446 -0.041692913 0.1384608 -0.16749302 0.1693077 -0.12663682 -0.14640903 -0.019360472
-0.08088129 -0.115093276 0.10423309 0.14100617 0.1016498 0.022285147 -0.026272606 -0.09961503
0.17401576 -0.09943991 -0.16007687 0.1549 -0.014724341 0.12267549 -0.06059859 0.14220175
-0.12874615 0.10987016 0.14209974 -0.0025525016 0.121076696 0.006478759 -0.16716108 0.079984725
-0.14193313 0.0057376763 -0.16423015 -0.0869268 -0.054400247 -0.07095163 -0.17984588 -0.09068208
-0.16916859 -0.15263472 -0.18215027 -0.105174914 -0.040911935 0.16447662 -0.12844336 -0.13883604
-0.14862679 0.17080511 -0.023348518 -0.04857562 0.10010401 -0.10787378 -0.04825133 0.16734289
0.097241566 -0.14162862 -0.05017921 0.017928734 0.06596516 -0.0839966 0.12783688 0.0028551593
-0.15785779 0.04892244 -0.17723534 0.012710708 -0.18057106 -0.052078318 -0.04243121 -0.1640005
-0.051641397 0.0061309836 -0.10286504 0.025909726 0.09641088 0.021547524 -0.17920738 -0.0005769126
-0.08556234 0.052041143 -0.14649102 -0.1262929 -0.0060609668 0.1052801 -0.048775375 -0.009627543
-0.018081173 -0.14285469 -0.01444482 -0.0051384987 0.030220257 0.081715874 0.054372475 0.10181632
-0.03480585 -0.078870244 0.15505168 0.14557074 0.09954173 0.1329987 0.08941965 0.16139078
0.15882102 -0.1484442 -0.17205201 -0.09472369 0.13959314 0.16485034 0.011909969 -0.13499106
-0.08580959 0.08679248 0.17006701 0.035362523 -0.120073915 0.17322606 0.16031809 -0.08009435
-0.09865158 0.10496349 -0.131934 0.15239808 -0.036855526 -0.0024848792 -0.097537324 -0.18049446
0.041306548 -0.06504852 -0.10705141 0.14553207 0.033855546 -0.048954 -0.16836727 -0.1027779
-0.059596878 0.076749645 -0.16640122 0.105443686 0.16607226 0.05649713 -0.18127315 0.023819307
-0.07367834 0.057752814 -0.006824619 0.08933035 -0.014854189 0.032931555 0.07273933 -0.13526867
0.03044748 0.16269474 0.12748432 0.01136444 -0.03210587 0.075492084 -0.16055 -0.054989498
0.15835908 0.023495363 -0.0023619966 -0.14370668 -0.11833136 0.02524941 -0.13723946 -0.05279531
-0.08994113 0.056265052 0.027891386 -0.17628132 0.060259588 -0.01646102 -0.088449955 0.13449651
-0.120195515 -0.16653176 0.019905085 -0.09909416 -0.07414234 -0.15966864 -0.045374535 0.1450535
-0.1656508 -0.12345719 -0.039953317 -0.14449199 0.03417542 -0.036280897 0.13811311 -0.1814488
0.0061122007 0.08050921 0.023700777 -0.049720652 0.1712208 -0.14171898 0.17004809 0.049705528

fc4.bias f4 [10]
00000000: a896 043e 6237 013d a3b3 f23c 686b 0cbe
00000010: 8516 523d c50f 12be bd3c 50ba 30c7 c9bd
00000020: a2f0 d3bd d8ec dabd
0.12948096 0.031546958 0.029626673 -0.13712847 0.051291008 -0.14263828 -0.0007943621 -0.09852445
-0.103486314 -0.106897056

fc5.weight f4 [1, 10]
00000000: 5dc1 1cbe 7694 40be 6c17 31be f3e9 ebbd
00000010: fbef 93be 4f99 813e 8ba1 d93d 2b0b a1be
00000020: 29d4 a1be 7814 23be
-0.15308137 -0.18806633 -0.17294091 -0.11519232 -0.28894028 0.25312278 0.10626515 -0.31453833
-0.31607178 -0.15925777
