ch-04/lightning_logs/version_12/checkpoints/epoch=49-step=1750.ckpt (torch, 48264 bytes, 27 tensors)

fc1.weight f4 [30, 30]
0.10575658 0.21306838 -0.053255916 -0.23789534 0.016698992 0.09499771 -0.083322406 -0.150944
-0.10381374 -0.007801024 -0.04645128 -0.01287095 -0.020734321 -0.20654239 0.20622537 -0.17726833
0.068096854 -0.005632904 0.2051314 -0.044436593 0.043118734 -0.15687552 -0.16343641 -0.16841081
-0.11849858 -0.15741721 -0.042582214 -0.2397228 -0.16712876 -0.2984696 0.17189318 0.007932064
-0.011483225 0.16441941 0.12884629 -0.049612623 0.13169701 -0.020105451 0.13649212 -0.11602143
0.057109132 -0.15446576 -0.08244281 -0.00343647 -0.13557728 -1.2466208e-05 -0.015529188 0.16919257
0.02027945 0.10864234 0.10090243 0.10669029 0.093213476 0.04826449 0.13173655 0.15435055
-0.05601646 0.093968704 0.06319475 0.10238515 -0.09561511 -0.026862092 0.0021037413 -0.026178414
0.0063274964 0.086818434 -0.08928603 -0.07222782 -0.19420877 0.12778854 -0.2477827 0.050211247
-0.18530875 -0.007214147 -0.06347426 0.10079046 -0.19051318 0.10680087 0.017495915 -0.21270105
-0.17294657 -0.09349578 -0.016643442 0.19081873 0.007954423 -0.05967022 0.09940435 -0.1343333
-0.029856643 0.17476965 0.07354918 -0.08650031 0.058139738 -0.17200334 -0.24689583 -0.1306573
-0.06758365 -0.17034248 -0.007326458 -0.07417468 -0.12619166 -0.042837895 0.029400637 -0.37512535
0.37957838 0.0308626 -0.16225888 0.14610153 0.4219497 -0.06691546 -0.11621643 -0.36140245
-0.3775378 -0.099650726 -0.21604052 -0.068397425 0.07545802 0.042468913 -0.06395614 0.025725638
-0.0052561895 -0.1374741 0.118524835 -0.08385175 -0.024379194 0.03275436 0.17902948 0.1392673
0.12413896 -0.119190104 -0.04316697 0.07391064 0.03991385 0.15235795 0.1053621 0.11852241
-0.0779078 0.11623711 -0.043496177 0.053991355 0.14732237 0.20356603 -0.15982547 0.11089878
0.16972983 -0.09954595 0.09885688 -0.15543145 -0.23403192 0.045267154 -0.12518811 0.33546564
-0.0911153 -0.2709379 -0.034612924 -0.09105632 -0.11711609 -0.26624334 -0.09631459 -0.082392015
-0.20289096 -0.00193655 0.23704378 -0.2909194 0.13978314 -0.1216661 0.05778793 -0.003475716
0.2831444 0.024480708 -0.15318514 -0.14946774 -0.22981222 -0.15000919 0.027528062 0.11690465
-0.2089017 -0.011710027 0.098971866 -0.07167566 0.07071685 0.15834565 -0.10572279 0.088963695
0.16907062 0.09831898 -0.015217801 -0.16470534 0.10540677 0.1073096 0.028696572 0.18877675
0.114415154 -0.08781064 0.14358751 0.051363435 -0.0066048265 -0.10144018 0.23881452 0.032433838
-0.15270811 -0.19796167 -0.008150769 0.09174548 0.009711862 0.022027958 -0.079609655 0.17262594
0.02581187 -0.12646432 -0.13324866 0.105533935 -0.0642215 -0.21750522 -0.1631611 -0.14438844
-0.106978886 -0.000749594 -0.09493006 -0.12672818 -0.10849619 -0.13450772 0.0063249124 -0.22319934
-0.057807554 0.118986495 -0.0630219 -0.047890343 -0.06756403 0.039443187 0.15179175 -0.23811519
-0.18336034 -0.008829392 -0.19284615 0.112533696 0.077346034 0.054878447 -0.20515999 0.053436793
-0.038734183 0.049317814 -0.083491765 -0.14584014 0.09033352 -0.11377261 -0.17001009 -0.11153222
-0.13507946 -0.17255424 -0.066179104 -0.12351225 -0.11739561 0.08311688 -0.075669505 -0.07128856
00000000: e896 d83d 992e 5a3e e022 5abd d69a 73be
00000010: 53cc 883c 298e c23d f0a4 aabd 1091 1abe
00000020: 4c9c d4bd bb9f ffbb b343 3ebd ade0 52bc
00000030: 06db a9bc d97f 53be be2c 533e d485 35be
00000040: 5d76 8b3d 3994 b8bb f70d 523e 2503 36bd
00000050: 459d 303d faa3 20be e05b 27be e273 2cbe
00000060: 62af f2bd fa31 21be b06a 2ebd e579 75be
00000070: cd23 2bbe 02d1 98be c404 303e 7df5 013c
00000080: 2324 3cbc 905d 283e 48f0 033e 9b36 4bbd
00000090: 95db 063e 30b4 a4bc 97c4 0b3e a59c edbd
000000a0: 44eb 693d 462c 1ebe c7d7 a8bd 6636 61bb
000000b0: c5d4 0abe f525 51b7 236e 7ebc d140 2d3e
000000c0: 1721 a63c e07f de3d efa5 ce3d 7080 da3d
000000d0: b5e6 be3d fcb0 453d f2e5 063e 120e 1e3e
000000e0: 8471 65bd aa72 c03d 406c 813d 4eaf d13d
000000f0: dbd1 c3bd e40d dcbc ecde 093b 1d74 d6bc
00000100: e356 cf3b ddcd b13d 98db b6bd 2eec 93bd
00000110: aade 46be 00db 023e c0ba 7dbe 4faa 4d3d
00000120: 94c1 3dbe a764 ecbb cbfe 81bd 3b6b ce3d
00000130: e315 43be 6aba da3d 9853 8f3c 4ece 59be
00000140: e818 31be b77a bfbd d457 88bc fc65 433e
00000150: 4553 023c c368 74bd 8294 cb3d ab8e 09be
00000160: eb95 f4bc d1f6 323e f4a0 963d 1327 b1bd
00000170: ef23 6e3d a521 30be 43d2 7cbe 07cb 05be
00000180: 4c69 8abd 426e 2ebe c912 f0bb e5e8 97bd
00000190: 6338 01be ca76 2fbd 9bd9 f03c 6e10 c0be
000001a0: 1958 c23e 90d3 fc3c 3127 26be a49b 153e
000001b0: cb09 d83e f90a 89bd e102 eebd be09 b9be
000001c0: a24c c1be ae15 ccbd ba39 5dbe f313 8cbd
000001d0: bc89 9a3d e2f3 2d3d 70fb 82bd 93be d23c
000001e0: 1d3c acbb 03c6 0cbe 26bd f23d 77ba abbd
000001f0: e0b6 c7bc 7029 063d 8153 373e 169c 0e3e
00000200: 913c fe3d f119 f4bd d9cf 30bd 765e 973d
00000210: b57c 233d b903 1c3e 16c8 d73d e1bb f23d
00000220: 208e 9fbd b90d ee3d 0c29 32bd 0a26 5d3d
00000230: addb 163e 9d73 503e 4aa9 23be e61e e33d
00000240: a8cd 2d3e bfde cbbd 7a75 ca3d 6c29 1fbe
00000250: 10a6 6fbe 0d6a 393d 5031 00be 27c2 ab3e
00000260: a99a babd 5fb8 8abe 48c6 0dbd bc7b babd
00000270: 90da efbd 0c51 88be 9540 c5bd 25bd a8bd
00000280: a6c2 4fbe d6d3 fdba 9bbb 723e 63f3 94be
00000290: 5023 0f3e 142c f9bd 09b3 6c3d d7c8 63bb
000002a0: 4ef8 903e c48b c83c 91dc 1cbe 120e 19be
000002b0: e553 6bbe 029c 19be 8882 e13c b56b ef3d
000002c0: 54ea 55be 6adb 3fbc c3b1 ca3d b0ca 92bd
000002d0: ffd3 903d 5d25 223e 3185 d8bd 9932 b63d
000002e0: d920 2d3e 765b c93d 1554 79bc 84a8 28be
000002f0: 81df d73d 23c5 db3d 1315 eb3c b14e 413e
00000300: 7e52 ea3d 11d6 b3bd 9b08 133e 7762 523d
00000310: 4d6d d8bb debf cfbd cb8b 743e 58d9 043d
00000320: 845f 1cbe 77b6 4abe ce8a 05bc 0ee5 bb3d
00000330: 801e 1f3c fa73 b43c 630a a3bd dbc4 303e
00000340: 6a73 d33c dd7f 01be 5672 08be 2d22 d83d
00000350: 9086 83bd b0b9 5ebe b413 27be 90da 13be
00000360: bf17 dbbd 6780 44ba b16a c2bd 08c5 01be
00000370: 4033 debd 64bc 09be 3641 cf3b 5e8e 64be
00000380: 9dc7 6cbd 31af f33d a011 81bd aa28 44bd
00000390: 035f 8abd 2e8f 213d 4c6f 1b3e 78d4 73be
000003a0: d0c2 3bbe 27a9 10bc 7679 45be 1178 e63d
000003b0: 9967 9e3d 39c8 603d 7615 52be 8ae0 5a3d
000003c0: bca7 1ebd 7a01 4a3d bbfd aabd 1e57 15be
000003d0: c800 b93d 9d01 e9bd 2017 2ebe 016b e4bd
000003e0: 4552 0abe 0fb2 30be e988 87bd fef3 fcbd
000003f0: 1c6d f0bd 2f39 aa3d 9df8 9abd bdff 91bd

fc1.bias f4 [30]
-0.09905574 0.038757112 0.04893565 -0.09487926 0.16204064 -0.18409349 0.13854367 -0.21353765
0.029163573 0.046416618 0.03046341 -0.13917819 0.26076078 -0.09319805 -0.13611552 0.056425646
0.16638574 0.09173798 0.12763566 -0.107399344 0.2648168 -0.14941706 -0.030420506 -0.07970166
0.11598276 0.033726983 -0.12188799 0.0011796805 0.13099703 -0.109277986
00000000: bcdd cabd c7bf 1e3d c070 483d 0f50 c2bd
00000010: fbed 253e 0183 3cbe 64de 0d3e 9da9 5abe
00000020: 72e8 ee3c 5a1f 3e3d 678e f93c ba84 0ebe
00000030: 7082 853e 9fde bebd de61 0bbe 941e 673d
00000040: 0661 2a3e 1fe1 bb3d ecb2 023e 30f4 dbbd
00000050: 1196 873e c900 19be 6d34 f9bc a03a a3bd
00000060: 5f88 ed3d 4e25 0a3d 69a0 f9bd 829f 9a3a
00000070: 1624 063e 23cd dfbd

fc2.weight f4 [30, 30]
0.15756261 0.059705827 -0.13526466 0.15286432 0.06255936 -0.14760186 -0.09348052 -0.11677542
0.14831929 0.0141747575 -0.15494092 -0.0013788247 -0.054885518 0.0782395 0.111431696 -0.017412305
-0.14003077 0.1447307 -0.07549291 0.025074564 -0.04210584 -0.10677262 0.15243243 0.11627362
0.11098307 0.14466935 0.15771127 0.03111682 0.009116961 -0.12527572 -0.07842243 0.09921994
-0.0279383 0.14797902 0.05342994 0.12575822 0.020420162 -0.095447816 -0.061211675 0.13285442
0.021594318 -0.072403215 0.07898448 -0.09768285 -0.0287478 -0.17926192 0.052209776 0.06431273
0.04876108 0.081694916 0.15146992 0.104982294 0.050209932 0.040926106 -0.14475545 -0.16807218
0.10017434 0.0015176637 -0.13959336 -0.030873481 0.12739481 0.16467169 0.009877716 0.0065552522
-0.14587563 -0.08205263 0.016116692 -0.016784308 0.055322632 0.17062734 0.06872216 0.04598857
0.00082051643 0.1813696 -0.12776776 0.13632663 0.14858925 0.020733869 -0.14868872 -0.036719386
0.18442766 0.079006605 0.1530524 0.1730622 0.070157185 0.023112234 -0.14089833 0.11015816
-0.031188361 0.020053193 0.07093427 0.044617727 0.082315855 0.04394613 -0.035721608 -0.11345458
-0.039987233 0.1325066 -0.07090043 0.036081336 -0.123671 0.018668476 0.10480828 0.14099205
-0.18012275 0.0707553 -0.13277256 0.004088036 0.09972115 0.026423218 0.09923608 0.18204224
0.05665751 0.025428241 0.11504677 -0.18430112 0.1569916 -0.13098492 -0.12339353 -0.05270176
-0.16493513 0.09142923 -0.19667947 0.02895044 0.035917517 0.08371337 0.16616352 -0.14757304
-0.14843184 0.12005371 -0.04132226 -0.2786944 0.35774013 0.073408805 -0.22349279 0.10017196
0.07061463 0.037948754 -0.008886047 0.026723396 0.23579222 0.054184113 0.123581134 -0.14206581
0.008635116 0.18683441 -0.1461357 -0.06733838 0.148779 0.059956253 -0.076009855 0.014258088
0.06785324 -0.04782072 0.10433197 0.17207173 -0.03025808 0.12877136 -0.13458958 0.08533895
-0.15729772 -0.09907414 0.11381431 0.047162466 0.040479507 0.10422376 0.16810745 -0.13529602
-0.18508212 -0.057000265 -0.05081563 -0.03254393 0.113616645 0.12823059 0.12850806 0.08436613
0.017660769 -0.084270105 -0.08026961 -0.06583515 0.15901703 -0.030885076 0.19985591 0.32040682
-0.042016014 0.1278609 0.11806691 0.045773383 0.12961334 -0.18618226 0.13802457 0.19330981
0.095832415 -0.17023918 -0.06142226 -0.12719257 0.12760869 0.124469906 0.049215596 0.068186566
-0.056229297 0.1426182 0.07286754 -0.050621428 -0.17429574 0.09519397 0.0046299705 -0.05229102
-0.16258724 0.004340721 0.100633174 -0.02942903 -0.030248292 0.057310708 0.06548542 -0.16572128
0.103637375 -0.013547848 -0.13173887 -0.08573464 -0.041835994 -0.0354564 -0.055291116 -0.124896035
-0.16575396 0.14102815 0.040051635 0.050136495 0.07023423 -0.11483231 0.025611956 0.123193964
0.031162325 -0.016781436 -0.12230519 0.049768757 0.1381599 -0.033705223 0.059666276 0.15546907
-0.0924481 0.08084753 -0.15887891 -0.20037878 -0.14588651 -0.18155915 -0.17659946 0.095924005
-0.12152155 0.01309863 -0.16583388 0.13443513 -0.07283218 0.04739219 0.13793088 0.049024083
00000000: 1858 213e 198e 743d d282 0abe 7788 1c3e
00000010: 1f1f 803d f124 17be b772 bfbd f427 efbd
00000020: 03e1 173e 3e3d 683c d5a8 1ebe aeb9 b4ba
00000030: a3cf 60bd 083c a03d 4d36 e43d 40a4 8ebc
00000040: 3a64 0fbe 4934 143e 079c 9abd 2c69 cd3c
00000050: 2c77 2cbd 9aab dabd 3f17 1c3e dd20 ee3d
00000060: 184b e33d 3424 143e 107f 213e b4e8 fe3c
00000070: 4e5f 153c 4748 00be f09b a0bd d333 cb3d
00000080: ddde e4bc d087 173e 5ad9 5a3d c3c6 003e
00000090: 2f48 a73c 257a c3bd 18b9 7abd fd0a 083e
000000a0: 91e6 b03c 2348 94bd 9dc2 a13d f20d c8bd
000000b0: 8280 ebbc 7090 37be ebd9 553d 65b6 833d
000000c0: b3b9 473d aa4f a73d ee1a 1b3e f500 d73d
000000d0: eea8 4d3d 22a2 273d c63a 14be 1d1b 2cbe
000000e0: 3428 cd3d 58ec c63a 90f1 0ebe 62ea fcbc
000000f0: c973 023e b29f 283e 25d6 213c 71cd d63b
00000100: 6c60 15be 360b a8bd 2707 843c 3f7f 89bc
00000110: fc99 623d efb8 2e3e 34be 8c3d 835e 3c3d
00000120: ed17 573a f4b8 393e 8dd5 02be 3599 0b3e
00000130: c827 183e 13da a93c db41 18be 1167 16bd
00000140: 9bda 3c3e 37ce a13d c5b9 1c3e 3837 313e
00000150: 92ae 8f3d de55 bd3c a747 10be 9a9a e13d
00000160: bc7e ffbc 9846 a43c fd45 913d 14c1 363d
00000170: 3795 a83d db00 343d d250 12bd e05a e8bd
00000180: a7c9 23bd cfaf 073e 3f34 91bd 06ca 133d
00000190: 3947 fdbd a2ee 983c b9a5 d63d 3860 103e
000001a0: 1972 38be 28e8 903d 88f5 07be eef4 853b
000001b0: 9a3a cc3d 8175 d83c 493c cb3d 4869 3a3e
000001c0: b511 683d e34e d03c a49d eb3d 6fb9 3cbe
000001d0: 68c2 203e e920 06be bfb5 fcbd cddd 57bd
000001e0: c1e4 28be 403f bb3d 5866 49be 7929 ed3c
000001f0: 3f1e 133d ea71 ab3d c526 2a3e 631d 17be
00000200: 84fe 17be b8de f53d 8841 29bd 08b1 8ebe
00000210: b729 b73e 5b57 963d 4bdb 64be f526 cd3d
00000220: 679e 903d 2770 1b3d c896 11bc 06eb da3c
00000230: 8473 713e 29f0 5d3d 1b18 fd3d b379 11be
00000240: 4d7a 0d3c 8551 3f3e 99a4 15be b4e8 89bd
00000250: 8659 183e b094 753d 0eab 9bbd c19a 693c
00000260: a4f6 8a3d a9df 43bd 00ac d53d 9233 303e
00000270: cbdf f7bc a4dc 033e dad1 09be 30c6 ae3d
00000280: a712 21be 62e7 cabd 7a17 e93d 6e2d 413d
00000290: d7cd 253d 4473 d53d 5c24 2c3e 0a8b 0abe
000002a0: 2b86 3dbe 1c79 69bd 0d24 50bd c94c 05bd
000002b0: d8af e83d e14e 033e 9e97 033e 26c8 ac3d
000002c0: 51ad 903c ce95 acbd 6564 a4bd 94d4 86bd
000002d0: 5cd5 223e b302 fdbc 07a7 4c3e 5d0c a43e
000002e0: fc18 2cbd f8ed 023e 10cd f13d df7c 3b3d
000002f0: 5cb9 043e 90a6 3ebe 5056 0d3e 02f3 453e
00000300: c943 c43d 2e53 2ebe e895 7bbd c53e 02be
00000310: daab 023e 14ea fe3d 4b96 493d 66a5 8b3d
00000320: b150 66bd 810a 123e 943b 953d 6a58 4fbd
00000330: 957a 32be 0ef5 c23d 02b7 973b 1c2f 56bd
00000340: 457d 26be 9b3c 8e3b c418 ce3d 2615 f1bc
00000350: 44cb f7bc a2be 6a3d 381d 863d d7b2 29be
00000360: d53f d43d cbf7 5dbc 8ee6 06be a595 afbd
00000370: 385c 2bbd bb3a 11bd f078 62bd 7ec9 ffbd
00000380: 68bb 29be af69 103e 2f0d 243d ed5b 4d3d
00000390: f7d6 8f3d 342d ebbd 2ad0 d13c 1e4d fc3d
000003a0: 2248 ff3c 3979 89bc 257b fabd 53da 4b3d
000003b0: ca79 0d3e 7d0e 0abd a064 743d 4933 1f3e
000003c0: 6e55 bdbd 6493 a53d 27b1 22be 1830 4dbe
000003d0: 4663 15be a4ea 39be 7dd6 34be ce73 c43d
000003e0: 4ae0 f8bd a39b 563c 5bd0 29be 5da9 093e
000003f0: 0a29 95bd 501e 423d c13d 0d3e 7acd 483d

fc2.bias f4 [30]
0.16627234 -0.17178436 -0.085889526 0.11728574 0.2349878 -0.08131925 -0.09143896 -0.13689391
0.11199682 0.10987132 0.12238028 -0.15822649 -0.009147386 0.0053254585 -0.036856864 0.017635938
-0.018275822 0.14706072 -0.19393554 0.088874325 0.0139066335 -0.063723 -0.09107773 0.08648663
0.012574816 -0.17090519 0.13995652 0.13924049 0.04456303 0.18382236
00000000: 4c43 2a3e 3de8 2fbe d9e6 afbd 8233 f03d
00000010: a4a0 703e b58a a6bd 5944 bbbd eb2d 0cbe
00000020: 975e e53d 3704 e13d 83a2 fa3d 2006 22be
00000030: ebde 15bc 2f81 ae3b 39f7 16bd 3e79 903c
00000040: 2db7 95bc 1697 163e 0a97 46be be03 b63d
00000050: a6d8 633c 3481 82bd f686 babd e71f b13d
00000060: 9a06 4e3c c501 2fbe c350 0f3e 0f95 0e3e
00000070: b987 363d ee3b 3c3e

fc3.weight f4 [30, 30]
0.10599906 -0.20192018 0.06040745 0.15388754 0.041413676 0.04973225 -0.052052606 -0.18077725
0.033969566 -0.22253948 -0.2073114 -0.13952507 0.05856321 -0.07280736 0.088881105 0.13790794
0.0038977498 -0.0583714 0.018561624 0.015152386 -0.10121187 -0.17711581 0.09704071 0.12078797
0.007886261 0.039751958 0.14893374 0.033263855 -0.1215113 0.12401726 -0.08695312 0.15495016
0.020240696 0.015564897 0.13652806 0.13640134 0.110770725 0.023162508 -0.074976124 -0.12115625
-0.06662812 0.06704919 0.04519441 0.05616525 -0.03389137 -0.15457031 0.112936534 -0.0290893
-0.056977443 0.18200076 -0.08078241 0.08855666 0.10662788 0.109702855 -0.11939869 0.047018994
-0.066093415 0.15167354 0.17727937 0.10981881 0.20876122 -0.08811163 -0.024272384 0.005631155
-0.0425699 0.13024311 -0.08549285 -0.0614948 -0.061925452 0.19253902 0.15489706 -0.091066144
0.12552005 0.058174863 0.116605714 0.02017131 0.15727043 0.0073748794 0.14858015 -0.1571023
0.0462155 -0.08892953 0.18317693 -0.079626866 0.009237198 0.20531213 0.21456398 -0.13226925
-0.13502935 0.1903726 0.15727106 0.08671443 -0.0023706944 0.19282313 0.030357981 -0.07416398
0.064032644 -0.03419473 -0.17850827 0.10590006 -0.0055736634 -0.00901955 -0.06831584 -0.11857688
0.047947295 0.07799874 0.14966047 0.07287371 -0.095184475 0.15599784 -0.09841572 -0.116913505
0.09867836 0.0007306443 -0.029007567 -0.08408571 -0.15053204 -0.14941095 -0.20565781 -0.12151197
-0.18423142 -0.029664384 0.00030077665 0.12351752 -0.18507437 -0.10388573 -0.20172276 -0.09921263
-0.015347421 -0.15850297 0.031651624 -0.14967984 -0.1321 -0.040587213 0.11504359 0.047116403
-0.10960184 -0.11339399 -0.17058297 0.049641054 0.11548584 0.02853455 -0.18368953 0.0373459
-0.10111279 -0.09964978 0.08416939 0.10272999 -0.089436635 -0.00989042 -0.13009259 -0.16057599
-0.14868242 0.10819694 0.025516398 -0.03696908 0.08747904 -0.13202862 -0.044013962 -0.17238583
0.059228905 0.05147226 -0.083311066 0.15587518 -0.06585782 0.0146807395 -0.14310049 -0.041024618
0.011999141 0.06374627 -0.17961283 0.09571101 -0.07217809 -0.14010848 -0.031218741 -0.021160942
-0.16118428 0.0063226637 -0.03814286 0.038458444 -0.0053535257 0.004376974 0.04135092 0.15763037
0.08355109 0.05983007 -0.08137977 0.10182345 -0.03809096 0.05736476 0.09249091 -0.08953234
-0.044794258 0.06614575 0.15641735 0.04810629 0.072112046 -0.06655994 -0.1525156 0.036934584
0.04699366 0.00097122154 0.0013152934 0.027083194 -0.019153591 -0.10519529 -0.19045125 -0.008369946
0.16724035 0.07052723 0.03812699 -0.012931907 -0.024533747 0.11044774 -0.08465236 -0.040426712
-0.13423285 -0.18001412 0.10442786 0.06686072 -0.16803868 0.11631159 -0.013717814 -0.051335838
-0.048955105 -0.10731194 -0.11786346 -0.0108771855 -0.05590123 0.12628838 -0.086736195 -0.048398167
-0.04640737 -0.07535305 0.0748752 -0.13189754 -0.10854135 -0.02230924 0.09303107 -0.02678817
-0.10943206 0.04814473 0.020939358 0.012951924 0.13196018 0.07428002 -0.075603954 0.1135864
0.141861 0.05874629 -0.19053912 -0.027159782 -0.10104718 -0.104296386 -0.16668072 0.04458202
00000000: 0916 d93d 2ac4 4ebe cd6d 773d b294 1d3e
00000010: 63a1 293d 0bb4 4b3d 1d35 55bd ac1d 39be
00000020: ac23 0b3d 64e1 63be 7149 54be a9df 0ebe
00000030: fadf 6f3d 061c 95bd 4c07 b63d bd37 0d3e
00000040: 6471 7f3b d916 6fbd 8c0e 983c b741 783c
00000050: 2b48 cfbd d95d 35be 48bd c63d af5f f73d
00000060: 6035 013c f3d2 223d 1682 183e ae3f 083d
00000070: ebda f8bd c3fc fd3d 7a14 b2bd 41ab 1e3e
00000080: d1cf a53c e903 7f3c 03ce 0b3e cbac 0b3e
00000090: c3db e23d 4dbf bd3c 158d 99bd c520 f8bd
000000a0: 5374 88bd 1651 893d c61d 393d 880d 663d
000000b0: add1 0abd ae47 1ebe 454b e73d af4c eebc
000000c0: 2e61 69bd 685e 3a3e 4071 a5bd 325d b53d
000000d0: b85f da3d e4ab e03d 4d87 f4bd fd96 403d
000000e0: fc5b 87bd 4f50 1b3e b988 353e afe8 e03d
000000f0: 80c5 553e df73 b4bd e1d6 c6bc 8d85 b83b
00000100: c75d 2ebd 735e 053e e016 afbd f9e1 7bbd
00000110: 8ba5 7dbd f328 453e 569d 1e3e e380 babd
00000120: 5488 003e c448 6e3d face ee3d 4e3e a53c
00000130: 800b 213e f9a8 f13b 6525 183e 6ddf 20be
00000140: 774c 3d3d af20 b6bd bc92 3b3e 6913 a3bd
00000150: 9e57 173c 583d 523e a9b6 5b3e 9771 07be
00000160: 2245 0abe 09f1 423e aa0b 213e 5697 b13d
00000170: a75d 1bbb 6d73 453e 4db1 f83c 49e3 97bd
00000180: 8c23 833d c60f 0cbd dfca 36be 21e2 d83d
00000190: 47a3 b6bb bcc6 13bc 2de9 8bbd 6fd8 f2bd
000001a0: 6264 443d cebd 9f3d 9840 193e d03e 953d
000001b0: 14f0 c2bd e6bd 1f3e 2e8e c9bd 5970 efbd
000001c0: e117 ca3d b588 3f3a 47a1 edbc 2135 acbd
000001d0: 1225 1abe 2fff 18be f697 52be 45db f8bd
000001e0: 29a7 3cbe b902 f3bc 8fb1 9d39 c1f6 fc3d
000001f0: 2384 3dbe 0bc2 d4bd 6990 4ebe fe2f cbbd
00000200: c073 7bbc 9a4e 22be 22a5 013d ac45 19be
00000210: 3945 07be c73e 26bd f99b eb3d 21fd 403d
00000220: ee76 e0bd 1c3b e8bd 4dad 2ebe 6b54 4b3d
00000230: d783 ec3d 4ac1 e93c 1c19 3cbe 04f8 183d
00000240: 3914 cfbd 2f15 ccbd 0061 ac3d 1a64 d23d
00000250: 8e2a b7bd 6e0b 22bc fe36 05be 086e 24be
00000260: 3440 18be 5b96 dd3d c407 d13c e46c 17bd
00000270: 3628 b33d 8332 07be fc47 34bd e985 30be
00000280: 029a 723d 94d4 523d fe9e aabd be9d 1f3e
00000290: 77e0 86bd 7c87 703c ef88 12be 6e09 28bd
000002a0: 0c98 443c 688d 823d 6dec 37be 2204 c43d
000002b0: 1bd2 93bd 9978 0fbe 72be ffbc b659 adbc
000002c0: 7e0d 25be 592e cf3b b03b 1cbd 9a86 1d3d
000002d0: a16c afbb b86c 8f3b 955f 293d db69 213e
000002e0: d51c ab3d 6010 753d 70aa a6bd d088 d03d
000002f0: 4405 1cbd 50f7 6a3d e06b bd3d bb5c b7bd
00000300: 2f7a 37bd 6c77 873d df2b 203e 1a0b 453d
00000310: 7baf 933d 9450 88bd 0d2d 1cbe b848 173d
00000320: 6d7c 403d 9399 7e3a ec65 ac3a 93dd dd3c
00000330: fee7 9cbc a170 d7bd a705 43be 1922 09bc
00000340: 0e41 2b3e 9570 903d 0c2b 1c3d 59e0 53bc
00000350: fffa c8bc 6d32 e23d 375e adbd 7b96 25bd
00000360: 5674 09be 9f55 38be 46de d53d 46ee 883d
00000370: 5512 2cbe c534 ee3d afc0 60bc 8745 52bd
00000380: 2685 48bd 5dc6 dbbd 6662 f1bd 3936 32bc
00000390: b0f8 64bd be51 013e bfa2 b1bd 283d 46bd
000003a0: a815 3ebd b352 9abd 2b58 993d 2610 07be
000003b0: ed4a debd dec1 b6bc 1387 be3d dd72 dbbc
000003c0: ea1d e0bd 6933 453d 0489 ab3c 4f34 543c
000003d0: 9220 073e 2020 983d 3fd6 9abd fd9f e83d
000003e0: 0344 113e f39f 703d b01c 43be 317e debc
000003f0: d3f1 cebd 5899 d5bd 5aae 2abe a39b 363d

fc3.bias f4 [30]
0.04089193 0.0788506 0.21519594 0.059764136 -0.10829877 -0.16169716 -0.10046963 -0.031086214
0.08865583 -0.12612881 0.054710228 0.115959994 -0.021551304 -0.14873612 -0.022512576 -0.15286174
-0.06688766 0.17478637 -0.038387187 0.03556299 -0.02596232 -0.043147814 -0.027555356 0.17462346
-0.09785169 0.015993655 -0.12699093 -0.04651714 -0.026007744 -0.06958973
00000000: 4c7e 273d 6c7c a13d 535c 5c3e 3dcb 743d
00000010: bfcb ddbd f193 25be 05c3 cdbd 84a8 febc
00000020: 3091 b53d e927 01be d517 603d 6f7c ed3d
00000030: 5c8c b0bc 484e 18be 4b6c b8bc ca87 1cbe
00000040: 66fc 88bd 33fb 323e e23b 1dbd 7faa 113d
00000050: eeae d4bc c3bb 30bd c5bb e1bc 7ed0 323e
00000060: 7866 c8bd 2005 833c e909 02be c288 3ebd
00000070: 310e d5bc 0f85 8ebd

fc4.weight f4 [10, 30]
0.14772035 -0.011249354 -0.091424815 -0.097114526 0.11121196 0.043902125 -0.08481809 0.15911798
-0.11551952 0.046002276 -0.057015136 -0.025547842 0.11007131 -0.06571426 0.016692808 -0.023710076
0.12231577 -0.06659938 0.15195118 -0.04934898 -0.06982812 -0.18904182 0.0040171198 0.04668611
-0.1254506 0.10258573 0.07798981 0.15456167 0.12818429 -0.1529626 -0.13141178 -0.06580393
0.09764296 -0.1342799 0.051118523 -0.1724675 0.08583359 0.12707247 -0.0057362774 -0.021616876
0.07153157 -0.009033204 0.14145018 0.028102716 0.028839704 0.049995866 -0.115774974 0.031177541
0.045552485 0.07643474 0.1489955 -0.11572614 0.11916096 -0.13419598 0.11932375 0.12250342
0.05686739 -0.15693018 0.012595709 0.012996581 -0.16049342 0.06958918 -0.1253618 -0.17463182
-0.04925128 0.16702877 0.015104388 -0.0036407295 -0.13485184 0.10856595 0.117050715 -0.19933435
-0.1653526 0.14073242 -0.21270746 -0.03308515 0.09792745 0.13987516 -0.015427779 -0.023179581
-0.07645831 -0.1458027 -0.16579272 0.02481703 0.108899005 -0.13071488 0.10782236 -0.005373551
0.022627441 -0.076719575 0.0808076 -0.029328795 -0.12628639 -0.073756985 -0.15424165 -0.170143
-0.08590905 0.16283426 -0.015719548 0.056669552 0.11735562 -0.11449221 -0.16146281 -0.14578554
-0.19528574 -0.037300438 0.051197987 -0.095681116 0.0461534 -0.10577025 -0.150517 0.13699041
0.035951857 0.109414704 -0.08342198 0.04750159 -0.16745032 -0.17672798 -0.05801812 0.11448325
-5.5529403e-05 -0.18440701 -0.11730723 0.1394972 0.12648053 -0.11974146 -0.12293016 0.006401861
-0.120318614 -0.017534822 -0.064399004 0.048043113 0.029982291 0.12840694 -0.017695095 -0.16030425
-0.18287927 -0.15449174 -0.11597198 0.06767086 0.05204798 0.06184744 0.09917831 -0.11959508
-0.011080672 0.06595736 0.0376967 0.12618084 -0.17109348 0.17132193 0.009851618 -0.1737708
-0.10478456 0.10021318 0.044579603 -0.039353095 0.11637618 0.16276148 0.12694591 -0.04436063
-0.18899928 -0.05362173 0.03770618 -0.009236609 -0.096362926 0.049627014 -0.16873328 0.03156405
0.05733586 -0.016202938 0.04020189 -0.1223238 -0.14135675 -0.10133228 -0.014870882 -0.028121116
-0.1007936 0.055588473 0.025072148 0.071773894 -0.12309356 -0.18136941 0.111681454 -0.04943422
0.14208843 0.021120591 0.17004907 0.17331624 0.056831878 -0.0876185 -0.2012244 -0.10579741
0.010198187 -0.08608985 -0.18685985 0.13341245 -0.12691578 -0.06748836 0.0017653244 -0.082518876
-0.16018714 -0.19396685 0.11218318 0.034352 -0.17503448 -0.08319328 -0.037866566 -0.12307842
0.10589875 0.046707034 -0.05707393 -0.021204768 -0.1382137 -0.14443088 0.15096506 0.07460814
-0.12681495 0.042838585 -0.10603722 0.12708639 -0.088443376 -0.02673091 0.028181164 -0.039983872
-0.019275988 -0.06749059 -0.13899054 -0.08795553 0.022708114 -0.009503972 -0.120452166 0.15645257
-0.05928027 0.14568503 0.121761255 -0.15837413 -0.08116835 -0.028871162 -0.13477379 -0.117895395
-0.14186768 -0.14717905 -0.06383648 -0.12509763 -0.09947366 -0.16485913 -0.09393399 0.17732911
0.01812775 0.15765485 -0.112269886 0.036116377 -0.13206796 0.03385096 0.14434923 -0.11660322
00000000: 0144 173e 364f 38bc ef3c bbbd fbe3 c6bd
00000010: 19c3 e33d b7d2 333d 1bb5 adbd d3ef 223e
00000020: 8095 ecbd e26c 3c3d b488 69bd b549 d1bc
00000030: 116d e13d 3395 86bd 5bbf 883c a23b c2bc
00000040: b180 fa3d 4165 88bd 1799 1b3e 2822 4abd
00000050: 0c02 8fbd 2e94 41be 0ba2 833b ef39 3f3d
00000060: 1f76 00be 7818 d23d 1fb9 9f3d 6a45 1e3e
00000070: be42 033e 3aa2 1cbe cf90 06be 36c4 86bd
00000080: 08f9 c73d ac80 09be a861 513d 529b 30be
00000090: 85c9 af3d 491f 023e 62f7 bbbb e015 b1bc
000000a0: 257f 923d 0100 14bc 51d8 103e ab37 e63c
000000b0: 3e41 ec3c 77c8 4c3d 6e1b edbd 0b68 ff3c
000000c0: 3e95 3a3d d189 9c3d 4792 183e d401 edbd
000000d0: a90a f43d ac6a 09be 0360 f43d 13e3 fa3d
000000e0: c8ed 683d 4eb2 20be 3c5e 4e3c 9def 543c
000000f0: 6358 24be c684 8e3d d85e 00be afd2 32be
00000100: b6bb 49bd 9709 2b3e 6578 773c 4e99 6ebb
00000110: 9a16 0abe d357 de3d 49b8 ef3d 4e1e 4cbe
00000120: 3152 29be 291c 103e fccf 59be 4b84 07bd
00000130: 308e c83d 6f3b 0f3e ccc4 7cbc 1be3 bdbc
00000140: 2d96 9cbd 4e4d 15be 91c5 29be 164d cb3c
00000150: 7106 df3d 1fda 05be f8d1 dc3d 9d14 b0bb
00000160: 2f5d b93c 271f 9dbd 747e a53d f142 f0bc
00000170: 3851 01be e70d 97bd 86f1 1dbe f739 2ebe
00000180: 16f1 afbd 06be 263e 48c6 80bc 551e 683d
00000190: 2558 f03d e47a eabd 8256 25be ce48 15be
000001a0: fcf8 47be 58c8 18bd fbb4 513d 76f4 c3bd
000001b0: 590b 3d3d 139e d8bd 2121 1abe 3747 0c3e
000001c0: 4142 133d d114 e03d 25d9 aabd 0791 423d
000001d0: 1978 2bbe 2ef8 34be 68a4 6dbd 3276 ea3d
000001e0: 3ee8 68b8 31d5 3cbe c63e f0bd 5bd8 0e3e
000001f0: 1d84 013e 033b f5bd cfc2 fbbd b4c6 d13b
00000200: 9b69 f6bd 30a5 8fbc a0e3 83bd dbc8 443d
00000210: 6c9d f53c 1c7d 033e 4ef5 90bc cc26 24be
00000220: b444 3bbe 1533 1ebe b882 edbd 0597 8a3d
00000230: 4330 553d be53 7d3d ff1d cb3d 44ee f4bd
00000240: b58b 35bc a714 873d db67 1a3d 8d35 013e
00000250: 2133 2fbe 046f 2f3e ae68 213c f9f0 31be
00000260: 4a99 d6bd 913c cd3d 1a99 363d b630 21bd
00000270: a256 ee3d f2aa 263e 1cfe 013e 7eb3 35bd
00000280: 0789 41be 76a2 5bbd cc71 1a3d 2555 17bc
00000290: ed59 c5bd b245 4b3d 6bc8 2cbe 4e49 013d
000002a0: 02d9 6a3d 06bc 84bc bdaa 243d e784 fabd
000002b0: d3bf 10be 4c87 cfbd 00a5 73bc 415e e6bc
000002c0: e06c cebd bdb0 633d 1b64 cd3c 31fe 923d
000002d0: 7a18 fcbd e7b8 39be 3fb9 e43d 897b 4abd
000002e0: a17f 113e 1705 ad3c 5821 2e3e d079 313e
000002f0: 8bc8 683d 5471 b3bd c50d 4ebe 50ac d8bd
00000300: 4c16 273c e04f b0bd 3058 3fbe 469d 083e
00000310: 36f6 01be 5637 8abd 7562 e73a a8ff a8bd
00000320: 1908 24be 3f9f 46be 4cc0 e53d afb4 0c3d
00000330: 3d3c 33be 3d61 aabd f919 1bbd 8a10 fcbd
00000340: 72e1 d83d e04f 3f3d 5ac6 69bd 9fb5 adbc
00000350: e487 0dbe b0e5 13be 9696 1a3e 27cc 983d
00000360: c7db 01be 8377 2f3d 0b2a d9bd ef22 023e
00000370: cd21 b5bd c8fa dabc 2fdc e63c 21c6 23bd
00000380: ade8 9dbc 8238 8abd 8953 0ebe 0722 b4bd
00000390: 5e06 ba3c 8cb6 1bbc a0af f6bd 1a35 203e
000003a0: decf 72bd 752e 153e f75d f93d d42c 22be
000003b0: 983b a6bd 3783 ecbc 2402 0abe 2473 f1bd
000003c0: c345 11be 1bb6 16be b3bc 82bd 9819 00be
000003d0: d9b8 cbbd d5d0 28be 7760 c0bd c395 353e
000003e0: a680 943c 4670 213e c1ed e5bd c4ee 133d
000003f0: d33c 07be 4ea7 0a3d 49d0 133e abcd eebd

fc4.bias f4 [10]
-0.03998989 0.047923155 -0.17693995 -0.091288485 -0.19791548 0.13501191 -0.17601156 0.11718673
-0.14799502 -0.038797364
00000000: 70cc 23bd 124b 443d bf2f 35be 75f5 babd
00000010: 5baa 4abe 9040 0a3e 603c 34be 99ff ef3d
00000020: 028c 17be fce9 1ebd

fc5.weight f4 [1, 10]
-0.20493524 -0.013840386 -0.052710675 0.21790187 -0.017641058 0.22281708 -0.117898025 0.14185588
0.17379655 -0.13016866
00000000: 8bda 51be c9c2 62bc 26e7 57bd ab21 5f3e
00000010: fb83 90bc 292a 643e 8574 f1bd ab42 113e
00000020: b9f7 313e ef4a 05be

exp_avg f4 [30, 30]
-9.23984e-05 -6.164452e-06 -0.007139594 -4.4076287e-06 -5.0555343e-05 -1.6887848e-06 -2.2453437e-06 -6.0875584e-07
-2.9774965e-06 -0.000264984 -1.785141e-06 4.775041e-07 -1.603965e-05 -3.1164595e-06 -5.8757873e-06 -0.0062725493
-0.037435427 -1.328407e-05 -2.812294e-06 -4.3968015e-05 -1.5594123e-06 -3.3970623e-06 7.131621e-08 -1.136322e-05
-4.0796426e-06 -2.5219115e-06 2.4381668e-06 5.9868726e-06 -8.8114797e-07 2.8305387e-06 6e-45 -6e-45
6e-45 6e-45 6e-45 -6e-45 6e-45 6e-45 6e-45 6e-45
6e-45 6e-45 6e-45 -6e-45 6e-45 6e-45 6e-45 6e-45
6e-45 6e-45 6e-45 6e-45 6e-45 6e-45 6e-45 6e-45
6e-45 6e-45 6e-45 6e-45 0.00014853307 1.183803e-06 0.012565825 8.010642e-06
3.182798e-05 9.564839e-06 7.4334284e-06 6.890764e-06 2.2175682e-06 0.00024074886 7.647068e-06 6.415202e-06
1.5615857e-05 7.818966e-06 2.995111e-06 0.038365588 0.014612447 1.0499276e-05 4.2301204e-07 6.193516e-05
1.1960574e-06 6.369957e-06 2.6034324e-06 3.7367197e-05 1.0505983e-05 7.5797857e-06 -4.3933283e-06 1.925852e-05
-2.061359e-06 1.7703182e-05 6.340421e-05 1.548051e-06 0.0048163673 8.399362e-06 5.890033e-05 5.1964553e-06
9.339977e-07 6.1112614e-06 -3.925666e-07 6.0106722e-05 7.2362204e-06 5.390741e-07 1.3569936e-05 1.0018934e-05
-9.602264e-07 0.0066380035 0.0076698586 -8.3565385e-07 -1.0085266e-06 4.1772564e-05 1.8572662e-06 4.8907395e-06
4.249437e-06 -4.3251734e-06 9.202779e-06 4.0886816e-06 -2.6226531e-05 1.0020514e-05 2.5659656e-06 -2.4116554e-07
5.3572105e-05 2.2007716e-06 0.00014778122 2.3226384e-07 3.6281028e-05 4.634398e-06 3.5775045e-06 8.300225e-07
4.0848633e-07 6.4938e-05 1.4570437e-06 -1.2157694e-06 1.093637e-05 -2.0210045e-06 3.9149327e-06 -0.0083805155
-0.012043361 5.7130333e-06 8.0052587e-07 3.9897245e-06 -6.293315e-07 -1.8594527e-06 1.3398935e-06 2.467063e-06
2.2423385e-06 1.4396064e-06 1.996006e-05 9.244514e-06 1.661765e-05 5.8344467e-06 -9.916633e-05 -8.0115815e-06
-0.011738013 -5.6472763e-06 -6.7497174e-05 -4.5078755e-06 -2.8584232e-06 1.0664718e-06 -3.7695286e-06 -0.00031268568
-2.8436332e-06 1.8998201e-06 -1.8887165e-05 -7.094077e-06 -9.626184e-06 -0.0069045657 -0.053722057 -2.4968296e-05
-5.760976e-06 -5.2749965e-05 -9.310306e-07 -6.939419e-06 6.0805314e-07 -8.1242815e-06 -6.6011166e-06 -6.697896e-07
8.535737e-06 8.720088e-06 -4.2343837e-07 8.424615e-06 -5.913482e-06 -1.3283411e-06 -0.00058091717 9.445751e-07
-1.6317712e-05 -3.6094295e-07 -1.8383794e-06 8.433879e-07 7.9243335e-07 -2.1866348e-05 1.435157e-06 -1.5563794e-06
-3.4543225e-06 1.7151182e-06 -7.865526e-07 -0.0037677789 -0.0091314 3.641387e-07 -2.2498956e-07 2.1381102e-06
3.2740007e-07 -6.094093e-08 1.4539144e-07 -1.4606301e-05 -2.2971583e-06 1.3813112e-06 -2.0291893e-05 1.6369802e-06
-2.300981e-06 1.5329014e-06 1.7329825e-05 5.84152e-07 3.1018524e-05 7.0343793e-07 1.0909225e-05 6.174419e-07
-8.5651124e-07 -8.8536615e-07 1.0122527e-07 3.3706034e-05 9.567182e-07 8.6400405e-07 2.669341e-07 8.486619e-07
2.0951488e-07 0.0041328864 0.0037710161 2.3141492e-06 9.371111e-08 5.4522084e-06 2.3379073e-07 1.1248159e-06
8.20183e-07 6.697583e-06 7.745246e-07 2.7816846e-08 1.3367159e-06 2.5076727e-06 1.3688428e-06 -1.5839524e-07
7.3760115e-05 1.8818175e-06 0.004121236 1.8960802e-06 3.7109075e-05 1.7089651e-06 3.2006126e-06 -2.9992539e-06
3.9135344e-07 0.00015761988 -1.539332e-06 2.8993388e-06 8.217086e-06 4.4603524e-07 4.2811394e-06 0.014732378
00000000: 03c6 c1b8 3dd8 ceb6 41f3 e9bb 3ee5 93b6
00000010: 630b 54b8 34aa e2b5 b6ae 16b6 6269 23b5
00000020: 00d1 47b6 8ded 8ab9 fa98 efb5 d52d 0035
00000030: e38c 86b7 5e24 51b6 a128 c5b6 f589 cdbb
00000040: e455 19bd a5de 5eb7 d8ba 3cb6 4c6a 38b8
00000050: 004d d1b5 16f9 63b6 8026 9933 a9a4 3eb7
00000060: dde3 88b6 1c3e 29b6 639f 2336 d8e2 c836
00000070: 0788 6cb5 49f4 3d36 0400 0000 0400 0080
00000080: 0400 0000 0400 0000 0400 0000 0400 0080
00000090: 0400 0000 0400 0000 0400 0000 0400 0000
000000a0: 0400 0000 0400 0000 0400 0000 0400 0080
000000b0: 0400 0000 0400 0000 0400 0000 0400 0000
000000c0: 0400 0000 0400 0000 0400 0000 0400 0000
000000d0: 0400 0000 0400 0000 0400 0000 0400 0000
000000e0: 0400 0000 0400 0000 0400 0000 0400 0000
000000f0: 8bbf 1b39 29e3 9e35 e4e0 4d3c 7265 0637
00000100: 097f 0538 ac78 2037 aa6c f936 3637 e736
00000110: 88d1 1436 8871 7c39 e84b 0037 2a42 d736
00000120: ccfe 8237 342e 0337 9dff 4836 3c25 1d3d
00000130: 0b69 6f3c 0c26 3037 551a e334 30e3 8138
00000140: 3888 a035 84bd d536 a1b6 2e36 b9ba 1c38
00000150: da42 3037 dd55 fe36 676a 93b6 5b8d a137
00000160: e155 0ab6 4b81 9437 e0f7 8438 a1c6 cf35
00000170: 9ed2 9d3b fcea 0c37 bf0b 7738 365d ae36
00000180: d5b7 7a35 560f cd36 f1c1 d2b4 1a1b 7c38
00000190: a9ce f236 e4b4 1035 6eaa 6337 fe16 2837
000001a0: 21e1 80b5 9c83 d93b 7053 fb3b b251 60b5
000001b0: b65c 87b5 f334 2f38 2e47 f935 221b a436
000001c0: 6396 8e36 f520 91b6 a365 1a37 8231 8936
000001d0: 0c01 dcb7 c81d 2837 f432 2c36 8a79 81b4
000001e0: 9cb2 6038 f8b0 1336 b8f5 1a39 3364 7934
000001f0: 752c 1838 2d81 9b36 0f15 7036 b6ce 5e35
00000200: ef4d db34 532f 8838 a48f c335 852d a3b5
00000210: 5a7b 3737 98a0 07b6 045d 8336 6e4e 09bc
00000220: 8451 45bc 95b2 bf36 b8e3 5635 79df 8536
00000230: 55ef 28b5 4f92 f9b5 64d6 b335 d28f 2536
00000240: 157b 1636 8038 c135 e76f a737 e318 1b37
00000250: 2266 8b37 84c5 c336 85f7 cfb8 7b69 06b7
00000260: cb50 40bc bc7d bdb6 458d 8db8 5b42 97b6
00000270: 56d3 3fb6 b123 8f35 02f8 7cb6 f6ef a3b9
00000280: 3fd5 3eb6 52fd fe35 e16f 9eb7 a809 eeb6
00000290: 2580 21b7 b23f e2bb a90b 5cbd 0273 d1b7
000002a0: 684e c1b6 d83f 5db8 f0eb 79b5 28d9 e8b6
000002b0: 1839 2335 864d 08b7 297f ddb6 97cb 33b5
000002c0: b634 0f37 7e4c 1237 ed54 e3b4 7257 0d37
000002d0: 6c6c c6b6 7449 b2b5 b148 18ba b58e 7d35
000002e0: 05e2 88b7 9fc7 c1b4 3cbe f6b5 2d65 6235
000002f0: 9bb7 5435 a06d b7b7 9e9f c035 cae4 d0b5
00000300: cfd0 67b6 0333 e635 7c23 53b5 d7ec 76bb
00000310: de9b 15bc d87e c334 a994 71b4 747c 0f36
00000320: 86c5 af34 a1de 82b3 e51c 1c34 960d 75b7
00000330: e128 1ab6 7e65 b935 8238 aab7 36b6 db35
00000340: 8d6a 1ab6 17be cd35 845f 9137 9fce 1c35
00000350: e319 0238 e3d3 3c35 c406 3737 49be 2535
00000360: 01eb 65b5 e6a9 6db5 2e61 d933 945f 0d38
00000370: 9668 8035 e8ed 6735 254f 8f34 9acf 6335
00000380: 03f7 6034 2a6d 873b 2723 773b c84c 1b36
00000390: 3a3e c933 1df2 b636 e807 7b34 61f8 9635
000003a0: 8c2a 5c35 cdbb e036 ede8 4f35 e4f1 ee32
000003b0: 3569 b335 7d49 2836 15b9 b735 5a13 2ab4
000003c0: a9af 9a38 c292 fc35 6f0b 873b d27c fe35
000003d0: 91a5 1b38 985f e535 1bca 5636 ca46 49b6
000003e0: 351b d234 c446 2539 0b9b ceb5 4392 4236
000003f0: 1edc 0937 9e76 ef34 b5a6 8f36 1260 713c

exp_avg_sq f4 [30, 30]
1.4249581e-07 9.8777854e-11 0.0015563294 2.9636402e-10 2.477846e-08 4.59548e-10 6.8233985e-10 3.4599856e-10
4.6066623e-11 5.6028534e-07 2.9308334e-10 1.1568926e-10 2.698027e-09 2.932883e-10 2.0094412e-10 0.0039174063
0.043875277 2.099348e-09 4.0621395e-11 2.3663226e-08 8.792505e-12 2.9538e-10 1.8369359e-10 1.2611532e-08
9.60312e-10 3.7128312e-10 6.484616e-09 2.6195148e-09 1.7987283e-09 3.2093554e-09 1.35522e-08 2.8008923e-33
9.291617e-06 1.7090832e-11 1.5224867e-09 3.3257314e-11 3.8409272e-11 2.7468269e-11 4.6276355e-12 5.1033442e-08
1.9101918e-11 6.249875e-11 4.16965e-11 3.3257355e-11 4.2727354e-12 0.0016776198 0.00025358793 2.250827e-11
2.5947898e-12 1.2074105e-09 5.5012375e-18 4.041363e-11 1.9896368e-11 4.8903157e-09 4.6552602e-11 1.41057565e-11
4.712071e-09 4.5079018e-10 9.818455e-10 3.933289e-10 3.240829e-07 1.13528166e-10 0.0016467787 4.5005408e-10
2.679208e-08 8.4468366e-10 1.2174234e-09 6.0734273e-10 5.803613e-11 8.417783e-07 4.365153e-10 8.1198415e-10
3.2110115e-09 6.0040456e-10 3.5327655e-10 0.020739906 0.005138518 1.4554008e-09 7.459861e-11 3.7554805e-08
1.5045815e-11 6.2237376e-10 1.1359063e-10 7.593255e-08 1.3941329e-09 4.9294796e-10 6.360979e-08 9.818231e-09
8.232947e-09 8.2770235e-09 1.9108575e-07 1.0460849e-10 0.0031572187 2.2591724e-10 2.1704002e-08 4.9516286e-10
7.215076e-10 3.5356673e-10 7.102375e-11 6.129051e-07 3.379558e-10 5.762377e-10 3.1588157e-09 4.136904e-10
2.760529e-10 0.013881744 0.0016883402 2.2664655e-09 5.2906013e-11 2.8734819e-08 1.6713138e-11 3.6908568e-10
1.09204965e-10 3.67163e-08 1.0053385e-09 3.9793796e-10 2.5481242e-08 5.5732383e-09 2.8471265e-09 6.766612e-09
3.5920658e-07 1.0459289e-10 0.0043108272 5.9745964e-10 3.8577635e-08 1.1131746e-09 1.3091253e-09 7.322149e-10
1.1897804e-10 1.1338018e-06 6.290788e-10 7.770125e-10 5.606312e-09 6.538681e-10 3.5904268e-10 0.01930679
0.018255567 3.4917462e-09 6.595712e-11 5.663388e-08 4.2902865e-11 7.503625e-10 2.388753e-10 5.030674e-08
2.1762352e-09 7.6278606e-10 2.9232204e-08 8.438767e-09 3.7137045e-09 6.4043797e-09 3.1185695e-07 2.0350702e-10
0.002587879 5.724399e-10 5.44161e-08 1.024705e-09 1.7886166e-09 9.27249e-10 1.3684859e-10 9.873245e-07
5.9955296e-10 3.8873973e-10 7.3501556e-09 6.2380767e-10 6.1404914e-10 0.011548245 0.08461838 4.1876387e-09
1.0876155e-10 5.8249945e-08 2.0923372e-11 9.938659e-10 2.7631433e-10 3.9466094e-08 2.3629345e-09 1.0008039e-09
1.7627997e-08 6.034455e-09 1.8554539e-09 5.7051746e-09 3.6013313e-07 1.6481545e-10 0.0025993453 4.456356e-10
4.5353108e-08 1.0919093e-09 1.1205065e-09 6.2764294e-10 9.2623735e-11 9.675668e-07 5.4452143e-10 9.595285e-10
4.8379625e-09 4.1213125e-10 3.8586176e-10 0.024684886 0.03672911 3.236994e-09 6.731084e-11 4.124191e-08
1.4996617e-11 9.133027e-10 3.250418e-10 7.789763e-08 1.5769327e-09 5.4190663e-10 2.5729788e-08 6.471807e-09
4.1697503e-09 5.5747322e-09 1.2376524e-06 2.5151642e-10 0.01252288 2.0201767e-09 1.1236713e-07 2.769258e-09
4.573442e-09 2.2074556e-09 2.1939914e-10 4.2082133e-06 2.2824653e-09 1.9971897e-09 1.7696767e-08 3.4677752e-09
1.0483244e-09 0.05311946 0.08520053 1.2530627e-08 8.579586e-11 1.7425722e-07 1.246219e-10 2.2733362e-09
1.1253966e-09 1.780578e-07 5.431436e-09 2.5058529e-09 9.95533e-08 3.5041822e-08 1.1337138e-08 3.0705188e-08
3.9713845e-07 2.3644645e-10 0.004248091 5.454445e-10 3.6895596e-08 1.0782061e-09 1.5210051e-09 8.5835183e-10
1.3104877e-10 1.3456945e-06 6.5822053e-10 8.0121987e-10 6.7622197e-09 9.766717e-10 4.469262e-10 0.021386407
00000000: f300 1934 fd36 d92e c0fd cb3a 87ed a22f
00000010: 69d8 d432 a2a3 fc2f 668f 3b30 f836 be2f
00000020: 689a 4a2e 8466 1635 d01f a12f 4367 fe2e
00000030: 3168 3931 a93c a12f bef0 5c2f 965d 803b
00000040: 90b6 333d 1f44 1031 a0a7 322e fc43 cb32
00000050: ecad 1a2d 0a63 a22f 26f9 492f 1baa 5832
00000060: fafb 8330 741d cc2f 49cf de31 fe02 3431
00000070: 2037 f730 948b 5c31 35d3 6832 64b0 6809
00000080: 31e3 1b37 2255 962d bd3f d130 6844 122e
00000090: ffec 282e 0b9d f12d 09d2 a22c dd2f 5b33
000000a0: b205 a82d ab6f 892e 1662 372e 7444 122e
000000b0: 6155 962c 94e3 db3a fff3 8439 1efc c52d
000000c0: 9497 362c fbf1 a530 b8f5 ca22 b4bd 312e
000000d0: a302 af2d ac07 a831 92bd 4c2e ae26 782d
000000e0: d1e7 a131 14d3 f72f 9ef1 8630 1f3c d82f
000000f0: 9dfd ad34 ada6 f92e b9d8 d73a 7b6b f72f
00000100: 6824 e632 542f 6830 4752 a730 f2f1 2630
00000110: e03e 7f2e 90f6 6135 11fa ef2f 4e32 5f30
00000120: b6a8 5c31 b709 2530 4137 c22f bce6 a93c
00000130: 0361 a83b 5d07 c830 490b a42e f24b 2133
00000140: 2a58 842d a913 2b30 d7c9 f92e 5c10 a333
00000150: b19b bf30 2180 0730 da99 8833 09ad 2832
00000160: e270 0d32 bc32 0e32 402d 4d34 5809 e62e
00000170: 57e9 4e3b 0d66 782f 9b6f ba32 fd1b 0830
00000180: 9553 4630 1860 c22f d12e 9c2e 8586 2435
00000190: 0dcb b92f 2065 1e30 7912 5931 bf6d e32f
000001a0: fec2 972f 4170 633c 4c4b dd3a 15c0 1b31
000001b0: e0ae 682e 89d4 f632 a402 932d 31e8 ca2f
000001c0: ee24 f02e 00b2 1d33 342c 8a30 cac4 da2f
000001d0: d8e1 da32 b97e bf31 2ea7 4331 c07f e831
000001e0: fad8 c034 9000 e62e d741 8d3b 7c3a 2430
000001f0: 8fb0 2533 59fe 9830 c0ec b330 0b45 4930
00000200: 57d1 022f 222d 9835 7ceb 2c30 6595 5530
00000210: a4a1 c031 e1bb 3330 c462 c52f 4629 9e3c
00000220: b38c 953c 73f3 6f31 8f0a 912e 9c3d 7333
00000230: 55b0 3c2e 1142 4e30 b652 832f d810 5833
00000240: bc8c 1531 4cac 5130 4c1a fb32 17fa 1032
00000250: 2e34 7f31 850d dc31 4b6d a734 22c2 5f2f
00000260: 6899 293b e059 1d30 22b7 6933 9ad5 8c30
00000270: 5ad3 f530 59e1 7e30 7477 162f 3684 8435
00000280: cacd 2430 41b6 d52f a78c fc31 9078 2b30
00000290: dec9 2830 da34 3d3c 674c ad3d dce2 8f31
000002a0: 4f2b ef2e 7e2e 7a33 3f0b b82d 8c98 8830
000002b0: c9e7 972f 6e81 2933 2f61 2231 a88c 8930
000002c0: 606c 9732 a157 cf31 fb02 ff30 3f07 c431
000002d0: 5258 c134 6d37 352f c759 2a3b a3fd f42f
000002e0: 45ca 4233 2512 9630 5100 9a30 7286 2c30
000002f0: 87ae cb2e 58dd 8135 4aad 1530 68e0 8330
00000300: 2b3b a631 5192 e22f 3721 d42f f537 ca3c
00000310: 4371 163d cd71 5e31 a204 942e f621 3133
00000320: 61e9 832d f70b 7b30 91b1 b22f ad48 a733
00000330: 63bb d830 4af5 1430 6704 dd32 9e5e de31
00000340: 8345 8f31 dd8b bf31 6a1d a635 ca45 8a2f
00000350: c42c 4d3c 53d3 0a31 7c4e f133 4d4d 3e31
00000360: 6c24 9d31 f8b1 1731 5e3b 712f 4734 8d36
00000370: 8ed9 1c31 ef3e 0931 9a03 9832 bf4d 6e31
00000380: a314 9030 ca93 593d 9e7d ae3d 4846 5732
00000390: c7aa bc2e 761b 3b34 f205 092f f438 1c31
000003a0: 5fac 9a30 2830 3f34 6b9f ba31 6e33 2c31
000003b0: 01ca d533 e480 1633 43c5 4232 b6e0 0333
000003c0: 4b36 d534 e1fc 812f 9233 8b3b 3fee 1530
000003d0: 2377 1e33 0130 9430 9c0b d130 24f1 6b30
000003e0: f316 102f b69d b435 27ee 3430 d63c 5c30
000003f0: 1d59 e831 953b 8630 45b3 f52f 8c32 af3c

exp_avg f4 [30]
-2.7848148e-06 6e-45 3.637573e-06 1.846697e-06 7.167358e-07 -4.088093e-06 -7.814502e-08 3.0197685e-07
1.3764586e-06 -1.6190991e-06 0.0 -4.5788656e-06 -8.902144e-06 1.8734177e-06 -3.1733514e-06 -1.8987815e-06
-1.0513609e-06 -3.776847e-06 -2.0474279e-06 9.0881326e-07 -1.2340669e-05 -2.780288e-06 -7.2699922e-06 -3.350493e-06
-4.4324947e-06 -2.936635e-06 0.0 1.2025049e-06 3.387916e-06 -2.1490523e-06
00000000: c1e2 3ab6 0400 0000 071d 7436 07dc f735
00000010: b665 4035 742c 89b6 aed0 a7b3 621f a234
00000020: c2be b835 d24f d9b5 0000 0000 28a4 99b6
00000030: 6b5a 15b7 2472 fb35 c3f5 54b6 a3d9 feb5
00000040: 7c1c 8db5 bd75 7db6 8b66 09b6 2cf5 7335
00000050: c50a 4fb7 fc94 3ab6 c2f0 f3b6 08d9 60b6
00000060: d7ba 94b6 0113 45b6 0000 0000 c165 a135
00000070: f45b 6336 7038 10b6

exp_avg_sq f4 [30]
1.10114e-10 6.298084e-12 1.5935231e-10 1.1221544e-10 2.1246674e-10 2.2842557e-10 1.8174538e-10 7.4335144e-10
2.417329e-10 5.919561e-10 0.0 1.1419658e-10 2.0811147e-10 8.295071e-10 6.3789016e-11 8.016606e-11
4.585631e-10 9.5439004e-11 1.3795257e-10 4.6044352e-10 1.9043175e-10 7.952523e-10 2.3163739e-10 6.683631e-10
5.0920598e-11 2.944576e-10 0.0 3.1784794e-10 2.401354e-10 4.5964232e-10
00000000: ac24 f22e 1998 dd2c b035 2f2f adc3 f62e
00000010: 129c 692f 1528 7b2f c7d4 472f b554 4c30
00000020: e2e4 842f 35b7 2230 0000 0000 f61e fb2e
00000030: 2cd2 642f 5f03 6430 0646 8c2e 7b49 b02e
00000040: 0519 fc2f 62df d12e 32ae 172f aa21 fd2f
00000050: c661 512f e898 5a30 21b0 7e2f dfb7 3730
00000060: 7ff3 5f2e 39e1 a12f 0000 0000 1fbd ae2f
00000070: 0e04 842f e8b0 fc2f

exp_avg f4 [30, 30]
0.0003630226 6e-45 -0.00043040368 0.0003139368 -0.0033547105 0.00028672838 -0.00050465425 -0.0012132522
-0.0021876954 -5.9340146e-05 0.0 -0.0006622812 -6.883086e-05 -0.004716124 -0.0008539389 0.0010556198
8.049301e-05 0.000937218 0.00018857072 -0.0065959697 -3.475991e-05 -0.00014006346 0.00025202558 -0.0017556018
-1.0067767e-05 -0.00068710593 0.0 -0.007928875 -0.003395351 -0.0041070534 6.0770464e-07 0.0
-1.1991046e-05 -2.6088497e-05 -0.0006630676 1.4996505e-07 0.00029084267 0.00042839834 0.00025927488 0.00020946767
0.0 -0.00046042178 8.304977e-06 0.0009918973 4.6555288e-06 0.00014161857 0.00016203115 3.8965177e-06
2.5985662e-06 0.00019309814 2.4793868e-05 8.776886e-05 2.5493827e-07 0.0004552689 3.4894338e-08 7.859935e-05
0.0 -5.816592e-05 -0.0008035106 -2.877978e-05 0.00015016626 -6e-45 -0.0005485133 0.00011115841
-0.0020230417 7.789508e-05 -0.00035154322 -0.0013638863 0.0021397194 -0.0002081619 0.0 -0.00067395467
2.8155548e-05 0.0019028852 -0.0012411085 0.0013424767 0.00015017355 0.00022321007 0.00041224566 -7.8467325e-05
0.00013378054 -0.0001350257 7.263563e-05 -0.000860526 0.00012605332 -0.00049462 0.0 -0.0015545493
-0.00018217643 -0.0018198942 -0.0005610711 6e-45 4.656615e-05 1.1224503e-05 0.0005346722 9.846835e-05
0.00028943032 0.00021667937 0.0038427142 -0.0002881399 0.0 0.0006894583 -0.0008793813 -0.0030114
6.4967054e-08 -0.00053458376 3.782511e-05 0.0012925086 0.00084269984 -0.0023879372 -0.00075470645 -0.00018828132
-0.0009497446 0.0013565137 8.21741e-05 9.9346886e-05 0.0 -0.004998036 -0.0042731985 -0.0014172558
-0.0016024156 0.0 8.096432e-05 0.00013434654 0.005513682 -0.00097084703 0.00066151674 0.0015609897
0.0014896968 0.00042274554 0.0 0.0011107122 -0.00023806232 0.009053309 0.00063081627 -0.0007942663
0.00030952148 -0.0010239779 0.00042021766 0.009626298 -0.0006748595 0.00020901771 -0.0013161203 0.005713453
-9.800527e-05 0.0009782341 0.0 0.012677431 0.008984877 0.0075562233 -2.1065005e-05 -6e-45
-0.00042029461 -5.3263433e-05 -0.0029275736 -4.0371633e-06 -0.00031770839 -0.0014385532 -0.00010464189 -0.00017336544
0.0 -0.0007940413 -0.00012800712 -0.0011560349 -0.0012051263 -2.3269246e-05 -4.322064e-05 -2.2141892e-07
1.4261495e-05 -0.0021384915 -4.509657e-05 -0.0001798428 -1.7660313e-05 -0.0024247533 -1.7409673e-05 -0.00047628357
0.0 -0.0035392712 -0.0011602787 -0.002727557 -0.0005309784 -6e-45 0.00017621655 -0.0011107263
-0.00015058434 -0.00033428374 0.0011975555 0.0021429425 -0.0012337302 0.0006329803 0.0 -3.2991367e-05
-0.00030413145 0.000779516 0.0011121692 -0.001799619 0.0002859434 -0.00091529393 -0.00088811363 0.0046636877
-0.00024382332 -0.000114054885 -0.00016211036 0.0010555724 -0.00013078781 0.0016082296 0.0 0.0018847538
0.0005404494 0.00159608 -0.00015526399 0.0 0.0006172386 4.5639787e-05 0.0034574813 -0.0001930363
0.00028395522 0.0016523973 0.00043362333 2.42462e-05 0.0 0.000912183 5.3469434e-05 0.00025347804
0.0010379478 -0.0009480018 -0.00018162942 -0.0005201607 -0.0003766823 0.002679757 2.3752782e-05 0.00019701169
-0.00016816168 0.002518614 -0.00016774784 0.00046296246 0.0 0.001420118 -0.00054138043 0.0037615406
0.00025523535 6e-45 -0.0008979991 0.00033869714 -0.0036580623 1.7596341e-05 -0.00060220837 -0.001212049
0.0011924992 -0.00025105695 0.0 -0.0022611504 0.00017139108 0.0012136906 -0.0008838986 0.0013830988
00000000: 1254 be39 0400 0000 cea7 e1b9 e297 a439
00000010: b4da 5bbb 0854 9639 c64a 04ba fd05 9fba
00000020: 705f 0fbb ffe3 78b8 0000 0000 f09c 2dba
00000030: 4959 90b8 b789 9abb dfda 5fba b95c 8a3a
00000040: 5bce a838 a3af 753a 11bb 4539 0123 d8bb
00000050: 2bcb 11b8 00de 12b9 4d22 8439 391c e6ba
00000060: bbe8 28b7 e61e 34ba 0000 0000 1de8 01bc
00000070: 8a84 5ebb 7694 86bb 2521 2335 0000 0000
00000080: 272d 49b7 9fd8 dab7 b7d1 2dba 1406 2134
00000090: 3e7c 9839 a79a e039 49ef 8739 8da4 5b39
000000a0: 0000 0000 c464 f1b9 9b55 0b37 8d02 823a
000000b0: b036 9c36 727f 1439 e8e6 2939 d5be 8236
000000c0: 0763 2e36 637a 4a39 6dfc cf37 8c10 b838
000000d0: 73de 8834 28b1 ee39 bbde 1533 b4d5 a438
000000e0: 0000 0000 2ef7 73b8 afa2 52ba 1b6c f1b7
000000f0: f375 1d39 0400 0080 1bca 0fba b81d e938
00000100: 0295 04bb 9a5b a338 554f b8b9 6ec4 b2ba
00000110: 893a 0c3b 0946 5ab9 0000 0000 55ac 30ba
00000120: 942f ec37 3b6a f93a b1ac a2ba 0bf6 af3a
00000130: e877 1d39 7f0d 6a39 ad22 d839 d38e a4b8
00000140: 7147 0c39 af95 0db9 f553 9838 ec94 61ba
00000150: 2e2d 0439 63a9 01ba 0000 0000 05c2 cbba
00000160: 9d06 3fb9 8489 eeba d814 13ba 0400 0000
00000170: 0650 4338 e050 3c37 3e29 0c3a cb80 ce38
00000180: aebe 9739 6d34 6339 0cd6 7b3b 7c11 97b9
00000190: 0000 0000 c3bc 343a 4886 66ba e95a 45bb
000001a0: 0484 8b33 4f23 0cba 67a6 1e38 6469 a93a
000001b0: a1e8 5c3a f07e 1cbb 7ed7 45ba 626d 45b9
000001c0: 48f8 78ba 0ccd b13a e254 ac38 7458 d038
000001d0: 0000 0000 91c6 a3bb 3006 8cbb 37c3 b9ba
000001e0: 2508 d2ba 0000 0000 63cb a938 60df 0c39
000001f0: 1eac b43b 7180 7eba a369 2d3a 1f9a cc3a
00000200: ee41 c33a f2a3 dd39 0000 0000 5195 913a
00000210: 5ea0 79b9 5554 143c 5d5d 253a 4f36 50ba
00000220: 4547 a239 ff36 86ba a950 dc39 9fb7 1d3c
00000230: 0ee9 30ba c42b 5b39 ab81 acba eb37 bb3b
00000240: 2e88 cdb8 1738 803a 0000 0000 00b5 4f3c
00000250: 4e35 133c 329a f73b c1b4 b0b7 0400 0080
00000260: fd5a dcb9 2d67 5fb8 89dc 3fbb f876 87b6
00000270: 1992 a6b9 d68d bcba 3073 dbb8 6ec9 35b9
00000280: 0000 0000 3627 50ba a639 06b9 1886 97ba
00000290: 54f5 9dba 5332 c3b7 cf47 35b8 2bbf 6db4
000002a0: a844 6f37 ef25 0cbb 1326 3db8 2f94 3cb9
000002b0: 3c25 94b7 9ce8 1ebb fd0a 92b7 b3b5 f9b9
000002c0: 0000 0000 1ef3 67bb 7e14 98ba d0c0 32bb
000002d0: 5b31 0bba 0400 0080 c5c6 3839 ca95 91ba
000002e0: 2de6 1db9 ce42 afb9 4bf7 9c3a 9c70 0c3b
000002f0: 1eb5 a1ba 97ee 253a 0000 0000 3660 0ab8
00000300: d573 9fb9 6f58 4c3a 35c6 913a 32e1 ebba
00000310: acea 9539 56f0 6fba 4cd0 68ba d9d1 983b
00000320: d3aa 7fb9 c030 efb8 2bfc 29b9 225b 8a3a
00000330: 1624 09b9 3bcb d23a 0000 0000 d809 f73a
00000340: f2ac 0d3a 8f33 d13a 5cce 22b9 0000 0000
00000350: 2ece 213a 596d 3f38 e996 623b ca69 4ab9
00000360: d3df 9439 4195 d83a f057 e339 5164 cb37
00000370: 0000 0000 911f 6f3a 5e44 6038 3fe5 8439
00000380: c00b 883a 5383 78ba c773 3eb9 655b 08ba
00000390: 717d c5b9 dd9e 2f3b b640 c737 ec94 4e39
000003a0: 8f54 30b9 550f 253b 78e5 2fb9 c5b9 f239
000003b0: 0000 0000 4123 ba3a 6deb 0dba 2e84 763b
000003c0: 1cd1 8539 0400 0000 b367 6bba 2993 b139
000003d0: 1abc 6fbb db9b 9337 85dd 1dba 9edd 9eba
000003e0: a24d 9c3a 4ba0 83b9 0000 0000 cf2f 14bb
000003f0: 71b7 3339 b314 9f3a 6eb5 67ba 1849 b53a
