ch-04/lightning_logs/version_11/checkpoints/epoch=49-step=1750.ckpt (torch, 47816 bytes, 27 tensors)

fc1.weight f4 [30, 30]
00000000: d5e1 153e d8e3 e53e d01f fb3d 45c6 47be
00000010: 5659 603e bbd9 b03d 7bf9 193e 7f04 c3bd
00000020: 0a4d cbbd dabf 25bd 98b7 f7bd c2e5 f6bd
00000030: 0fbf 283e 065f b2bb c510 8b3e d84a 00be
00000040: 660b 633d 28b3 143e 2252 cb3e c960 5bbd
00000050: 46be ce3d 2dfa a3bd 1efc c8be 4738 cbbc
00000060: ae66 22be 09b7 d73d c595 67be 0819 71be
00000070: 7a5b a53d b2da 1dbd 6521 e63d 61b5 80bd
00000080: 7432 ffbd 70c9 14be 0100 7ebd 34ff f9bd
00000090: 0164 18be e5e6 f53d 9943 053e 84f8 2ebe
000000a0: ba68 3abe 57a6 4ebd 226e 143e 0717 f63d
000000b0: 7046 41be 3e38 103e 6924 c13d 7596 c93d
000000c0: b825 8fbc d2a9 18be 9a07 dfbd 0fc6 943d
000000d0: fd99 ac3d 0bda b03d 2893 eebd 64cc f8bc
000000e0: c554 953d 8d6e f73d 7987 44be e662 3dbe
000000f0: a5b5 343e 2a35 98bd 0b28 873c cdcf c13d
00000100: 953d 183e e75a 80bd 2af9 06be 8de9 393d
00000110: bfb0 aabd 97ef 343e 7b6e 023e 619f 25be
00000120: 0127 0ebd ddeb c6bd a47f 0c3e 66f6 1cbe
00000130: aeba 4fbd a3f7 313e a094 0dbb fccf 02be
00000140: 0fba 3c3c 8f57 7f3d 1395 d4bc 73df 1bbe
00000150: b87e 2dbe 16f0 fb3d da84 08bd abdc 06be
00000160: 917d bb3c 31af 913d b57f 0b3e 4bc2 113e
00000170: 15c7 40be 6d3f a5bb e687 3cbb 977f 243e
00000180: ccaa 22bc e28f 093e d3cd 2ebe f01e d5bd
00000190: b5a1 533c 1a8b 32be 1c0b 243e d9b2 ac3c
000001a0: 829c 5e3d 3c32 07be f64c b03d 5455 e7bd
000001b0: 5b10 7dbd d30b e8bd f9d6 33be f819 a23d
000001c0: 7a23 b8bd 34c3 843d 5968 56be ef1c 3dbe
000001d0: af65 0ebe 4269 28be d4e4 d4bb 13a7 763d
000001e0: 698f 48be b4a2 6ebe 2f03 833d 56c1 e63d
000001f0: 8204 71be cd77 8cbe 2a58 a93b eaf5 963d
00000200: 8133 e6bd f606 61be 2915 38be 07df 6abd
00000210: 1685 efbd 8192 50bd 700c ccbd e57b ae3d
00000220: abb7 883d ff76 7ebe 4506 9dbd 81f9 3abe
00000230: 1612 283e be65 72be 9796 0d3d 9f19 863d
00000240: 4483 cabd e7b3 e3bc f5d3 4cbe db1a c8bd
00000250: 1ecc 35be 760b f03d e672 a43d aee9 17be
00000260: 9b25 2abe 5e69 12bd 5be7 473c 5f92 1fbe
00000270: 2000 50be 1c18 073d 9fda ce3d 84b3 983c
00000280: 6340 153e a9c6 e0bd a03f 6c3c 169a 2abd
00000290: 3f24 30be 4649 083e 4a2c 833b c89a 4bbe
000002a0: d506 32be 1587 28be b2b5 4dbc afbe 47be
000002b0: fdb8 c53c 9eba 9abd b557 04bd 197a fe3c
000002c0: a51a a8bc 877b 073d 9fba 3a3c 966a d1bd
000002d0: c321 2bbd 4519 90bc f371 f2bd c22d f1bd
000002e0: 8bd3 17bd 3932 7fbe 1d49 803d c496 973d
000002f0: 08dc 4fbe 3c82 3bbe 3c08 60be 1178 0bbe
00000300: 8cb6 96bd 4fb1 a9bd b3cc b9bc 8d68 313d
00000310: d7be 463d 2f78 d7bd 5ec5 afbe 2b66 28be
00000320: 2cbf 0a3e 01de 87be 3f83 1e3e 2fdd 403d
00000330: 8e5d 47be 2109 d1bd 0845 5dbe 2945 913d
00000340: 3c3b 17be e43e 5dbd 47c6 eabd e6b8 ae3e
00000350: e819 8fbd 14ea 4b3d 1c0e f43d fe1d 3bbd
00000360: e2cf fa3d 190c 2cbe 1267 92bc 2688 96bd
00000370: 3690 77be 8a6d 34be 0b64 22be 9e4a 6d3d
00000380: b49d 7a3e 820d 01be fb1b 923d cc88 00be
00000390: 6eca 533e b14b 023e d91b 9abb 1a47 53bd
000003a0: afd7 a9be 797e 1b3c 6615 e8bc af4c 51bd
000003b0: cced 983b 24d5 47be 8c45 88be 3703 16be
000003c0: 7692 a33d 1877 ddbd a4b1 013d e715 ab3b
000003d0: accf e3bc 8a8e e0bc 3144 d73d c5bd f53c
000003e0: 8693 2cbe a040 373e fa5d 9d3d d441 20be
000003f0: a6af 113e eeb2 04be 4e17 27bd 393b 70bd
0.1463693 0.44900393 0.12261927 -0.19509228 0.21909079 0.08635279 0.15036575 -0.09522342
-0.099268034 -0.040466167 -0.120955646 -0.120555416 0.16479133 -0.0054434566 0.27161232 -0.1252855
0.055430792 0.14521468 0.397111 -0.0535591 0.100948855 -0.080067016 -0.3925485 -0.024807109
-0.15859482 0.10532958 -0.22615726 -0.23544705 0.080740884 -0.038538642 0.11236838 -0.06284595
-0.12460795 -0.14529967 -0.062011722 -0.12206879 -0.14881898 0.1200693 0.13014068 -0.17086989
-0.18204013 -0.050451603 0.14495137 0.12016111 -0.18874526 0.14083955 0.09430773 0.098431505
-0.01747404 -0.14908531 -0.10890122 0.07264339 0.084278084 0.086353384 -0.116491616 -0.030370899
0.07291559 0.12081633 -0.19192304 -0.18494758 0.17647417 -0.07432015 0.016498586 0.09463463
0.14867242 -0.06267338 -0.13180986 0.045388747 -0.08334493 0.17669521 0.12737457 -0.1617408
-0.034705166 -0.09712956 0.13720566 -0.15328369 -0.05071514 0.17379622 -0.002160348 -0.12774652
0.011518969 0.06233936 -0.02594999 -0.15221958 -0.1694287 0.12301652 -0.033329822 -0.13170116
0.022887023 0.07113493 0.13622935 0.14234273 -0.18825944 -0.0050429613 -0.0028767525 0.16064297
-0.009928416 0.13433793 -0.17070703 -0.104062915 0.012916972 -0.17435876 0.16019863 0.021081375
0.054348476 -0.13202757 0.08608429 -0.11295572 -0.061783176 -0.1133038 -0.17562474 0.079151094
-0.089911416 0.064825445 -0.20938243 -0.18468069 -0.13905977 -0.16446403 -0.006497005 0.06021793
-0.19585957 -0.23304254 0.063970916 0.11267345 -0.23536876 -0.2743515 0.0051679807 0.07371123
-0.11240292 -0.21975312 -0.17976822 -0.0573416 -0.11695306 -0.050920967 -0.0996331 0.08519725
0.06675657 -0.24850081 -0.076672114 -0.1825924 0.16413149 -0.23671624 0.03456744 0.065478556
-0.09888318 -0.027795745 -0.2000273 -0.09770747 -0.17753646 0.11720936 0.08029728 -0.14835235
-0.16615908 -0.035745017 0.012201156 -0.1558318 -0.20312548 0.032981977 0.101002924 0.018640287
0.14575343 -0.109753914 0.014419466 -0.041650854 -0.17201327 0.13309202 0.0040030824 -0.19883263
-0.17385419 -0.1645778 -0.012555527 -0.19506334 0.02413606 -0.07555126 -0.032310206 0.03106408
-0.020520518 0.03307679 0.011397033 -0.10225408 -0.041780245 -0.017590174 -0.1183814 -0.11776306
-0.037066977 -0.24921502 0.06263945 0.07401803 -0.20298779 -0.18311399 -0.21878141 -0.1362002
-0.07359037 -0.08285772 -0.022680616 0.043312598 0.048521843 -0.1052097 -0.34330267 -0.16445224
0.13549489 -0.26536563 0.15479754 0.047085937 -0.19469282 -0.10206819 -0.21608365 0.070932694
-0.1476869 -0.054015055 -0.114636 0.3412544 -0.06987363 0.04978378 0.11916754 -0.0456829
0.12246682 -0.1680149 -0.017871413 -0.07350187 -0.24176106 -0.17619911 -0.15858476 0.05793249
0.24474221 -0.12602809 0.07134243 -0.12552184 0.2068269 0.12724186 -0.0047030267 -0.05158148
-0.33172366 0.009490603 -0.028330516 -0.05109852 0.0046670195 -0.195149 -0.2661556 -0.14649664
0.079869196 -0.10813731 0.031663552 0.005221117 -0.027808987 -0.027411718 0.10511053 0.029997716
-0.1685315 0.17895746 0.0768394 -0.15650111 0.14227161 -0.12958881 -0.04079371 -0.05865023

fc1.bias f4 [30]
00000000: f42c 6e3e caa8 48be 71c7 463d 4f9e 773d
00000010: c331 31bb 9074 8c3d 1142 20be fb58 123e
00000020: 6663 9e3c d74f 643b d771 12be b679 40be
00000030: 229a 81bd 9c67 8f3c 7739 09bc c7ba 96bd
00000040: 85da afbd 7395 0d3c f5df b4bd c752 26bd
00000050: 9d44 1fbe b9b7 9dbc bc55 283e 81b2 b1bd
00000060: 0471 323c a13f 98bd 2731 123d 124b cd3d
00000070: 95f4 36be 3b62 f73c
0.23259336 -0.19595638 0.048530046 0.06045371 -0.0027037717 0.0685817 -0.15650202 0.14291756
0.019334506 0.0034837627 -0.14301239 -0.18796429 -0.063282266 0.01750546 -0.008375517 -0.07359844
-0.08586601 0.0086415885 -0.08831779 -0.040606286 -0.15553518 -0.019252645 0.16438955 -0.08676625
0.010891203 -0.07434011 0.035691407 0.10024084 -0.17866738 0.030198207

fc2.weight f4 [30, 30]
00000000: 477a 0e3e 4aeb f83c 5176 c8bb 7db6 96bd
00000010: ee3b c5bd 3597 123e 41ce a33d c84f c33d
00000020: 27b9 e9bd e7ba df3d 5e34 11be 8035 153e
00000030: 4890 0a3e 0e22 3ebe 4fbf 11be e41e 0cbe
00000040: f21f a7bd 7411 523d 089e 88be 8026 163e
00000050: 48ee efbd 0370 6bbd 12d0 4c3d bc56 d3bd
00000060: 69bd 90bb 282d 1dbe f5b6 26bd afde ce3c
00000070: e722 97bd 08f7 043e 71c1 c7bd 60b0 633d
00000080: ba96 093e 2163 fbbc 442b 6fbd c9b0 5e3c
00000090: bd96 e6bd 1880 303d 34ea 59bd 9db0 39bd
000000a0: 7986 19be aafe 103e 6824 1abe 63c0 833c
000000b0: a1a0 7c3d a0b4 0dbe 3a5c 04bb 1a08 343e
000000c0: 1d90 8c3c 00f9 ce3d 802a 0dbe 9ae0 df3d
000000d0: b1ae 70bc 4e68 ac3c 69f3 91bd b5ea e3bc
000000e0: 9607 c53e 3f09 af3d 628b 12be 0712 093e
000000f0: 4d2d 033e b559 c2bd 6b4c c23c e874 4b3d
00000100: 4ace 4cbe 1f41 443d 61da 043e 1fe7 aebd
00000110: 6563 19be b567 e7bd f3dc c23d 8f9d 1cbd
00000120: 76d1 82bd f10a 453e a142 843c 8479 813d
00000130: 0d1d 26bc eee8 35be 5770 ad3d c313 a73d
00000140: d5c7 4e3c 697f d9bd de37 a9bd 089d a43d
00000150: 4ee0 c03d 380f 27be 6fa2 70bd 5b47 a4bc
00000160: 1008 2f3d 4c83 a1bd a0ff 92bc dfba 49be
00000170: d211 68bc ec43 22be c907 f23d 7433 953c
00000180: 0813 243d 5111 d6bd 070d 9dbd a0d6 a93c
00000190: f690 b5bd c6ec 0f3a 2eea d1bc b7d4 963d
000001a0: c3c1 2abe 90ee 003e 3a3c bebd 58ff cd3c
000001b0: 9f89 06be c028 103e b3d4 adbd 1735 8d3d
000001c0: f36a 0b3d db2a 01bd f8c1 e23b f9bd 0ebe
000001d0: 5eb6 51be 03e3 823d 2f91 ea3d b0b0 20be
000001e0: 2b27 a1bd b7cb 11be 2f8e 1abe 4801 edbb
000001f0: 5c2c 56bd f95a 383e 3539 023e 251a ebbd
00000200: 253a 183e c536 da3d 8210 5e3e 4e73 68bd
00000210: 99ff b5bb 668c 1dbe 6b51 cbbd 8ba9 213e
00000220: b89d 133e a676 3abe 010e d13d 1363 c5bd
00000230: dafe 12be eb30 a93d 71fe c53c 6ee7 52bd
00000240: 27bb 0d3e cca8 edbd 0b3d 4ebd 575f 8b3d
00000250: 48cc b9bd 43c4 743d aeb4 d8bd 9158 98bd
00000260: b275 ff3d c31c 453e ee0a fabd 3a42 383e
00000270: b63f 10be d44b be3d 177e 24be 469f 11bd
00000280: 08a4 1bbe 55cc 063e fb7f f2bd 4759 19be
00000290: ef2a 69bd 1192 cc3d d737 683d b17d 983d
000002a0: 562f 233e 07a3 9fbc 3b9b cc3d e633 17be
000002b0: 1b01 13be 0bf6 cd3d 4fac 38be ada9 523d
000002c0: cb97 063e 2ed5 de3d 33f2 093e 0810 3a3d
000002d0: b7c5 62bd 7987 4fbe 4e4a bebd 960b 66bc
000002e0: 565f 623d c3f7 02be 7b96 7ebd eced 3bbb
000002f0: 9845 1ebb 0fe5 03be 56d8 c43d b250 6dbb
00000300: c1a5 233e eef0 08be 10b9 d33c 83be df3c
00000310: b066 7f3d e4f4 11be 98a3 24bd bc9c d63c
00000320: 68d6 ebbd 38a2 24be 799d c93b f3f4 d83d
00000330: c29a 32be 2068 6cbd 297e 10be 4a6b 453d
00000340: 2dc9 7e3d 30a9 3ebe 7819 8d3c 4b3c babd
00000350: 9ae2 0bbd 2f01 16be 46ec 46bd 4084 873d
00000360: e5c0 a3bd e29c 66bd a86b ddbd 9400 acbd
00000370: 92f6 3b3e d642 ca3d a3f4 c6bc 8be8 b33d
00000380: 2049 873d cf7c 583d 357f e1bd 43d9 39bd
00000390: 2c5f 443e decd f33d a0da c03d 9216 60bd
000003a0: 135c 79bd 3471 9a3d b58d 133d 0717 65bd
000003b0: 0b30 07be 8f58 13be 87ef 14be d5d9 bfbd
000003c0: 568f dd3d 4e9d a9bd 2f69 733d bcfe 99bd
000003d0: 517d ef3b 95d9 a2bd 559f 6abd 69e8 063e
000003e0: 36fb 453d 39f6 243e 9431 503a 2f32 483d
000003f0: 6fea b73d 0c1a 22be 7f33 083e 84d1 5a3b
0.13913833 0.030385632 -0.00611762 -0.073590256 -0.09630571 0.14315493 0.07998324 0.095367014
-0.11412268 0.10924321 -0.14180133 0.1457119 0.13531601 -0.18567678 -0.14233135 -0.13683659
-0.0816039 0.051286176 -0.26683068 0.14663124 -0.117153704 -0.05747987 0.05000312 -0.10319278
-0.0044171107 -0.15349257 -0.040701825 0.025252668 -0.07379704 0.1298486 -0.09753693 0.055588126
0.13436404 -0.030686917 -0.05839087 0.013591954 -0.1125922 0.04309091 -0.05320187 -0.045334447
-0.14992703 0.14159647 -0.1505295 0.016082948 0.061676625 -0.13838434 -0.0020196573 0.17581216
0.017158562 0.10106087 -0.13785744 0.10931511 -0.014690087 0.02104583 -0.07126505 -0.027821878
0.3848235 0.085466854 -0.14310983 0.13385783 0.1281025 -0.094897665 0.02371808 0.049672037
-0.20000568 0.047913667 0.1297393 -0.085401766 -0.14979322 -0.112990774 0.09514799 -0.038236197
-0.06387608 0.19242455 0.016145052 0.063220054 -0.010138762 -0.17764637 0.08468693 0.08158066
0.012620886 -0.10620005 -0.08262609 0.08037764 0.09417783 -0.16314399 -0.05874866 -0.020053556
0.0427323 -0.07886371 -0.017944157 -0.19700192 -0.014164405 -0.15846223 0.11817891 0.018213011
0.040057212 -0.104525216 -0.076685004 0.020732224 -0.0886554 0.0005490299 -0.02562436 0.07364791
-0.16675477 0.12591004 -0.09288831 0.025146171 -0.13138436 0.14078045 -0.08487835 0.06894892
0.03403754 -0.03153501 0.0069200955 -0.13939656 -0.20479724 0.06390955 0.11453473 -0.15692401
-0.07868799 -0.14237867 -0.15093301 -0.0072328188 -0.0522884 0.18003453 0.12717135 -0.11479596
0.1486593 0.10654978 0.21685985 -0.056750588 -0.0055541513 -0.15385589 -0.099276386 0.15787332
0.14415634 -0.18209323 0.10207749 -0.096380375 -0.1435503 0.082612835 0.024169179 -0.05149024
0.13840924 -0.11604461 -0.050351184 0.06805294 -0.09072167 0.059757482 -0.10581337 -0.07438768
0.124736205 0.19249253 -0.12209116 0.17994013 -0.14086804 0.09291807 -0.16063724 -0.035552286
-0.15199292 0.13163884 -0.118408166 -0.14975463 -0.05692571 0.099887975 0.056693878 0.07445849
0.15936026 -0.019486917 0.09990545 -0.14765891 -0.1435589 0.100566946 -0.1803448 0.051431347
0.13143842 0.108805045 0.13471298 0.045425445 -0.055364337 -0.20266522 -0.09291516 -0.014040848
0.0552667 -0.12789826 -0.062155228 -0.0028675748 -0.0024150368 -0.12880348 0.09611575 -0.0036211428
0.15981199 -0.13373157 0.02584508 0.027312523 0.06235379 -0.14253575 -0.040195078 0.026197784
-0.11515504 -0.16077507 0.0061528054 0.10593595 -0.17441848 -0.05771649 -0.14110626 0.048198022
0.062203575 -0.18619227 0.017224059 -0.09093531 -0.03415165 -0.14648889 -0.04856517 0.066170216
-0.07995776 -0.05630196 -0.108115494 -0.08398548 0.18355778 0.09876029 -0.024286574 0.087845884
0.06605744 0.0528534 -0.11010591 -0.045373213 0.1917693 0.119045004 0.094166994 -0.054709025
-0.060878824 0.07541123 0.036023814 -0.055930164 -0.1320192 -0.14389251 -0.14544497 -0.0936772
0.10818355 -0.082819566 0.059426483 -0.0751929 0.00730864 -0.07951657 -0.057280857 0.13174595
0.048335277 0.16109551 0.0007941958 0.048875984 0.089802615 -0.15830249 0.13300894 0.0033389041

fc2.bias f4 [30]
00000000: 2e30 1d3e 3fc0 7bbd c93a a3bd 6329 653d
00000010: 73b9 e03c 7b6d 1f3e 4163 c73d 26ac 2dbe
00000020: 70ff 5c3e c3cc 993d becd 28be 1e06 b03d
00000030: fb99 46be 0d47 8e3d 5fa6 8b3c f9df bebd
00000040: f759 11bd 4fa9 e8bd 1bc0 10be 0832 ca3c
00000050: fd47 3dbd 8688 1bbe 4430 3bbe 1d1b 413b
00000060: 7ed7 d93d 4c05 073e 3f6e 0bbe 30a3 e2bd
00000070: fb90 17be 328b a33d
0.1535041 -0.061462637 -0.07970197 0.055947673 0.02743218 0.15569107 0.09735728 -0.169602
0.21581817 0.07509758 -0.16484734 0.08594917 -0.19394676 0.069471456 0.017047105 -0.09320063
-0.035486188 -0.11360418 -0.14135782 0.02468206 -0.04621123 -0.15188798 -0.1828013 0.0029465624
0.10636805 0.13185614 -0.13616274 -0.11066282 -0.148014 0.07985534

fc3.weight f4 [30, 30]
00000000: 54b9 35be ed21 29be e89c 76bd 1aa9 c8bd
00000010: b44f a63d a83b 14be c488 e53c 4ba4 d6bd
00000020: 64e8 573d faa9 e23d 4be0 6f3c 667b 4d3d
00000030: 52e1 31be 120a 0cbe 0536 26bc b598 08bd
00000040: 939a b43d 72fa 123d 7ed4 afbc f441 953d
00000050: 3e43 01bd aff0 993d 9719 25be 77c6 df3d
00000060: 2ce4 373e 576e 1cbd 34a6 863d 65b8 07be
00000070: 3e66 95bc 0bb2 08bd 5f53 03bc 633e 8bbd
00000080: 25db f33d 4af7 98bd 7236 1b3d 4ebc 093e
00000090: f46d 353e c9ee 1d3e b01d a5bd b65f babc
000000a0: 1482 e83d 263c 853d f80a a83d dcaa 5c3d
000000b0: 2cf0 23be 46c2 dc3d fe11 2f3e 00db b03d
000000c0: 2509 8cbd 01f3 c5bc e967 88bd 84df ac3c
000000d0: 46a8 563d 21a6 ecbd 6228 393b 0ab3 00bd
000000e0: 7212 5a3d f951 fcbc 1f19 7fbd 4e4b 013e
000000f0: e091 d2bd 1f0e 8bbc cf6a 55bd 28dd 133d
00000100: 9f38 7dbd 84bb 393d 494d abbd 78a0 92bd
00000110: 5514 0b3e b458 5ebd c96e a7bd f2ad b5ba
00000120: 781d e13b 71c2 a6bd 26c0 a43d 65c3 97bd
00000130: 0a8b 863d a96e 1a3e 9de4 053e 22ba 80bd
00000140: ab96 b0bd 7ad1 0cbe 7ec8 09bd d58d 9abc
00000150: abb1 893d 1e0e e0bd cc61 f23d 3620 45bd
00000160: 9db6 3dbc 511f 283e e510 96bc 23ee 0abb
00000170: 4966 32bd 1f60 cf3d f18a 2ebe b78a ddbd
00000180: ce5c d13c f555 f53d f6c4 64be 0f24 f4bc
00000190: f743 ea3b 3098 fa3d b3d2 153d 340b 2c3e
000001a0: adfd cbbc e609 4cbe fa8a 473c 903f fa3d
000001b0: 7e39 b7bc cbc9 c2bb e070 253e bd69 43be
000001c0: 1aa0 c93b 4f79 183d e4a4 0d3d f50f 98bd
000001d0: f30e b2bd 6255 983d 67d7 643d d7b2 2f3d
000001e0: beca 9fba b56b cabd 6f8d 873d 923a dbbd
000001f0: bcd4 e8bd 3814 71bd e8a8 38be 28c1 1fbe
00000200: d5c4 18bd 06f2 40be 3a67 ec3d 2deb 06be
00000210: 6103 5c3d a35d 9d3d 22e4 67bd cfd1 203d
00000220: 3c09 563e 57a6 48be c74d 923a b7ce 013e
00000230: 644e 083e 7933 203d acfb 063e 3d20 cbbd
00000240: c38c 133e 4d71 8cbb b60c aebd 88f1 b93d
00000250: 30ce ae3d 0941 17be 2578 113d 3a87 db3c
00000260: 1629 083e e2bb 28be 4889 163d e049 743e
00000270: b26c abbd 4262 ae3c bf99 44be 98c5 263d
00000280: e634 0dbe a989 3fbe d626 2f3d 3e3f bc3d
00000290: daad c43d 8fb5 f63d 9bd4 47bd 87a8 18be
000002a0: 313c b83d 3bd6 003e 517c 05be ebfc 37be
000002b0: 5421 12be 85ab d6bd 30a5 f03d ceaa 5fbe
000002c0: c345 a23d 468b f03c c581 11be b377 29be
000002d0: 2bb1 f03d 966f f1bd ac7e 03be b1b9 e9bb
000002e0: b681 4ebe 582f 133c 1f5e 77bd 6c94 a8bd
000002f0: 1a60 50be d8cf 03be 25f1 dc3d ae4f 01be
00000300: a08d 723d 1706 ff3d fc9f 6aba 5318 7c3d
00000310: c91f 7bbd 8cd7 25be c00b f83d fc7a 983d
00000320: d488 f33b ab21 f0bd 3a8a cdbd c525 243e
00000330: d672 323e 0f3e 1cbe 1b3b 0a3e 1e84 07be
00000340: 3288 07bd e25e dbbc 414b 2abe 7cba 53bb
00000350: 7bea 87bd eabe f23d ad61 01be d770 0ebe
00000360: 370b 743d 143c 253e a4a7 0c3e 4e03 8c3d
00000370: 2cdf 24be ec1f 683d 9858 7fbd a6df 13be
00000380: 5823 83bd 8988 39be 62f4 54bd 1cf4 423d
00000390: 0b18 273e a5cc 2dbe 90af 413d 0b1c 783c
000003a0: e1ed 10be d8fd 70bd dc72 c4bd 2bde 01be
000003b0: a06d 0f3e 7222 0c3e 820a 073d 841b 89bd
000003c0: 8767 c6bd a22a e43c d957 22be 123b eabd
000003d0: 9f10 9f3d 30cd ea3d ad2e 47bd 0b7a debd
000003e0: 13f5 ac3d a1f7 043e 4ad9 2bbe 1f2c 31bd
000003f0: 68e1 37be 29f2 dfbc ec51 093e 6dad 17be
-0.17746478 -0.16516848 -0.06020823 -0.097978786 0.08120671 -0.14475882 0.028019316 -0.10480555
0.05271186 0.11067577 0.014640878 0.05016651 -0.17371109 -0.13675717 -0.010144715 -0.033348758
0.08818545 0.035883375 -0.021463629 0.0728797 -0.031558268 0.0751661 -0.16123043 0.10926526
0.17958134 -0.038191166 0.065746695 -0.13253935 -0.01823723 -0.03337292 -0.008015483 -0.06799009
0.11907033 -0.07469042 0.03789372 0.13450739 0.17717725 0.1542312 -0.08062303 -0.022750717
0.113529354 0.06505613 0.08205217 0.05387388 -0.16009587 0.10779242 0.17096707 0.08635521
-0.06837682 -0.024163725 -0.06660444 0.021102674 0.05240657 -0.11555124 0.002825283 -0.031420745
0.053240247 -0.030800806 -0.062279817 0.12626383 -0.1028173 -0.016974507 -0.052103814 0.036099583
-0.061821576 0.045344844 -0.0836435 -0.07159513 0.13581975 -0.054283813 -0.081754275 -0.0013861044
0.006869968 -0.081425555 0.08044462 -0.074103154 0.06569488 0.15081276 0.1307549 -0.06285502
-0.08622488 -0.13751784 -0.03363847 -0.018866459 0.067233406 -0.10940193 0.118350595 -0.048126422
-0.011579183 0.16418196 -0.018318603 -0.002119907 -0.043554578 0.101257555 -0.1704519 -0.108174734
0.025556948 0.11979286 -0.2234076 -0.02980235 0.0071492153 0.12236059 0.03657789 0.16801149
-0.024901235 -0.19925651 0.012179131 0.12219155 -0.022366282 -0.0059444658 0.1615634 -0.19083305
0.006153119 0.037225064 0.03458108 -0.074249186 -0.086942576 0.074381605 0.055869486 0.042895164
-0.0012191159 -0.09883825 0.06618773 -0.10704531 -0.11368701 -0.058857173 -0.18033183 -0.15601027
-0.03729709 -0.18842325 0.115431264 -0.1317565 0.05371416 0.076838754 -0.05661405 0.03926259
0.2090196 -0.19594704 0.0011162095 0.12676512 0.13311154 0.03911159 0.13181943 -0.09918258
0.14409165 -0.0042859674 -0.08498518 0.090792716 0.08535421 -0.14770903 0.03551497 0.02679788
0.13296923 -0.16477922 0.036752015 0.23856306 -0.08370341 0.021287087 -0.19199274 0.040715784
-0.1378971 -0.18704857 0.042761646 0.0919175 0.09603472 0.12046348 -0.04878674 -0.14908038
0.089958556 0.12581722 -0.13035704 -0.17967574 -0.14270526 -0.104819335 0.11750257 -0.218425
0.07923462 0.029363286 -0.1420966 -0.16549568 0.11752542 -0.117888615 -0.1284129 -0.007132732
-0.20166668 0.008983456 -0.060392495 -0.08231434 -0.2034916 -0.12872255 0.10788182 -0.12628052
0.059217095 0.124523334 -0.0008950231 0.061546635 -0.06130961 -0.16195506 0.12111616 0.074453324
0.0074320827 -0.11725172 -0.1003613 0.16030033 0.17426619 -0.15258048 0.1349911 -0.13233992
-0.03308887 -0.026778642 -0.1663027 -0.0032307198 -0.066365205 0.1185282 -0.12634917 -0.13910232
0.059581008 0.16136199 0.13735825 0.06836568 -0.16100758 0.056671068 -0.06234035 -0.14440784
-0.06403226 -0.1811849 -0.051990874 0.047596082 0.16317765 -0.16972597 0.04728657 0.015143405
-0.14153244 -0.058835834 -0.0959222 -0.12682407 0.14006662 0.13685015 0.032969005 -0.06694701
-0.09687715 0.02785236 -0.15853824 -0.11437048 0.07766842 0.11464918 -0.048628498 -0.108631216
0.08445182 0.12985088 -0.16782108 -0.043254968 -0.1795708 -0.02733715 0.13410157 -0.1481225

fc3.bias f4 [30]
00000000: 79d9 9f3b 7dcf 2cbe 4d72 643d 74f8 ebbd
00000010: b233 82be 4ff9 a33d 8ae0 2fbc 8e6a 52bd
00000020: 8746 b93d 8d81 2bbe 46bf 06be af92 9b3e
00000030: 7648 0bbe 2ac6 44bd 4b5f bb3d 1ba0 3a3d
00000040: 7979 523a 466a 1e3d 8442 11be ac2b 033d
00000050: 3e0e 9abd 7984 0abe d98f eebd 1478 2cbe
00000060: 9c13 b03d 57e9 a4bd 91e5 b03d ea12 22be
00000070: 5ba6 963d 0956 c33e
0.0048782197 -0.16876025 0.05577307 -0.11521998 -0.25430065 0.08006536 -0.010734687 -0.05137115
0.09046655 -0.16748638 -0.13158903 0.30385348 -0.1360186 -0.048040546 0.09149035 0.045562845
0.0008028965 0.03867557 -0.1418553 0.03202407 -0.07522248 -0.13527097 -0.116485305 -0.16842681
0.0859749 -0.080523185 0.08637536 -0.15827528 0.073559485 0.38151577

fc4.weight f4 [10, 30]
00000000: 9a89 06be b460 d7bd 7072 33be 4077 163e
00000010: 06d5 2a3e c542 153e 48ee 0a3e e0a9 0dbd
00000020: 8a79 adbd 32d1 87bd 5307 a0bc 852a 383e
00000030: eed7 483d 1f49 3d3d 6f93 e23d b36f 7dbc
00000040: 3bc0 09be a5cb 9abd acab f8bd 6943 ce3d
00000050: ba25 16bd f97f 273c 65ea 53bd 79ea 3b3c
00000060: 9fe4 4e3e 73c5 093d cbaa 28bd eb63 0c3e
00000070: c966 cabd a2e1 2f3d 895d 1cbe 153f bc3c
00000080: 6842 3abe 01cb 173d 1b6d bdbc 188e 903c
00000090: 4114 13be 1bc9 0a3e 6df6 6f3e 05e8 e83d
000000a0: 702b 1abe 33d3 c1bd f2ef a8bd 4f1a 5b3d
000000b0: 4e8a a33d 7e52 ae3d 320b 2fbe 06cc d73d
000000c0: 5aa7 2dbe 2cf4 1dbe a111 f0bd 7258 ae3d
000000d0: 97a5 88bd bec6 0d3e 32b5 db3d 07d9 da3d
000000e0: 5276 b9bd 4c42 52bc e184 17be 2f29 c3bc
000000f0: 636e 9d3d e31c 56bd 87e7 e33d 47ac 1a3e
00000100: 031c 92bd 4fd8 533c 4693 b83d a584 243b
00000110: 3d8b fabc 646c f73d 21d6 19be 9c2e c1bd
00000120: fc83 35bd 36e4 243e 2db2 3cbe f202 d5bd
00000130: 716d d7bd 6fc0 74bd f583 2cbe 2859 10be
00000140: 05bc f03c f10b 103e 31c7 c13c 5fb8 493d
00000150: de9e 133e b3af b7bc c5f3 b53d ffa7 fbbb
00000160: 28cc c6bd a1a3 9e3d 06d6 423d dba4 4a3b
00000170: 1db4 e53d f929 7e3d d62e 873d 0a01 a2bd
00000180: 4588 ebbc 8711 b3bd 9516 43bd bb8c f9bc
00000190: 5f87 af3d 9219 46bb 7c20 ae3c 790b acbd
000001a0: 3e5f e63c c72e 02bd 15ec a83d ca10 46bc
000001b0: b196 1a3d f360 b0bb 488f d23d e9ec fabd
000001c0: dc6f 553d 57c6 1bbe 1054 7bbd e2cb e7bd
000001d0: e5dd eabc 74c2 363d 718c a7bd 5b84 3bbd
000001e0: 9d31 20bd eb99 62bd d3ef 1fbd 1b57 143e
000001f0: 08ea 10be 15d4 0ebd 8819 063d d41f 99bd
00000200: b26d b13d 7402 173e 07a3 75be 2cce d7bd
00000210: d82b df3d 663a 5c3d ca1d 53be b03b 5b3e
00000220: d3f5 b7bc dce1 87bd 9d22 333e 1fa3 323e
00000230: 3452 ac3d 37a6 98bd 3955 ad3c c971 85bd
00000240: d36d bebd a06a 9a3c 5ea7 dc3d 9456 05bc
00000250: 80f9 853d 7ffe ea3d 1828 f03c 521a 983c
00000260: b85d 6a3d caac 00be 3a6f 293d ce2c 8e3d
00000270: 6b79 22be 01b2 3c3d 3146 11be 6150 e7bd
00000280: b8b6 d9bd a0ab 80bd 9a06 de3d c394 4ebd
00000290: 0be2 0a3d 4a8f d1bd 9369 c0bd f0c0 42be
000002a0: 9542 fe3d 36b1 07be 4cd3 18be 5682 c3bd
000002b0: 31d3 3fbe 64e9 aebd a5e3 9a3d fb48 473d
000002c0: 3b27 efbd d5a7 863d 5d4e 643d b5d5 88bc
000002d0: 9b98 f43d 9869 293e 6dc8 fb3d c3b2 0fbe
000002e0: 8b17 3e3d 844c 16be 921a f4bd 28b1 0c3e
000002f0: 1e85 aa3c 8867 2abe 5f12 c1bd 76ce f13d
00000300: d578 cabd bf29 dc3d d643 b4bd 4716 153e
00000310: 7e91 793d 885b a93d bfcf 573e b12b d7bd
00000320: 8914 2e3e 4438 773d e6d5 7b39 348e c3bd
00000330: 16b5 9d3c 00cb 783d b7e9 313e 3771 353d
00000340: 4ce0 b93d 15ae 20be 70d7 c3bd 30f2 703c
00000350: b81b 22be 5fcb 453b 1278 abbd d8d4 783d
00000360: a0bb 02be 18ad 34bd 49f7 733d 744a 2fbd
00000370: f26f 3abd e865 fb3d 7e6d 163e d263 993d
00000380: 7162 5eba 194c 88bd 8ae9 05be 5479 793d
00000390: c9d3 40bd b100 61bc 56e8 adbd be84 003e
000003a0: cbf7 1bbe 3ba8 e0bd d179 183e d45e b03c
000003b0: 0a22 5f3a 5d7f c13d aa7f 343c be02 65bc
000003c0: 75ef 863d 0ae8 823d 1e73 27be ca84 3abc
000003d0: 6286 bdbd 4cb1 2f3e a5a2 273d 74fb 6c3c
000003e0: 0d27 113e 0868 dabc 738f 113e 6e17 acbd
000003f0: 35eb 033d d8d6 083e 2afa 9cbd 002d 4ebb
-0.13138428 -0.105164915 -0.17524123 0.14693928 0.16682824 0.14576252 0.1356746 -0.034585834
-0.08470447 -0.06631698 -0.019534742 0.1798497 0.04903405 0.04621231 0.11063277 -0.015468526
-0.13452236 -0.07558373 -0.12142119 0.10071451 -0.036657073 0.010223382 -0.051737208 0.011469477
0.202044 0.033635568 -0.041178506 0.1370999 -0.09882886 0.04293979 -0.15270056 0.022979299
-0.18189394 0.037058834 -0.023123315 0.01764588 -0.14363195 0.13553278 0.23433848 0.11372379
-0.15055633 -0.09464111 -0.08248891 0.053491887 0.07985364 0.08511828 -0.17094114 0.10536961
-0.16958371 -0.15425175 -0.117221124 0.08512963 -0.06672209 0.13845345 0.1072792 0.10685926
-0.09055771 -0.012833189 -0.14796783 -0.023823349 0.0768707 -0.052273642 0.11128145 0.15104781
-0.07134249 0.01292999 0.09012465 0.0025103476 -0.030583972 0.12081221 -0.1502309 -0.09432718
-0.044315323 0.1610268 -0.18427344 -0.104009524 -0.10518921 -0.05975383 -0.16847213 -0.1409651
0.02938653 0.14067055 0.023654552 0.049248096 0.14416072 -0.022422647 0.08884386 -0.007679939
-0.097069085 0.077460535 0.04756739 0.0030921015 0.112159945 0.062051747 0.0660073 -0.079103544
-0.028751502 -0.087435775 -0.047628958 -0.030462613 0.08570742 -0.0030227643 0.021255724 -0.08400626
0.028121587 -0.03178289 0.08248154 -0.012088964 0.037741367 -0.005382651 0.10281235 -0.12252218
0.05210863 -0.1521238 -0.061359465 -0.113181844 -0.02867026 0.04461904 -0.08181084 -0.04578052
-0.039109815 -0.05532257 -0.039047074 0.14486353 -0.14151776 -0.034870226 0.032739192 -0.07476774
0.08663501 0.1474703 -0.23987971 -0.10537371 0.108970344 0.05376663 -0.20616832 0.21409488
-0.022456085 -0.06634876 0.17493673 0.17445038 0.084141165 -0.07453578 0.021158801 -0.065158434
-0.09298291 0.01884967 0.1077411 -0.008138318 0.06541729 0.114743225 0.029315993 0.018567238
0.057218283 -0.12565914 0.04136584 0.069421396 -0.1586663 0.046068195 -0.14186932 -0.11294628
-0.10630554 -0.06282735 0.10841103 -0.05043484 0.033906978 -0.10232408 -0.09395137 -0.19018912
0.12415043 -0.13251194 -0.14924353 -0.09546344 -0.18732907 -0.085406095 0.07562951 0.048653584
-0.116774045 0.0657498 0.055738796 -0.016703466 0.1194317 0.16544187 0.122940876 -0.14033036
0.04640917 -0.14677626 -0.119191304 0.13739455 0.020815428 -0.16641057 -0.09427332 0.118069574
-0.09886328 0.1075015 -0.08802001 0.1455928 0.060929768 0.08269411 0.21075343 -0.1050638
0.17000021 0.060356393 0.00024016909 -0.095486075 0.019251388 0.06074047 0.17374311 0.044297423
0.09075984 -0.15691407 -0.09562576 0.0147061795 -0.15830886 0.0030181033 -0.08372511 0.06074986
-0.12766886 -0.044110388 0.059562 -0.042795613 -0.045516916 0.122752964 0.14690205 0.07489742
-0.0008483297 -0.066551395 -0.1307737 0.060906723 -0.047076974 -0.013733075 -0.0849158 0.12550637
-0.15231244 -0.109695874 0.1489022 0.021529593 0.0008511847 0.09448121 0.011016766 -0.013977705
0.065886416 0.06391914 -0.16352507 -0.011384198 -0.09254147 0.17157477 0.040926594 0.014464248
0.14175053 -0.026660934 0.14214878 -0.08402906 0.032206733 0.13363206 -0.076649025 -0.0031459928

fc4.bias f4 [10]
00000000: faaf a4be 6d72 c9bd 077b 6abe 3f64 9a3e
00000010: 0909 afbe b401 9a3c cd59 eebd 282a df3e
00000020: f008 f5bc 3b8b c83e
-0.3216551 -0.09836278 -0.22898494 0.30154607 -0.3418658 0.01879964 -0.11638222 0.4358685
-0.029911488 0.39168724

fc5.weight f4 [1, 10]
00000000: d83a c4bd 6947 26bd 0470 d9bd 8c63 3a3e
00000010: 3661 7fbc b871 52bb 02c3 a0bd ad10 0a3e
00000020: 5130 6e3c 9b1e 133e
-0.09581536 -0.040595446 -0.106170684 0.18202037 -0.015587142 -0.0032111239 -0.07849695 0.13482924
0.014537887 0.14367144

exp_avg f4 [30, 30]
00000000: 4a43 5a39 f80b b6b6 8bea 003c e55b be35
00000010: cc1f 18b8 76f3 4bb7 55e0 82b6 dc0f 3a37
00000020: cb8d 2db5 9538 5bb9 fb08 0637 0b8b 0237
00000030: 5803 d3b7 4ddf 4937 4dc1 9bb7 7071 963c
00000040: b9cb 773c 25f5 9eb6 e159 39b7 a22b d637
00000050: 2fc0 b6b4 62e4 6237 9629 5637 acf4 b638
00000060: bb3b 4837 40c3 d3b3 d452 ac38 74cf 4b38
00000070: b483 8637 725a a338 6933 a638 37e4 7f36
00000080: 2396 b83b 291b 9f36 97fe 9038 a4da b037
00000090: d94a 2436 4073 dfb6 4d02 ce36 b835 8539
000000a0: d098 5d36 b099 58b6 1cba 8a37 1a14 7a37
000000b0: 4dda 1037 c77b 18bb 7c54 a43d c6eb e237
000000c0: 8adc 8a36 aa54 7738 3e9e ce35 b73d 87b6
000000d0: d333 93b5 af3b 3ab7 578a 7236 d2d0 9936
000000e0: 8811 d6b7 3f82 c8b7 4217 49b7 c4cd 13b8
000000f0: 0000 0000 0000 0000 0000 0000 0000 0000
00000100: 0000 0000 0000 0000 0000 0000 0000 0000
00000110: 0000 0000 0000 0000 0000 0000 0000 0000
00000120: 0000 0000 0000 0000 0000 0000 0000 0000
00000130: 0000 0000 0000 0000 0000 0000 0000 0000
00000140: 0000 0000 0000 0000 0000 0000 0000 0000
00000150: 0000 0000 0000 0000 0000 0000 0000 0000
00000160: 0000 0000 0000 0000 c00a 0e39 d269 03b7
00000170: 030d e2ba a90e 65b6 9e9a 94b8 acf1 0836
00000180: d3d0 3fb6 2c50 b036 8daf 2936 c4ee 8eb8
00000190: bdf7 2f37 0547 8d36 8047 01b8 87d0 a136
000001a0: e1f4 3bb7 e327 393c 0f58 cf3c 0ba3 ea37
000001b0: 086e bcb6 10ff 3eb7 7ead 07b6 bc4c 0d37
000001c0: ec0f d236 d4e3 6738 e4a1 31b5 23be 4635
000001d0: 7625 1a38 5c34 0238 a6ad a437 0768 ef37
000001e0: 86fb 3639 3305 6bb5 9dad d23c 35a9 8836
000001f0: 37af f138 383f f036 6698 b637 a154 ab37
00000200: 798d d935 36e4 fb39 89d6 ce36 ce1f 6a35
00000210: 8e6b 6238 0f41 acb6 3cc7 9d37 b91a d33c
00000220: fe6e e13d 9a90 9937 6813 0e36 02cd e838
00000230: a935 e135 eced 1b37 daed 8a36 4143 cd37
00000240: 2876 6037 a3a5 3e37 5449 7a38 914b 1c38
00000250: 37dc 6d38 18e7 3737 bde6 7b38 579e 8e32
00000260: 5243 603c 2159 b635 ec23 6238 1259 4736
00000270: d960 bbb6 2974 3b36 967c 8db4 d8be 20b8
00000280: 7249 a636 93ba aa35 1683 ec36 e2e0 b036
00000290: 2ac2 b7b5 35ec 063c 91da 9bbc ed6c 22b5
000002a0: b601 b4b5 1e8d ef37 d1e1 be34 ac1c bd36
000002b0: 993e 0e37 c989 c336 7bd6 8036 1b9d 5e36
000002c0: cee4 1338 99d7 6e37 8070 e937 486b a737
000002d0: 5757 54b7 57fb e736 cff9 f73b 0cb5 3536
000002e0: d196 2036 bd6d 5cb6 395c e4b5 a220 ffb5
000002f0: 0820 2bb4 311c 8839 fb48 1eb6 4afc 5035
00000300: ea7a 0cb7 20b4 3036 1d26 f7b3 5ff9 033c
00000310: 0aee 1abd 6ac0 41b7 5976 c936 7438 1b37
00000320: 2086 efb4 5181 3237 f86c 1432 8f72 9a37
00000330: b94e 0337 cca6 80b4 da31 1b38 02ed 73b6
00000340: 9052 9837 cd5a dc36 0b50 a9b8 64db 8cb6
00000350: fe4e 6cbb 6107 4b37 dc5a d7b7 7c87 1e37
00000360: 8f44 0db7 3a05 2337 aed7 aa34 a8ef 9cb8
00000370: bf58 3935 fd00 c036 082a 35b7 232a d7b5
00000380: ac03 26b7 c2f8 933c f156 57bd f5ca e1b7
00000390: f38a 43b7 1581 2cb8 59c8 beb4 3c52 f5b6
000003a0: a0cb 4f37 327b 6338 23bf ddb6 75fe d935
000003b0: 5739 5a38 6db5 1f38 4b04 3337 e988 1b38
000003c0: 0000 0000 0000 0000 0000 0000 0000 0000
000003d0: 0000 0000 0000 0000 0000 0000 0000 0000
000003e0: 0000 0000 0000 0000 0000 0000 0000 0000
000003f0: 0000 0000 0000 0000 0000 0000 0000 0000
0.00020815167 -5.425416e-06 0.007868419 1.4182848e-06 -3.6269237e-05 -1.2156428e-05 -3.9004176e-06 1.10901565e-05
-6.465386e-07 -0.00020906546 7.989113e-06 7.780977e-06 -2.5154717e-05 1.2032525e-05 -1.8567453e-05 0.018364638
0.015124255 -4.7373055e-06 -1.1047786e-05 2.5531106e-05 -3.4039974e-07 1.3523824e-05 1.27650765e-05 8.72401e-05
1.1934836e-05 -9.860969e-08 8.217027e-05 4.8592177e-05 1.6035374e-05 7.7892924e-05 7.925073e-05 3.81308e-06
0.005633132 4.741731e-06 6.913876e-05 2.1082647e-05 2.4481471e-06 -6.6593348e-06 6.1395463e-06 0.0002540776
3.3020515e-06 -3.2275966e-06 1.6537546e-05 1.4905841e-05 8.633896e-06 -0.0023267136 0.080239266 2.705109e-05
4.1383946e-06 5.896824e-05 1.539425e-06 -4.030498e-06 -1.0967436e-06 -1.110036e-05 3.6141334e-06 4.584065e-06
-2.5518952e-05 -2.3902508e-05 -1.1985949e-05 -3.5239165e-05 0.0 0.0 0.0 0.0
0.0 0.0 0.0 0.0 0.0 0.0 0.0 0.0
0.0 0.0 0.0 0.0 0.0 0.0 0.0 0.0
0.0 0.0 0.0 0.0 0.0 0.0 0.0 0.0
0.0 0.0 0.0001354618 -7.832847e-06 -0.001724631 -3.4132192e-06 -7.08599e-05 2.040625e-06
-2.858277e-06 5.254542e-06 2.5285146e-06 -6.815561e-05 1.0488494e-05 4.210395e-06 -3.0822586e-05 4.8224497e-06
-1.1203084e-05 0.011301014 0.025310544 2.7970897e-05 -5.615646e-06 -1.1384269e-05 -2.0217553e-06 8.422121e-06
6.2603413e-06 5.5286873e-05 -6.617322e-07 7.4037433e-07 3.675135e-05 3.104318e-05 1.9631185e-05 2.8539462e-05
0.00017450572 -8.755189e-07 0.02571755 4.072814e-06 0.00011524412 7.159917e-06 2.1767057e-05 2.0424197e-05
1.6208934e-06 0.0004804448 6.1642536e-06 8.7218075e-07 5.3982767e-05 -5.1335733e-06 1.8808634e-05 0.025769578
0.11007498 1.8306357e-05 2.1170945e-06 0.00011100808 1.6779424e-06 9.294115e-06 4.14041e-06 2.4469222e-05
1.3378951e-05 1.1363448e-05 5.9672937e-05 3.7263675e-05 5.6710294e-05 1.0961456e-05 6.0057955e-05 1.660298e-08
0.013687925 1.3585997e-06 5.3916054e-05 2.9705157e-06 -5.584309e-06 2.7932786e-06 -2.6353945e-07 -3.832471e-05
4.9557357e-06 1.2720287e-06 7.0486085e-06 5.2713885e-06 -1.3691072e-06 0.008235027 -0.019025119 -6.050821e-07
-1.3411543e-06 2.8556733e-05 3.555456e-07 5.635977e-06 8.478434e-06 5.827493e-06 3.839666e-06 3.3172025e-06
3.5260622e-05 1.4236103e-05 2.7828151e-05 1.9957908e-05 -1.265652e-05 6.9135963e-06 0.0075676213 2.7076485e-06
2.3929645e-06 -3.284643e-06 -1.7014164e-06 -1.9008478e-06 -1.5937269e-07 0.00025960946 -2.3586315e-06 7.7853167e-07
-8.373268e-06 2.633089e-06 -1.15087666e-07 0.00805506 -0.037824668 -1.1548496e-05 6.0040443e-06 9.251864e-06
-4.4614808e-07 1.0639736e-05 8.63951e-09 1.8411576e-05 7.8265375e-06 -2.396322e-07 3.7001308e-05 -3.6347778e-06
1.8158258e-05 6.5670815e-06 -8.073457e-05 -4.1978656e-06 -0.0036057825 1.2101461e-05 -2.5672307e-05 9.449079e-06
-8.4202175e-06 9.716774e-06 3.1821895e-07 -7.483299e-05 6.9047013e-07 5.722161e-06 -1.0798227e-05 -1.6031012e-06
-9.895226e-06 0.018062953 -0.05257315 -2.69166e-05 -1.1655257e-05 -4.1128213e-05 -3.553603e-07 -7.3111423e-06
1.2385572e-05 5.4235752e-05 -6.6085645e-06 1.6241817e-06 5.2028652e-05 3.807752e-05 1.0670231e-05 3.7082387e-05
0.0 0.0 0.0 0.0 0.0 0.0 0.0 0.0
0.0 0.0 0.0 0.0 0.0 0.0 0.0 0.0

exp_avg_sq f4 [30, 30]
00000000: 9fcc 9435 051d 7930 3b63 913c b845 2731
00000010: 06db 2534 e3d5 7c31 d72a d731 7f7c 5b31
00000020: f7bc 1030 9ca8 8936 0144 5531 1616 2530
00000030: a9c1 da32 31d6 6531 4b3b 0531 cfa3 963c
00000040: 1c10 553e 9278 4832 16f2 d72f 8926 6a34
00000050: 9bd7 162f e144 6931 f102 a330 124e a233
00000060: 5ca0 0c32 d0d0 5231 bd9b 1333 c002 8c32
00000070: c6bc 0b32 1828 9032 d52d 0336 5791 c830
00000080: 9ab4 c73c 30e4 7731 0129 8834 ec4f d931
00000090: b974 1532 b7ea 9531 8bb9 6f30 d8e8 d036
000000a0: 9e58 9e31 706b 1831 8e43 2b33 733a b731
000000b0: 4dff 4431 f922 863d 8c2e a73e 545a a232
000000c0: b59d 0c30 0cf0 be34 fadb 4b2f 80dd ad31
000000d0: 6d7f e530 98f0 6134 ad04 5a32 20a6 b731
000000e0: 3cfb c733 8257 1933 0aaa 9032 cbaf 0b33
000000f0: 0000 0000 0000 0000 0000 0000 0000 0000
00000100: 0000 0000 0000 0000 0000 0000 0000 0000
00000110: 0000 0000 0000 0000 0000 0000 0000 0000
00000120: 0000 0000 0000 0000 0000 0000 0000 0000
00000130: 0000 0000 0000 0000 0000 0000 0000 0000
00000140: 0000 0000 0000 0000 0000 0000 0000 0000
00000150: 0000 0000 0000 0000 0000 0000 0000 0000
00000160: 0000 0000 0000 0000 e736 8d35 a973 7b30
00000170: d79b 483c a24a 0931 add8 2134 2633 8331
00000180: 694b 9831 11bb 3331 bc33 0430 ed91 7a36
00000190: af81 1731 6d42 3c30 549b dc32 ea40 7d31
000001a0: 39b4 f030 a7b9 ca3c a880 9e3e c569 3b32
000001b0: 1925 d22f 0a3a 4e34 953c f02e 593c 3e31
000001c0: 1d12 8230 aeb2 a833 dbf7 0132 768d 3931
000001d0: 4ec3 1533 4de0 8b32 339b 0632 feb7 7232
000001e0: a9f2 0936 ca5b aa30 4e77 d43c 7ebc 8031
000001f0: ff82 6734 cdbb c231 a5d6 2732 c7f5 c131
00000200: a82c 6a30 9ca4 dc36 bba9 9e31 458a 2a31
00000210: ad1c 2733 f6e6 c031 df4e 4231 8520 923d
00000220: d7d5 ac3e 9c6d b332 b3f4 2030 4c5a c034
00000230: 6c34 422f 39fa c631 ca00 eb30 c3ab 7034
00000240: 4c14 5b32 78bf 9f31 d61b ef33 082e 1c33
00000250: 6e2e d132 16d8 1333 9c8a d335 ca3e 9d30
00000260: 8e06 a13c d838 4431 cacc 6534 9ffa ad31
00000270: 588f 1432 1a92 7931 3e7d 4030 559c b236
00000280: 717e 8831 e851 1331 51c9 1733 76cc 9631
00000290: 02d7 4031 d424 6c3d 4ec1 953e 8b89 8b32
000002a0: 6da3 d72f bf2e 9c34 4cc3 1a2f e572 a231
000002b0: 2f91 9e30 5e62 3434 4b22 1832 dae1 8031
000002c0: 51ba d133 1ebb 0a33 501c 9932 00fd f932
000002d0: 21a2 a135 63fa 6830 1372 693c 5493 2a31
000002e0: 1e5d 3434 0a78 6331 23db c331 5a1c 5931
000002f0: f1c3 2030 5032 8936 245e 4731 cc82 b330
00000300: fd48 c132 f649 6f31 9367 e430 923b 1a3d
00000310: e9a1 733e e157 4432 8a82 be2f 1953 6134
00000320: 35ec f22e d8b7 7831 1dc7 a430 8728 ee33
00000330: 672b 0332 d1a3 4e31 6c91 8333 54db a432
00000340: 4749 4432 659e af32 c905 db35 dab7 a530
00000350: c310 9a3c b2a0 6e31 9c19 8234 2a83 aa31
00000360: f91f 1832 b836 9b31 5492 3430 a499 c536
00000370: 04c6 9631 1153 9430 3411 0d33 740e a931
00000380: cd78 3a31 1b85 0c3d 51d1 b33e 655b 7f32
00000390: f230 2830 c033 a034 852b 3b2f b646 9c31
000003a0: 7a34 cb30 5f7c f233 b6df 3232 7c82 9431
000003b0: a675 6733 e001 dc32 eb09 4b32 9a19 d032
000003c0: 0000 0000 0000 0000 0000 0000 0000 0000
000003d0: 0000 0000 0000 0000 0000 0000 0000 0000
000003e0: 0000 0000 0000 0000 0000 0000 0000 0000
000003f0: 0000 0000 0000 0000 0000 0000 0000 0000
1.1086412e-06 9.062691e-10 0.017747512 2.434133e-09 1.5446503e-07 3.6792407e-09 6.262194e-09 3.1939462e-09
5.265543e-10 4.102547e-06 3.1034235e-09 6.0058036e-10 2.5466607e-08 3.344564e-09 1.9387751e-09 0.018388657
0.20806926 1.1668947e-08 3.9280285e-10 2.1806967e-07 1.3719019e-10 3.3945116e-09 1.1860647e-09 7.557914e-08
8.185534e-09 3.0677718e-09 3.4367748e-08 1.6299396e-08 8.133787e-09 1.6782039e-08 1.95472e-06 1.4593223e-09
0.02437811 3.607294e-09 2.5361808e-07 6.3246173e-09 8.699481e-09 4.3631547e-09 8.7211366e-10 6.2259896e-06
4.60848e-09 2.2179982e-09 3.987548e-08 5.332646e-09 2.8666876e-09 0.06549639 0.326527 1.8900359e-08
5.115582e-10 3.5564915e-07 1.8540894e-10 5.0601443e-09 1.669816e-09 2.1042285e-07 1.2690333e-08 5.344887e-09
9.312359e-08 3.5702676e-08 1.6841131e-08 3.2523342e-08 0.0 0.0 0.0 0.0
0.0 0.0 0.0 0.0 0.0 0.0 0.0 0.0
0.0 0.0 0.0 0.0 0.0 0.0 0.0 0.0
0.0 0.0 0.0 0.0 0.0 0.0 0.0 0.0
0.0 0.0 1.0521297e-06 9.147763e-10 0.012244186 1.9978548e-09 1.507312e-07 3.8184167e-09
4.4323554e-09 2.6154263e-09 4.809484e-10 3.7337843e-06 2.2047109e-09 6.84884e-10 2.5682006e-08 3.6853245e-09
1.7513521e-09 0.024746729 0.30957532 1.0908882e-08 3.8225137e-10 1.920636e-07 1.0924698e-10 2.7682943e-09
9.463893e-10 7.855611e-08 7.565144e-09 2.7001454e-09 3.4869394e-08 1.628373e-08 7.835115e-09 1.4128089e-08
2.0555838e-06 1.2395216e-09 0.025935795 3.7467194e-09 2.1561208e-07 5.6674936e-09 9.769484e-09 5.644981e-09
8.5192164e-10 6.575674e-06 4.6177013e-09 2.4816853e-09 3.8908798e-08 5.6141927e-09 2.8275549e-09 0.07135109
0.33756897 2.0888187e-08 5.85554e-10 3.5828486e-07 1.7662821e-10 5.7910055e-09 1.7098725e-09 2.2414228e-07
1.2752093e-08 4.6492765e-09 1.1134368e-07 3.6363446e-08 2.4351916e-08 3.4422634e-08 1.5761066e-06 1.1441099e-09
0.019656446 2.8554066e-09 2.1401789e-07 5.063455e-09 8.647326e-09 3.6317318e-09 7.0027173e-10 5.323013e-06
3.9724957e-09 2.1437874e-09 3.5340523e-08 4.388819e-09 2.8061895e-09 0.05765231 0.29249042 1.6244277e-08
3.9224393e-10 2.9091277e-07 1.4075602e-10 4.7278825e-09 1.1537277e-09 1.6799592e-07 8.855362e-09 3.7509666e-09
9.766212e-08 3.230081e-08 1.782442e-08 2.9102466e-08 1.204262e-06 8.475693e-10 0.014248389 2.4822002e-09
1.6797682e-07 3.3101082e-09 5.70016e-09 3.1593772e-09 5.848611e-10 4.0887753e-06 2.9011824e-09 1.3061139e-09
2.2501348e-08 3.482112e-09 1.6618621e-09 0.037654467 0.23792233 1.1428683e-08 3.4653552e-10 2.0984989e-07
1.1046845e-10 3.6193253e-09 1.1989162e-09 1.10901105e-07 7.635072e-09 3.0070064e-09 6.126615e-08 1.9191852e-08
1.1425363e-08 2.044471e-08 1.6318455e-06 1.2057584e-09 0.01880682 3.4724903e-09 2.423302e-07 4.962563e-09
8.854834e-09 4.5173145e-09 6.5691563e-10 5.8889436e-06 4.3880863e-09 1.0792026e-09 3.2844767e-08 4.9201905e-09
2.713523e-09 0.034306627 0.35120633 1.4863734e-08 6.11876e-10 2.9839975e-07 1.7023012e-10 4.5482365e-09
1.4785109e-09 1.1291626e-07 1.041183e-08 4.3222013e-09 5.389088e-08 2.5612223e-08 1.181841e-08 2.422603e-08
0.0 0.0 0.0 0.0 0.0 0.0 0.0 0.0
0.0 0.0 0.0 0.0 0.0 0.0 0.0 0.0

exp_avg f4 [30]
00000000: 7134 53b5 7ad5 7e36 0000 0000 7890 edb4
00000010: 2728 f936 9079 b435 4b50 0535 6c45 00b6
00000020: 0000 0000 0000 0000 2eb5 d8b4 f4e3 1c35
00000030: ef2b c635 3e92 9334 3d88 89b6 e1a9 1f36
00000040: 8c2d 1eb6 0400 0000 2f11 44b5 e628 7836
00000050: 0000 0000 0d18 dbb5 dd3c 3136 0000 0000
00000060: 0796 99b5 0400 0000 e6a7 2ab7 e360 9234
00000070: 0000 0000 3fe8 a235
-7.867994e-07 3.797321e-06 0.0 -4.4249805e-07 7.4254526e-06 1.3446424e-06 4.96632e-07 -1.9113895e-06
0.0 0.0 -4.036496e-07 5.8446244e-07 1.4764936e-06 2.748729e-07 -4.0987784e-06 2.3791729e-06
-2.3570346e-06 6e-45 -7.3040695e-07 3.6978686e-06 0.0 -1.6323771e-06 2.6410482e-06 0.0
-1.1443052e-06 6e-45 -1.01718815e-05 2.7265114e-07 0.0 1.2137533e-06

exp_avg_sq f4 [30]
00000000: c032 6e30 1ff2 c430 0000 0000 0247 6130
00000010: 1f71 c730 87a8 9e30 1c62 7730 689d a930
00000020: 0000 0000 0000 0000 265b 6d30 a828 f230
00000030: efc8 9d2f d018 262f 54d3 be30 ec48 2531
00000040: 497e ec30 d9be a310 acc6 4e2f 4016 1231
00000050: 0000 0000 9d0a d12f ab50 8730 0000 0000
00000060: 0125 e430 ad22 ae2c 2df2 8730 bba1 a130
00000070: 0000 0000 5eb2 9930
8.6656016e-10 1.4329692e-09 0.0 8.195543e-10 1.4511307e-09 1.1543911e-09 8.99975e-10 1.2341106e-09
0.0 0.0 8.634963e-10 1.7619373e-09 2.8700906e-10 1.5106427e-10 1.3884383e-09 2.4052111e-09
1.7207152e-09 6.458621e-29 1.8806173e-10 2.1258444e-09 0.0 3.802442e-10 9.84547e-10 0.0
1.65997e-09 4.9492272e-12 9.891373e-10 1.1760258e-09 0.0 1.118291e-09

exp_avg f4 [30, 30]
00000000: bdf5 79bb cb1e 133c 0000 0000 90b2 dbb9
00000010: 4564 893c dd2d c63b 257b 8c3b da4a 2abb
00000020: 0000 0000 0000 0000 1fe6 243b 86df 5ab9
00000030: fab2 a338 f0cf 1225 4d01 6439 d7a6 473b
00000040: 6767 9139 0000 0000 ea66 df3a dd94 953b
00000050: 0000 0000 7449 5439 deaa 02bc 0000 0000
00000060: 4622 0c3d 0400 0080 bf71 49bb 8668 493b
00000070: 0000 0000 85c4 62bc eeea 4fbc 1e4d a0bc
00000080: 0000 0000 a794 46bc be90 74bc f467 313a
00000090: f7e9 5bbc c1af 2ebc 0000 0000 0000 0000
000000a0: 911e c3b4 3a7c 4237 e79b 3f2e 9fc9 35a6
000000b0: 6cb6 2bbc 832b 88bb 0118 acb6 0000 0000
000000c0: 47dd 8db0 7985 c3bb 0000 0000 f654 ad2e
000000d0: 5cd1 dfbc 0000 0000 aaf5 9ebc 0400 0080
000000e0: a1d6 99ba a754 5dbc 0000 0000 833e acbc
000000f0: 599f af3b 8e6b 4d3c 0000 0000 d12b 73bb
00000100: 4ba6 94bb 6e54 66ba 50d1 2ebb f277 b63a
00000110: 0000 0000 0000 0000 33b4 3eba 39f5 b83a
00000120: 221f 0638 2faa ddb9 1401 f5ba dff5 df3b
00000130: 4b5c 00ba 0400 0080 8038 72ba 1b02 40bb
00000140: 0000 0000 9432 073a 66d2 303c 0000 0000
00000150: abd1 aa3b 0400 0080 e746 d5b9 d5a2 8d39
00000160: 0000 0000 d929 02bc a760 02bc d226 ceba
00000170: 0000 0000 1dd8 bfba 9b88 adbc 5ecb f639
00000180: 1d63 48bb 6ddc c7bb 0000 0000 0000 0000
00000190: 2107 89b9 48af acba 54bf c2b9 fcb5 22ba
000001a0: 52ff deba d087 bbba 3218 78ba 0400 0080
000001b0: 588a f038 c948 79bb 0000 0000 ab3c 1fbb
000001c0: 8ae7 6fbc 0000 0000 f2fd c8bb 0400 0000
000001d0: d843 31ba 9be1 dbbb 0000 0000 8cd0 193b
000001e0: 4e47 ccba 9f33 10bd 0000 0000 0024 cf3b
000001f0: fe6a 61bc 6295 9abc 14f1 56bb 0d77 893b
00000200: 0000 0000 0000 0000 6306 94bb 8f69 46ba
00000210: d18f d4ba e492 553a f338 0f3b 87e9 a2bc
00000220: 4554 31bc 0400 0000 23e0 47bb 2010 2e3b
00000230: 0000 0000 3024 e538 adf8 d8ba 0000 0000
00000240: 39d6 bdbc 0400 0000 7130 e83a 91b2 b23b
00000250: 0000 0000 1d93 403b 3172 1938 e82d 893a
00000260: 0000 0000 042a c3b8 9cce 603a 7e5f 5b3a
00000270: f6af 8c37 ef1e 97b8 0000 0000 0000 0000
00000280: c1a2 0939 d1bb 6329 2e3c 9e39 0400 0000
00000290: 5203 03b9 2955 2a3a 678c 423a 0000 0000
000002a0: 794f 443a 162a 79b8 0000 0000 1592 3739
000002b0: a0f3 e430 0000 0000 277e 82ac 0000 0000
000002c0: 7799 36b8 c964 d8b8 0000 0000 7e56 1eb9
000002d0: 6adb dc3a 7aa3 113b 0000 0000 4c59 f437
000002e0: fc94 ff3b eb08 afb9 777d 173a 711f c137
000002f0: 0000 0000 0000 0000 ce6b f03a 6e60 0e3a
00000300: 9dd0 473a 0d3d 6c38 bb07 f038 e232 c93b
00000310: 9628 813b 0000 0000 03ec 45b9 74ac 7c39
00000320: 0000 0000 b161 5d3a 4507 0a3b 0000 0000
00000330: 050d a537 0000 0000 6381 8137 2a2c 153a
00000340: 0000 0000 dc31 0bb8 73d9 52bb 550e 49bc
00000350: 0000 0000 0235 a030 8b64 e0bb 1a97 bcbb
00000360: 4144 37bb d936 97b5 0000 0000 0000 0000
00000370: dc57 bbbb c905 8cba b936 34ba ed03 9bb9
00000380: 06a5 86b6 a054 35bc fe01 d3bb 0400 0000
00000390: 4bf2 1bbb c6cc 98b6 0000 0000 827c 45bb
000003a0: edc0 91ba 0000 0000 b279 93bc 0000 0000
000003b0: 0400 0080 41eb a8b7 0000 0000 6360 44b9
000003c0: 5138 cfbc bd7b 05bd 0000 0000 a280 9cbb
000003d0: 8133 25bc 0ca1 723b 8fbb 53bc dfc0 46bc
000003e0: 0000 0000 0000 0000 b596 f5ba e517 c1ba
000003f0: 12f3 c43a 0bb3 6db9 4309 7ebc cfbd b7bb
-0.0038140856 0.00897951 0.0 -0.00041903974 0.016771445 0.006047948 0.004287141 -0.0025984556
0.0 0.0 0.0025161577 -0.00020873369 7.805783e-05 1.2733933e-16 0.00021744259 0.0030464435
0.00027733596 0.0 0.0017044221 0.004564865 0.0 0.00020245259 -0.007975308 0.0
0.034212373 -6e-45 -0.0030737964 0.0030732467 0.0 -0.013840799 -0.012690289 -0.019568022
0.0 -0.012120402 -0.014927087 0.00067675044 -0.013422481 -0.01066202 0.0 0.0
-3.634382e-07 1.1592225e-05 4.356684e-11 -6.307024e-16 -0.0104805045 -0.0041555776 -5.128794e-06 0.0
-1.0321991e-09 -0.005966839 0.0 7.882221e-11 -0.02732151 0.0 -0.019404251 -6e-45
-0.0011736938 -0.013508952 0.0 -0.021025902 0.005359572 0.01253785 0.0 -0.0037104974
-0.004536425 -0.0008786385 -0.0026675053 0.0013921245 0.0 0.0 -0.00072747766 0.0014111168
3.1977084e-05 -0.000422792 -0.0018692338 0.00683473 -0.0004896565 -6e-45 -0.00092399865 -0.002929813
0.0 0.0005157378 0.01079235 0.0 0.0052129827 -6e-45 -0.00040679352 0.00027014935
0.0 -0.007944548 -0.007957614 -0.0015728122 0.0 -0.001463655 -0.021183303 0.00047072297
-0.0030576654 -0.006099275 0.0 0.0 -0.00026135988 -0.0013174796 -0.00037145114 -0.00062069274
-0.0017013347 -0.0014307443 -0.00094640546 -6e-45 0.0001146986 -0.0038037768 0.0 -0.0024297636
-0.014642606 0.0 -0.0061337883 6e-45 -0.00067621237 -0.006710244 0.0 0.002347025
-0.0015585215 -0.03520548 0.0 0.00632143 -0.013758419 -0.01887006 -0.0032797502 0.0041951
0.0 0.0 -0.004517363 -0.000756883 -0.0016217177 0.00081471936 0.0021854013 -0.019886745
-0.010823314 6e-45 -0.0030498586 0.0026559904 0.0 0.000109263114 -0.0016553603 0.0
-0.023173438 6e-45 0.0017714632 0.0054534157 0.0 0.0029384561 3.658439e-05 0.0010465952
0.0 -9.3061506e-05 0.0008575709 0.00083684165 1.6771239e-05 -7.206003e-05 0.0 0.0
0.00013125969 5.056703e-14 0.00030180946 6e-45 -0.0001249437 0.0006497675 0.0007421434 0.0
0.0007488649 -5.940542e-05 0.0 0.0001750666 1.6658426e-09 0.0 -3.708828e-12 0.0
-4.3535107e-05 -0.00010318455 0.0 -0.00015100275 0.0016850058 0.0022222684 0.0 2.9128649e-05
0.0077997427 -0.00033385245 0.00057788886 2.3022034e-05 0.0 0.0 0.0018342675 0.0005431239
0.00076223334 5.6323643e-05 0.00011445532 0.006140099 0.003941606 0.0 -0.00018875305 0.00024096837
0.0 0.0008445038 0.0021061462 0.0 1.9675595e-05 0.0 1.5438249e-05 0.000569048
0.0 -3.3186618e-05 -0.0032173067 -0.012271483 0.0 1.1656598e-09 -0.006847923 -0.0057553174
-0.0027964266 -1.126634e-06 0.0 0.0 -0.0057172608 -0.0010682876 -0.00068746094 -0.0002956683
-4.0127225e-06 -0.011067539 -0.0064394465 6e-45 -0.002379554 -4.5537918e-06 0.0 -0.0030134027
-0.0011120118 0.0 -0.018002365 0.0 -6e-45 -2.013671e-05 0.0 -0.00018727923
-0.025295408 -0.03258871 0.0 -0.0047760764 -0.01008308 0.003702226 -0.012923135 -0.012130945
0.0 0.0 -0.0018736931 -0.0014731853 0.0015026054 -0.0002266878 -0.015505138 -0.0056073437
