ch-04/logs/lightning_logs/version_6/checkpoints/epoch=19-step=4300.ckpt (torch, 668716 bytes, 18 tensors)

model.1.weight f4 [64, 784]
-0.013340902 0.017067416 -0.019531485 -0.039213993 -0.011426843 -0.047119275 -0.011604007 -0.038505167
0.0059688487 -0.017329784 -0.043103702 0.0022336203 -0.047424193 -0.024617894 -0.01887808 -0.017482562
0.015893865 -0.003412977 -0.025898438 0.009636987 -0.02269934 0.02086516 -0.022998178 0.0035012884
-0.046003275 -0.007217222 -0.026684513 -0.042927455 -0.041656934 -0.040512867 -0.03892637 0.007979562
0.0006214596 -0.008905825 0.013552401 -0.03195257 -0.00059627276 -0.008463071 0.021573437 -0.00050691736
0.0038087459 9.57301e-05 -0.017682116 0.0013086481 -0.00390599 -0.015901448 -0.0026608137 -0.048519343
0.010451468 0.00875596 -0.03078323 -0.015569783 -0.022384664 -0.008029918 -0.016897565 -0.024702515
-0.013216503 -0.01920567 0.0080881985 -0.0072421334 0.005287606 0.009558153 0.008180179 0.013687773
-0.014566487 -0.020673024 0.019135958 -0.033130456 0.021852154 -0.009925243 -0.017051458 0.0045350697
-0.049424242 -0.036895588 0.02737726 -0.01995183 -0.00991075 -0.034478415 0.01883011 -0.029710185
-0.04295876 0.0053302883 -0.019842781 -0.023749122 -0.013996842 0.0213829 -0.0018077475 -0.019612903
0.01069998 -0.025671897 0.00066088774 -0.010183984 -0.015312306 -0.0117534045 0.0061809327 0.038143948
0.08143373 0.032765716 0.029713903 -0.009839113 0.0068704 -0.012884348 -0.012877952 0.047356218
0.017637864 -0.0149634825 0.0038664588 -0.046612196 -0.0044511245 -0.0003555848 -0.04561126 -0.016055258
0.015967015 -0.02864553 -0.023112686 -0.029701946 0.022167355 -0.010889674 0.001550191 0.029214611
0.028228845 0.031061457 0.02200263 0.027730443 0.051537897 0.00025771465 -0.010979 -0.008104785
0.010947338 0.021189796 -0.007976243 0.008383385 -0.0030472677 0.0016978506 0.0019916052 0.025298411
-0.019817263 -0.0018223521 -0.010332248 -0.00456696 -0.01930094 -0.0044795917 -0.0029971837 -0.01900913
-0.014876636 0.0054836757 0.04684295 0.008872868 0.065744184 0.06274631 0.091463074 0.0335724
0.0441856 0.06732573 -0.0020661508 0.0007286211 0.012944228 0.027723245 0.009761955 0.01876743
-0.0022682732 0.034097582 0.02654967 0.053113315 -0.013120667 -0.0038099654 -0.04335324 -0.038501654
-0.04130094 -0.005279128 -0.0059532444 0.019120013 -0.018615304 0.030611092 0.057596996 0.044391252
0.021482494 0.07593953 0.10001478 0.035633676 0.030105555 0.008746602 0.021534244 -0.0047516525
-0.0003212274 0.006899641 0.035208657 0.034499053 -0.014608992 0.05162872 0.016834939 -0.001314656
-0.0067929854 -0.013876362 0.011498873 -0.009238561 -0.037051108 -0.01173983 -0.03665364 0.02604946
0.009963611 0.06589435 0.04723644 0.051602542 0.07025262 0.06352938 0.04834082 0.050421324
0.06375772 0.056874387 0.08244525 0.02296278 0.018578991 0.07806939 0.030911852 0.031624906
0.05410354 0.015493896 0.018078849 0.0006193167 -0.020018622 -0.027545026 0.0051281382 -0.030498266
-0.011532613 0.009798954 0.027104843 0.0325374 0.042015083 0.013173349 0.029784895 0.017113386
0.057731368 0.038244843 0.042869136 0.03759014 0.04500139 0.027859336 0.13035208 0.080387995
0.07343438 0.05907733 0.026312253 0.013528192 0.004904924 0.012235796 -0.0039814548 -0.017059948
-0.037929792 -0.040184863 0.0051831836 -0.011730761 -0.02928944 -0.027311303 -0.031658646 -0.022533514
00000000: cc93 5abc f7d0 8b3c 7e00 a0bc da9e 20bd
00000010: a737 3bbc 2400 41bd bc1e 3ebc 98b7 1dbd
00000020: 5596 c33b 31f7 8dbc 828d 30bd ee61 123b
00000030: df3f 42bd 77ab c9bc 34a6 9abc 9737 8fbc
00000040: da33 823c 41ac 5fbb f628 d4bc 74e4 1d3c
00000050: f7f3 b9bc 69ed aa3c ad66 bcbc df75 653b
00000060: ee6d 3cbd 727e ecbb 7b99 dabc b3d4 2fbd
00000070: 76a0 2abd d2f0 25bd 4271 1fbd b5bc 023c
00000080: 73e9 223a bde9 11bc e40a 5e3c b3e0 02bd
00000090: 304f 1cba b1a8 0abc c7ba b03c a6e2 04ba
000000a0: 279c 793b b5c2 c838 16da 90bc f286 ab3a
000000b0: a3fb 7fbb c143 82bc 0c61 2ebb 38bc 46bd
000000c0: a23c 2b3c 2875 0f3c 1d2d fcbc 6718 7fbc
000000d0: 0b60 b7bc eb8f 03bc c36c 8abc ee5c cabc
000000e0: 088a 58bc 3655 9dbc 5d84 043c 6b4f edbb
000000f0: a743 ad3b cd99 1c3c 2806 063c ae42 603c
00000100: 46a8 6ebc 795a a9bc 03c3 9c3c cdb3 07bd
00000110: 4a03 b33c 7d9d 22bc 80af 8bbc ec9a 943b
00000120: 1371 4abd d41f 17bd 4746 e03c 0572 a3bc
00000130: b360 22bc 3d39 0dbd 9a41 9a3c c662 f3bc
00000140: 86f5 2fbd b3a9 ae3b 548d a2bc 858d c2bc
00000150: 0353 65bc 312b af3c f1f1 ecba 3dab a0bc
00000160: f84e 2f3c df4d d2bc 6d3f 2d3a bada 26bc
00000170: 77e0 7abc 5a91 40bc 6c89 ca3b d43c 1c3d
00000180: bac6 a63d 5835 063d 926a f33c 3b34 21bc
00000190: 1821 e13b df18 53bc 0cfe 52bc 98f8 413d
000001a0: 487d 903c 6529 75bc 6a64 7d3b 6eec 3ebd
000001b0: bdda 91bb c96d bab9 dfd2 3abd 5186 83bc
000001c0: 42cd 823c 08aa eabc d156 bdbc 7f51 f3bc
000001d0: 5098 b53c 9a6a 32bc c72f cb3a 7b53 ef3c
000001e0: 2e40 e73c 9974 fe3c dc3e b43c f42a e33c
000001f0: 6719 533d e01d 8739 43e1 33bc efc9 04bc
00000200: 775c 333c 3996 ad3c caae 02bc 775a 093c
00000210: abb4 47bb 6a8a de3a 9785 023b 9d3e cf3c
00000220: d057 a2bc fddb eeba 9748 29bc 70a6 95bb
00000230: 011d 9ebc 8ac9 92bb 666c 44bb 09b9 9bbc
00000240: 22bd 73bc 68b0 b33b 65de 3f3d 815f 113c
00000250: e3a4 863d 2381 803d fe50 bb3d 3783 093d
00000260: f6fb 343d 13e2 893d 4268 07bb ef00 3f3a
00000270: 0714 543c dc1b e33c 9bf0 1f3c 27be 993c
00000280: 4fa7 14bb e8a9 0b3d b27e d93c 598d 593d
00000290: 11f8 56bc 9db0 79bb 2b93 31bd e9b3 1dbd
000002a0: 2d2b 29bd 89fc acbb 6f13 c3bb 93a1 9c3c
000002b0: 1f7f 98bc 1dc4 fa3c d4ea 6b3d 9ad3 353d
000002c0: 0efc af3c 2f86 9b3d 8dd4 cc3d 9ef4 113d
000002d0: ed9f f63c e84d 0f3c 9568 b03c c0b3 9bbb
000002e0: 696a a8b9 6216 e23b f436 103d e14e 0d3d
000002f0: 8e5a 6fbc a378 533d 6de9 893c 8950 acba
00000300: b197 debb ae59 63bc c565 3c3c 555d 17bc
00000310: e7c2 17bd 6a58 40bc 2122 16bd ad65 d53c
00000320: 6a3e 233c 9ef3 863d ff7a 413d 305d 533d
00000330: 9be0 8f3d b11b 823d 0601 463d 9786 4e3d
00000340: 6893 823d 1ef5 683d 0ed9 a83d 711c bc3c
00000350: f832 983c d8e2 9f3d da3a fd3c 1e89 013d
00000360: ac9b 5d3d 1cda 7d3c 181a 943c a459 223a
00000370: 18fe a3bc 1ba6 e1bc f109 a83b 80d7 f9bc
00000380: 49f3 3cbc cb8b 203c fa0a de3c f045 053d
00000390: 0218 2c3d 08d5 573c 74ff f33c 5f31 8c3c
000003a0: ba77 6c3d a0a6 1c3d 8c97 2f3d 1ef8 193d
000003b0: 6153 383d 4339 e43c 047b 053e 76a2 a43d
000003c0: c464 963d 12fb 713d cb8c d73c 5aa5 5d3c
000003d0: 7cb9 a03b a678 483c dd76 82bb 4ec1 8bbc
000003e0: 455c 1bbd e298 24bd b2d7 a93b 6132 40bc
000003f0: 68f0 efbc f4bb dfbc 7fac 01bd 3498 b8bc

model.1.bias f4 [64]
0.046646405 -0.030018352 -0.027396265 -0.021270365 -0.024579417 -0.026103238 0.02262879 0.023084272
0.019918635 -0.024560662 -0.0016838444 0.02534591 -0.027222909 -0.010401222 -0.0052202996 0.03313939
0.022856211 -0.032063734 0.026770705 0.0063876566 0.007812353 0.017694846 -0.014175541 -0.025270555
0.02654133 0.03268297 -0.016724756 0.01050064 0.004424808 0.033183895 0.020176124 -0.026039597
-0.013407615 0.008475902 -0.034452368 -0.00874575 0.003979012 -0.008049497 -0.019261232 0.007231895
0.01773472 -0.0046449886 -0.011524539 -0.039539877 0.0011619077 0.012830231 0.0014001023 0.012867671
-0.022529418 -0.03817463 -0.015358474 0.013144884 -0.0020794754 -0.020025551 0.022489449 -0.0044527925
-0.02025498 -0.037986014 -0.005907233 0.037410565 -0.044703096 -0.0018384084 0.026359389 0.0013684119
00000000: 4d10 3f3d 0ce9 f5bc 226e e0bc 303f aebc
00000010: c65a c9bc 75d6 d5bc 0360 b93c 3a1b bd3c
00000020: 682c a33c 7133 c9bc 71b4 dcba 3aa2 cf3c
00000030: 9402 dfbc e369 2abc 0c0f abbb 2bbd 073d
00000040: f33c bb3c 4355 03bd 3d4e db3c 8c4f d13b
00000050: c4fe ff3b c8f4 903c 8740 68bc 3204 cfbc
00000060: 346d d93c 94de 053d 5b02 89bc e00a 2c3c
00000070: fbfd 903b d6eb 073d 6648 a53c fe50 d5bc
00000080: 9dab 5bbc 82de 0a3c ed1d 0dbd 564a 0fbc
00000090: 5f62 823b 0ae2 03bc bbc9 9dbc 88f9 ec3b
000000a0: 6748 913c fd34 98bb 6cd1 3cbc 91f4 21bd
000000b0: 274b 983a e435 523c a383 b73a edd2 523c
000000c0: 9d8f b8bc 005d 1cbd 1ca2 7bbc a45d 573c
000000d0: cf47 08bb a00c a4bc cb3b b83c bbe8 91bb
000000e0: c6ed a5bc 3997 1bbd 7691 c1bb d23b 193d
000000f0: 981a 37bd c0f6 f0ba a5ef d73c 495c b33a

model.4.weight f4 [64, 64]
0.032850675 0.17311503 0.08363785 0.07322945 0.12114424 0.033409167 0.018471142 0.04726287
0.039839204 0.10263142 -0.14590342 0.119669214 0.036962572 -0.085755154 0.09741924 0.096098445
0.08610007 -0.028167423 0.048611064 -0.0008873638 0.018574687 0.079907976 0.08933965 0.0059727593
0.1034483 0.13596506 -0.14945026 0.08882259 0.09709121 0.17261818 -0.18401787 -0.07252021
0.17596619 0.0011534765 0.20224564 0.13959643 -0.12491517 0.16974722 -0.040705908 0.0031895728
-0.040128373 0.17919286 0.08779341 -0.06660478 -0.054085795 -0.061549023 0.032080203 0.0037356263
0.21037325 -0.08200503 0.12380528 -0.10363234 0.0031188426 -0.06333275 0.19648832 -0.08448058
-0.1522312 -0.036755208 0.003215713 0.15827669 0.021968037 0.087631285 0.1533171 0.0025890623
-0.028750446 -0.16328564 0.15960689 -0.08222177 0.015735375 0.10140626 -0.08276504 -0.13411653
0.043342847 -0.106627256 0.075617924 0.021446364 0.007100134 0.025313029 0.047095615 -0.15159172
-0.09712657 0.17327729 -0.009011911 -0.2369596 -0.1262346 -0.18317708 0.14797747 -0.1259518
0.02224512 0.10895257 -0.008401174 -0.05819131 -0.12168541 -0.004885826 -0.035347912 -0.011856884
-0.02249627 0.16251308 -0.16025887 -0.015120183 0.06009331 0.08455799 -0.078775235 0.11462104
-0.013462392 0.0002704343 -0.02995022 -0.07704308 0.14228284 -0.06319051 0.08301396 0.19262339
0.0856351 -0.007859913 -0.102253996 0.13922128 -0.07336185 -0.0074202283 0.033492483 -0.07765432
0.042232174 -0.009908227 0.18509012 0.020778658 -0.04626583 -0.08150523 0.0792485 0.1407135
-0.08950294 0.014872056 0.07136365 -0.007000018 0.10755769 0.14154655 -0.046575624 -0.2704463
0.19773877 -0.019891266 0.061421406 0.08107872 0.11976972 0.2686047 0.020440971 0.05555015
0.14487407 0.055602945 -0.0028503814 -0.071498275 0.10877677 -0.034895375 0.23225378 -0.098441266
-0.13119857 -0.058790002 0.04325 0.033763397 -0.06789412 -0.09641871 0.16100807 0.024936551
0.0006747123 0.11807883 0.017604595 0.012015081 0.11886773 -0.036472544 0.100573644 0.16288427
-0.017752502 -0.11624721 0.013994776 0.063361056 -0.12340111 -0.0064239223 0.04654653 -0.032978255
-0.021696292 0.10438537 0.101800375 0.12250823 0.09066955 0.03184499 -0.0124759 -0.015015802
0.12526616 0.0046649207 -0.061326545 0.047050294 -0.013379616 -0.067522846 -0.06171724 -0.040971857
0.08124049 -0.0025514422 -0.07263795 0.30484545 -0.005362517 0.10461352 0.068106286 0.19816132
-0.10820423 0.11206623 0.10986881 -0.034479108 -0.009035304 -0.12150644 0.14428014 -0.013067971
-0.2869202 0.023948982 -0.278093 0.057875343 -0.18056928 -0.010653863 -0.0810638 0.24386016
-0.098938674 0.032412022 0.009113597 -0.24813984 -0.008010288 -0.15300398 0.15481684 0.08009987
-0.0856813 0.12270481 0.15462168 0.130519 0.03789176 0.18287274 0.08375091 -0.08949483
-0.04440655 0.12359079 0.023225585 -0.060386885 0.029844308 0.18176296 -0.01189704 0.15756206
0.075928725 0.1494649 0.11267454 0.19238596 0.06560177 -0.051600732 -0.027627314 0.012078855
-0.10807863 0.018629907 -0.1781294 -0.15806264 0.23126788 0.07340746 0.03296819 0.10303038
00000000: 6e8e 063d 1145 313e 524a ab3d 52f9 953d
00000010: 791a f83d 0dd8 083d cb50 973c b696 413d
00000020: 6f2e 233d 6c30 d23d b567 15be 2215 f53d
00000030: 1166 173d 66a0 afbd bd83 c73d 43cf c43d
00000040: 3c55 b03d 5ebf e6bc 651c 473d fa9d 68ba
00000050: f129 983c cba6 a33d b5f7 b63d 23b7 c33b
00000060: b4dc d33d 6d3a 0b3e 7d09 19be 9ee8 b53d
00000070: c2d7 c63d d2c2 303e 2e6f 3cbe 7a85 94bd
00000080: 7b30 343e 4030 973a 7b19 4f3e 5ef2 0e3e
00000090: 86d3 ffbd 37d2 2d3e 3dbb 26bd 2708 513b
000000a0: a65d 24bd 557e 373e 08cd b33d 1668 88bd
000000b0: 1189 5dbd d41a 7cbd 8866 033d 69d1 743b
000000c0: 166c 573e 41f2 a7bd 9f8d fd3d 313d d4bd
000000d0: 7f65 4c3b 9ab4 81bd 3c34 493e 2804 adbd
000000e0: 7fe2 1bbe a18c 16bd b6be 523b 4913 223e
000000f0: 50f6 b33c 0878 b33d 28ff 1c3e 42ad 293b
00000100: 0e86 ebbc 5a34 27be fd6f 233e e363 a8bd
00000110: 79e7 803c 16ae cf3d b880 a9bd d855 09be
00000120: 4588 313d 645f dabd 92dd 9a3d 49b0 af3c
00000130: 3ea8 e83b 455d cf3c 55e7 403d dc3a 1bbe
00000140: 4cea c6bd 9a6f 313e b2a6 13bc 8aa5 72be
00000150: a543 01be c692 3bbe 6887 173e 82f9 00be
00000160: 663b b63c 8622 df3d 14a5 09bc 035a 6ebd
00000170: 3336 f9bd 4719 a0bb f9c8 10bd 6043 42bc
00000180: 194a b8bc d469 263e e71a 24be a5ba 77bc
00000190: 6724 763d bd2c ad3d e954 a1bd 70be ea3d
000001a0: 5d91 5cbc 14c9 8d39 2a5a f5bc c3c8 9dbd
000001b0: 98b2 113e 076a 81bd 3903 aa3d 113f 453e
000001c0: 7561 af3d ddc6 00bc 8b6a d1bd 0690 0e3e
000001d0: bd3e 96bd 6325 f3bb 6a2f 093d 3a09 9fbd
000001e0: a5fb 2c3d 1e56 22bc 4488 3d3e 0138 aa3c
000001f0: 3d81 3dbd 37ec a6bd 0a4d a23d 3317 103e
00000200: 514d b7bd eda9 733c 1b27 923d 6860 e5bb
00000210: 3547 dc3d 94f1 103e 15c6 3ebd f077 8abe
00000220: 087c 4a3e 02f3 a2bc 0395 7b3d 9a0c a63d
00000230: d449 f53d 8e86 893e d373 a73c 8e88 633d
00000240: de59 143e eabf 633d 77cd 3abb b06d 92bd
00000250: 5bc6 de3d 74ee 0ebd efd3 6d3e 939b c9bd
00000260: eb58 06be c9cd 70bd e926 313d 7d4b 0a3d
00000270: 130c 8bbd 2c77 c5bd 4ddf 243e bd47 cc3c
00000280: 2ddf 303a 50d3 f13d 8337 903c e7da 443c
00000290: ed70 f33d 3c64 15bd 8ef9 cd3d 22cb 263e
000002a0: b26d 91bc 0413 eebd 584a 653c 71c3 813d
000002b0: b9b9 fcbd c47f d2bb 93a7 3e3d 3514 07bd
000002c0: 6cbc b1bc ffc7 d53d b77c d03d 98e5 fa3d
000002d0: f5b0 b93d e46f 023d b867 4cbc d704 76bc
000002e0: c645 003e 31dc 983b 8b31 7bbd cfb7 403d
000002f0: 2d36 5bbc 6b49 8abd 37cb 7cbd 1bd2 27bd
00000300: 6a61 a63d 1936 27bb 35c3 94bd b414 9c3e
00000310: 0eb8 afbb 9d3f d63d 4f7b 8b3d cdea 4a3e
00000320: 2e9a ddbd fb82 e53d e602 e13d f739 0dbd
00000330: d008 14bc 5ed8 f8bd 2cbe 133e 0b1b 56bc
00000340: 34e7 92be a830 c43c 3562 8ebe b20e 6d3d
00000350: 27e7 38be 8a8d 2ebc c704 a6bd 7ab6 793e
00000360: 5ca0 cabd 78c2 043d 3251 153c 5f18 7ebe
00000370: 953d 03bc 13ad 1cbe 4e88 1e3e 670b a43d
00000380: ad79 afbd a94c fb3d 2555 1e3e c6a6 053e
00000390: 6434 1b3d fe42 3b3e 9985 ab3d 1149 b7bd
000003a0: a4e3 35bd 2b1d fd3d 9543 be3c 3d58 77bd
000003b0: 0d7c f43c 1220 3a3e cdeb 42bc f357 213e
000003c0: 8580 9b3d 540d 193e e9c1 e63d d300 453e
000003d0: 395a 863d 4a5b 53bd ad52 e2bc 64e6 453c
000003e0: 5458 ddbd bf9d 983c 8e67 36be 2cdb 21be
000003f0: 7dd1 6c3e a656 963d a709 073d 9801 d33d

model.4.bias f4 [64]
0.05830282 0.063939735 0.15092337 0.052141685 0.093545966 0.11826387 0.005356241 0.08040295
-0.07634119 -0.07777876 0.042095345 -0.011841429 0.07964437 -0.0084238015 -0.0944647 0.020163832
-0.08217682 0.024361143 -0.034262106 0.14156093 -0.008927383 0.054453943 -0.04129834 0.094061375
0.07755985 0.11482074 -0.047821645 0.09574768 0.028484471 0.0037457333 0.08545123 0.09792217
-0.06394151 0.12943675 0.03093607 0.18256235 0.1254151 0.027147565 -0.023813061 -0.12566899
0.1370511 0.0017595509 0.0887611 -0.06582365 -0.065770246 0.08025144 0.00034796062 -0.084295794
0.05381035 0.08303098 0.040283397 0.051377468 0.11320109 0.036444277 0.01638386 -0.068052165
-0.04326628 0.12986434 -0.019253053 0.019682547 0.029169548 0.08742802 -0.093660034 0.08579611
00000000: f0ce 6e3d d6f2 823d a88b 1a3e 8592 553d
00000010: 0795 bf3d 5434 f23d 6883 af3b 4daa a43d
00000020: c558 9cbd 784a 9fbd 2b6c 2c3d 8e02 42bc
00000030: 961c a33d fc03 0abc b576 c1bd 9f2e a53c
00000040: 524c a8bd 0591 c73c 6c56 0cbd 59f5 103e
00000050: 2944 12bc 190b 5f3d 7328 29bd 40a3 c03d
00000060: b3d7 9e3d 2327 eb3d a1e0 43bd 5c17 c43d
00000070: 4458 e93c fa7a 753b 0e01 af3d 6b8b c83d
00000080: c4f3 82bd 118b 043e a46d fd3c a0f1 3a3e
00000090: d16c 003e 9264 de3c 9c13 c3bc 5faf 00be
000000a0: 2057 0c3e bba0 e63a 61c8 b53d 8dce 86bd
000000b0: 8db2 86bd de5a a43d 7c6e b639 46a3 acbd
000000c0: 3e68 5c3d 250c aa3d 3400 253d 2e71 523d
000000d0: f9d5 e73d 9846 153d 7237 863c ef5e 8bbd
000000e0: fc37 31bd 28fb 043e 94b8 9dbc 4b3d a13c
000000f0: faf4 ee3c 760d b33d d5d0 bfbd dfb5 af3d

model.7.weight f4 [10, 64]
0.000762026 -0.08776592 0.03135392 -0.14668868 -0.22524813 -0.061548147 -0.19044426 0.13744201
0.19323325 -0.15506853 -0.2462658 -0.09716248 -0.20404853 0.0502246 0.118597314 -0.16655561
-0.14661305 0.15438513 -0.052932132 -0.10936282 -0.11400173 0.06931286 -0.051328264 -0.042486783
-0.04234882 -0.17818946 -0.13044466 0.094591215 -0.14869392 0.17598906 0.12835939 -0.030593034
0.07734887 0.16508612 -0.11025036 0.007281949 -0.1845354 -0.14917155 -0.17304388 0.21533254
-0.01169423 0.144404 -0.27607492 -0.1547924 -0.18095766 0.19426309 -0.20014283 -0.23895942
-0.16528532 -0.12554753 0.05448538 -0.115567386 0.09417289 -0.22992283 0.10836484 0.060161643
-0.09537734 0.03492855 0.15091754 -0.19024926 -0.017072298 0.16263913 0.018875727 0.16621214
0.103238575 -0.22227554 -0.07527054 0.21019498 0.034905896 -0.09067462 0.13858424 0.09596787
0.11700556 -0.20456922 -0.2297794 0.13340141 -0.12107679 -0.016075851 -0.113086 -0.083536625
0.20700778 0.039444488 -0.25512728 -0.12893173 -0.26244304 0.14881442 0.1616304 -0.1115577
-0.18044385 -0.19320264 -0.035014912 -0.08488206 0.18532719 -0.22004142 0.037801474 0.122162685
-0.19863902 -0.13905568 -0.10929825 -0.0131592555 0.14058232 0.038114782 0.14766206 0.007074308
-0.2638602 -0.19726117 -0.119429335 -0.16816743 -0.19916818 -0.07333871 -0.053404037 0.20612505
0.053992376 -0.16783386 -0.13974732 -0.077043705 0.22207889 0.062960126 0.07160127 -0.06816327
-0.0818153 0.01572191 -0.06997475 0.12250579 -0.1841456 -0.076214425 0.058040418 -0.07001707
0.09257544 -0.24434154 -0.16363661 -0.023121022 0.19948468 -0.17936808 0.09163775 -0.21982847
0.14307208 0.06550792 -0.14588325 -0.109762564 0.029186994 0.049342047 0.029031884 0.04901761
0.09632515 -0.024430938 0.057471175 0.1427258 -0.11280288 0.09484855 -0.24660325 0.05705736
0.095378034 -0.0031218482 0.11878496 0.16980691 -0.040789016 0.13693897 0.02147031 0.037491124
-0.03379818 -0.017773842 0.1010528 0.05320837 -0.20855312 -0.18497236 -0.35484815 -0.15619719
0.008112539 -0.011963882 -0.01208466 0.04293742 -0.18195744 -0.08186371 -0.027336625 0.17848304
0.13533813 -0.18651095 -0.17272295 -0.056273766 -0.077919014 -0.27492398 -0.012731565 0.057042968
0.16649541 -0.11987978 -0.029086323 -0.18141219 -0.019228531 -0.124942556 0.22202252 -0.2468517
0.05273543 -0.17003554 0.08718156 -0.20704304 0.17011382 0.1759055 0.18067856 -0.1305208
0.10568754 -0.10674376 -0.034387443 -0.12223102 0.08896299 0.13916425 -0.22786531 -0.18141857
-0.22268048 -0.09850929 -0.1341087 -0.06293326 -0.05777178 -0.2548271 -0.25109264 -0.16208318
-0.11988663 -0.020751476 0.16206938 -0.083294995 -0.026444294 0.0017782188 0.14603932 0.0397406
-0.13443719 0.16456152 0.08743048 -0.24622013 0.04690103 0.0018949243 0.16565958 0.04659874
-0.17726965 0.09709131 -0.1804766 0.09376579 -0.020454315 -0.06218548 0.08509302 -0.13153479
0.06848009 0.014929887 0.19926709 0.0940903 -0.11734149 0.16519734 0.076101385 0.0537271
-0.12974879 -0.18333106 -0.2750997 -0.2283126 -0.03754882 -0.06045192 0.13773906 -0.16559067
00000000: b3c2 473a 9ebe b3bd f86c 003d 8f35 16be
00000010: 72a7 66be e919 7cbd d203 43be 99bd 0c3e
00000020: f0de 453e 49ca 1ebe 1a2d 7cbe 1ffd c6bd
00000030: 19f2 50be 4fb8 4d3d 26e3 f23d 8e8d 2abe
00000040: bb21 16be 2317 1e3e 5dcf 58bd 9df9 dfbd
00000050: bd79 e9bd e7f3 8d3d 963d 52bd 9f06 2ebd
00000060: f575 2dbd 4c77 36be 4993 05be 0ab9 c13d
00000070: 3843 18be 7a36 343e a570 033e 3e9e fabc
00000080: 1669 9e3d 560c 293e f1ca e1bd 6a9d ee3b
00000090: d9f6 3cbe 6dc0 18be 6a32 31be 2280 5c3e
000000a0: 2899 3fbc a4de 133e b159 8dbe e681 1ebe
000000b0: f74c 39be e7ec 463e 3ef2 4cbe c7b1 74be
000000c0: 8e40 29be 888f 00be 102c 5f3d 98ae ecbd
000000d0: b7dd c03d e470 6bbe 63ee dd3d 0e6c 763d
000000e0: 3255 c3bd 3d11 0f3d 218a 1a3e b4d0 42be
000000f0: 34db 8bbc df8a 263e 45a1 9a3c 8433 2a3e
00000100: bf6e d33d 339c 63be 7127 9abd 5a3d 573e
00000110: 7cf9 0e3d 9db3 b9bd 07e9 0d3e cd8a c43d
00000120: 9ca0 ef3d 987a 51be 4b4b 6bbe 619a 083e
00000130: 1cf7 f7bd 81b1 83bc a299 e7bd 4015 abbd
00000140: d9f9 533e 8b90 213d 0ba0 82be ae06 04be
00000150: ef5e 86be cf62 183e 7182 253e 5d78 e4bd
00000160: 46c6 38be ead6 45be cc6b 0fbd a5d6 adbd
00000170: 69c6 3d3e 8a52 61be b8d5 1a3d 6e30 fa3d
00000180: 0768 4bbe 9d64 0ebe c3d7 dfbd eb99 57bc
00000190: d0f4 0f3e 3f1e 1c3d b934 173e 99cf e73b
000001a0: af18 87be d5fe 49be 5e97 f4bd 1534 2cbe
000001b0: bef2 4bbe 9b32 96bd 31be 5abd 7212 533e
000001c0: 1c27 5d3d a4dc 2bbe ec19 0fbe 17c9 9dbd
000001d0: a668 633e 3df1 803d b0a3 923d 2f99 8bbd
000001e0: c88e a7bd 3ccb 803c ec4e 8fbd 51e4 fa3d
000001f0: aa90 3cbe 4f16 9cbd cabb 6d3d 1c65 8fbd
00000200: 3198 bd3d ab34 7abe 5b90 27be 4c68 bdbc
00000210: b645 4c3e 44ac 37be 93ac bb3d b71a 61be
00000220: 7d81 123e 0429 863d 6b62 15be 32cb e0bd
00000230: 9019 ef3c e31a 4a3d 46d4 ed3c b0c6 483d
00000240: 1f46 c53d 6423 c8bc e566 6b3d b626 123e
00000250: 3205 e7bd f53f c23d 9085 7cbe fab4 693d
00000260: 8f55 c33d ec97 4cbb 8745 f33d dde1 2d3e
00000270: 6212 27bd bb39 0c3e 81e2 af3c 4b90 193d
00000280: f66f 0abd 739a 91bc c5f4 ce3d 05f1 593d
00000290: f38e 55be 6569 3dbe a8ae b5be 28f2 1fbe
000002a0: 74ea 043c 2804 44bc bdfe 45bc 26df 2f3d
000002b0: 0d53 3abe 29a8 a7bd 0ff1 dfbc 42c4 363e
000002c0: 1496 0a3e bafc 3ebe 49de 30be 527f 66bd
000002d0: 0194 9fbd d6c2 8cbe 0e98 50bc e3a5 693d
000002e0: c67d 2a3e 8883 f5bd 7146 eebc 1ec4 39be
000002f0: 2785 9dbc e2e1 ffbd df59 633e b1c6 7cbe
00000300: 1b01 583d cc1d 2ebe 3f8c b23d 1703 54be
00000310: 5132 2e3e 9220 343e cd03 393e 3fa7 05be
00000320: b572 d83d 799c dabd d9d9 0cbd 4254 fabd
00000330: 3a32 b63d 1381 0e3e 8655 69be cac5 39be
00000340: 5a06 64be 3dbf c9bd cb53 09be 27e3 80bd
00000350: 1aa2 6cbd b378 82be 378f 80be 22f9 25be
00000360: 1f87 f5bd 00ff a9bc 84f5 253e 9196 aabd
00000370: b4a1 d8bc 1f13 e93a 558b 153e 0ac7 223d
00000380: e7a9 09be d182 283e c00e b33d 2121 7cbe
00000390: 4b1b 403d 1c5f f83a aaa2 293e 52de 3e3d
000003a0: 2d86 35be cfd7 c63d dcce 38be 4708 c03d
000003b0: cf8f a7bc 34b6 7ebd 4045 ae3d 0eb1 06be
000003c0: 4a3f 8c3d 7c9c 743c ac0c 4c3e 6ab2 c03d
000003d0: bc50 f0bd 7e29 293e 0bdb 9b3d f310 5c3d
000003e0: dedc 04be 23bb 3bbe ded9 8cbe c7ca 69be
000003f0: cbcc 19bd 6f9c 77bd 780b 0d3e 9a90 29be

model.7.bias f4 [10]
-0.1048103 0.04350697 -0.006006993 -0.052978765 -0.09376023 -0.041139044 0.023298731 -0.009042197
0.048095904 0.0111736255
00000000: c8a6 d6bd 5d34 323d 4fd6 c4bb 4300 59bd
00000010: 5d05 c0bd 6a81 28bd fbdc be3c b925 14bc
00000020: 3600 453d 9511 373c

exp_avg f4 [64, 784]
-0.00011718027 -0.00011718027 -0.00011718027 -0.00011718027 -0.00011718027 -0.00011718027 -0.00011718027 -0.00011718027
-0.00011718027 -0.00011718027 -0.00011718027 -0.00011718027 -0.00011718027 -0.00011718027 -0.00011718027 -0.00011718027
-0.00011718027 -0.00011718027 -0.00011718027 -0.00011718027 -0.00011718027 -0.00011718027 -0.00011718027 -0.00011718027
-0.00011718027 -0.00011718027 -0.00011718027 -0.00011718027 -0.00011718027 -0.00011718027 -0.00011718027 -0.00011718027
-0.00011718027 -0.00011718027 -0.00011718027 -0.00011718027 -0.00011718027 -0.00011718027 -0.00011718027 -0.00011718027
-0.00011718027 -0.00011718027 -0.00011718027 -0.00011718027 -0.00011718027 -0.00011718027 -0.00011718027 -0.00011718027
-0.00011718027 -0.00011718027 -0.00011718027 -0.00011718027 -0.00011718027 -0.00011718027 -0.00011718027 -0.00011718027
-0.00011718027 -0.00011718027 -0.00011718027 -0.00011718025 -0.00011718027 -0.00011718027 -0.00011718027 -0.000115485855
-0.00011335832 -0.00011695688 -0.00011692782 -0.00010449922 -0.000101873884 -0.00011325263 -0.000115510506 -0.00011938697
-0.00012001646 -0.000116338044 -0.00011663342 -0.0001167558 -0.00011672259 -0.00011692283 -0.00011710748 -0.0001171712
-0.00011718027 -0.00011718027 -0.00011718027 -0.00011718027 -0.00011718027 -0.00011718027 -0.00011718027 -0.00011718008
-0.000117459305 -0.00011791549 -0.00011791594 -0.00011237066 -9.95536e-05 -0.00011571948 -0.00012322592 -0.00011132052
-8.977873e-05 0.00016286483 0.00062261435 0.00044647965 -0.00015449172 -0.0002133636 -0.00023934284 -0.00017825219
-0.0001765096 -0.00012779469 -0.00010769766 -0.00010904574 -0.00011738494 -0.00011718067 -0.00011718042 -0.00011718027
-0.00011718027 -0.000117180156 -0.00011718027 -0.00011713885 -0.00012007276 -0.00014550339 -0.00016788156 -0.00020851301
-0.00027827075 -0.00030994133 -0.0004857564 -0.00054833497 0.000112314985 0.0005815783 0.0006603316 0.00049123995
-3.7424998e-05 -0.0004273806 -0.00065280765 -0.00028711575 -2.3970342e-06 1.5569658e-05 -2.312069e-05 -0.00011236557
-0.0001271207 -0.00012195648 -0.00011732869 -0.00011718027 -0.00011718027 -0.00011718027 -0.00011718032 -0.00011716525
-0.00012757632 -0.00014624355 -0.00021596391 -0.00040595268 -0.0004949006 -0.00049054937 -0.0006941734 -0.00077230606
-0.00021897338 -0.00022397864 -0.00042103743 -0.0006491376 -0.00056308164 0.0004323989 0.00065392844 0.0002618047
0.00020803483 0.00026466328 0.00010027316 -0.00014418931 -0.00012583508 -0.00012086755 -0.000116419884 -0.00011717921
-0.00011718027 -0.00011718027 -0.00011673523 -0.00011586579 -0.0001433162 -0.0002557712 -0.00047656908 -0.0007148195
-0.0010072154 -0.0012860615 -0.0009984807 -0.0010922295 -0.00073962 -0.00095306773 -0.00093049504 8.676658e-05
0.0005597896 0.0013000286 0.0017111488 0.00075215567 0.0002506934 0.00029764147 -4.0458344e-05 -0.00028414602
-0.00014122901 -0.00012263648 -0.00011734764 -0.00011719164 -0.00011718027 -0.00011718642 -0.00011670428 -0.000113362956
-0.0001563379 -0.0006739097 -0.0007596196 -0.0010154153 -0.00097492355 -0.000999005 -0.0010107225 -0.0011968464
-0.00023625084 -0.0002657969 -0.00031716083 -5.918935e-05 4.515005e-05 0.0007745432 0.0016820608 0.00096238486
0.0007404237 0.00017724003 -0.00016375985 -0.000229238 -0.00019853598 -0.0002219245 -0.00016983364 -0.00011726919
-0.00011718027 -0.0001171816 -0.000116604206 -0.00015192665 -0.00021423878 -0.00071051833 -0.0010930643 -0.0012781303
-0.0008334857 -0.00048044336 0.00035884825 -0.0002444882 0.0002545027 0.00039277243 0.00080674194 0.0005072328
-5.8557227e-05 -0.00073346595 -0.00020583751 0.001185785 0.0016543184 0.00044294348 -7.109869e-05 -0.00025797178
-0.00017459171 -0.00016735704 -0.00012630883 -0.00011722901 -0.00011718027 -0.00011718121 -0.00011341571 -0.0001758487
00000000: aebe f5b8 aebe f5b8 aebe f5b8 aebe f5b8
00000010: aebe f5b8 aebe f5b8 aebe f5b8 aebe f5b8
00000020: aebe f5b8 aebe f5b8 aebe f5b8 aebe f5b8
00000030: aebe f5b8 aebe f5b8 aebe f5b8 aebe f5b8
00000040: aebe f5b8 aebe f5b8 aebe f5b8 aebe f5b8
00000050: aebe f5b8 aebe f5b8 aebe f5b8 aebe f5b8
00000060: aebe f5b8 aebe f5b8 aebe f5b8 aebe f5b8
00000070: aebe f5b8 aebe f5b8 aebe f5b8 aebe f5b8
00000080: aebe f5b8 aebe f5b8 aebe f5b8 aebe f5b8
00000090: aebe f5b8 aebe f5b8 aebe f5b8 aebe f5b8
000000a0: aebe f5b8 aebe f5b8 aebe f5b8 aebe f5b8
000000b0: aebe f5b8 aebe f5b8 aebe f5b8 aebe f5b8
000000c0: aebe f5b8 aebe f5b8 aebe f5b8 aebe f5b8
000000d0: aebe f5b8 aebe f5b8 aebe f5b8 aebe f5b8
000000e0: aebe f5b8 aebe f5b8 aebe f5b8 abbe f5b8
000000f0: aebe f5b8 aebe f5b8 aebe f5b8 ff30 f2b8
00000100: c9ba edb8 bf46 f5b8 2537 f5b8 9726 dbb8
00000110: 20a5 d5b8 0b82 edb8 3b3e f2b8 645f fab8
00000120: 59b1 fbb8 83fa f3b8 1799 f4b8 cbda f4b8
00000130: f7c8 f4b8 7734 f5b8 9997 f5b8 cfb9 f5b8
00000140: aebe f5b8 aebe f5b8 aebe f5b8 aebe f5b8
00000150: aebe f5b8 aebe f5b8 aebe f5b8 94be f5b8
00000160: 7c54 f6b8 6649 f7b8 a349 f7b8 8aa8 ebb8
00000170: 6fc7 d0b8 6cae f2b8 3536 01b9 c074 e9b8
00000180: 9747 bcb8 b2c6 2a39 f136 233a 7c15 ea39
00000190: 0eff 21b9 5bba 5fb9 1bf8 7ab9 35e9 3ab9
000001a0: 6f15 39b9 a000 06b9 bedb e1b8 7caf e4b8
000001b0: 8f2c f6b8 e5be f5b8 c2be f5b8 aebe f5b8
000001c0: aebe f5b8 9ebe f5b8 aebe f5b8 71a8 f5b8
000001d0: 92cf fbb8 4592 18b9 5d09 30b9 49a4 5ab9
000001e0: dee4 91b9 9f7f a2b9 1fad feb9 23be 0fba
000001f0: a68a eb38 0f75 183a 1b1a 2d3a 8ec6 003a
00000200: c9f8 1cb8 0e12 e0b9 2e21 2bba 0688 96b9
00000210: bcdc 20b6 969b 8237 4ef3 c1b7 cea5 ebb8
00000220: b44b 05b9 e3c2 ffb8 5c0e f6b8 aebe f5b8
00000230: aebe f5b8 aebe f5b8 b5be f5b8 9db6 f5b8
00000240: 02c6 05b9 f458 19b9 5f74 62b9 0cd6 d4b9
00000250: 38bc 01ba 3698 00ba 30f9 35ba 9574 4aba
00000260: 389c 65b9 cfdb 6ab9 b0be dcb9 e32a 2aba
00000270: c59b 13ba 99b3 e239 656c 2b3a d542 8939
00000280: ed23 5a39 81c2 8a39 be49 d238 8631 17b9
00000290: 99f2 03b9 467a fdb8 7326 f4b8 1cbe f5b8
000002a0: aebe f5b8 aebe f5b8 c0cf f4b8 f9fc f2b8
000002b0: 2647 16b9 0819 86b9 05dc f9b9 ba62 3bba
000002c0: 8a04 84ba 1091 a8ba 74df 82ba 2429 8fba
000002d0: 0fe3 41ba 4bd7 79ba 77ec 73ba 74f6 b538
000002e0: d8be 123a b965 aa3a a048 e03a 502c 453a
000002f0: 806f 8339 c30c 9c39 d1b1 29b8 6ff9 94b9
00000300: e016 14b9 fb97 00b9 8918 f6b8 c8c4 f5b8
00000310: aebe f5b8 fbc1 f5b8 22bf f4b8 46bd edb8
00000320: a3ee 23b9 50a9 30ba 3521 47ba af17 85ba
00000330: 0392 7fba 0cf1 82ba 387a 84ba 80df 9cba
00000340: 1aba 77b9 a85a 8bb9 9b48 a6b9 1542 78b8
00000350: 7f5f 3d38 b70a 4b3a 9878 dc3a 8e48 7c3a
00000360: fe18 423a 82d9 3939 f3b6 2bb9 9b5f 70b9
00000370: 192e 50b9 68b4 68b9 5f15 32b9 6bee f5b8
00000380: aebe f5b8 64bf f5b8 6889 f4b8 804e 1fb9
00000390: 49a5 60b9 1442 3aba 2745 8fba f086 a7ba
000003a0: 477e 5aba 04e4 fbb9 cc23 bc39 a72e 80b9
000003b0: c66e 8539 06ed cd39 897b 533a d1f7 043a
000003c0: 589b 75b8 1146 40ba 16d6 57b9 586c 9b3a
000003d0: b7d5 d83a de3a e839 d21a 95b8 6340 87b9
000003e0: 9b12 37b9 907c 2fb9 c571 04b9 d8d8 f5b8
000003f0: aebe f5b8 2fbf f5b8 98d9 edb8 0764 38b9

exp_avg_sq f4 [64, 784]
1.0566913e-06 1.0566913e-06 1.0566913e-06 1.0566913e-06 1.0566913e-06 1.0566913e-06 1.0566913e-06 1.0566913e-06
1.0566913e-06 1.0566913e-06 1.0566913e-06 1.0566913e-06 1.056695e-06 1.0567276e-06 1.056709e-06 1.0566919e-06
1.0566913e-06 1.0566913e-06 1.0566913e-06 1.0566913e-06 1.0566913e-06 1.0566913e-06 1.0566913e-06 1.0566913e-06
1.0566913e-06 1.0566913e-06 1.0566913e-06 1.0566913e-06 1.0566913e-06 1.0566913e-06 1.0566913e-06 1.0566913e-06
1.0566905e-06 1.0566888e-06 1.0566553e-06 1.0566023e-06 1.0566488e-06 1.0568007e-06 1.0567353e-06 1.0566062e-06
1.0577878e-06 1.0573199e-06 1.056753e-06 1.056718e-06 1.0565267e-06 1.0566033e-06 1.0566716e-06 1.0566785e-06
1.0566761e-06 1.0566889e-06 1.0567004e-06 1.056716e-06 1.0566913e-06 1.0566913e-06 1.0566913e-06 1.0566913e-06
1.0566913e-06 1.0566913e-06 1.0566903e-06 1.056779e-06 1.0566905e-06 1.0566877e-06 1.0565609e-06 1.0558116e-06
1.0591405e-06 1.0723171e-06 1.0640141e-06 1.060195e-06 1.0830123e-06 1.1245531e-06 1.1505526e-06 1.1481147e-06
1.094201e-06 1.08951e-06 1.0784378e-06 1.091295e-06 1.0636676e-06 1.0586435e-06 1.0578921e-06 1.057203e-06
1.0567009e-06 1.0566902e-06 1.0566913e-06 1.0566913e-06 1.0566913e-06 1.0566913e-06 1.0566918e-06 1.0574723e-06
1.0569519e-06 1.0603635e-06 1.0593525e-06 1.0534799e-06 1.0485327e-06 1.094945e-06 1.1835244e-06 1.4771086e-06
1.6308353e-06 1.8803909e-06 1.9935308e-06 2.0837297e-06 1.8899624e-06 1.5463482e-06 1.4201393e-06 1.3593684e-06
1.3533815e-06 1.3612374e-06 1.2542333e-06 1.1539864e-06 1.0753964e-06 1.0936271e-06 1.0637985e-06 1.0566913e-06
1.0566913e-06 1.0566927e-06 1.0566914e-06 1.0562561e-06 1.058193e-06 1.066815e-06 1.0690957e-06 1.1533133e-06
1.449365e-06 2.0048872e-06 2.6511277e-06 3.5507378e-06 4.419409e-06 5.568391e-06 6.7465885e-06 6.836583e-06
6.1009455e-06 5.81418e-06 4.159533e-06 3.5846792e-06 3.1418008e-06 2.3593334e-06 1.872541e-06 1.5602525e-06
1.3435694e-06 1.100577e-06 1.0582402e-06 1.0566913e-06 1.0566913e-06 1.0566913e-06 1.0566883e-06 1.0548883e-06
1.0689085e-06 1.0883658e-06 1.1688338e-06 1.6286948e-06 2.6795908e-06 4.232721e-06 7.123702e-06 9.085588e-06
1.0664394e-05 1.3593394e-05 1.6328282e-05 1.7685965e-05 1.8015193e-05 1.6679232e-05 1.2288036e-05 8.360864e-06
6.058526e-06 4.3241257e-06 2.7446497e-06 1.9807148e-06 1.53551e-06 1.1279708e-06 1.06173e-06 1.0567527e-06
1.0566913e-06 1.0567072e-06 1.0622032e-06 1.0679368e-06 1.0894803e-06 1.1512867e-06 1.5843758e-06 2.6835257e-06
5.014516e-06 8.459352e-06 1.2701759e-05 1.564607e-05 2.0043492e-05 2.2463119e-05 2.4308256e-05 2.4710205e-05
2.4466608e-05 2.3330034e-05 1.9087083e-05 1.4150696e-05 8.864583e-06 5.7250304e-06 3.5087432e-06 2.0309471e-06
1.3186702e-06 1.0987416e-06 1.0635582e-06 1.0568276e-06 1.0566919e-06 1.0574946e-06 1.0670776e-06 1.0749659e-06
1.1730316e-06 1.305879e-06 2.1199205e-06 4.1873564e-06 7.232293e-06 1.131311e-05 1.7146314e-05 2.1104468e-05
2.2398668e-05 2.3826247e-05 2.4437686e-05 2.4639181e-05 2.4732954e-05 2.2723254e-05 2.0310365e-05 1.613848e-05
1.1686524e-05 7.5525354e-06 4.4131707e-06 2.1697942e-06 1.3952086e-06 1.1054342e-06 1.0568014e-06 1.0564784e-06
1.0566907e-06 1.0574729e-06 1.058295e-06 1.1106513e-06 1.2278158e-06 1.4965118e-06 2.925489e-06 5.4967713e-06
8.908228e-06 1.3224664e-05 1.7360693e-05 1.8906585e-05 2.0643582e-05 2.0149575e-05 1.8833727e-05 1.9202136e-05
2.0079053e-05 2.048813e-05 1.919708e-05 1.5609723e-05 1.1725102e-05 8.120273e-06 4.8252236e-06 2.411037e-06
1.3984705e-06 1.0962325e-06 1.0525588e-06 1.0566732e-06 1.0566745e-06 1.0573464e-06 1.0551058e-06 1.136954e-06
00000000: a3d3 8d35 a3d3 8d35 a3d3 8d35 a3d3 8d35
00000010: a3d3 8d35 a3d3 8d35 a3d3 8d35 a3d3 8d35
00000020: a3d3 8d35 a3d3 8d35 a3d3 8d35 a3d3 8d35
00000030: c4d3 8d35 e2d4 8d35 3fd4 8d35 a8d3 8d35
00000040: a3d3 8d35 a3d3 8d35 a3d3 8d35 a3d3 8d35
00000050: a3d3 8d35 a3d3 8d35 a3d3 8d35 a3d3 8d35
00000060: a3d3 8d35 a3d3 8d35 a3d3 8d35 a3d3 8d35
00000070: a3d3 8d35 a3d3 8d35 a3d3 8d35 a3d3 8d35
00000080: 9cd3 8d35 8dd3 8d35 66d2 8d35 94d0 8d35
00000090: 2dd2 8d35 65d7 8d35 26d5 8d35 b6d0 8d35
000000a0: 50f9 8d35 3ce9 8d35 c2d5 8d35 8ed4 8d35
000000b0: fbcd 8d35 9dd0 8d35 f6d2 8d35 32d3 8d35
000000c0: 1dd3 8d35 8ed3 8d35 f3d3 8d35 7cd4 8d35
000000d0: a3d3 8d35 a3d3 8d35 a3d3 8d35 a3d3 8d35
000000e0: a3d3 8d35 a3d3 8d35 9ad3 8d35 a6d6 8d35
000000f0: 9cd3 8d35 83d3 8d35 28cf 8d35 69b5 8d35
00000100: ca27 8e35 89ec 8f35 3fcf 8e35 064c 8e35
00000110: 055c 9135 5aef 9635 b06c 9a35 ec18 9a35
00000120: 76dc 9235 473b 9235 d7be 9035 9c78 9235
00000130: 57c3 8e35 b716 8e35 e5fc 8d35 38e5 8d35
00000140: f7d3 8d35 99d3 8d35 a3d3 8d35 a3d3 8d35
00000150: a3d3 8d35 a3d3 8d35 a7d3 8d35 79ee 8d35
00000160: 97dc 8d35 d051 8e35 132f 8e35 4b65 8d35
00000170: 4fbb 8c35 06f6 9235 97d9 9e35 1141 c635
00000180: 13e3 da35 bd61 fc35 99c8 0536 34d6 0b36
00000190: 9daa fd35 1f8c cf35 9d9b be35 8b73 b635
000001a0: d6a5 b535 c3b3 b635 2157 a835 ace2 9a35
000001b0: 5756 9035 bec8 9235 d7c7 8e35 a3d3 8d35
000001c0: a3d3 8d35 afd3 8d35 a4d3 8d35 afc4 8d35
000001d0: 3c07 8e35 7c2f 8f35 d97d 8f35 8bcb 9a35
000001e0: cd87 c235 b38b 0636 07ea 3136 3649 6e36
000001f0: 6f4a 9436 1dd8 ba36 c160 e236 cd65 e536
00000200: b9b6 cc36 6d17 c336 1e92 8b36 5290 7036
00000210: bad7 5236 0a55 1e36 0554 fb35 de69 d135
00000220: b154 b435 8ab7 9335 db08 8e35 a3d3 8d35
00000230: a3d3 8d35 a3d3 8d35 89d3 8d35 b095 8d35
00000240: 6b77 8f35 f713 9235 d3e0 9c35 8799 da35
00000250: 05d3 3336 cc06 8e36 2208 ef36 4e6e 1837
00000260: 39eb 3237 2f0f 6437 b8f8 8837 525c 9437
00000270: 551f 9737 61ea 8b37 b628 4e37 a345 0c37
00000280: 584a cb36 f517 9136 b930 3836 6cec 0436
00000290: b917 ce35 c864 9735 c480 8e35 bfd5 8d35
000002a0: a3d3 8d35 2fd4 8d35 0691 8e35 0756 8f35
000002b0: 423a 9235 e985 9a35 bda6 d435 9f16 3436
000002c0: 5d42 a836 a4ec 0d37 a419 5537 ae3f 8337
000002d0: 1223 a837 2e6f bc37 95e9 cb37 c348 cf37
000002e0: a43d cd37 deb4 c337 331d a037 c768 6d37
000002f0: 18b9 1437 a319 c036 c077 6b36 684b 0836
00000300: 2afd b035 7978 9335 95bf 8e35 52d8 8d35
00000310: a8d3 8d35 3def 8d35 8238 8f35 8c47 9035
00000320: 0f71 9d35 a945 af35 f543 0e36 1e81 8c36
00000330: ecac f236 70cd 3d37 6ed5 8f37 8009 b137
00000340: c6e4 bb37 7ade c737 88ff cc37 3db0 ce37
00000350: 9d79 cf37 d19d be37 2d60 aa37 1f61 8737
00000360: 3d11 4437 c96b fd36 d914 9436 c89c 1136
00000370: 0143 bb35 6e5e 9435 6bd7 8d35 52cc 8d35
00000380: 9ed3 8d35 7eee 8d35 bd0a 8e35 b011 9535
00000390: 6ecb a435 c1db c835 8553 4436 e870 b836
000003a0: 8c74 1537 80df 5d37 cea1 9137 9599 9e37
000003b0: c12b ad37 e206 a937 1ffd 9d37 4614 a137
000003c0: 706f a837 eddd ab37 6a09 a137 a0f1 8237
000003d0: eeb6 4437 4f3c 0837 5be8 a136 4dcd 2136
000003e0: 15b3 bb35 4322 9335 a545 8d35 04d3 8d35
000003f0: 0fd3 8d35 25ea 8d35 299d 8d35 7199 9835

exp_avg f4 [64]
0.00027622993 0.0006792357 0.00053025613 -0.00032838032 -0.00023717538 0.00042911252 0.00018244077 0.00018758858
0.0005792214 0.0004613851 -0.0001485016 0.0005835469 0.00024380228 4.610547e-05 -0.00045081906 -0.0008306536
-0.00023528074 0.00067801704 -0.00024821248 -0.0002895232 2.8835504e-05 -6.439271e-05 0.00051862927 -0.00041532214
0.0002606672 -0.000100777834 0.00021651328 -0.00033867557 -9.823777e-05 -1.3264025e-05 0.0005265625 0.00027617824
-0.00015706326 -0.00021662157 -0.0007125432 -0.00014335867 -0.00016632928 0.00021132958 1.3640143e-05 -0.00010566306
0.0006651255 -0.00020260455 1.2192655e-05 0.00026949443 0.00044108907 -9.988239e-05 -0.00010878312 0.0004707297
-3.2713608e-05 0.0005719436 -0.00030830462 -0.00038560605 0.00088410877 0.00012798216 -0.00023229845 0.0010508129
2.7301863e-05 0.0001932518 -0.0005663845 0.0001330889 3.9721086e-05 4.6183737e-05 -0.0005207511 0.0004749135
00000000: f4d2 9039 bc0e 323a e300 0b3a 762a acb9
00000010: 48b2 78b9 82fa e039 924d 3f39 6db3 4439
00000020: e4d6 173a 0fe6 f139 18b7 1bb9 2bf9 183a
00000030: 2da5 7f39 5f61 4138 e95b ecb9 38c0 59ba
00000040: b1b5 76b9 f4bc 313a 8422 82b9 25cb 97b9
00000050: c6e3 f137 930a 87b8 9ff4 073a 98bf d9b9
00000060: 29aa 8839 b058 d3b8 d707 6339 4490 b1b9
00000070: 0005 ceb8 8e88 5eb7 0309 0a3a 04cc 9039
00000080: 59b1 24b9 e924 63b9 f7c9 3aba 8d52 16b9
00000090: ad68 2eb9 5a98 5d39 f8d7 6437 6c97 ddb8
000000a0: d15b 2e3a 3f72 54b9 0e8f 4c37 ee4a 8d39
000000b0: f941 e739 f377 d1b8 7e22 e4b8 45cc f639
000000c0: f835 09b8 7cee 153a f2a3 a1b9 2b2b cab9
000000d0: 89c3 673a f332 0639 2495 73b9 6ebb 893a
000000e0: 4e06 e537 a3a3 4a39 6c79 14ba c88d 0b39
000000f0: 319a 2638 69b5 4138 0483 08ba d0fd f839

exp_avg_sq f4 [64]
5.871924e-06 2.8527713e-06 4.736401e-06 6.7919655e-06 3.9266433e-06 4.3190657e-06 3.5961682e-06 6.0688594e-06
3.6579213e-06 5.2400505e-06 4.924158e-06 3.2656603e-06 3.6841914e-06 4.52593e-06 5.019172e-06 3.902925e-06
4.9287164e-06 3.7204043e-06 5.034119e-06 3.758754e-06 4.4609883e-06 4.063427e-06 3.7839511e-06 4.9201217e-06
1.24047e-06 3.0229041e-06 3.6670963e-06 3.7779178e-06 5.7050784e-06 2.6123548e-06 4.0743257e-06 3.5750372e-06
3.952991e-06 3.162692e-06 6.146771e-06 8.325951e-06 2.7174706e-06 5.7422544e-06 5.4358497e-06 3.6083832e-06
1.998908e-06 5.556287e-06 3.656365e-06 3.3839694e-06 4.074883e-06 4.693209e-06 5.174328e-06 4.865351e-06
5.746626e-06 2.887684e-06 5.1715588e-06 7.467067e-06 5.3421873e-06 3.968094e-06 5.1241395e-06 5.6447916e-06
2.8033135e-06 3.7376635e-06 4.9660657e-06 2.6400476e-06 6.4017336e-06 3.4199295e-06 5.025018e-06 5.017028e-06
00000000: 7107 c536 3d72 3f36 60ed 9e36 8ae6 e336
00000010: 9cc1 8336 7eec 9036 b355 7136 1ba3 cb36
00000020: 9c7a 7536 b1d3 af36 323a a536 9e27 5b36
00000030: ed3d 7736 71dd 9736 5c6a a836 dff5 8236
00000040: 5a61 a536 0fac 7936 c1ea a836 e73e 7c36
00000050: 99af 9536 9258 8836 c9ef 7d36 8617 a536
00000060: 3a7e a635 19dd 4a36 3c18 7636 2288 7d36
00000070: 406e bf36 ea4f 2f36 31b6 8836 acea 6f36
00000080: efa3 8436 a33e 5436 5c40 ce36 b0af 0b37
00000090: ca5d 3636 97ad c036 9865 b636 8d27 7236
000000a0: fa24 0636 2470 ba36 df5f 7536 2718 6336
000000b0: faba 8836 5c7a 9d36 249f ad36 0c41 a336
000000c0: 24d3 c036 09ca 4136 5a87 ad36 9e8d fa36
000000d0: 0a41 b336 ab25 8536 06f0 ab36 6468 bd36
000000e0: 8f20 3c36 92d4 7a36 2ea2 a636 ac2b 3136
000000f0: 79ce d636 f181 6536 939c a836 f157 a836

exp_avg f4 [64, 64]
-0.00059118046 -0.00023034886 -0.0009798991 -3.9856925e-05 -0.00037004956 -0.0010293882 -0.0002572737 -0.00031020472
-0.0016265456 -0.00026576882 1.6464106e-05 -0.0007268899 -0.0005062855 0.00013465944 -0.00034057072 -0.00030299005
-0.0010428935 -0.00054471724 -0.0005452796 -0.0006016157 0.00023127551 0.00049710466 -0.0007004589 -5.64105e-05
-0.00022948731 -0.0011270378 -0.0007373356 -0.00044351877 -6.498901e-05 -0.0005994832 -0.00087758806 -0.00074365054
-0.00031605267 -0.0007548161 -0.00028267084 9.455868e-05 -0.001082715 -0.0008390947 0.00022197454 -0.0005289499
-0.00016593494 0.00038746634 -0.00076324044 -0.0015428772 -0.0001633886 -0.00037272536 -0.000112045025 -0.0016064699
-0.00069232757 -0.00026258477 -0.0002494394 7.97339e-05 -0.0003395164 -0.00078845414 -7.3667296e-05 -0.000761047
-0.0008663642 -0.00038520235 -0.00032161616 -0.0007799315 0.00026756123 -0.00012593782 -0.0006729844 -0.00029897923
-0.00040133923 0.00053272076 -0.00025533748 0.000774899 0.00022025709 -0.0007746969 0.0014164115 0.00020618027
-0.0013403709 0.0002354322 0.00015414419 -0.00035405954 -0.0013768026 0.00024037315 -0.00045726457 6.817998e-05
-0.0007196852 -5.5157125e-05 -0.0005457507 -4.4589957e-05 -5.366651e-05 0.0007110317 -0.00052179623 0.00020943876
0.0006663854 -0.00011711683 0.0004018219 -0.00056472427 0.0003760297 -0.00012711213 0.0008174447 -0.0006021291
0.0003027508 -0.0002675856 -9.0605e-05 0.00032317854 0.0007082739 0.0008183284 0.00075326575 -2.053959e-05
0.0004731311 -0.000106489235 -0.000645066 -0.00081868924 0.0021396892 0.0013785826 -2.6086309e-05 0.00028745038
-1.8958326e-06 0.00027521592 0.00035521368 0.0007350711 -0.0005020635 -0.00027127145 -0.00082680455 0.0004357796
-1.8931594e-05 4.247654e-05 -0.00058554596 6.970125e-05 0.00021589243 0.0017250794 -0.00028648978 -0.000586301
0.00076287915 0.00014443704 0.00018783165 8.5612635e-05 -0.00094983383 -0.00022307794 -0.00082549703 0.00016770363
-0.00022864356 0.00029657013 -8.2505176e-05 0.00035182564 -0.00014878518 -0.00020336789 8.8440436e-05 -0.00064861256
-0.000176049 -0.00036200703 -0.00051234674 7.446815e-05 -0.00051090197 -0.0005369373 -0.0005486444 7.638724e-05
0.00040838058 0.00037737883 -0.0003220761 -0.00051381584 0.00019479445 0.0001533414 0.0003895186 0.00019026767
0.0005411213 -0.0005976961 -0.0007830861 -0.0004411847 -0.00027559866 0.0004609681 -0.00023941035 -0.00067794113
-0.00017723303 -0.0009898602 0.00038356663 8.544883e-06 0.0002247966 0.0005140998 -0.00026293457 0.0002636593
0.0007224353 0.00021882573 0.00013724228 0.0003610941 0.00041322046 0.00022357146 -2.087465e-05 -0.0008297569
-0.0008377326 -0.00076290773 -0.00021604907 0.000103918384 -0.0008439244 -0.00096732273 0.0006957524 0.0006521888
1.6736714e-05 -0.001095334 -0.00048793558 0.00088376284 -0.0017999256 -0.00046379122 -0.0011041012 -0.0005930514
-0.00044802556 -0.0005179877 0.00049694144 -0.0010760558 -6.579707e-05 -0.0011132103 0.00012825013 -0.0003137087
0.00038891286 -0.0015993312 0.0004913328 -0.0007958838 -0.0009598931 -0.00067311106 -0.0007459063 -0.00019865218
0.00026509125 0.0005246411 -0.0011984528 -0.000261049 -0.00038608394 -8.316701e-05 -0.00048100826 -0.0010101038
0.00036304622 -0.0008957136 -0.0010707984 -0.0011137438 -0.00066705636 -0.0009827814 -0.0012727969 -0.0012500191
0.0002295392 -0.0014179369 -0.0010687745 0.0002430287 -0.0003397391 -0.0013501938 6.434063e-05 5.6959885e-05
-0.0016770468 -0.0010109661 -0.0009921787 -0.00050482014 -0.0003848456 0.0005018596 0.00012227279 -0.0006099293
-0.00030410723 -0.0013620727 0.0010690506 -0.0013230373 -0.00033451823 -0.0014146377 -0.001519348 -0.0014069926
00000000: 73f9 1aba cd89 71b9 f56f 80ba 0c2c 27b8
00000010: 3603 c2b9 89ec 86ba b1e2 86b9 f9a2 a2b9
00000020: d031 d5ba e356 8bb9 661c 8a37 c18c 3eba
00000030: 3fb8 04ba 5e33 0d39 a18e b2b9 a3da 9eb9
00000040: b3b1 88ba 5bcb 0eba 18f1 0eba bfb5 1dba
00000050: 8c82 7239 2150 023a 009f 37ba 509a 6cb8
00000060: 88a2 70b9 1db9 93ba c149 41ba 1588 e8b9
00000070: b64a 88b8 a326 1dba f00d 66ba 8bf1 42ba
00000080: dfb3 a5b9 dade 45ba 7033 94b9 ce4d c638
00000090: e3e9 8dba b1f6 5bba d6c1 6839 3aa9 0aba
000000a0: d2fe 2db9 da24 cb39 3314 48ba 5e3a caba
000000b0: 4b53 2bb9 5a6a c3b9 b7f9 eab8 2f90 d2ba
000000c0: 517d 35ba 88ab 89b9 31c7 82b9 d036 a738
000000d0: 1f01 b2b9 43b0 4eba d47d 9ab8 0081 47ba
000000e0: b81c 63ba fcf4 c9b9 979e a8b9 5174 4cba
000000f0: 7647 8c39 2d0e 04b9 386b 30ba 50c0 9cb9
00000100: d76a d2b9 49a6 0b3a d1de 85b9 9722 4b3a
00000110: d0f4 6639 0715 4bba e2a6 b93a 1832 5839
00000120: 62af afba 5ade 7639 c4a1 2139 11a1 b9b9
00000130: d475 b4ba ad0c 7c39 03bd efb9 d9fb 8e38
00000140: 42a9 3cba 8358 67b8 b610 0fba 1a06 3bb8
00000150: fa17 61b8 8864 3a3a 27c9 08ba ca9c 5b39
00000160: 5eb0 2e3a 9f9c f5b8 9fab d239 010a 14ba
00000170: da25 c539 6749 05b9 c949 563a 33d8 1dba
00000180: 86ba 9e39 bb4a 8cb9 3003 beb8 4a70 a939
00000190: 75ab 393a 1785 563a cf76 453a 6f4c acb7
000001a0: 950e f839 f952 dfb8 a519 29ba 4e9d 56ba
000001b0: 073a 0c3b 8eb1 b43a ecd3 dab7 f0b4 9639
000001c0: 5074 feb5 db4a 9039 f93b ba39 c9b1 403a
000001d0: e99c 03ba 7039 8eb9 eabd 58ba 5979 e439
000001e0: 4acf 9eb7 d628 3238 537f 19ba 932c 9238
000001f0: 2f61 6239 0f1c e23a 0234 96b9 feb1 19ba
00000200: f4fb 473a 0674 1739 adf4 4439 ef8a b338
00000210: 45fe 78ba 07ea 69b9 2b66 58ba 9ad9 2f39
00000220: 0ac0 6fb9 f87c 9b39 a106 adb8 3d75 b839
00000230: 3803 1cb9 273f 55b9 1979 b938 a707 2aba
00000240: cb99 38b9 c3cb bdb9 024f 06ba c92b 9c38
00000250: 0dee 05ba 41c1 0cba e7d2 0fba 1632 a038
00000260: ea1b d639 eeda c539 53dc a8b9 99b1 06ba
00000270: bd41 4c39 45ca 2039 4d38 cc39 9782 4739
00000280: 09da 0d3a b5ae 1cba 0548 4dba cf4e e7b9
00000290: 3a7e 90b9 17ae f139 3a0a 7bb9 dcb7 31ba
000002a0: a1d7 39b9 32be 81ba 7119 c939 fe5b 0f37
000002b0: 61b7 6b39 a7c4 063a 7bda 89b9 c13b 8a39
000002c0: d061 3d3a 9674 6539 b2e8 0f39 3b51 bd39
000002d0: 83a5 d839 826e 6a39 f81b afb7 0b84 59ba
000002e0: 489b 5bba dffd 47ba 3b8b 62b9 c2ee d938
000002f0: cf3a 5dba ee93 7dba 2763 363a a6f7 2a3a
00000300: d265 8c37 4f91 8fba 9bd1 ffb9 52ac 673a
00000310: 7beb ebba 0129 f3b9 7db7 90ba 0177 1bba
00000320: f9e4 eab9 91c9 07ba 2d45 023a 710a 8dba
00000330: 88fc 89b8 24e9 91ba e27a 0639 4579 a4b9
00000340: 00e7 cb39 a6a0 d1ba c9cc 003a dca2 50ba
00000350: 56a1 7bba b873 30ba ed88 43ba 4a4d 50b9
00000360: f2fb 8a39 1188 093a 6715 9dba 67dd 88b9
00000370: 4f6b cab9 f369 aeb8 d62f fcb9 7665 84ba
00000380: 3d57 be39 52ce 6aba 085a 8cba 0afb 91ba
00000390: 65dd 2eba acd0 80ba fad3 a6ba aed7 a3ba
000003a0: 76b0 7039 11da b9ba 1f16 8cba 85d5 7e39
000003b0: 031f b2b9 fcf8 b0ba 9dee 8638 36e8 6e38
000003c0: 5ad0 dbba 6582 84ba fe0b 82ba e855 04ba
000003d0: 1ac5 c9b9 3a8f 033a 5a36 0039 aae3 1fba
000003e0: 9570 9fb9 9387 b2ba 631f 8c3a c469 adba
000003f0: 4762 afb9 5d6b b9ba dc24 c7ba d66a b8ba
